models/cnn.model (torch, 974470 bytes, 7 tensors)

embedding.weight f4 [128, 32]
00000000: 6554 1bbf 12ca 59be 8231 3f3e 98ec 613e
00000010: 71d6 b5bd e997 903e 65ce e9be 6f54 72bf
00000020: e47c d5bd 3eb2 b13e 1680 75be d83c 9c3e
00000030: 40f1 84bd 1418 333e 251b d7bd f951 fa3d
00000040: d7db f13d f282 cebd a07b 61bd 2d60 d63e
00000050: cc49 1f3d 03dc 383e 8180 a8be 9126 6dba
00000060: c1bd b93d 4555 bb3d f021 30be 6746 95be
00000070: 94dd be3e e7de a9be 7a7f 53bf e743 79bf
00000080: 971d 6cbf e832 b7bf 1834 1a3f 2ee0 eebe
00000090: 549c 4d3f 0bea 90bf 7b29 e63e 18a7 ef3e
000000a0: 9771 a7be 4234 463f 3fea 9abf eb7f 2f3f
000000b0: de32 2d3e 838d fd3e 1ec6 e23f fcb7 263f
000000c0: 6cea 69bf c683 ec3f b56a 1ec0 4ea1 b9be
000000d0: d3bc e93e c48f ab3e cdca 6bbd b075 2bbf
000000e0: 0c38 16bf e4f8 1f3f 6de2 14be 5ce0 9cbe
000000f0: f1a4 973f cb67 9a3f 5c91 7b3f 7a7f aebf
00000100: 9563 943f 7263 bb3f 4a70 b2bf 7da2 883e
00000110: 58ac 61bb fa40 d03d ec79 15be d721 e7bd
00000120: d5e0 4e3f a55f 8e3f e8e6 113f 96b4 113f
00000130: e0f8 3bbf 7a3a 21be 0db0 fb3e f816 8f3f
00000140: f635 493e cda4 923e 4db3 27bf d284 b73f
00000150: 3221 c83e 602d 6cbf afa5 4f3d 25c6 8dbf
00000160: 9f1f 85bf 18dd e2bf 5d47 873f 957a 8a3f
00000170: 1535 163e 9198 a5bf 64ba 61bc 9d9f 05bf
00000180: 2b81 5cbf c94c babf 2607 80bf d75d d13f
00000190: 37b0 783c 085e 0d3d f2e0 b9bf c372 87bf
000001a0: 0d5c a83f 3910 c5bd 7ca2 8ebe 607d ebbf
000001b0: b590 1cbf 9585 cc3e 3f0f cabf b710 85bf
000001c0: cabf 113f ae73 36bf 5ea2 a53f 4178 97be
000001d0: 5185 59be 6e58 0cbf 4b86 37bf 8e7b 30be
000001e0: 3a5e 1dbf c2a8 bebf d8ae 233f a013 5d3f
000001f0: b379 e5bd b054 113f 3cb4 82bf f647 d53f
00000200: cb02 8abf 5dd5 f03d 21c2 943f 9ade e6bf
00000210: e4c4 073e 2a21 f8be 48a3 ccbf 6164 5f3e
00000220: b240 6e3f be00 863f 1c37 03c0 267e d13f
00000230: f85c 5a3f f56e ae3e 3baa 80bf 220c a33f
00000240: 6d68 1a3e f0cd 30be a255 133f 45e3 3dbf
00000250: 56b3 cd3e 79f0 42bf c36a 873f ac68 5abe
00000260: 704c 2abd 0da5 413f 812a a03b bea6 3b3e
00000270: f49d 863f c259 d83f 6908 1640 55f4 1f3f
00000280: 5ed1 adbf b69b b73f 779a 8f3d 6003 9abe
00000290: bf3a 6dbf eb7c 09bf 5613 2f3f f254 a6bf
000002a0: a45a a73d 84aa e2bd a9a0 0ebf ba2d e53f
000002b0: 0e84 89be 02a0 78bf d9c2 303f c625 57bf
000002c0: 3ffc 753f 540d 1dbf 8897 3fbe 5588 edbe
000002d0: 729c 843f 22b4 0e3f 7c20 4dbf daff 763e
000002e0: 972f d6bf 4163 053f 5cbc 9ebe fe1e 0f3f
000002f0: 2066 6ebf e8ca b93d 9e4c ecbf 7e8a c1bf
00000300: a0d4 ed3e f984 31bf d95a a0bf 7259 d3bf
00000310: 513b 213f 0b85 483f b4f1 f1be 8734 223f
00000320: 182b e83e 27ef fa3e c57f 93bf 8e48 a0bf
00000330: 829b 80bf 6d47 5abf 8778 40be e2f1 d1bf
00000340: 521a f6be 7a5f 91bf 821c 823f 4ae8 d93f
00000350: 2763 efbe eb1e 4fbf d630 2ebf 6614 5c3f
00000360: 2485 0abd b85f 3dbf c297 843f 22a2 4fbf
00000370: cf70 a83f 81a1 0dbf fb14 a5be 4200 9d3e
00000380: 3961 29bf f9e8 893e c06d 0640 6c7a 403f
00000390: 1b33 9bbf ad3c 553f 410a 7c3e 4895 923f
000003a0: 2a2a e9bf 62dd 36bf 8b83 a93f d755 49bf
000003b0: 15df f6bf 30c9 8abf e549 303e b3b4 3c3f
000003c0: adef bd3f 2838 06bc ddab 1bbf 2f14 473f
000003d0: 9afa aebe 978b 8f3e c6de 923e bd2d fdbe
000003e0: 0e41 313f 301d 1ec0 93d0 2a3f b703 d93f
000003f0: e64f f73e c3d3 153f 3425 243f 30f0 78bf
-0.6067565 -0.2126849 0.1867123 0.2206291 -0.08878792 0.28240898 -0.4566528 -0.94660085
-0.104242116 0.347063 -0.23974642 0.3051517 -0.06491327 0.17489654 -0.10503224 0.12222666
0.11809509 -0.100835696 -0.05504954 0.4187025 0.038888738 0.18052678 -0.3291054 -0.00090465794
0.09069396 0.09147123 -0.17200446 -0.29155275 0.37278426 -0.33177873 -0.8261639 -0.97369236
-0.9223265 -1.431241 0.6023574 -0.4665541 0.8031666 -1.1321424 0.44953522 0.4680717
-0.3270385 0.7742349 -1.2102736 0.6855456 0.16913936 0.49522027 1.771671 0.6512449
-0.91373324 1.8477714 -2.4752629 -0.36255878 0.45651874 0.33508122 -0.057566453 -0.6697645
-0.5867927 0.6248915 -0.145395 -0.30639923 1.1847211 1.2062925 0.98268676 -1.3632653
1.159289 1.4639723 -1.3940518 0.2668647 -0.0034435 0.10168643 -0.14597291 -0.11285751
0.80811816 1.1122938 0.5699296 0.5691618 -0.7342663 -0.15744963 0.49157754 1.1178885
0.1964949 0.28641358 -0.65507966 1.4337409 0.39087826 -0.92256737 0.050695118 -1.1076094
-1.0400275 -1.7723722 1.0568653 1.0818659 0.14668687 -1.2937185 -0.013777349 -0.52196676
-0.86134595 -1.4554683 -1.0002182 1.6356763 0.015178732 0.034513503 -1.4521773 -1.0581897
1.3153092 -0.09622235 -0.2785834 -1.8397636 -0.61158305 0.39945665 -1.5785903 -1.0395726
0.5693327 -0.71270263 1.2940176 -0.29583934 -0.21242262 -0.54822433 -0.7168929 -0.17234632
-0.61471903 -1.4895251 0.63938665 0.8635807 -0.11204853 0.5676985 -1.0211253 1.6662586
-1.0782102 0.11759446 1.1621743 -1.8036683 0.13258702 -0.48462802 -1.598733 0.21815635
0.9306747 1.0468976 -2.0502386 1.6366622 0.8529811 0.34069028 -1.005195 1.2738078
0.15078898 -0.17266059 0.5755254 -0.7417491 0.40175885 -0.7614818 1.0579456 -0.21328992
-0.041576803 0.7564247 0.0048878794 0.18325326 1.0516953 1.6902392 2.3442633 0.62482196
-1.3579519 1.4344394 0.07011884 -0.300807 -0.92667764 -0.53706235 0.6838888 -1.2994673
0.08171585 -0.110676795 -0.557139 1.790458 -0.26858562 -0.9711915 0.69047314 -0.8404201
0.9608802 -0.6134846 -0.18710148 -0.46393076 1.0360243 0.5574361 -0.8012769 0.24121037
-1.6733273 0.52104574 -0.31003082 0.55906665 -0.9312458 0.090719044 -1.8460882 -1.512039
0.46451283 -0.69343525 -1.2527725 -1.6511672 0.62981135 0.7832801 -0.47254717 0.633614
0.45345378 0.49010584 -1.1523367 -1.2522142 -1.0047457 -0.8526524 -0.18795978 -1.6401942
-0.48066956 -1.1357262 1.016495 1.7024014 -0.46755335 -0.8090655 -0.6804327 0.85968626
-0.03381838 -0.7397418 1.0358813 -0.8110677 1.3159426 -0.5532456 -0.3224257 0.3066426
-0.66163975 0.26935557 2.1004486 0.751868 -1.2124971 0.8329571 0.24613287 1.1451807
-1.8215992 -0.71431553 1.3243269 -0.78646606 -1.9286829 -1.0842648 0.17215689 0.73713225
1.4838768 -0.0081921 -0.6080912 0.7776517 -0.3417557 0.28036186 0.28685588 -0.49448958
0.6923989 -2.4705315 0.6672451 1.6954259 0.48303145 0.5852625 0.6411927 -0.972415

conv_block.0.weight f4 [32, 32, 3]
00000000: 7aee b53e 2dcf b53c 04c6 623d 9f34 f2bd
00000010: f19e fe3d 6653 0abe e265 c03d 42b1 f1bd
00000020: f9ac 25be 6e98 c0bd 9b85 4abe e83b 123d
00000030: b8b4 4c3e d88d 303d 1f46 4b3e 3ed8 1bbe
00000040: 5c9c 63be 40f5 1fbe 2e47 e23d f3f4 4a3e
00000050: d671 d6bc 61f9 77bd 3db0 1f3e aede 153d
00000060: 5ee4 be3e 68db 6fbe e680 60be e36b cabd
00000070: 4145 b23d 2cc1 e93c a2fe c3bc f892 fdbc
00000080: 68d0 99bd d54f 2cbe ec93 9fbe b7d4 37bd
00000090: f2bc 443e bb4a b33e 6d90 21bd e625 383e
000000a0: 94cb 5dbe 9b16 033d 55fa 993d 4598 99bd
000000b0: dc44 81be 416a e8be b0f5 643e 2444 713d
000000c0: 7284 a43e e5fc f33d f6c0 1ebd ee78 933e
000000d0: 02ab bf3c 0d89 46bd 07c8 15be 9d3b 61be
000000e0: 7b12 8b3c 5d20 bc3e fbca 1d3e 2ad1 3fbd
000000f0: c5bd a3bd 5d41 c6bd fbec 92bd ae7c 583d
00000100: 735e 52be abf9 11be 27e9 293e 885b 363e
00000110: 9ab7 d43d 38fc cd3d 20ca 493e b6f5 403e
00000120: 0f56 653e c425 52be 0c20 cd3c 342d c93c
00000130: 3a94 e23d 5e11 2d3c 5813 60be d8a0 2cbf
00000140: 6cbb 8cbe be81 83be 5e87 0dbf a0b6 debe
00000150: 91cc 9e3e 7398 7a3e 5d34 a1ba 2293 9abd
00000160: f57e 2dbe 40e0 84be 66a0 f0bb 8b9d f93e
00000170: b735 abbc 7236 29bd 3b92 b4bd d83a 9d3f
00000180: 7fb1 2e3d bb93 f6bc ee66 523e 7ea8 bcbd
00000190: 1831 f6bd 9431 d1bd c82c 473e a848 ecbd
000001a0: ec7e 833e f693 34be 2705 603d 343f 133d
000001b0: d4a4 9bbd d441 193d c4df abbd bc44 9a3e
000001c0: 4a26 eabd 37cf 273d 21f2 dbbc b572 063e
000001d0: e985 3b3c 6424 1c3f ea8a 2b3e 790a c8be
000001e0: 2d50 11bf 05a4 89be 13bc a13e d6ae cabe
000001f0: 990a 62bd a650 7e3d 1965 9c3d bfc8 a139
00000200: 89bc d53d 3bee 5f3e b918 323e a3e9 5b3e
00000210: cec2 763d c1d2 8e3d 9415 b4be e373 a7be
00000220: df2a dcbe ccb7 ee3d b9a8 3d3e f502 8c3d
00000230: d1c7 f0bc d672 563e daab 31bd ee58 6a3e
00000240: f18f 80be 4bf2 d1bd c3d1 60be ad4a 30be
00000250: d957 af3e a7af 933d 2b63 4ebc 5afb 233d
00000260: 0ee0 95be 29ba 813d f02b f9bd 9d9d 75bd
00000270: 6414 93bd 59eb 57be 68e4 5d3e 9677 1bbd
00000280: d11b f73e 5b6b 263d b8a6 2a3f 2f1d 653e
00000290: e797 5dbe a813 adbe d76f b7bd 0684 0a3d
000002a0: a11a 07bc d056 20be d585 85bd 63a6 d8bd
000002b0: 256c 0abe a22f 063f 4caf 293e 16e9 d83d
000002c0: 3ba4 dcbd 6c4b 13be f8f5 d2bc 6891 3c3c
000002d0: c648 873d e906 d8bb 6f4f cdbd c91e 253d
000002e0: a8d4 8f3d f5a9 92be 2657 40be 94cf 09bf
000002f0: 81b5 2abf 49a9 8d3e d9dc 5b3f 5147 8c3f
00000300: ab24 04be 21fe 493d badd 0dbe 744e fe3b
00000310: fbf6 843d 7152 73bd f4b4 c2bd c29c 98bd
00000320: cca4 e73d 5622 6ebc f947 fa3d a31e dabb
00000330: e761 84bd 567c 7abc 90f0 2dbd e465 9cbc
00000340: 67f4 0abd 3733 613c 1596 43bd 0183 7f3b
00000350: b8cc 9f3d 2883 8dbd 84ad ebbc 2414 95bd
00000360: 307c d53c 51bf 483d dc92 5a3c bd67 3f3d
00000370: 8dcf 173d 01c9 f1bc 1ee9 c33c 1235 7fbb
00000380: 34ff f4bc 8e30 24be 5320 13bd cf86 c03c
00000390: 2a88 043c b99c 3cbd bfbd aabd cf13 4f3d
000003a0: e589 e83d 1e3a 6dbd e228 5b3c 4233 b33b
000003b0: 9351 b1bc 88ef 603d 4a8b 4fbd 787e e6bd
000003c0: 4893 59bd ac47 0e3d 13dc a2bc 8324 af3c
000003d0: 762e ba3d 2d2a 60bd f0da 3fbd 3760 c3bc
000003e0: 5d78 86bc 0981 91bd 9097 db3b f9ae 5b3d
000003f0: 9b25 9b3d 3487 263d 844f d4bc 2c66 40bd
0.35533506 0.022193516 0.055364624 -0.11826443 0.124326594 -0.13508376 0.093944326 -0.11801387
-0.16179265 -0.09404074 -0.19777529 0.035701662 0.19990814 0.043104023 0.19850968 -0.15219209
-0.22227615 -0.15620899 0.11048733 0.19820003 -0.026177328 -0.06054056 0.15594573 0.036589317
0.37283605 -0.2342354 -0.21924171 -0.09883859 0.087046154 0.028534494 -0.02392513 -0.03095387
-0.075104535 -0.16827329 -0.31167543 -0.044880595 0.19212702 0.35017952 -0.039444376 0.17983207
-0.2165969 0.03200398 0.0751845 -0.07499746 -0.25247848 -0.45393565 0.22359347 0.058902875
0.32132298 0.1191347 -0.03875824 0.288032 0.023396973 -0.048470546 -0.14627086 -0.21995397
0.016976586 0.3674344 0.15409462 -0.046830334 -0.0799518 -0.09680436 -0.07174107 0.05285328
-0.20543842 -0.14255397 0.16592847 0.17808354 0.10386582 0.100578725 0.19706011 0.18843731
0.2239611 -0.20522219 0.025039695 0.024557687 0.11063428 0.010563223 -0.21882379 -0.6743293
-0.27486742 -0.25684923 -0.5528468 -0.43498707 0.31015447 0.24472217 -0.0012298931 -0.075475946
-0.16942962 -0.2595234 -0.0073433397 0.48753008 -0.020899637 -0.04131169 -0.08816954 1.2283583
0.042649742 -0.03009974 0.20547077 -0.09211825 -0.12021083 -0.102145344 0.19450676 -0.115372956
0.2568277 -0.17634568 0.054692414 0.035948947 -0.07599798 0.037416294 -0.08392289 0.30130565
-0.11433084 0.0409691 -0.026848854 0.13129695 0.011445501 0.6099303 0.1675221 -0.3907049
-0.56762964 -0.2688295 0.31588802 -0.39586514 -0.055185888 0.06208863 0.0763647 0.0003085788
0.10436351 0.21868221 0.17392243 0.21475844 0.060244374 0.06973792 -0.35172713 -0.32705602
-0.43001458 0.1165615 0.18521394 0.068365015 -0.029392155 0.20942244 -0.04337678 0.22885486
-0.2510982 -0.10251292 -0.21955018 -0.17215987 0.3424671 0.072112374 -0.012596886 0.04003463
-0.29272503 0.06334335 -0.121665835 -0.059964765 -0.071816236 -0.21085872 0.21669161 -0.037955843
0.4826341 0.040629726 0.6666064 0.22374414 -0.21639977 -0.3380406 -0.08956879 0.033817314
-0.008246095 -0.15658116 -0.06519667 -0.10578611 -0.13517816 0.5241643 0.16570777 0.105913326
-0.10773512 -0.1438424 -0.025752053 0.011509277 0.06605677 -0.0065926206 -0.100249164 0.040312562
0.07022983 -0.28645292 -0.18783244 -0.53832364 -0.66683203 0.27668217 0.8588386 1.0959264
-0.12904613 0.04931462 -0.13854113 0.007760817 0.0649242 -0.059404794 -0.0950717 -0.07451774
0.113107294 -0.0145345535 0.12220759 -0.006656484 -0.06463986 -0.015288433 -0.042465746 -0.019091554
-0.033924486 0.013745121 -0.04775055 0.0038987997 0.07802719 -0.06909782 -0.028769262 -0.07279232
0.026060194 0.04901058 0.013340678 0.046729792 0.03706317 -0.029514791 0.02391487 -0.0038941544
-0.029906847 -0.16034147 -0.0359195 0.023501782 0.008089105 -0.0460479 -0.083369724 0.050556
0.11354426 -0.057916753 0.013376446 0.005468757 -0.021645343 0.054915935 -0.050669946 -0.11254591
-0.053118974 0.03473632 -0.01988033 0.021379715 0.09090893 -0.054727722 -0.046839654 -0.02384959
-0.016414816 -0.0710469 0.0067014173 0.053633664 0.07575532 0.040656283 -0.025916822 -0.04697244

conv_block.0.bias f4 [32]
00000000: bbac 50bf 320d 50bf cf48 06be 91ca 90bf
00000010: f7c3 f3bd b3cd 5fbf 73c3 81bf 3e65 1cbf
00000020: 966f 46bf 50a8 8bbc 4d2a 71bf 582d e4be
00000030: 021c 2abe 4c39 14bf 527d 15bf f683 b7be
00000040: 9483 afbf 8408 abbe 7acd f8be 455d 30bf
00000050: 59d6 c2bf 1600 3dbf c37a 36bf 3788 a0be
00000060: 8730 09bf c4ae b6be 3d1b 1cbf e0f4 d1be
00000070: 0165 fdbe bd44 49bf a722 84bf f1f6 46bf
-0.81513566 -0.81270134 -0.13113712 -1.1311818 -0.11902612 -0.8742325 -1.0137771 -0.61091983
-0.77514017 -0.017048031 -0.9420517 -0.44565845 -0.16612247 -0.5789993 -0.5839435 -0.35842866
-1.371203 -0.33404934 -0.48594266 -0.6889232 -1.5221664 -0.73828256 -0.7128107 -0.31353924
-0.5358967 -0.3568021 -0.6097906 -0.41007137 -0.49491122 -0.7862051 -1.0323075 -0.7772055

conv_block.2.weight f4 [64, 32, 3]
00000000: 301d 14bd fee6 0cbc 96e0 99bd 57a7 d33d
00000010: 4cee 35be b201 3cbe b3bc 483d bf3a bdbc
00000020: d565 58be e9b4 443e ef10 4ebd 51d0 efbe
00000030: 5f03 373d 5d9e 8fbf 99b0 76be 1155 18bd
00000040: 82d6 cb3b 605d 883d 98a6 b53d 2041 cbbe
00000050: a66f 11bd b21a 68bd 1583 33be b456 45bc
00000060: 41a4 013e 3171 6fbe 6717 b13c 3179 c03c
00000070: 99a4 7e3b 4d72 23be 59e4 2239 acf8 313c
00000080: 467e bb3b efbb 3dbd 473b 663d 4520 1abe
00000090: 475a 0bbe f6fb 16be 246f 3bbd e182 9abb
000000a0: 5be4 d3bd 1b54 ac3d 5c13 873d d3a5 a4be
000000b0: 5e1f 393d ecda b73d 018c 45be 3a1d 4fbe
000000c0: 9c15 8b3e 2e75 253e f7e8 cfbe 052c c4bd
000000d0: 73ca 1bbe 89a8 e6be e758 aabd 5134 1cbe
000000e0: db85 77bd c1a9 223c 8891 24bd fe8b 7cbe
000000f0: 3e1e e33c a017 c9be f28d fdbd e8ef 9cbd
00000100: 99f9 e6bd a02d b6bd f516 913d 6e00 7b3c
00000110: 80b2 30bd f934 87bd bfe1 d7bb b028 debc
00000120: 4834 16bd 03fb a6bc ae0d 393d 4009 103e
00000130: 8f4f 93bc 7fee 123d f007 29be 1fbe 323d
00000140: 5d7a a93d b7d1 f33d 9a62 8dbd a96c 3bbe
00000150: 777c 063c 96cd 043e 7be9 f53b d424 87bd
00000160: 5c1f 373e 7fbd cc3d f3d5 993d dc72 eebe
00000170: f4d7 7bbd bbb3 bc3b 7175 373d f8e6 61be
00000180: 4b26 aabd f560 e1bd f20d a6bd a320 623e
00000190: 25b4 b0be 1cbe d1be 149e 13bc 597b 3ebe
000001a0: ebd4 08bd f416 87be 1b25 4b3e 5de8 a2bd
000001b0: cfbe b4bc 6f51 aabe a87e 2bbd 7d2a 2f3e
000001c0: 2c86 693d 248b 54bf 8178 803e 082d 34bd
000001d0: e922 703b 67c3 9b3d a495 0ebd a07e 983c
000001e0: c439 aabe d857 babe e5d2 37bf afa1 0fbe
000001f0: ff86 83be 0c07 acbe b333 4d3e 465b 59bc
00000200: 2bba aebd 03a1 64be 213f e9be ea31 c83d
00000210: 72b8 6a3e 976e 20bd 35b1 acbb 2a9d eabd
00000220: 1f4b 17bd 1669 4ebe 685e 59bd a213 353c
00000230: 5d33 93be bce3 ab3c 1610 48bd c9e4 75be
00000240: 79b9 18bd 5b31 213d 6c6b ed3d 5638 00bf
00000250: 8e92 b4be e86e 24be 2660 4bbf 7804 47be
00000260: 59df debe 004f 473d a3a3 1ebe a3a5 49be
00000270: ea0e c3bd 8480 42bd ff96 1b3e ee32 fcbe
00000280: f39a 03bf 517c 143d 6957 31be cae4 50be
00000290: 32e7 b7be e1f8 dfbe 8a82 5bbd 49f8 0abf
000002a0: 0191 97bd 3240 993c 5658 4f3d 82f6 cabd
000002b0: 6e0e 16be 488b 88bd 0c97 ffbe 604c e6bd
000002c0: ee80 383d 4927 febd ce5b 45bf a1a1 4c3e
000002d0: dbf4 3cbe 40b2 84be b0d1 2dbe cefb b73d
000002e0: 9ce7 893e ce5a 923e 4303 23bf a397 1b3e
000002f0: 5ed2 83be 473f eebd d600 45be c792 063e
00000300: 2bb6 d83d dec8 59be c533 9b3d 69db 6e3c
00000310: 3c71 363b 7cef b4bb 7aea 69be 5f36 8fbe
00000320: 1e3f cfbe 7e2c d13d a43c 4ebd 8e24 9a3c
00000330: ab18 43be 2b89 18be b69c 023d 5541 97be
00000340: 0b95 9bbe 1dc0 1c3c 0f30 873d 14db 793c
00000350: ad22 76be e13f 993d c761 123e f394 e53c
00000360: 6c3c f5bb abc1 aebe d29b 263e 4409 473e
00000370: 5ac0 7e3d 8bbf 71be fb7d 7f3e 7aa3 be3d
00000380: bf19 8c3c 65da 7cbc bb62 e1bd a17d 54be
00000390: 7aa2 88be c9e3 99be 0cff cdbc f3c8 adbd
000003a0: 73aa 153d af41 473e 42dc 6f3e e492 643d
000003b0: 2768 41bd 4932 553d 9fa2 94be 9c48 33bd
000003c0: 5546 ae3d b4b1 613c 622b 57be b857 07bd
000003d0: dddf 8ebd fa9d 5dbe 6ab3 433e b0ba 593e
000003e0: 68b0 7abe 9fc8 a7be 8b6a da3d 1878 0fbe
000003f0: 9ef9 663d 025e ebbe 124d 64bd 0f7e 48bd
-0.036160648 -0.008599995 -0.075135395 0.10334652 -0.17766684 -0.18360022 0.049008083 -0.023099301
-0.21132596 0.19209637 -0.050309118 -0.4683862 0.04468095 -1.1220204 -0.24090804 -0.0371905
0.0062206397 0.06658435 0.08869666 -0.39698124 -0.035506867 -0.056666084 -0.17530473 -0.012044597
0.12660314 -0.23383023 0.021617604 0.023495289 0.0038855432 -0.15961571 0.0001553459 0.010862511
0.00572184 -0.046321806 0.056208875 -0.15051372 -0.13608657 -0.14744553 -0.04576029 -0.004715309
-0.1034629 0.08414479 0.065954894 -0.32157764 0.04519593 0.08977303 -0.19291689 -0.20225993
0.27164924 0.16157982 -0.40607426 -0.095787086 -0.15213947 -0.45050457 -0.08317738 -0.15254332
-0.06043039 0.009928168 -0.040177852 -0.24662778 0.027724382 -0.39275837 -0.123805895 -0.07662946
-0.11278076 -0.08895421 0.07084457 0.015319927 -0.04313898 -0.066019006 -0.0065881903 -0.02711901
-0.036670953 -0.020383364 0.04517906 0.14066029 -0.017982272 0.03587198 -0.16506934 0.043638345
0.08275292 0.11905234 -0.069035724 -0.1830317 0.008208386 0.1296905 0.0075046397 -0.06598821
0.17883056 0.09997081 0.07511511 -0.46572006 -0.061485246 0.00575873 0.044789735 -0.22060764
-0.08308085 -0.11004821 -0.081081286 0.22082762 -0.3451244 -0.40965354 -0.009009857 -0.18601741
-0.03340618 -0.263847 0.19838373 -0.07954476 -0.02206364 -0.33265254 -0.041868836 0.17106052
0.057012722 -0.8302481 0.25091937 -0.043988258 0.0036641902 0.076056294 -0.034810677 0.018615067
-0.33247197 -0.36395144 -0.71806175 -0.14026521 -0.2568893 -0.33599126 0.20039253 -0.01326639
-0.085316025 -0.22327046 -0.45555976 0.09775145 0.22921923 -0.039167967 -0.005270148 -0.11455758
-0.036936875 -0.20157275 -0.05306855 0.011052044 -0.28750125 0.020982616 -0.048843466 -0.24013056
-0.037286256 0.03935371 0.11592755 -0.5008596 -0.35268062 -0.16057932 -0.79443586 -0.19435298
-0.43529776 0.048659325 -0.1549211 -0.19692092 -0.09524329 -0.047485843 0.15194319 -0.49257606
-0.5140831 0.03625137 -0.173185 -0.20399776 -0.35918576 -0.43744567 -0.05359129 -0.54285103
-0.07400704 0.018707369 0.050621353 -0.09910299 -0.14653942 -0.06667191 -0.49919927 -0.11245036
0.045044832 -0.12409837 -0.7709321 0.19983532 -0.1845278 -0.25917244 -0.1697452 0.08983575
0.26934516 0.28584903 -0.6367685 0.15194564 -0.25746435 -0.11633163 -0.192386 0.13141929
0.10581621 -0.21268031 0.07578234 0.014578679 0.002783849 -0.005521713 -0.22843352 -0.2797117
-0.40477842 0.10213564 -0.0503508 0.018816259 -0.19052379 -0.14896075 0.031887732 -0.29542032
-0.30387148 0.009567288 0.06600963 0.015249986 -0.24036665 0.07482887 0.14295112 0.028025126
-0.0074840095 -0.34132132 0.16270378 0.19437128 0.06219516 -0.23608224 0.24950401 0.093085244
0.01710212 -0.015432929 -0.110051595 -0.20751049 -0.2668646 -0.300566 -0.02514603 -0.08485594
0.036539506 0.1945865 0.23423865 0.05580415 -0.047218468 0.05204991 -0.2903032 -0.043770418
0.085095085 0.013775278 -0.21012643 -0.03304264 -0.06976292 -0.21642295 0.1911141 0.21262622
-0.24481356 -0.3277025 0.10664853 -0.14010656 0.056390397 -0.4597016 -0.055737562 -0.048948344

conv_block.2.bias f4 [64]
00000000: a33f 733d df67 003d 61af bbbd 763b 1bbe
00000010: c22d 59be ec69 873d b814 83be c814 80bd
00000020: 3161 85bc 3b61 6ebd 4ba8 a5be 1448 90be
00000030: ef65 94bc 5a73 90be a03e e4be 2cdf c0bf
00000040: fb18 a8be 41c6 8ebf 5509 4fbf aba1 60bf
00000050: 235e 55bd aad7 55bf bf1e 483c 0627 e2bd
00000060: cbc2 2f3e 9a3d 72be bf5b cbbe 59a4 45be
00000070: 7830 86be a441 4fbe c50a 4bbe d2a8 a6be
00000080: 426c 80bf bdec d1bc f718 dbbd 6cd3 93be
00000090: dc3e f0be 25f1 10bf 7a60 9a3c 4cac 8f3d
000000a0: c308 f3bd 0e51 8bbe 0433 173e bdbe 1dbe
000000b0: 211b eb3d aaaa bbbd aeff 3e39 ab31 7ebe
000000c0: 4006 f6be e006 8cbf 2efe 353e ad19 a3be
000000d0: f3dd 3a3e c43c cabe fcfc 5cbf 02aa 39bd
000000e0: 896e 15bf 8c0b 88be c6e0 3b3d 0270 9ebe
000000f0: ea21 a83c 48c5 54be 5e77 fdbd c0a0 31bc
0.05938686 0.03134906 -0.0916431 -0.15159401 -0.21208861 0.06612 -0.25601745 -0.06253964
-0.016281696 -0.058198195 -0.3235496 -0.2817999 -0.018115012 -0.28213006 -0.4457903 -1.5068107
-0.3283156 -1.1154252 -0.80873615 -0.87746686 -0.05209173 -0.835322 0.012214362 -0.110425994
0.17164151 -0.23656312 -0.39718434 -0.19300975 -0.26208854 -0.20239884 -0.19828327 -0.32550675
-1.0033038 -0.02562558 -0.10698121 -0.2887224 -0.46922958 -0.5661796 0.018844832 0.07015285
-0.118669055 -0.27210277 0.14765555 -0.15404792 0.11479784 -0.09163411 0.0001821506 -0.24823634
-0.48051643 -1.0939598 0.17772743 -0.31855527 0.1824873 -0.39499485 -0.86323524 -0.045328148
-0.5837179 -0.2657131 0.045868658 -0.3094483 0.020523984 -0.20778382 -0.12376283 -0.010841548

decoder.weight f4 [128, 1792]
00000000: 378e 81bf aa9f 20bf dfc0 08bf 6ec5 7bbf
00000010: e67a 863e 1fd2 583e aa9e 92bf a8c3 47bf
00000020: 24b7 75bf cfad 52bf 0331 32bf 5638 91be
00000030: 0940 01bf 7608 6abf 90eb f7be e712 ddbe
00000040: b293 70bf f4a3 89bf 2662 11bf 8f34 46bf
00000050: 06a5 95be 88fa 6dbf e6ba 7abf cbfd 15bf
00000060: 025d c2be be78 2fbf 80b2 7dbf 465f a2be
00000070: 175f abbf a060 7dbf ca4b 91bf a88e b3bf
00000080: aba9 e7bd 8412 f1bf ffbd 87bf 3632 88bf
00000090: 6322 cebf 34cc 98bf 7318 b1bf 5912 5bbf
000000a0: da44 09c0 dc6d ddbf 8621 c3bf 72c3 0bc0
000000b0: cf50 fcbf be81 1cbf f4af a4bf e9d5 33bf
000000c0: 2699 9abf 6be4 77bf 494a ddbf 40c2 ccbf
000000d0: 5d0d 3ebf 2cf8 f6bf 1a96 a7bf 12c0 febf
000000e0: d75c b2bf 835f 8bbf 807a 48bf 53c0 4cbf
000000f0: 881a 5fbf 49ec 633f 9593 83bf 3b9c d1bf
00000100: 48d6 a5bf f3b4 2fbf 6981 dcbf e660 78bf
00000110: e980 89bf d748 5cbf 5935 e3bf ad4c 29bf
00000120: bc76 76bf 16b1 73bf ce8e a2bf eba3 81bf
00000130: 43a9 84bf 6c5e 77bf f5f0 a6bf 2eae acbf
00000140: 35c4 91bf 4e1e 6cbf b515 dbbf 136e 7abf
00000150: 4d11 31bf 4cdb 8ebf 4864 a5bf a15b 643e
00000160: 32af bd3e 7dfe 443e 8f31 b7bf ed63 4bbf
00000170: 54fd 76bf a3fa 90be 5046 1dbf 39d8 3abe
00000180: b457 e2be 4922 44bf 4196 0abf dcaf 0abf
00000190: bfa1 84bf 97d2 08bf ec07 aebe 8367 2cbf
000001a0: 7e83 73bf 42e7 44bf 9ce3 d6be fb3d 20bf
000001b0: 30e5 02bf fa1f 9abf a25b d03d d4e9 88be
000001c0: ca03 f9bf f863 0dc0 1b8e 87bf 7a33 aabf
000001d0: c1be 0fc0 3ed4 09be 5848 24be 043d edbf
000001e0: 021d c7bf 9f18 b4bf 497f f7bf d1c8 01c0
000001f0: aff2 b4bf 016e c4bf 0504 e1bf 8de6 cabf
00000200: 2142 9abf 6ce1 d6bf 95d1 a8bf 330c cfbf
00000210: f6d6 aebf 93e5 dabf 463c d1bf 2e17 eabf
00000220: 075c 23c0 ccfa 31bf 0e9b ccbf d8ca e4bf
00000230: a6ad 09bf c8d8 6ebf 287a abbe c6aa 0fbf
00000240: 7a35 c3bd 4cbd c13e df01 2ebf 5c49 afbf
00000250: 0412 e3be 3708 4fbf 9390 90be 9538 f4be
00000260: 9e08 06bf 4c9b 07bf 1dbf 10bf bdf7 d1be
00000270: 9e61 0ebf 4795 a1bf 4202 bbbe c71a 38bf
00000280: 5657 ecbe 7bcd d5be 2f01 0dbf 5fc6 fcbe
00000290: 21db 9fbe 1311 58be 0fe3 8bbf 106a b4be
000002a0: 77bb 94bf 4dd1 d3bf 482c 6bbf 31ee 11c0
000002b0: 116f af3e af3b 103f baa5 acbf f350 acbf
000002c0: 5263 4cbf 3920 02c0 0bfd 86bf dae9 9cbf
000002d0: c719 48bf b439 04c0 863e dabf d0ec 4dbf
000002e0: 913d e9bf 4001 0cc0 d0e4 d2bf d197 77bf
000002f0: 243c 483e 278b cebf 42a9 fabf a0da c0bf
00000300: eb6d d5be a14c fabf 9c9b e7bf 2b32 a8bf
00000310: ddc0 89bf 429b 0ebf 9288 34bf d539 fbbe
00000320: 9aab 00bf a97c 7abf 9ae2 9bbe c023 2abf
00000330: 8986 88bf 7d96 24bf 02e5 a4bf 6a71 78bf
00000340: 3943 a5bf bd61 9fbf f5fe 5fbf a917 a6bf
00000350: 9eac b4bf 2300 69bf 68d6 8fbf 980e 89bf
00000360: daf0 b8bf ab80 a6bf 39fb 73bf e325 babf
00000370: ee11 7fbf 11c8 8dbf 1115 ebbe 14fe 14bf
00000380: 2338 a4bf 777d 93bf 8686 08bf f24d f9bd
00000390: bae8 83bf e2d1 85bf 81b3 a8bf 2005 d1bf
000003a0: 0579 eabe fb15 66bf 36b3 8cbf 1e25 98bf
000003b0: 2e2d 5cbf 871a 09bf 13e2 aebf 3b11 85bf
000003c0: 804c 3cbf c466 25bf d206 12bf 3ef1 cfbe
000003d0: c159 85bf a056 96bf b376 61bf b54e 2dbf
000003e0: 2903 b4bf 723f b4bf 162a 36bf 2c23 fbbe
000003f0: 7296 15bf 7bd2 67bf cb7f b6bf fe79 2bbf
-1.0121526 -0.6274363 -0.534193 -0.9834813 0.2626564 0.21173905 -1.145467 -0.7803292
-0.95982575 -0.8229646 -0.69606036 -0.28363293 -0.50488335 -0.9141916 -0.48421907 -0.43178484
-0.93975365 -1.075316 -0.5679039 -0.7742395 -0.29227465 -0.92960405 -0.97941434 -0.5859038
-0.37961584 -0.6854361 -0.99100494 -0.31713313 -1.3388394 -0.98975563 -1.1351254 -1.402791
-0.113116585 -1.8833776 -1.0604857 -1.0640323 -1.6104244 -1.1937318 -1.3835586 -0.8557487
-2.1448274 -1.7299151 -1.5244606 -2.183804 -1.9712161 -0.6113547 -1.2866197 -0.70248276
-1.2077987 -0.96832913 -1.7288295 -1.599678 -0.7423914 -1.9294486 -1.3092682 -1.9902365
-1.3934582 -1.0888523 -0.7831192 -0.79980963 -0.8714986 0.8903242 -1.0279413 -1.6375803
-1.2956018 -0.6863548 -1.7226993 -0.97022855 -1.0742465 -0.86048645 -1.7750655 -0.6613262
-0.96274924 -0.95192087 -1.269983 -1.0128149 -1.0364155 -0.9662845 -1.3042284 -1.3490655
-1.1388003 -0.9223374 -1.7116 -0.9782421 -0.69167024 -1.1160674 -1.2921228 0.22300579
0.37047726 0.19237705 -1.4311999 -0.7944935 -0.964803 -0.2831622 -0.61435413 -0.18246545
-0.44207537 -0.76614815 -0.5413552 -0.5417459 -1.0361861 -0.53446335 -0.3399042 -0.67345446
-0.95122516 -0.7691537 -0.41970527 -0.62594575 -0.5113096 -1.2041008 0.101737276 -0.26740897
-1.9454281 -2.2092266 -1.0590242 -1.3296959 -2.2460177 -0.1345987 -0.16043222 -1.8534245
-1.5555727 -1.4070014 -1.9335719 -2.0278819 -1.4136561 -1.534607 -1.7579352 -1.5851609
-1.2051431 -1.6787543 -1.3188959 -1.6175598 -1.3659351 -1.710131 -1.6346519 -1.8288324
-2.552492 -0.6952331 -1.5984819 -1.7874403 -0.5378059 -0.9329953 -0.33491635 -0.56119955
-0.09531684 0.37839735 -0.67971605 -1.3694263 -0.44349682 -0.8087191 -0.282353 -0.4769942
-0.523569 -0.5297134 -0.56541616 -0.41009322 -0.556177 -1.2623681 -0.3652516 -0.7191586
-0.46160382 -0.41758332 -0.5507993 -0.49370095 -0.3122187 -0.21100263 -1.0928668 -0.3523717
-1.161971 -1.6548249 -0.9186444 -2.280163 0.34264424 0.5634107 -1.3488076 -1.3462204
-0.7983905 -2.0332167 -1.0545973 -1.2258866 -0.78164333 -2.066022 -1.7050331 -0.8043947
-1.8221914 -2.1875763 -1.6476078 -0.9671603 0.19554192 -1.6136216 -1.9582903 -1.5066719
-0.41685423 -1.9554635 -1.8094363 -1.314031 -1.0761982 -0.55705655 -0.7052089 -0.4906756
-0.50261843 -0.97846466 -0.3044632 -0.664608 -1.0666057 -0.64292127 -1.2882388 -0.97048056
-1.291114 -1.2451702 -0.8749841 -1.297597 -1.4115179 -0.91015834 -1.1237307 -1.0707579
-1.4448502 -1.3008016 -0.9530521 -1.4542812 -0.99636734 -1.107668 -0.4591451 -0.5820019
-1.2829632 -1.1522664 -0.53330266 -0.1217307 -1.0305398 -1.0454676 -1.317978 -1.6329689
-0.45795456 -0.8987729 -1.0992191 -1.1886327 -0.8600644 -0.535561 -1.3662742 -1.0395883
-0.7355423 -0.6460993 -0.57041657 -0.4061374 -1.0418016 -1.1745186 -0.88071746 -0.6769822
-1.4063464 -1.4081862 -0.7115797 -0.49050272 -0.58432686 -0.9055554 -1.4257749 -0.6698302

decoder.bias f4 [128]
00000000: a183 cbbd 440c 75c1 8395 75c1 5fc8 75c1
00000010: bbab 75c1 e4ec 75c1 198c 75c1 75c0 75c1
00000020: d3df 75c1 710f 75c1 54c3 75c1 74c1 75c1
00000030: f013 76c1 db19 76c1 8a56 75c1 de0d 76c1
00000040: 74c8 75c1 e54e 76c1 fdec 75c1 5638 76c1
00000050: c0f6 75c1 7f9f b73f 0813 153f 81f3 873f
00000060: 32c6 dd3e da96 563f 7385 f23e 6598 fb3e
00000070: eeb7 5e3e 309c 8e3e 4086 cc3e b4be 10be
00000080: 2537 0a3f 30d5 1e3e 8ad6 b43d 374f abbe
00000090: d44b a1bd 0c04 c93d 5c0e e0be d8a1 9bbd
000000a0: ba29 df3d 9d8d 183c cf59 763b 30b0 c6be
000000b0: 16f5 81be 8587 9c3b d345 8b3d 5dbb c0be
000000c0: c0a0 45be e3ea 3ebd 7d1c 4fbe 4745 7fbe
000000d0: a829 5cbe a718 9dbe b901 c53c 0727 97be
000000e0: 0bf3 56bd 5f2b 523c c95c 083e 257b bbbe
000000f0: 47a0 a2bd 1531 2bbc 89f1 42be fcdd bbbe
00000100: 5000 85be f01a 91be 882c 773e bda7 11be
00000110: 3c76 4bbc dc70 dcbd 3a4f 18bd 7fd5 cabe
00000120: 4f7b 6bbe b936 86bd 5bbc a6be e615 f2be
00000130: 2210 53be c090 43bc 8405 d0bd 3675 1bbe
00000140: 8f6e 08be 814d 1a3d 8f0d de3d 550e a9bc
00000150: 01d7 c9bd e4c4 1e3c ec7a 47be f6b1 debe
00000160: c28e 04be e6db eebd e870 41bb 47bd 87be
00000170: 15d8 463d e5a4 053e ee4a 163d c141 1b3d
00000180: aab1 a8bc 0fdc aa3d 09df 94be 4bf1 08bb
00000190: 0ef3 77bc 756e 35be 7634 633e 203a c73e
000001a0: c843 ba3e f116 2b3f 50de f33e 0a35 5d3f
000001b0: 7fa0 323f c7a5 75c1 5719 76c1 3eeb 75c1
000001c0: 1c59 75c1 84cc 75c1 e421 76c1 62e7 75c1
000001d0: f10c 76c1 ca78 75c1 7c9a 76c1 f9c8 75c1
000001e0: cdd7 75c1 0ba4 75c1 ee02 76c1 2488 75c1
000001f0: 73b2 75c1 b845 76c1 dd88 75c1 72a7 75c1
-0.099372156 -15.315495 -15.349002 -15.361419 -15.354426 -15.370335 -15.346704 -15.359487
-15.367145 -15.31627 -15.360188 -15.35973 -15.379868 -15.381312 -15.333628 -15.378386
-15.361439 -15.394261 -15.370358 -15.388754 -15.372742 1.4345549 0.58232164 1.0621186
0.43315274 0.8382393 0.4736744 0.49139705 0.21749851 0.27853537 0.39946175 -0.14135247
0.53990394 0.15511012 0.088299826 -0.33458874 -0.07875791 0.09815225 -0.43760955 -0.075992286
0.108966306 0.009311107 0.0037590151 -0.38806295 -0.25382298 0.0047768974 0.06800427 -0.37642947
-0.19299603 -0.046610724 -0.20225711 -0.24928771 -0.21500266 -0.3068287 0.024048673 -0.29521963
-0.052477878 0.012827723 0.13316645 -0.3661739 -0.07940727 -0.010448714 -0.19037451 -0.36692798
-0.259768 -0.28340864 0.24138081 -0.14224143 -0.012418326 -0.10763714 -0.03718493 -0.3961601
-0.22996257 -0.06553406 -0.3256558 -0.47282332 -0.20611623 -0.011936367 -0.10157302 -0.15181431
-0.13323425 0.03767157 0.1084243 -0.020636717 -0.09855462 0.009690497 -0.19480485 -0.43495148
-0.12945083 -0.11663036 -0.002951676 -0.26511595 0.048545916 0.13051184 0.036692552 0.037904505
-0.02059253 0.08342754 -0.29076412 -0.0020895775 -0.015133632 -0.17717917 0.22187981 0.38911533
0.36379838 0.6683188 0.47630548 0.86409056 0.6977615 -15.352973 -15.3811865 -15.369932
-15.334255 -15.362431 -15.383274 -15.36899 -15.3781595 -15.3419895 -15.412716 -15.361566
-15.365186 -15.35255 -15.375715 -15.345737 -15.356067 -15.392021 -15.345914 -15.35338
