models/decoder.model (torch, 416251 bytes, 7 tensors)

embedding.weight f4 [128, 32]
-0.31797534 0.06989563 0.75322646 -1.0658876 0.19863743 0.27511317 0.00013703357 0.9489568
-0.67889553 0.5424138 0.60405487 -0.52845246 -0.22375028 -0.17824751 -0.3107602 1.2793206
0.41473153 0.067990206 -0.06733592 0.09816495 -0.115760416 -0.7570892 0.1952574 -0.47061017
0.24044923 0.597908 0.027265286 0.18648167 0.18116264 -0.24004678 -0.14731854 0.40725404
0.6718799 2.387452 1.6913103 -0.97257584 -0.03656706 0.16126981 1.2688217 -0.35071284
-0.7235377 -1.3907038 0.021474304 -0.25514713 0.7523299 -0.3449262 -0.16424505 -0.11193726
0.49937043 -1.926257 0.18807968 1.609407 1.0096958 0.8714239 -0.31326324 0.83966804
-0.44358066 0.5811 1.346846 -2.3335998 1.7870084 0.64426726 -1.1544503 -0.082718365
-0.76453155 1.5281875 0.1595856 -0.9147828 0.9934551 0.9300034 -0.38128087 1.1996986
-0.6479054 1.3489672 0.093981035 -0.92499906 -0.8039152 -0.04101542 0.7039394 0.42655554
0.12977147 -0.2643952 -0.36755863 -0.63241667 -0.7684806 0.50331986 0.13523725 0.005216563
-0.39706707 2.174629 1.150276 -1.0414759 0.4730026 0.06592903 1.585419 -0.22999378
0.23234679 1.2640804 -0.78302866 -1.4592485 1.2374374 -1.1776189 0.017743543 0.7088618
0.5644238 1.6918061 -0.08165489 -0.05271535 0.46889406 1.3158019 0.29816273 -1.284716
-0.12379491 -1.2810384 -0.41270575 -1.2147068 -1.2432079 1.2406719 -3.4689102 -1.7082559
-1.3133696 1.4742426 -1.8538278 -0.49568203 0.95697254 -1.889016 1.1888343 -0.99273145
-0.23837973 0.090846166 -0.5627034 0.95821023 -0.58765966 -0.9026356 -1.2607434 0.66828424
1.4691197 -1.5300452 -0.34629428 0.93179613 0.3311015 0.43345702 0.79416525 2.0695395
0.09071026 -0.69028735 0.043090686 -1.1027695 0.79549974 -1.033048 -0.24081954 -0.73522854
-0.85095704 0.47575566 0.21186818 -0.83181 -2.063597 -0.6758961 -1.5416487 1.3775823
1.8032355 0.25679496 2.7481108 -0.5273049 0.6818564 -0.2801962 1.5381384 1.2923793
-0.3475245 0.19181316 0.33505476 0.12169917 -0.28018096 0.43447334 -1.8365425 1.6954627
-0.7977062 -0.2883287 0.63130283 -0.5912915 2.1237502 -1.5683688 0.15470657 -0.38944504
-1.0577664 -0.85170513 -0.085961774 0.21626191 -2.181286 -0.044065338 0.66012824 -1.9782093
-0.015642745 0.24180222 -0.94445896 -0.5165352 -0.38459763 0.87456006 0.37894788 0.023450285
-0.5927423 2.8936758 -2.1427019 1.2863022 -1.2872943 -0.099975705 0.40429094 0.6003894
0.45388088 1.3301779 1.1436087 -0.5230396 0.19686621 1.6330142 -0.19264238 0.42043287
2.087445 0.49633622 0.8541292 -1.4687268 -2.0489485 1.515337 -0.43649942 0.95410186
1.2385294 0.24050155 -1.1397977 1.3527797 -1.131145 -0.41156358 -0.5579876 0.27393413
0.56100756 0.6834661 -0.72108036 0.773817 0.5410484 -0.33115286 -0.3128987 0.7375664
0.20375565 -0.51565474 -0.3227413 0.23277134 -0.5605418 0.5442611 1.8909906 1.3217076
0.63832617 0.44097686 0.5996228 -2.3558512 -0.6331407 0.6979946 0.91962737 -0.19260922
00000000: aacd a2be 7125 8f3d 73d3 403f 016f 88bf
00000010: 9c67 4b3e a2db 8c3e abb0 0f39 d5ee 723f
00000020: 19cc 2dbf a1db 0a3f 57a3 1a3f a948 07bf
00000030: cb1e 65be 8486 36be f61b 9fbe c7c0 a33f
00000040: b157 d43e 733e 8b3d 6ae7 89bd b50a c93d
00000050: cc13 edbd 99d0 41bf 8ef1 473e d1f3 f0be
00000060: 5338 763e 8010 193f 735b df3c 0df5 3e3e
00000070: b382 393e d3ce 75be acda 16be 9a83 d03e
00000080: 5200 2c3f 03cc 1840 db7c d83f bbfa 78bf
00000090: 57c7 15bd ea23 253e c068 a23f a290 b3be
000000a0: c439 39bf 9502 b2bf e1ea af3c a5a2 82be
000000b0: b198 403f 2b9a b0be db2f 28be 5d3f e5bd
000000c0: 7bad ff3e 978f f6bf f697 403e 0c01 ce3f
000000d0: b63d 813f a315 5f3f 0a64 a0be 7cf4 563f
000000e0: 011d e3be f8c2 143f 7365 ac3f b359 15c0
000000f0: b1bc e43f b3ee 243f 07c5 93bf 3f68 a9bd
00000100: 57b8 43bf a69b c33f 686a 233e 352f 6abf
00000110: 1353 7e3f b414 6e3f 3f37 c3be b98f 993f
00000120: 21dd 25bf f5aa ac3f 2179 c03d bdcc 6cbf
00000130: 63cd 4dbf c9ff 27bd 5f35 343f 7d65 da3e
00000140: d0e2 043e cf5e 87be a530 bcbe 0fe6 21bf
00000150: 25bb 44bf 92d9 003f a27b 0a3e b4ef aa3b
00000160: 604c cbbe 1f2d 0b40 3e3c 933f 154f 85bf
00000170: 662d f23e cd05 873d 03ef ca3f 7d83 6bbe
00000180: 51ec 6d3e 63cd a13f 9174 48bf a8c8 babf
00000190: 5964 9e3f 37bc 96bf e85a 913c f877 353f
000001a0: 147e 103f 1a8d d83f ae3a a7bd 0dec 57bd
000001b0: e212 f03e 326c a83f c9a8 983e 9371 a4bf
000001c0: 3088 fdbd 11f9 a3bf 2b4e d3be 837b 9bbf
000001d0: 7021 9fbf 56ce 9e3f a002 5ec0 21a8 dabf
000001e0: 7f1c a8bf fbb3 bc3f 3b4a edbf 09ca fdbe
000001f0: 27fc 743f 47cb f1bf b92b 983f a623 7ebf
00000200: d119 74be 8e0d ba3d 540d 10bf 444d 753f
00000210: dd70 16bf 2013 67bf 0a60 a1bf ad14 2b3f
00000220: 1d0c bc3f 85d8 c3bf 7c4d b1be 318a 6e3f
00000230: 2386 a93e 14ee dd3e 6a4e 4b3f 5673 0440
00000240: 4dc6 b93d acb6 30bf dc7f 303d 8d27 8dbf
00000250: dfa5 4b3f eb3a 84bf 6699 76be f037 3cbf
00000260: 52d8 59bf 3f96 f33e f9f3 583e 80f1 54bf
00000270: f911 04c0 8707 2dbf bf54 c5bf 9e54 b03f
00000280: 6cd0 e63f a17a 833e 0ce1 2f40 74fd 06bf
00000290: 248e 2e3f e075 8fbe b8e1 c43f af6c a53f
000002a0: bbee b1be ab6a 443e 4c8c ab3e 6a3d f93d
000002b0: e173 8fbe 4a73 de3e d313 ebbf ec04 d93f
000002c0: 7936 4cbf d29f 93be 109d 213f e15e 17bf
000002d0: 86eb 0740 4fc0 c8bf 666b 1e3e 5765 c7be
000002e0: e464 87bf 5909 5abf ba0c b0bd c373 5d3e
000002f0: 319a 0bc0 db7d 34bd 2afe 283f f635 fdbf
00000300: 3725 80bc 009b 773e 10c8 71bf a73b 04bf
00000310: fbe9 c4be 2be3 5f3f 7505 c23e d01a c03c
00000320: f6bd 17bf fc31 3940 0722 09c0 8da5 a43f
00000330: 0fc6 a4bf 10c0 ccbd 39ff ce3e 1fb3 193f
00000340: 1363 e83e 4543 aa3f c561 923f ece5 05bf
00000350: 4c97 493e 9c06 d13f 0b44 45be fa42 d73e
00000360: b398 0540 c81f fe3e 36a8 5a3f 3dff bbbf
00000370: f921 03c0 90f6 c13f da7c dfbe 0540 743f
00000380: 2288 9e3f 0a46 763e e4e4 91bf e327 ad3f
00000390: 5cc9 90bf 76b8 d2be 46d8 0ebf 1841 8c3e
000003a0: 319e 0f3f a2f7 2e3f b998 38bf df18 463f
000003b0: 2682 0a3f de8c a9be 4234 a0be 27d1 3c3f
000003c0: 52a5 503e f301 04bf 593e a5be 9c5b 6e3e
000003d0: ab7f 0fbf b254 0b3f fb0b f23f b72d a93f
000003e0: 5869 233f b8c7 e13e e180 193f 44c6 16c0
000003f0: 8215 22bf c6af 323f b36c 6b3f 5a3b 45be

lstm.weight_ih_l0 f4 [512, 32]
0.9520104 2.0953271 -0.5759105 0.18826884 -0.6046013 -0.46154696 -0.63941824 -0.6626987
-0.07730558 0.1340512 0.93292516 0.5977763 1.4457477 1.090504 0.9777928 0.0875451
-0.014772851 -0.7342616 0.67149276 1.1571078 -0.5762793 -0.04390722 -0.1306078 0.92920685
1.1199902 0.9987456 0.29386306 -0.51695 0.67427427 -1.1589415 0.1385824 -1.071649
0.11831917 -0.48860347 0.07265555 -0.63343835 -0.024276095 0.41698548 0.30582637 0.014534059
0.11841754 0.0721505 0.15417807 0.51147085 -0.2488168 0.16387539 0.762947 -0.16304499
-0.7766147 -0.17615817 -0.40325865 0.267862 0.7010216 0.3603082 -0.35015088 -0.2883805
0.10154304 -0.2545364 -0.3771391 0.2105648 0.6534953 0.19131355 -0.35417482 0.14334452
-0.07187486 -0.07284815 -0.12984808 0.16275647 0.013223194 0.07069872 0.014859436 0.113055006
0.08570283 -0.0016762204 -0.11920726 0.15992258 -0.02288944 0.051314 0.13693163 -0.017793866
-0.114001356 -0.21039888 0.18700095 0.011355187 0.11586599 0.15572722 0.022842338 -0.22075003
-0.05652198 0.042005103 -0.15163699 0.09052016 -0.09108566 -0.027882952 -0.14814493 -0.13676657
0.55813444 -0.45774496 -0.1981527 0.24653806 -0.10432228 -0.050579786 -0.36582285 -0.43255684
-0.36108577 0.20116277 -0.69462854 0.52382404 0.2958164 -0.19067097 0.44343692 0.2992319
0.124606565 -0.45183504 0.16910322 -0.16405338 -0.10160952 0.102192484 -0.6687649 0.024571337
-0.5167353 -0.24901272 0.17578761 -0.35283583 -0.21836905 0.53670055 0.4787534 0.42791268
0.70365304 0.3414866 -0.08730681 -0.13076364 0.31130153 -0.54000175 -0.60526794 0.12150043
0.06592663 0.03337116 -0.7312555 -1.0902959 0.9013753 0.46804595 0.4399588 0.41215008
0.4535239 0.21384528 0.50853777 -0.45716998 -0.98076075 1.4595599 0.399318 0.86797535
-0.25884345 -0.86464417 0.27004135 -0.9600744 -0.70201075 1.0607255 0.36838964 -0.62528247
0.255125 -0.24612422 0.19994918 -0.23069946 -0.3271918 -0.25320315 0.18690768 0.12189669
0.01683617 0.23884822 0.11142871 0.17339069 -0.16832608 -0.30769053 -0.06400435 0.4802046
0.15948151 -0.063479476 0.11936681 -0.27019322 0.17763469 -0.26096416 0.111445196 0.15439555
-0.029762791 0.13104388 0.14142843 0.5151516 -0.29012436 0.11458497 -0.3455034 -0.20662741
-0.6216967 0.35708752 -0.107229866 -0.8681244 -0.06466356 0.64664394 -0.46261194 0.45107195
-0.17807846 0.19371006 -0.14006005 -0.42122006 -0.276397 0.14640531 0.44234157 -0.1816132
0.36841714 1.2298791 0.078026816 0.5608922 0.21092004 0.093563974 -0.4120986 -0.881305
-0.5964515 0.4941658 0.37391734 0.09583835 -0.33176917 -0.63557184 -0.32606846 0.13536856
-0.4128426 -0.027984543 0.261492 0.11771554 0.18338892 0.1350786 -0.033867564 -0.049541432
-0.010903219 -0.10187592 0.26612812 2.928523e-05 -0.16319005 -0.25512838 -0.18167138 0.16092189
-0.0051106075 0.12543467 -0.36166182 0.20800404 0.2665701 -0.00789758 -0.17550011 -0.24172118
0.03338961 0.38381386 0.38088176 0.22004475 0.20939054 -0.06972037 -0.032939523 -0.11043339
00000000: f4b6 733f d719 0640 df6e 13bf 8cc9 403e
00000010: 27c7 1abf e24f ecbe eab0 23bf 9fa6 29bf
00000020: 6352 9ebd b844 093e 2fd4 6e3f de07 193f
00000030: 430e b93f a395 8b3f a150 7a3f d84a b33d
00000040: d409 72bc 91f8 3bbf f3e6 2b3f 1c1c 943f
00000050: 0a87 13bf 0fd8 33bd 0dbe 05be 80e0 6d3f
00000060: d75b 8f3f cbad 7f3f 3875 963e d656 04bf
00000070: 3d9d 2c3f 3258 94bf 8be8 0d3e cb2b 89bf
00000080: 5251 f23d 3c2a fabe 6fcc 943d 0429 22bf
00000090: a9de c6bc 1f7f d53e 4695 9c3e 4320 6e3c
000000a0: e584 f23d a4c3 933d dbe0 1d3e c1ef 023f
000000b0: d5c9 7ebe f3ce 273e 7f50 433f 44f5 26be
000000c0: 39d0 46bf cf62 34be eb77 cebe 3525 893e
000000d0: 2776 333f 517a b83e fa46 b3be 9ca6 93be
000000e0: ccf5 cf3d 9852 82be 6018 c1be 4d9e 573e
000000f0: 784b 273f b3e7 433e 6756 b5be e8c8 123e
00000100: 2033 93bd 6931 95bd e5f6 04be a2a9 263e
00000110: 18a6 583c 7eca 903d fe74 733c 6289 e73d
00000120: f784 af3d a0b4 dbba f022 f4bd bfc2 233e
00000130: a382 bbbc a12e 523d ce37 0c3e 71c4 91bc
00000140: 8b79 e9bd ce72 57be 2d7d 3f3e 1b0b 3a3c
00000150: 264b ed3d f576 1f3e db1f bb3c 4c0c 62be
00000160: 9783 67bd 8b0d 2c3d ba46 1bbe a262 b93d
00000170: 1e8b babd ca6a e4bc 4eb3 17be 890c 0cbe
00000180: e6e1 0e3f 8c5d eabe 8be8 4abe 7974 7c3e
00000190: eba6 d5bd c02c 4fbd 224d bbbe 1778 ddbe
000001a0: 3ce0 b8be 9dfd 4d3e 2dd3 31bf 5519 063f
000001b0: 3f75 973e 403f 43be 2a0a e33e ec34 993e
000001c0: ba31 ff3d ec56 e7be 6529 2d3e 9cfd 27be
000001d0: a718 d0bd 4b4a d13d 2d34 2bbf d449 c93c
000001e0: c448 04bf 31fd 7ebe ab01 343e e6a6 b4be
000001f0: 239c 5fbe 3565 093f 2a1f f53e 5f17 db3e
00000200: 9b22 343f 55d7 ae3e eacd b2bd e7e6 05be
00000210: ea62 9f3e 8e3d 0abf d7f2 1abf 38d5 f83d
00000220: 8a04 873d 33b0 083d 8f33 3bbf d18e 8bbf
00000230: 88c0 663f b8a3 ef3e 4842 e13e 5605 d33e
00000240: 4934 e83e 42fa 5a3e 882f 023f 2f12 eabe
00000250: 2313 7bbf dcd2 ba3f 6973 cc3e a233 5e3f
00000260: 2187 84be 5259 5dbf dc42 8a3e 70c7 75bf
00000270: fab6 33bf dac5 873f 919d bc3e 8312 20bf
00000280: be9f 823e fd07 7cbe 7abf 4c3e 7b3c 6cbe
00000290: af85 a7be d8a3 81be ba64 3f3e f9a4 f93d
000002a0: 02ec 893c a194 743e bc34 e43d 548d 313e
000002b0: ac5d 2cbe 9d89 9dbe b614 83bd 61dd f53e
000002c0: 1f4f 233e 8701 82bd 9676 f43d c456 8abe
000002d0: dee5 353e 189d 85be 613d e43d de19 1e3e
000002e0: 19d1 f3bc 5e30 063e 9dd2 103e fae0 033f
000002f0: 2e8b 94be 86ab ea3d d2e5 b0be 2396 53be
00000300: 8427 1fbf 2dd4 b63e 559b dbbd 673d 5ebf
00000310: 546e 84bd 758a 253f 79db ecbe e7f2 e63e
00000320: 335a 36be ee5b 463e e76b 0fbe 28aa d7be
00000330: e883 8dbe 46eb 153e 987a e23e d0f8 39be
00000340: 2ca1 bc3e ae6c 9d3f 86cc 9f3d a296 0f3f
00000350: 6cfb 573e 789e bf3d 96fe d2be 349d 61bf
00000360: 0cb1 18bf 4d03 fd3e 1872 bf3e e646 c43d
00000370: a6dd a9be d6b4 22bf 72f2 a6be 0e9e 0a3e
00000380: 1b60 d3be d73f e5bc 48e2 853e d814 f13d
00000390: 4eca 3b3e 0b52 0a3e b7b8 0abd f5eb 4abd
000003a0: 6aa3 32bc 53a4 d0bd f241 883e 8da9 f537
000003b0: 4b1b 27be 30a0 82be 1008 3abe b5c8 243e
000003c0: e276 a7bb f271 003e bd2b b9be 03ff 543e
000003d0: e07b 883e da64 01bc 4db6 33be c285 77be
000003e0: 8bc3 083d 4083 c43e ef02 c33e 6953 613e
000003f0: 796a 563e 8ec9 8ebd 98eb 06bd e72a e2bd

lstm.weight_hh_l0 f4 [512, 128]
-0.48812562 -0.15209799 0.17993261 0.20336731 0.25543374 -0.009797672 -0.03450447 -0.28899798
-0.21549374 -0.17106365 0.113756515 0.08963504 0.12160146 0.2215904 0.19648884 0.4527896
1.1955211 0.23464762 -0.62138695 -0.035737593 0.04103464 0.20991692 -0.128693 0.17368978
-0.20241797 -0.0020655491 -0.1012442 0.34755126 -0.040889844 0.10010895 0.09327057 -0.24347746
0.020877209 0.120573215 -0.07259002 0.065602556 0.28197357 0.04359558 0.016276464 -0.15772092
-0.3016412 0.5643889 0.17977132 0.025386902 -0.1953868 0.14939992 -0.4201884 -0.21929097
0.124251544 0.40616876 0.33370516 0.11944544 0.10463273 -0.13662353 -0.30437753 0.3216769
-0.6127505 -0.42246142 -0.2934268 0.05942715 0.5275356 0.03787654 -0.21992159 0.03594609
0.39697298 -0.015722066 0.06388659 -0.24050471 -0.03286897 -0.60157174 0.22071329 0.37175646
-0.3566796 0.12946133 0.00091864745 0.57875246 -0.14423054 -0.463194 0.46763912 -0.62840027
0.24977885 -0.18508251 0.49260396 1.9428744 -0.096095145 0.15999657 0.06878596 0.00012974492
0.13942271 -0.13554195 -0.06117919 0.7806788 -0.11205812 0.14338265 -0.12215505 -0.22686517
-0.37877497 -0.48360693 0.011872807 0.07732839 -0.5398059 -0.38368636 0.041529972 0.146961
0.27216235 -0.8680374 -0.3761502 -0.20983504 -0.11757514 -0.50260687 0.08719388 0.385993
-0.13470222 0.32176155 -0.46600997 -0.1531291 -0.42178786 0.024876539 -0.15539363 0.12289084
-0.20721102 -0.11847046 -0.18648149 0.16728605 -0.03801554 0.083827436 0.25673845 -1.0764786
-0.28794748 1.5705849 -0.52663404 0.62021375 -0.18170984 0.42608345 1.1755859 0.05033308
-0.24981354 0.05374994 0.076640114 -0.024406707 -0.31765583 0.18000513 0.78962785 -0.070294075
0.4614508 0.68745464 -0.013129567 0.5240937 -0.2227375 0.8650379 0.3424426 -0.34024727
-1.3544217 -0.07620829 0.055516288 0.26561415 0.13844231 -0.3290935 -0.33103216 -0.91569114
-1.0210108 -0.59869415 -0.09165358 -0.10587036 -0.2552328 0.36827752 -0.15949473 0.0984558
-0.9725816 0.25452298 -0.81864554 0.035430588 -0.24724503 1.361938 1.0787026 -0.07435323
0.4727549 -0.57227784 -0.9689474 -0.14355618 -0.29210615 0.2123912 0.36725026 0.05039888
0.8636407 -0.18226923 -0.14442082 -0.5139118 1.1080041 -0.15227199 0.096422456 0.7842961
0.6209653 0.052229173 0.12646577 -0.17132129 -0.09050322 0.6962482 -0.592337 -0.6533706
0.45612457 -0.61255527 -0.4880848 -0.54328656 0.0054719495 -0.52686405 0.3194283 1.2069618
-0.113651 0.098642506 0.16593195 -0.13903777 -0.9377041 -0.4167815 0.5756989 0.14992194
0.056691848 0.041165434 -0.27912045 0.45589346 0.3018538 -0.26738155 0.033564195 0.24742022
0.80192906 -0.1246747 0.2353474 0.13394448 -0.15529972 1.0933095 0.36581868 0.29011792
-0.40968415 0.12825388 -0.07991706 -0.38777143 0.7406041 -0.21724252 0.040685885 0.3189526
0.8435444 -0.10088938 -0.4681176 -0.417316 -0.06461586 0.078844815 0.027279545 -0.12099149
-0.51663953 -0.42775044 -0.0049616825 -0.10262645 -0.20715095 0.05577016 -0.42592213 -0.411902
00000000: 9aeb f9be 93bf 1bbe 4140 383e 853f 503e
00000010: 36c8 823e 6a86 20bc 8f54 0dbd 8bf7 93be
00000020: 64aa 5cbe 4f2b 2fbe 2df9 e83d 9392 b73d
00000030: 300a f93d 98e8 623e 5f34 493e 0ad4 e73e
00000040: d606 993f 7747 703e 3713 1fbf 9561 12bd
00000050: f013 283d 76f4 563e 19c8 03be bcdb 313e
00000060: a846 4fbe 2a5e 07bb 1e59 cfbd 3df2 b13e
00000070: 1c7c 27bd ec05 cd3d a404 bf3d 2852 79be
00000080: ae06 ab3c 17ef f63d 14aa 94bd a25a 863d
00000090: d75e 903e 4791 323d 3856 853c 9881 21be
000000a0: b770 9abe ca7b 103f f915 383e 31f8 cf3c
000000b0: 7a13 48be 4bfc 183e ef22 d7be d08d 60be
000000c0: 9877 fe3d 5af5 cf3e 67db aa3e d09f f43d
000000d0: af49 d63d 0ae7 0bbe 5fd7 9bbe d6b2 a43e
000000e0: 37dd 1cbf dd4c d8be 0a3c 96be e269 733d
000000f0: 930c 073f 6e24 1b3d 2033 61be 353c 133d
00000100: 0b40 cb3e 90cb 80bc f9d6 823d de46 76be
00000110: 9da1 06bd 9b00 1abf aa02 623e dd56 be3e
00000120: b59e b6be 8391 043e 63d1 703a 1f29 143f
00000130: 2cb1 13be c427 edbe 656e ef3e d7de 20bf
00000140: 07c6 7f3e 4586 3dbe 9636 fc3e 1cb0 f83f
00000150: 88cd c4bd 24d6 233e a7df 8c3d 230c 0839
00000160: d4c4 0e3e 82cb 0abe 0897 7abd 91da 473f
00000170: ba7e e5bd e7d2 123e 6d2c fabd 584f 68be
00000180: cbee c1be 549b f7be 2986 423c 595e 9e3d
00000190: b830 0abf 8a72 c4be 551b 2a3d f27c 163e
000001a0: dd58 8b3e b337 5ebf c296 c0be ffde 56be
000001b0: 3ccb f0bd d8aa 00bf b492 b23d e0a0 c53e
000001c0: 61ef 09be eebd a43e dc98 eebe e0cd 1cbe
000001d0: 94f4 d7be e2c9 cb3c 821f 1fbe 31ae fb3d
000001e0: 202f 54be a4a0 f2bd 01f5 3ebe 094d 2b3e
000001f0: 2fb6 1bbd b8ad ab3d 3973 833e 0dca 89bf
00000200: da6d 93be ed08 c93f 7dd1 06bf 54c6 1e3f
00000210: 2512 3abe 9c27 da3e 9979 963f 0f2a 4e3d
00000220: 1fcf 7fbe e628 5c3d 7ef5 9c3d 93f0 c7bc
00000230: c9a3 a2be 4453 383e 0d25 4a3f 57f6 8fbd
00000240: 4743 ec3e 07fd 2f3f 651d 57bc 012b 063f
00000250: 4d15 64be 2073 5d3f a354 af3e e434 aebe
00000260: b15d adbf 1813 9cbd 0c65 633d 94fe 873e
00000270: d2c3 0d3e f17e a8be 0c7d a9be bc6a 6abf
00000280: 7bb0 82bf 0544 19bf dfb4 bbbd 8fd2 d8bd
00000290: e0ad 82be df8e bc3e 9652 23be 32a3 c93d
000002a0: 1cfb 78bf d650 823e c192 51bf aa1f 113d
000002b0: cd2d 7dbe fc53 ae3f ed12 8a3f 8246 98bd
000002c0: ee0c f23e cd80 12bf f00c 78bf 6400 13be
000002d0: f08e 95be 147d 593e 3a08 bc3e 0e6f 4e3d
000002e0: 8f17 5d3f c9a4 3abe 0de3 13be b98f 03bf
000002f0: 14d3 8d3f 30ed 1bbe 2379 c53d a1c7 483f
00000300: 95f7 1e3f 42ee 553d 3e80 013e d96e 2fbe
00000310: c159 b9bd 523d 323f 66a3 17bf 4c43 27bf
00000320: 2989 e93e 6cd0 1cbf 40e6 f9be d414 0bbf
00000330: 0a4e b33b 90e0 06bf 1b8c a33e b97d 9a3f
00000340: dbc1 e8bd 1505 ca3d 11ea 293e eb5f 0ebe
00000350: 600d 70bf 6364 d5be 0161 133f 2385 193e
00000360: b635 683d 169d 283d e0e8 8ebe de6a e93e
00000370: 958c 9a3e 3ce6 88be 9c7a 093d ba5b 7d3e
00000380: 394b 4d3f 7355 ffbd e9fe 703e be28 093e
00000390: e406 1fbe 91f1 8b3f 964c bb3e 568a 943e
000003a0: 1fc2 d1be fc54 033e 8eab a3bd fa89 c6be
000003b0: 3b98 3d3f d374 5ebe 3ea6 263d c14d a33e
000003c0: 87f2 573f 179f cebd 1cad efbe 71aa d5be
000003d0: 5255 84bd 6479 a13d 5a79 df3c 63ca f7bd
000003e0: 7d42 04bf 1b02 dbbe 9c95 a2bb d12d d2bd
000003f0: 611f 54be 406f 643d 7712 dabe d2e4 d2be

lstm.bias_ih_l0 f4 [512]
0.18469186 -0.034116015 -0.3357829 -0.82321143 -0.1724573 -0.27683148 0.33519807 -0.30390194
-0.5535669 -0.029068828 -0.04555919 -0.29795334 0.13349053 0.18270811 -0.044583585 0.20396082
-0.4335546 0.014953687 -0.03162928 0.20067471 -0.2785676 -0.32533196 0.5798035 -0.59147274
-0.20723942 -0.015724702 -1.0360001 0.3799884 0.12844212 -0.3845649 -1.3124757 0.6529401
0.30668992 -0.43997487 -0.19719313 0.087198935 -0.1059196 -0.18279102 -0.21601138 -0.046777613
-0.006198765 -0.41376114 0.09432483 -0.22826272 -0.17438185 0.2478907 -0.14737739 0.11853892
-0.48656902 0.24445486 -0.30760455 0.5485982 0.18863265 -0.11750315 -0.09077301 0.5951485
-0.3481612 0.15975596 0.03227494 -0.29622382 -0.48292378 -0.31388053 -0.304123 -0.47838303
-0.5260941 -0.082316056 0.09244715 -0.12580383 0.0020962558 0.11737376 -0.090055995 -0.48717457
-0.29924938 0.048562106 0.285856 -0.9883612 -0.6275644 -0.17994894 -0.9615381 0.25803587
-0.10638039 0.2706929 -0.15812925 -0.51794904 -0.069510795 -0.15216658 -1.0532043 -0.28833228
-0.10548976 -0.39985058 -0.9544738 -0.3211413 -0.01084155 0.013984801 -0.09208006 -0.052483153
-0.4531764 -0.5468176 -0.806213 -0.30279854 0.59263766 -0.11115273 0.06576273 -0.06592096
-0.49838832 -0.056357585 -0.13636824 0.30593282 0.108197175 -0.39431885 0.5903382 -0.19148205
-0.6580525 -0.16296878 0.42465928 0.043988448 -0.2867688 -0.06979657 -0.0013903648 0.07269495
-0.18478666 -0.2701522 -0.3130785 -0.038003698 0.7962454 0.1536005 -0.31887588 -0.79739577
-0.58527315 -0.6334298 0.053907394 0.7354616 0.025447285 -0.113535285 0.66613835 0.6836035
0.48373532 -0.65257454 0.29355133 0.078979865 -0.022800092 -0.752807 -0.60074747 0.5199263
0.81508976 0.510045 -0.46566442 -0.44132477 -0.32728073 1.0863969 -0.55714244 -0.4641686
0.004963198 0.05969063 1.2278725 -0.6945642 -0.5948495 -0.50393146 1.398919 0.8894609
-0.040912166 0.6940946 -0.3366585 -0.41616836 0.50057423 -0.529102 -0.38339362 0.6104017
-0.5152765 1.5753437 -0.38814422 -0.66877687 0.30713522 -0.15870889 0.07571584 -0.52287406
-0.48660934 0.44477218 1.1483748 0.590695 -0.7014058 0.4097572 -0.50732607 0.73878175
0.73050046 0.015055895 -0.162129 -0.6152071 0.5431911 -0.19985016 -0.3446979 1.0748857
0.24219613 0.7338092 -0.57772255 0.015242541 -0.23699674 0.112042174 -0.623782 -0.204575
0.16438323 0.7191647 0.26205668 1.1382674 -0.62141395 -0.13379844 1.2882217 0.4262096
-0.44803733 -0.58993727 -0.5840341 0.048288915 -0.2015491 -0.336542 0.7805823 -0.39819226
-0.85211635 0.9722334 1.3266228 1.0052415 0.45823509 0.24665393 0.9020273 -0.5716635
0.17727323 0.3595904 0.61801106 0.49072373 0.81920904 0.15511368 -0.6952784 -0.48328552
-0.13589805 -0.024764076 -0.8139031 -0.116549104 -0.6286037 -0.12418823 0.9308828 0.27058056
0.8215675 -0.8779532 1.0495688 0.2888608 -0.6224126 -0.4921753 -0.6400049 -0.7731912
0.6592951 -1.1575388 -0.44144568 -0.10578687 0.98346627 -0.27916595 -0.6728458 0.4553181
00000000: dd1f 3d3e 3cbd 0bbd bceb abbe fcbd 52bf
00000010: a598 30be dbbc 8dbe 159f ab3e 0999 9bbe
00000020: 8fb6 0dbf c021 eebc 469c 3abd 578d 98be
00000030: beb1 083e d617 3b3e 479d 36bd 1bdb 503e
00000040: defa ddbe 4f00 753c b48d 01bd ac7d 4d3e
00000050: 6aa0 8ebe e991 a6be 016e 143f c26a 17bf
00000060: 9236 54be 17d1 80bc a79b 84bf d78d c23e
00000070: 5586 033e b1e5 c4be 34ff a7bf 1527 273f
00000080: 7606 9d3e 6344 e1be ffec 49be 5b95 b23d
00000090: 60ec d8bd 922d 3bbe 1632 5dbe e299 3fbd
000000a0: 021f cbbb 80d8 d3be 602d c13d b4bd 69be
000000b0: 2891 32be 0fd7 7d3e 19ea 16be 89c4 f23d
000000c0: 931f f9be 6052 7a3e 587e 9dbe ee70 0c3f
000000d0: eb28 413e 7ea5 f0bd 33e7 b9bd a75b 183f
000000e0: 2f42 b2be 1197 233e ba32 043d a6aa 97be
000000f0: c941 f7be f3b4 a0be 03b6 9bbe 9fee f4be
00000100: 1aae 06bf 5295 a8bd ee54 bd3d b8d2 00be
00000110: 5661 093b a761 f03d 476f b8bd f26e f9be
00000120: 3737 99be 0fe9 463d b85b 923e 3d05 7dbf
00000130: 0fa8 20bf 8944 38be 5c27 76bf 471d 843e
00000140: f6dd d9bd 4398 8a3e a2ec 21be 4f98 04bf
00000150: ad5b 8ebd 8ed1 1bbe 66cf 86bf 4aa0 93be
00000160: 040b d8bd 37b9 ccbe 6558 74bf a26c a4be
00000170: c2a0 31bc 8220 653c 7894 bcbd 93f8 56bd
00000180: bd06 e8be 3dfc 0bbf fa63 4ebf 6908 9bbe
00000190: 1ab7 173f 0ba4 e3bd 9cae 863d 9101 87bd
000001a0: c12c ffbe 36d7 66bd 1ea4 0bbe 3aa3 9c3e
000001b0: 7b96 dd3d 29e4 c9be 6720 173f df13 44be
000001c0: 2176 28bf 4ae1 26be f16c d93e 3b2d 343d
000001d0: 5cd3 92be 81f1 8ebd e73c b6ba 17e1 943d
000001e0: b738 3dbe 6451 8abe d34b a0be c4a9 1bbd
000001f0: bdd6 4b3f 7349 1d3e b343 a3be 2122 4cbf
00000200: 76d4 15bf 7528 22bf 00ce 5c3d 3647 3c3f
00000210: d376 d03c 3085 e8bd 0b88 2a3f a400 2f3f
00000220: 28ac f73e 200f 27bf 5c4c 963e 32c0 a13d
00000230: 42c7 babc f6b7 40bf 96ca 19bf e419 053f
00000240: b9a9 503f 4f92 023f 916b eebe 52f5 e1be
00000250: 5791 a7be 0e0f 8b3f e3a0 0ebf 82a7 edbe
00000260: 53a2 a23b 297e 743d ed2a 9d3f f6ce 31bf
00000270: 0f48 18bf a701 01bf c70f b33f b6b3 633f
00000280: 8493 27bd 2fb0 313f 815e acbe 0514 d5be
00000290: a225 003f 3b73 07bf 2b4c c4be 4943 1c3f
000002a0: 29e9 03bf dda4 c93f d7ba c6be f634 2bbf
000002b0: d440 9d3e 9584 22be e810 9b3d 13db 05bf
000002c0: dc24 f9be 2eb9 e33e f2fd 923f ca37 173f
000002d0: 558f 33bf b2cb d13e 1fe0 01bf cd20 3d3f
000002e0: 1402 3b3f 00ad 763c 2505 26be 367e 1dbf
000002f0: 920e 0b3f 85a5 4cbe 3e7c b0be db95 893f
00000300: 4302 783e ebda 3b3f a0e5 13bf dabb 793c
00000310: 46af 72be 5e76 e53d 2db0 1fbf 1c7c 51be
00000320: 1454 283e 2e1b 383f 4b2c 863e bfb2 913f
00000330: fc14 1fbf 7502 09be 73e4 a43f 2538 da3e
00000340: 2665 e5be 2106 17bf 4283 15bf 99ca 453d
00000350: e362 4ebe 3c4f acbe 3ed4 473f dbdf cbbe
00000360: 4c24 5abf 4ae4 783f c7ce a93f c1ab 803f
00000370: ca9d ea3e d992 7c3e 43eb 663f 8a58 12bf
00000380: 1d87 353e 3c1c b83e f935 1e3f 2440 fb3e
00000390: afb7 513f 1fd6 1e3e c4fd 31bf 3371 f7be
000003a0: dc28 0bbe 08de cabc f45b 50bf 4cb1 eebd
000003b0: 2cec 20bf 6656 febd 564e 6e3f 8989 8a3e
000003c0: 3f52 523f 8ac1 60bf 4558 863f 90e5 933e
000003d0: 6f56 1fbf 67fe fbbe 5cd7 23bf dcef 45bf
000003e0: 90c7 283f 3b2a 94bf 2b05 e2be c9a6 d8bd
000003f0: 72c4 7b3f d7ee 8ebe 9f3f 2cbf 741f e93e

lstm.bias_hh_l0 f4 [512]
0.27214253 -0.011279375 -0.16742194 -0.89229643 -0.15190685 -0.31079558 0.3783712 -0.23780926
-0.6162157 0.0016244858 -0.065030605 -0.325782 0.14159033 0.06472468 0.10217136 0.18345915
-0.3526469 0.098731 -0.11727431 0.23661539 -0.22073431 -0.306626 0.5776978 -0.5000548
-0.3141954 0.097677566 -1.1989378 0.4169423 0.03070567 -0.3085012 -1.2285445 0.6850101
0.36359057 -0.38409308 -0.25248814 0.064301305 -0.006891389 -0.17855266 -0.33616346 -0.030525561
-0.041232828 -0.4361065 0.019305207 -0.22934976 -0.23927175 0.15075412 -0.13192981 0.09637659
-0.4024029 0.24167489 -0.335207 0.48191032 0.14971472 0.022855135 -0.14789723 0.6435249
-0.37510142 0.024895195 0.046632297 -0.17431939 -0.569473 -0.4209282 -0.33822855 -0.49747553
-0.55154216 -0.09622082 0.16233471 -0.097185224 0.009593579 0.057226717 -0.072974004 -0.4915914
-0.21606222 -0.09110468 0.36549976 -1.0149935 -0.57826024 -0.153177 -0.91378045 0.2645525
-0.060199626 0.26797253 -0.19714393 -0.63868636 -0.12058721 -0.27033585 -0.99231964 -0.18538985
-0.11244489 -0.51846385 -0.9724228 -0.37552494 0.008829424 0.003984946 -0.23146097 -0.051711455
-0.36314088 -0.56441593 -0.8353375 -0.25337103 0.4558872 -0.17421742 0.08210636 -0.048444666
-0.4513366 -0.14160089 -0.056794774 0.3736897 0.091928795 -0.40350458 0.59114206 -0.09741696
-0.65113086 -0.09634997 0.41610572 0.057270493 -0.27792874 -0.101404294 0.1085985 0.074325204
-0.23816226 -0.16860917 -0.40085444 0.003946664 0.71952873 0.024836315 -0.21965174 -0.9292349
-0.5942892 -0.61280954 0.07377644 0.71165085 -0.0018985639 -0.17903256 0.70466286 0.635451
0.38642675 -0.6439124 0.30377948 0.08560849 -0.026950715 -0.794919 -0.56721205 0.5774945
0.87373596 0.49206898 -0.36828583 -0.5182694 -0.3070211 1.1250525 -0.47160682 -0.5371873
-0.09860609 0.1536411 1.3360417 -0.73676986 -0.45416722 -0.56793857 1.3368909 0.9354597
0.08406212 0.85493195 -0.24074423 -0.38984197 0.51150644 -0.502023 -0.5036904 0.546154
-0.47830802 1.6644889 -0.4847169 -0.6602254 0.27220106 -0.06529659 0.045004055 -0.41107792
-0.5976817 0.40203822 1.0052677 0.5831889 -0.7130511 0.3696437 -0.5593612 0.62227094
0.8310326 0.014571823 -0.12790968 -0.60134774 0.6219553 -0.19712043 -0.43689778 1.0702251
0.23314975 0.7006784 -0.68388623 0.01775687 -0.10661064 0.036005005 -0.5477238 -0.2350666
0.26791686 0.74598867 0.28969854 1.1197467 -0.4765754 -0.18386194 1.258834 0.37652707
-0.3940313 -0.5878765 -0.59942687 0.046028644 -0.26149946 -0.37686518 0.6734576 -0.32413188
-0.9484822 0.88362575 1.4512877 1.0791168 0.35089484 0.22796167 0.90274286 -0.6123989
0.3005038 0.25620118 0.6500667 0.52978367 0.8318413 0.18026614 -0.5806484 -0.4775633
-0.02848484 0.04373672 -0.7919767 -0.11159671 -0.5136696 -0.26489764 1.0233157 0.24017878
0.8658379 -0.8354406 1.1494085 0.34867662 -0.6784036 -0.49497223 -0.6764591 -0.7510791
0.6293419 -1.1692153 -0.46894273 -0.1082744 0.9559455 -0.33949253 -0.6488951 0.45988473
00000000: 4456 8b3e 21cd 38bc a870 2bbe 8a6d 64bf
00000010: 788d 1bbe 9920 9fbe dfb9 c13e 4584 73be
00000020: 50c0 1dbf b3ec d43a c42e 85bd e6cc a6be
00000030: 0efd 103e 5f8e 843d 383f d13d b7dc 3b3e
00000040: 228e b4be 7b33 ca3d 832d f0bd 4e4b 723e
00000050: 2d08 62be 15fe 9cbe 01e4 133f 9703 00bf
00000060: 38de a0be 2d0b c83d cb76 99bf 7679 d53e
00000070: 758a fb3c dff3 9dbe f240 9dbf d25c 2f3f
00000080: 8b28 ba3e d9a7 c4be 2046 81be 67b0 833d
00000090: 29d1 e1bb 82d6 36be 9e1d acbe be10 fabc
000000a0: c1e3 28bd 5a49 dfbe f425 9e3c aada 6abe
000000b0: a703 75be 4a5f 1a3e 9c18 07be 1761 c53d
000000c0: c107 cebe 9f79 773e 40a0 abbe f3bc f63e
000000d0: d14e 193e b13a bb3c 5f72 17be 0cbe 243f
000000e0: 4b0d c0be 02f1 cb3c 8201 3f3d c880 32be
000000f0: fcc8 11bf e783 d7be 4b2c adbe 1db5 febe
00000100: de31 0dbf 6c0f c5bd 123b 263e 0c09 c7bd
00000110: 632e 1d3c 9066 6a3d 6573 95bd deb1 fbbe
00000120: 6a3f 5dbe 1795 babd c922 bb3e 4feb 81bf
00000130: dd08 14bf 6eda 1cbe 84ed 69bf 6d73 873e
00000140: e293 76bd b233 893e 19e0 49be f380 23bf
00000150: 6df6 f6bd 7669 8abe a908 7ebf d6d6 3dbe
00000160: 8249 e6bd 0cba 04bf b3f0 78bf ce44 c0be
00000170: 4aa9 103c 2694 823b 1b04 6dbe 64cf 53bd
00000180: 9aed b9be 907d 10bf aed8 55bf d9b9 81be
00000190: 0c6a e93e 0d66 32be 6127 a83d ea6d 46bd
000001a0: 9715 e7be d3ff 10be a3a1 68bd 4254 bf3e
000001b0: 2a45 bc3d 2798 cebe 1655 173f 8b82 c7bd
000001c0: 83b0 26bf 2253 c5bd cf0b d53e 7794 6a3d
000001d0: ad4c 8ebe 0ead cfbd e468 de3d d037 983d
000001e0: cfe0 73be e2a7 2cbe cb3c cdbe 0453 813b
000001f0: 0933 383f 8775 cb3c 63ec 60be 57e2 6dbf
00000200: 5623 18bf 16e1 1cbf 1a18 973d c02e 363f
00000210: 3cd9 f8ba 5054 37be c964 343f ebac 223f
00000220: bad9 c53e 71d7 24bf fc88 9b3e 8153 af3d
00000230: bfc7 dcbc d07f 4bbf cf34 11bf aed6 133f
00000240: 29ad 5f3f 77f0 fb3e f68f bcbe 4ead 04bf
00000250: df31 9dbe b801 903f 7376 f1be 1b85 09bf
00000260: fdf1 c9bd 1854 1d3e 6a03 ab3f f39c 3cbf
00000270: 9b88 e8be 6c64 11bf 3e1f ab3f 497a 6f3f
00000280: c328 ac3d d2dc 5a3f a885 76be 5e99 c7be
00000290: 16f2 023f 9484 00bf dbf1 00bf c0d0 0b3f
000002a0: cae4 f4be f90d d53f d02c f8be 8804 29bf
000002b0: f05d 8b3e 38ba 85bd 2c56 383d ce78 d2be
000002c0: ab01 19bf f4d7 cd3e 9dac 803f de4b 153f
000002d0: 848a 36bf f041 bd3e 4c32 0fbf 264d 1f3f
000002e0: 8dbe 543f a8be 6e3c c1fa 02be edf1 19bf
000002f0: 7638 1f3f f0d9 49be 11b1 dfbe 23fd 883f
00000300: cfbe 6e3e a95f 333f 2b13 2fbf db76 913c
00000310: ae56 dabd fc79 133d a137 0cbf 4cb5 70be
00000320: 662c 893e 1df9 3e3f 5e53 943e dc53 8f3f
00000330: b101 f4be 4e46 3cbe 7921 a13f 28c8 c03e
00000340: 78be c9be 137f 16bf 0a74 19bf 8888 3c3d
00000350: 42e3 85be 79f4 c0be b867 2c3f 9df4 a5be
00000360: bbcf 72bf 4c35 623f ccc3 b93f 8020 8a3f
00000370: 7da8 b33e c96e 693e 281a 673f 2dc6 1cbf
00000380: a2db 993e cd2c 833e c56a 263f e79f 073f
00000390: 8df3 543f b097 383e 60a5 14bf 2d83 f4be
000003a0: 0a59 e9bc 4625 333d fcbe 4abf d18c e4bd
000003b0: da7f 03bf aaa0 87be 02fc 823f 6df1 753e
000003c0: 8da7 5d3f 6fdf 55bf d11f 933f be85 b23e
000003d0: dcab 2dbf 006d fdbe 6c2c 2dbf b846 40bf
000003e0: 8d1c 213f d9a8 95bf 4319 f0be f8be ddbd
000003f0: d8b8 743f f7d1 adbe fd1d 26bf 0376 eb3e

decoder.weight f4 [128, 128]
0.0053570922 0.32545298 1.9345701 0.2610039 0.16840972 0.89593744 0.3546575 0.74682724
0.68440646 0.19122157 -0.041273206 8.166118 0.36562762 -0.367159 0.8437045 0.48206064
-3.2001388 -0.13941164 -0.06729845 -0.1156786 0.0056645595 0.8677291 2.2552238 -0.37860218
-1.7277423 -2.2186031 -0.13000631 -3.4715784 0.45635727 0.1810149 0.0011853696 -0.80633324
-0.7524 -0.15264398 5.155219 -0.4364672 0.9036483 -0.060306497 -0.24422583 -0.5648806
0.029100254 -4.908739 -0.09769289 0.04789463 1.7299902 0.70748687 11.479605 0.18882163
-0.8048217 1.7768806 0.91458297 0.676794 0.35850814 -1.6864024 -0.17162256 0.017674573
-0.988042 0.8007351 -4.780352 -0.29849377 -8.028498 -1.0225146 0.4816025 -0.94178575
-3.1296482 0.04018448 0.06198442 -0.0390233 -6.2512016 -2.3743198 -1.0323611 0.32544553
1.0707452 2.4529994 0.79831904 0.43751848 -6.226752 1.8080833 0.49146765 -0.35988426
1.1257275 2.6640584 0.17707446 0.09290788 0.9893793 0.45754322 -0.038871568 -0.5107802
-0.44462815 -0.25914985 0.020676931 -1.3726884 -1.9270037 3.0021486 -1.3313193 0.2630484
1.9571561 0.88493663 -0.56463957 0.81283945 -1.190301 -0.24214137 -0.22170736 0.023308681
0.09182837 -5.413571 -0.050793123 0.1162078 -0.24147035 -4.235126 2.4301176 -1.4988546
-0.75932837 -0.08520058 -0.04448521 -1.0820073 0.37499508 0.4430984 -0.09240668 0.2164571
0.08136823 0.2336266 0.18586919 0.04268759 0.54785347 0.3250833 0.7864521 0.34849074
0.1264663 -0.4600161 -0.514445 0.07566313 -0.5537291 -0.5959961 -0.6733781 -1.25208
0.064819634 -0.38472494 -0.08736761 -0.30718037 -0.5982017 -0.50434214 -0.05616833 -1.4736545
-0.4259692 0.09839003 -0.19239049 -0.19974522 0.27462345 -0.30733046 -1.0346178 0.2313133
-0.11908422 -0.08242751 -0.1263663 0.61708045 -0.008155464 -0.19845806 -0.15995046 0.9058202
0.62101465 0.0137282545 -0.09008385 0.7100323 0.07406309 0.2371356 0.32542685 -0.22076647
0.026599485 -0.48134056 0.53070986 0.10570247 -0.88070357 -0.23993948 0.22765824 -0.32173884
0.015876926 -0.35950133 -0.24059162 -1.0648719 0.19291829 0.248315 -0.603962 -0.88589704
-0.019057805 -1.1572065 0.08736075 0.17810649 -0.22481392 -0.15573303 -0.5604943 -0.05004422
0.17182584 -0.5747972 -0.46745214 -0.091373414 -0.20376557 0.13627091 0.26708004 -0.097342975
-0.2102237 0.18994492 -1.1490101 0.08647288 -0.07948053 -0.45917287 -0.8622435 -0.2136585
-0.68050545 -1.0952923 -0.32817933 -0.25711924 -0.694271 -0.6384215 -0.09491051 0.21480615
-0.21628594 -0.5923032 0.39518 -0.2839335 -0.043974306 -0.8702694 0.45163187 -0.35070553
0.7412549 0.5628894 0.30965942 0.0048532113 1.2876477 -0.320645 -0.011355359 -0.41853562
0.25203082 0.21175644 0.11477912 0.24580082 0.5237876 0.025527451 -1.2015285 0.94455457
0.50301445 0.17002375 0.7135361 0.3749288 0.07600087 -0.063864425 -0.037902284 -0.124365784
-0.53669316 -0.14694273 0.58983374 -0.072639816 -0.97096765 -0.118938245 -0.38935688 -0.7007875
00000000: 8c8a af3b c6a1 a63e fe9f f73f 4ea2 853e
00000010: 9973 2c3e 285c 653f ab95 b53e 1230 3f3f
00000020: 4335 2f3f 96cf 433e 180e 29bd 6ba8 0241
00000030: 8b33 bb3e 44fc bbbe 05fd 573f a7d0 f63e
00000040: 13cf 4cc0 edc1 0ebe c5d3 89bd e7e8 ecbd
00000050: c59d b93b 7f23 5e3f 9655 1040 25d8 c1be
00000060: a926 ddbf 98fd 0dc0 6020 05be 572e 5ec0
00000070: a9a7 e93e f85b 393e 675e 9b3a db6b 4ebf
00000080: 499d 40bf b44e 1cbe 8ef7 a440 a178 dfbe
00000090: 7f55 673f f203 77bd 5616 7abe 049c 10bf
000000a0: a863 ee3c 6414 9dc0 3613 c8bd 292d 443d
000000b0: 5270 dd3f dc1d 353f 76ac 3741 755a 413e
000000c0: cc08 4ebf d370 e33f 1c22 6a3f 5f42 2d3f
000000d0: 618e b73e 09dc d7bf d3bd 2fbe 44ca 903c
000000e0: 52f0 7cbf fafc 4c3f a5f8 98c0 2dd4 98be
000000f0: ba74 00c1 c2e1 82bf 9a94 f63e df18 71bf
00000100: 284c 48c0 7b98 243d 60e3 7d3d e5d6 1fbd
00000110: d809 c8c0 dbf4 17c0 6924 84bf cca0 a63e
00000120: 2e0e 893f f1fd 1c40 a35e 4c3f 6c02 e03e
00000130: 8d41 c7c0 466f e73f a6a1 fb3e c042 b8be
00000140: d717 903f ef7f 2a40 0253 353e 7d46 be3d
00000150: f647 7d3f 1b43 ea3e cb37 1fbd 7ec2 02bf
00000160: 4da6 e3be 4aaf 84be ab62 a93c 41b4 afbf
00000170: 0fa8 f6bf 3423 4040 ac68 aabf 48ae 863e
00000180: 1784 fa3f 358b 623f 388c 10bf 3f16 503f
00000190: c85b 98bf e8f3 77be 4107 63be d9f1 be3c
000001a0: 8310 bc3d f93b adc0 730c 50bd 5bfe ed3d
000001b0: 0144 77be 2786 87c0 0c87 1b40 78da bfbf
000001c0: 5863 42bf a47d aebd 2036 36bd 377f 8abf
000001d0: 5bff bf3e cbdd e23e b73f bdbd eea6 5d3e
000001e0: 63a4 a63d d03b 6f3e 7e54 3e3e 2fd9 2e3d
000001f0: 2040 0c3f 5171 a63e ed54 493f 616d b23e
00000200: 6280 013e 3b87 ebbe abb2 03bf 45f5 9a3d
00000210: 31c1 0dbf 3393 18bf 8262 2cbf 2844 a0bf
00000220: 28c0 843d abfa c4be caed b2bd bf46 9dbe
00000230: bf23 19bf 911c 01bf c310 66bd b6a0 bcbf
00000240: a318 dabe b680 c93d 0302 45be 038a 4cbe
00000250: 729b 8c3e 6b5a 9dbe 5b6e 84bf 65dd 6c3e
00000260: 6de2 f3bd c1cf a8bd 2b66 01be fcf8 1d3f
00000270: 7f9e 05bc 9738 4bbe 0eca 23be d5e3 673f
00000280: d1fa 1e3f 79ec 603c e27d b8bd adc4 353f
00000290: 64ae 973d add3 723e 599e a63e 9b10 62be
000002a0: 2ae7 d93c 4572 f6be 9adc 073f 897a d83d
000002b0: ca75 61bf b2b2 75be 3e1f 693e f4ba a4be
000002c0: 5410 823c 8f10 b8be a65d 76be b94d 88bf
000002d0: 5f8c 453e 4a46 7e3e 419d 1abf 26ca 62bf
000002e0: 1d1f 9cbc 581f 94bf 31ea b23d 8c61 363e
000002f0: 9f35 66be 7b78 1fbe 8e7c 0fbf 2bfb 4cbd
00000300: 1df3 2f3e e925 13bf e355 efbe fc21 bbbd
00000310: eca7 50be 9a8a 0b3e b7be 883e c15b c7bd
00000320: e244 57be ec80 423e c312 93bf b118 b13d
00000330: b0c6 a2bd b518 ebbe fdbb 5cbf 4bc9 5abe
00000340: 9b35 2ebf 8a32 8cbf 1f07 a8be 22a5 83be
00000350: bfbb 31bf 976f 23bf 7160 c2bd 25f6 5b3e
00000360: 107a 5dbe 2fa1 17bf 0855 ca3e bb5f 91be
00000370: 671e 34bd fac9 5ebf 4b3c e73e ad8f b3be
00000380: e2c2 3d3f 8519 103f ae8b 9e3e b007 9f3b
00000390: a4d1 a43f 952b a4be d40b 3abc 4d4a d6be
000003a0: 2f0a 813e aed6 583e 5111 eb3d 36b3 7b3e
000003b0: f216 063f f21e d13c b0cb 99bf 54ce 713f
000003c0: 8ec5 003f b51a 2e3e 4daa 363f abf6 bf3e
000003d0: 58a6 9b3d 5acb 82bd 6d3f 1bbd 7db3 febd
000003e0: b964 09bf 2878 16be 58ff 163f 2fc4 94bd
000003f0: 5691 78bf e595 f3bd c959 c7be cf66 33bf

decoder.bias f4 [128]
0.79611623 -1.3125503 -1.2824292 -1.4008778 -1.2884749 -1.2882597 -1.3415011 -1.3725694
-1.3445779 -1.3420575 -1.355398 -1.2475213 -1.3167981 -1.2910447 -1.3196898 -1.3138759
-1.2925555 -1.2322307 -1.2832927 -1.2558634 -1.2731848 0.3062226 -0.72662514 -0.2793495
-0.41914237 -0.24994785 -0.5656287 -0.13098176 -0.19209178 -0.17303637 -0.1477239 -0.43810156
-0.29810426 0.16081136 0.20679297 -0.13595682 -0.24206246 -0.03053849 -0.02360422 0.06857974
0.10918903 0.006443104 -0.032306973 -0.25810352 0.1584735 -0.23647474 -0.13758007 -0.0877042
-0.06419483 0.116054825 -0.14906412 -0.05561072 -0.11904094 0.046363518 -0.22772053 0.13878629
0.11329901 0.25468713 0.0042430167 0.005885953 0.055201273 -0.091812894 0.016155262 -0.02309708
-0.14560427 0.16191639 -0.353449 -0.21227445 -0.18402722 -0.03812555 -0.0551047 -0.1304441
0.26845777 -0.18579067 -0.09827404 0.06869527 0.21576393 0.0291593 -0.4607577 -0.28384605
-0.22841612 -0.07496282 -0.08283651 0.14898431 -0.15190351 -0.16305478 -0.17229548 -0.05537537
-0.1869066 0.21315047 -0.22758928 -0.029647991 -0.12561649 0.2723319 0.16424018 0.070132345
0.3334466 -0.14803897 -0.13543446 -0.23247474 -0.3749487 -0.13681388 -0.27796003 -0.2644107
-0.40421346 -0.119860426 -0.2173648 -0.4016405 -0.33011073 -1.3141661 -1.3733964 -1.2962027
-1.3393419 -1.3941121 -1.3362813 -1.2902672 -1.3383914 -1.4145601 -1.2442392 -1.2656733
-1.2472467 -1.4237673 -1.3312002 -1.2911139 -1.3009967 -1.2363938 -1.2984633 -1.3564175
00000000: 46ce 4b3f a601 a8bf a426 a4bf f74f b3bf
00000010: bfec a4bf b2e5 a4bf 4fb6 abbf 5bb0 afbf
00000020: 211b acbf 8ac8 abbf af7d adbf c7ae 9fbf
00000030: d78c a8bf f440 a5bf 98eb a8bf 162d a8bf
00000040: 7572 a5bf bcb9 9dbf ef42 a4bf 22c0 a0bf
00000050: b8f7 a2bf 35c9 9c3e 1b04 3abf e606 8fbe
00000060: d499 d6be 54f2 7fbe 0bcd 10bf 1520 06be
00000070: b5b3 44be 7230 31be ef44 17be d94e e0be
00000080: 1fa1 98be bcab 243e 89c1 533e 4438 0bbe
00000090: 39df 77be db2b fabc a35d c1bc 8973 8c3d
000000a0: 809e df3d ac20 d33b 5154 04bd 2526 84be
000000b0: e146 223e 6f26 72be cae1 0cbe 429e b3bd
000000c0: 9478 83bd 27ae ed3d 44a4 18be 11c8 63bd
000000d0: bdcb f3bd ace7 3d3d 922f 69be fe1d 0e3e
000000e0: 5009 e83d 5a66 823e 0109 8b3b f4de c03b
000000f0: bb1a 623d 6608 bcbd 0a58 843c 1636 bdbc
00000100: 4919 15be 69cd 253e 44f7 b4be 795e 59be
00000110: a271 3cbe 8929 1cbd 77b5 61bd 2393 05be
00000120: 4c73 893e e93f 3ebe e643 c9bd 1bb0 8c3d
00000130: 38f1 5c3e 7cdf ee3c 6fe8 ebbe 4554 91be
00000140: eae5 69be 1b86 99bd 30a6 a9bd 588f 183e
00000150: 988c 1bbe d5f7 26be 3a6e 30be 49d1 62bd
00000160: 7264 3fbe 1e44 5a3e 2a0d 69be 58e0 f2bc
00000170: 9ca1 00be 166f 8b3e 942e 283e 8ca1 8f3d
00000180: 83b9 aa3e 8797 17be 55af 0abe dc0d 6ebe
00000190: 47f9 bfbe f018 0cbe c750 8ebe d760 87be
000001a0: 11f5 cebe 6279 f5bd e194 5ebe d3a3 cdbe
000001b0: 4604 a9be 9836 a8bf 74cb afbf f8e9 a5bf
000001c0: 8e6f abbf 4472 b2bf 440b abbf 7a27 a5bf
000001d0: 6950 abbf 4e10 b5bf 3b43 9fbf 9501 a2bf
000001e0: c8a5 9fbf 023e b6bf c564 aabf 3843 a5bf
000001f0: 0f87 a6bf 2742 9ebf 0c34 a6bf 179f adbf
