models/decoder.model (torch, 416321 bytes, 7 tensors)

embedding.weight f4 [128, 32]
000000 9b 23 ce 3e 58 09 16 3f 4d 96 2a bd 62 a7 1b 3e
       0.4026154 0.5860801 -0.041647244 0.1520057
000010 ed ff 20 bd 6c 49 29 3e ad 66 10 3d c8 4a 0a 3d
       -0.03930657 0.16531914 0.03525417 0.033762723
000020 e9 33 45 3f ee 48 06 3f a5 c0 ca 3e 12 de 2d 3d
       0.77032334 0.5245503 0.396001 0.04244811
000030 4b 5d c0 3d d5 da 57 3f 61 c6 05 be 91 47 9a 3e
       0.09392794 0.84318286 -0.13063957 0.30132726
000040 83 c5 b0 bc 40 af 36 3f 70 b0 94 3f c6 56 56 bd
       -0.021578556 0.7136116 1.1616344 -0.052328847
000050 47 59 14 3f 24 06 af be e4 a2 cd be fa 58 80 3c
       0.57948726 -0.34184372 -0.40163338 0.015667427
000060 66 81 2b be de 3d 26 3e a0 b2 9a 3e 8c 7b 23 3e
       -0.1674858 0.16234538 0.30214405 0.15965098
000070 91 15 2e 3f 1b 2d a2 3d 2d 92 fc bd 48 9b 9c bc
       0.6800166 0.079187594 -0.12332568 -0.019117013
000080 0b 2c a3 3f 94 43 be 3f 64 b5 21 be 41 02 06 3c
       1.2747816 1.4864373 -0.15791851 0.008179248
000090 d2 5c cc 3e 27 f7 bf 3f 96 8b 51 bf cc c9 58 bf
       0.39914566 1.49973 -0.81853616 -0.8468292
0000a0 62 72 46 3f 14 9a e7 bf 8e d9 13 3e 1f 85 93 3f
       0.77518284 -1.8093896 0.1443846 1.1525
0000b0 03 0d e4 be bf 3c 3b bf d7 ef 07 c0 e2 48 16 3f
       -0.44541177 -0.73139566 -2.1240137 0.5870496
0000c0 a1 6c c1 3f 59 d7 29 bf cd 53 8a 3f a6 aa cd bf
       1.5111276 -0.6634422 1.0806824 -1.6067703
0000d0 60 ce 90 bf 3d ce 9f 3d 6f be a2 bf f2 e5 3c be
       -1.1312981 0.07803009 -1.2714366 -0.18447092
0000e0 8e 28 13 3f 80 93 cb bf 8d 49 c1 bf d8 b1 b6 3f
       0.57483757 -1.5904388 -1.5100571 1.4273024
0000f0 93 f0 2f bf 45 63 72 3f 35 d3 bd be 14 7b c5 bd
       -0.6872646 0.94682723 -0.370752 -0.09642616
000100 fe 72 e7 be 6a 90 08 3e 73 59 8d bf e6 e6 bb 3e
       -0.4520492 0.1333634 -1.1042923 0.366996
000110 0f 8b df ba f0 0f b3 be c2 51 ad 3f 3d 64 0c 40
       -0.0017054992 -0.34973097 1.3540576 2.193618
000120 14 37 e1 3e bf b7 06 c0 59 f7 82 3c 46 38 e5 be
       0.43987334 -2.104965 0.015987085 -0.44769496
000130 c1 62 91 bf 39 35 0d bd 83 6f 60 3f 0c ce fe 3e
       -1.1358262 -0.034474585 0.87670153 0.49766576
000140 70 c1 07 3f 98 79 ea be 36 e4 55 3f 74 bd f4 3e
       0.5302954 -0.45795894 0.8355135 0.4780079
000150 9a f2 e0 be 7a 57 ba bf 07 73 a2 bd 00 3f cd bf
       -0.4393509 -1.4557946 -0.07932096 -1.6034851
000160 93 6f 03 3f f6 dc a4 bf 79 53 6b 3f 0b fe 49 bf
       0.51342124 -1.2879932 0.91924244 -0.78903264
000170 7a a2 10 bf b5 2f 9e 3f 40 13 21 bf 9e 73 3e bf
       -0.5649792 1.2358309 -0.6292 -0.7439517
000180 8c 21 3f bf 26 e6 e2 bf dc 6a 6d 3f 9d 14 6b bf
       -0.74660563 -1.7726486 0.9274118 -0.9182833
000190 50 fe 80 bf e6 89 8b be b2 07 8a bf d4 da 05 bf
       -1.007761 -0.27253646 -1.0783598 -0.5228703
0001a0 95 56 f9 be 86 f8 53 bf 1e a4 12 c0 f3 7b 86 3e
       -0.4869887 -0.8280109 -2.291267 0.2626644
0001b0 a5 1f 98 be c0 e7 ce 3e b8 73 78 3f 56 b0 a1 bf
       -0.29711643 0.40411186 0.9705157 -1.2631938
0001c0 82 c7 37 3f ad 6e 9c be b5 88 bc 3f 52 e1 b9 3e
       0.717888 -0.3055319 1.472922 0.36304718
0001d0 b2 db 9f bf 80 d4 b1 be c4 b1 28 be 23 dd 94 3f
       -1.2488921 -0.34732437 -0.16474062 1.1629986
0001e0 9e e3 67 be 9e 7d 5d bf 28 cd b8 bf ef 37 0e 3f
       -0.22645423 -0.865198 -1.4437609 0.555541
0001f0 fd 59 b1 3f 72 9b e4 bf 58 ba 89 3d a1 9f a5 bf
       1.3855587 -1.7859938 0.067249954 -1.293934
000200 d9 45 55 be f5 a6 f8 3c 03 4d d5 3e c1 67 ab 3e
       -0.20827426 0.030353049 0.41660318 0.33477595
000210 63 a8 65 3d a0 9a 8f 3f e2 b7 b5 bf 19 03 8e 3e
       0.05606879 1.1219063 -1.4196742 0.27736738
000220 f5 01 9c 3e 7f a3 54 3f ea 53 91 3f 24 92 be 3f
       0.30470243 0.83061975 1.1353734 1.4888349
000230 0b dc 8b 3e 94 3f 23 3f eb 70 c0 3f 2a 0f 81 bf
       0.27316317 0.6376889 1.503446 -1.0082753
000240 86 25 8a bd 7f d9 1b 3e d8 4c 36 bf 8e d3 0c 3d
       -0.06745438 0.15219687 -0.71211004 0.03438144
000250 e5 16 f9 bd e8 6b 34 3d 5b 8a 2b c0 e7 13 69 bf
       -0.1216257 0.04404822 -2.6803195 -0.91045994
000260 93 49 6a 3f a8 7f d7 bd 5f 74 ca 3f cf 16 cc 3f
       0.91518515 -0.10522395 1.5816764 1.5944461
000270 70 8c f5 3f e5 19 a2 be 61 1d 21 40 0b f6 9b 3f
       1.9183483 -0.3166038 2.5174181 1.2184461
000280 03 9a a3 bd ff ae 79 3e 61 0d 88 3f cc 2a 5c 3e
       -0.0798836 0.24383162 1.0629083 0.215007
000290 a5 a8 7a 3f 45 ca ce bf 6c ef 01 3f 93 c4 72 3f
       0.9791358 -1.6155478 0.50755954 0.948312
0002a0 35 ff 44 3f 38 94 04 40 ec fd a1 3e a3 bf 02 3f
       0.76951915 2.0715466 0.3163904 0.51073664
0002b0 12 42 93 3e 54 59 72 3f 24 24 99 bf 75 06 7b 3e
       0.28761345 0.94667554 -1.1964154 0.24514182
0002c0 87 34 a3 3f f2 41 50 3f 6e 75 b6 bf 6c 33 20 bd
       1.2750405 0.81350625 -1.4254587 -0.03911154
0002d0 02 09 0a 40 2a f4 db 3e e8 26 86 bf 3e 04 10 bf
       2.1567998 0.4295972 -1.0480623 -0.56256473
0002e0 d4 65 ae 3f 52 9c 5d 3f 46 54 34 bf e1 e2 16 be
       1.3624825 0.8656665 -0.7044109 -0.14734985
0002f0 d9 9c eb 3f 42 b5 09 bf 84 44 88 be cd 30 7e 3f
       1.8407241 -0.537922 -0.26614773 0.99293214
000300 1f 47 1e c0 15 1f bf bb f9 f2 99 3e 18 ae 9c bf
       -2.473091 -0.0058325627 0.30068186 -1.2240629
000310 99 ed b5 be 7c 11 96 3f 4a 25 31 c0 2c 41 da be
       -0.35532835 1.1724086 -2.767901 -0.42627847
000320 ad 69 c0 3e 67 fe 92 3c 04 fc b6 3f 3d 23 97 bf
       0.37580624 0.017943574 1.4295659 -1.1807629
000330 79 c9 a3 3e ba b2 69 3f a6 c8 c1 3f 13 a6 80 bf
       0.3198965 0.9128834 1.5139358 -1.0050682
000340 a3 b2 91 3e 92 05 e7 3f 24 3b ab 3f ce b5 42 3e
       0.28456602 1.8048575 1.3377423 0.19014665
000350 7b 27 75 be 57 c8 8c bc cb 4d 29 bf 29 19 89 3f
       -0.23940842 -0.017185373 -0.6613433 1.0710803
000360 a3 47 e7 be 93 40 62 bf 2b c6 17 bf b4 59 27 3e
       -0.45171842 -0.8837978 -0.59286755 0.16342813
000370 d0 00 8a be 21 27 21 3b 2e 4f a4 3e b1 cf 09 bf
       -0.26953745 0.0024589973 0.3209166 -0.53832537
000380 ee df a8 3f 41 cd f8 be 0e 13 9b be 7f 1f 11 c0
       1.3193338 -0.48594096 -0.30287975 -2.2675474
000390 7b 4f 45 bf b7 cb f4 be e8 cc 6b 3f 59 75 e0 be
       -0.770744 -0.47811672 0.9210954 -0.4383953
0003a0 59 a2 f6 be 69 02 16 bf 41 58 de 3f a2 2b 0f c0
       -0.48170736 -0.5859743 1.7370683 -2.2370381
0003b0 58 f0 b5 be 91 ab 63 be a8 63 2f 3e df 73 95 bf
       -0.3553493 -0.22233416 0.1712786 -1.1675986
0003c0 10 5e 2e 3e d9 f7 3a 3f fe 67 08 3e b7 71 8b bf
       0.1702807 0.73034436 0.1332092 -1.0894078
0003d0 52 5a b9 bf 83 bb 92 3e 37 61 92 bf ba ac 6a bf
       -1.4480689 0.28658685 -1.1435918 -0.9166981
0003e0 a0 a0 8c bf be d1 7e 3e d4 22 b5 bf 13 1d cf bd
       -1.0986519 0.24884698 -1.4151254 -0.10112967
0003f0 53 5b c4 bc 77 2d de be b8 f4 40 3f 94 ff 50 bf
       -0.023969328 -0.43394062 0.7537341 -0.8163998

lstm.weight_ih_l0 f4 [512, 32]
000000 ef b6 f8 bc ce c6 da bb c9 8d 41 bd aa 26 a2 3d
       -0.030360667 -0.0066765314 -0.047254357 0.07917531
000010 a7 8a e2 bd 96 53 f1 3d ff bf 02 3e e3 f4 35 3e
       -0.11061602 0.11783521 0.12768553 0.17769198
000020 b2 5d be bd d8 e5 b4 bd d1 70 f0 3c 3a 27 9e 3d
       -0.09295215 -0.08832902 0.02935067 0.077223256
000030 19 c9 ff 3d 1e e4 28 be 94 ff 3e 3e 87 c6 6b bd
       0.12489528 -0.1649327 0.18652183 -0.057562377
000040 b9 37 5c 3c b5 07 99 be 0d 2f 1c 3c a1 47 c0 bd
       0.01344102 -0.29888692 0.009532702 -0.09388662
000050 19 66 19 3d f5 a8 4b 3e 3a 54 9a bc 28 4e eb bd
       0.037450884 0.1988867 -0.01883899 -0.114895165
000060 a5 d3 0e be 5f 15 13 3a c5 24 f3 bc 82 a6 8f 3d
       -0.13947923 0.00056107895 -0.029680619 0.07014181
000070 cf 26 0f be 0a a1 5b 3d db dd c8 3d 7e 6d 99 bd
       -0.13979648 0.053620376 0.098079406 -0.07491587
000080 e7 46 9f 3d 28 45 1f 3f c1 35 7c bd fe de 83 3e
       0.077771954 0.622149 -0.0615747 0.25756067
000090 5c e2 24 bf 68 da 89 be 56 15 a1 be 21 a6 2d be
       -0.64407897 -0.26924443 -0.3146159 -0.16957904
0000a0 7a ee 85 3e 7d 0a 04 3e 28 fb f9 bd aa d4 4b 3e
       0.26158506 0.12894626 -0.122061074 0.19905344
0000b0 f3 34 2b be af f1 16 bd 13 61 38 bd ce 17 e0 3d
       -0.16719417 -0.03685158 -0.045014452 0.109420404
0000c0 94 ec f4 bd e5 23 94 3e 0d 45 5c 3e b4 b0 dd 3e
       -0.11959186 0.28933635 0.21510716 0.43298876
0000d0 f7 b3 bf 3e 83 1a d5 3e 03 57 a3 3e df d5 84 3d
       0.3744199 0.4162179 0.31902322 0.06486105
0000e0 e8 86 06 3e ea 46 0d be d5 6e b9 3e 86 00 c6 bd
       0.131374 -0.13796583 0.3621737 -0.096680686
0000f0 5f ce 66 3e a0 d7 8c be 4a 6d 86 be 8e d9 8c 3e
       0.22539662 -0.2750826 -0.26255256 0.2750973
000100 c0 1a 09 bf 44 1c e3 3e e6 b6 70 3f 96 5d b8 be
       -0.5355644 0.44357502 0.9402908 -0.360089
000110 9b 63 d5 bc 9b 2f 30 bf e2 ea 18 3d 1a 41 43 bf
       -0.026048472 -0.6882264 0.037333377 -0.7627121
000120 21 18 bf bb 8a f9 f0 3e 7b eb 1d 3d 71 4c 44 be
       -0.005831734 0.47065383 0.03855465 -0.19169785
000130 65 2d 1c 3e c7 29 2e 3e 52 b2 c3 3e c4 75 ab be
       0.15251692 0.17008124 0.38221985 -0.33488286
000140 00 9b d1 3e c2 82 b1 3e a6 7c 12 3f 40 04 4a 3e
       0.40938568 0.34670073 0.5722145 0.19728184
000150 a4 53 2f bd 5c 49 fe 3d 74 c9 18 be 09 6a 84 be
       -0.042804375 0.12416336 -0.14920598 -0.25862148
000160 df 25 d9 bd ba e8 00 bf c8 fe 4f 3f c5 7e ed 3e
       -0.106029265 -0.5035511 0.8124814 0.4638578
000170 d2 1e 28 be 4c 46 0d 3e 65 cb 63 bd c7 55 fb 3d
       -0.16418007 0.13796347 -0.055613894 0.1227222
000180 fd 4d 16 bf 2f 10 2f bf 04 0b b1 bf bb ba fc 3e
       -0.5871275 -0.6838407 -1.3831487 0.49361214
000190 02 85 33 3f 28 a8 20 bf ad b2 19 3f 9d 00 a5 3e
       0.7012483 -0.62756586 0.6003826 0.3222703
0001a0 ee b7 87 3f 99 3f 25 3f 1c 97 17 3f f4 11 5e bf
       1.0603006 0.6455017 0.5921495 -0.86746144
0001b0 1d d6 4e be 93 cf 49 bf f0 23 3c bf c6 0d ad bf
       -0.20198865 -0.7883236 -0.73492336 -1.3519828
0001c0 ab 67 07 bf 6a 74 ea 3f d2 df 76 3d 28 d2 59 3f
       -0.5289256 1.8316777 0.060272045 0.850863
0001d0 d6 29 04 3f e8 ba 21 3e f3 a0 1c 3f 08 c0 ce 3e
       0.51626337 0.15793955 0.6118309 0.40380883
0001e0 b1 84 f2 3f 84 c7 34 3f 37 ff ea 3f 51 04 fe 3e
       1.8946744 0.70616937 1.8359135 0.49612668
0001f0 1a 9d 1c 3f 68 f9 a6 3e 11 1c ac bf 53 40 c6 3e
       0.6117722 0.32612157 -1.3446065 0.3872095
000200 b3 b2 0a bd 8e bb a0 be ae 43 47 be 90 1d 83 bd
       -0.033861827 -0.31393093 -0.19459412 -0.06402123
000210 52 83 52 bd 66 cc c5 be b9 0e 16 3e 00 98 cc bd
       -0.051394768 -0.38632506 0.14654054 -0.09989929
000220 64 2f 90 be f4 c6 09 3e 20 fc 90 3e 58 96 f4 3b
       -0.28161156 0.13454801 0.28317356 0.0074642114
000230 3f 80 07 3c 3a 45 4e 3e 12 8b 29 3e 13 ea f7 be
       0.008270322 0.20143595 0.16556957 -0.48420772
000240 f0 93 01 3e 06 87 c2 3e 85 53 02 be 45 f7 d9 bd
       0.1265409 0.3799364 -0.12727173 -0.10642866
000250 f8 17 55 bd 26 24 4f bd f9 54 9e 3e 71 19 c5 be
       -0.05202481 -0.050571583 0.30924204 -0.38495973
000260 b4 6e 56 3e 59 4c d7 be b9 e3 31 3e 20 8e 3d 3e
       0.20940667 -0.42050436 0.17372026 0.18511248
000270 48 b2 ed bd 46 d8 bf 3d d3 46 c3 bd 17 a3 b7 3e
       -0.1160627 0.09367423 -0.09534993 0.35866615
000280 e5 15 73 3f 6a 1a 60 be 63 8b b7 be fb 0c 8c 3e
       0.94955283 -0.21885076 -0.3584853 0.27353653
000290 f9 2c c0 3a 29 fb 3f bf 61 37 eb 3e 00 6e 2e bd
       0.001466184 -0.74992615 0.45940688 -0.042585373
0002a0 37 f3 8e be fa c5 fd be 87 d6 f2 be 57 4e 9b be
       -0.27919933 -0.49565107 -0.47429296 -0.30333206
0002b0 98 f6 56 3d 59 92 40 3f d8 bd a2 be eb 49 df be
       0.052481264 0.7522331 -0.31785464 -0.43611082
0002c0 39 a7 45 3e f2 4f 0c 3f df 10 b8 be 58 fd 2d 3e
       0.19302072 0.54809487 -0.35950372 0.16991174
0002d0 07 35 64 bf 13 63 a8 be 0d b0 8b bf 06 25 a7 be
       -0.89143413 -0.32888088 -1.0913101 -0.32645434
0002e0 83 85 4c 3e 93 62 35 bf 0f a5 70 be 9f 9e 2e 3e
       0.19972806 -0.7085354 -0.23500465 0.17052697
0002f0 e3 9a 4b bd 2b 56 85 bf cf 51 05 bf eb 4c bb 3e
       -0.04970826 -1.0416921 -0.52077955 0.3658212
000300 ff 81 d1 be a6 a0 2a bf e6 e7 26 3f 56 3d b9 bf
       -0.40919492 -0.6665138 0.651976 -1.4471843
000310 4f 02 06 bf b9 4d 6c be fc c5 27 bf d8 78 90 bf
       -0.5234727 -0.23076524 -0.65536475 -1.1286879
000320 63 81 00 be cb 65 9e 3c f3 16 17 be f8 ae 52 3f
       -0.12549357 0.019335648 -0.14754848 0.8229823
000330 86 65 28 3f 42 02 be be 93 bb ba be 29 0c 5f 3f
       0.6577991 -0.37111098 -0.36471233 0.8712793
000340 c0 b2 0a c0 d5 44 5a bf 69 0c 31 3f a7 f8 4e bf
       -2.16716 -0.8526128 0.6915956 -0.80848163
000350 d4 c7 e1 3f c9 b2 06 bf 0a 65 c6 3e 04 ba e1 3e
       1.7639108 -0.52616554 0.38748962 0.4408723
000360 35 42 86 bf e9 20 44 3f 0f 13 f1 bc 3c 78 d1 bf
       -1.0488955 0.76612717 -0.029428033 -1.6364818
000370 3b fe 3f 3f b1 c1 dc 3f da 0c 2e bf 05 e5 3c be
       0.749973 1.724661 -0.6798836 -0.18446739
000380 02 67 57 be b2 16 9d be 85 61 d1 3d e5 c0 26 be
       -0.21035388 -0.30681378 0.102236785 -0.16284521
000390 e1 40 a3 3c 08 46 8c be 5e 6c bb bd 64 3a 1b be
       0.019928398 -0.2739718 -0.09151529 -0.15158993
0003a0 d0 18 0e be e6 63 88 be 3e 24 b8 be 22 f0 88 bc
       -0.13876653 -0.26638716 -0.3596515 -0.016716067
0003b0 3b 56 54 be 0f 78 a2 be 45 3f a4 bc d8 c3 9c be
       -0.2073602 -0.31732222 -0.0200497 -0.30618167
0003c0 15 41 34 3c 2d ef b5 be 6f c2 ab be 54 a5 48 3e
       0.011001845 -0.3553404 -0.3354678 0.19594318
0003d0 04 cf 90 be c7 9d a3 3e 1a 49 bc 3e 46 3f fb bd
       -0.2828294 0.31956312 0.36774522 -0.12267928
0003e0 94 ab 20 3e e8 9a 1c bd 2d fb 4d be ab ee 4b be
       0.15690452 -0.038233668 -0.20115347 -0.19915263
0003f0 fe 7f 38 be f7 65 cc 3d 8f cb 80 3e 6f 9c 25 be
       -0.18017575 0.09980386 0.25155303 -0.16172956

lstm.weight_hh_l0 f4 [512, 128]
000000 a6 66 8c 3e 7d 85 cb 3e 59 d8 1a 3e 2b c6 02 be
       0.27422065 0.3975028 0.15121593 -0.12770908
000010 ab 23 b1 3d 25 e8 1b bf dc df 8d 3e 59 19 26 3f
       0.08649381 -0.609011 0.27709854 0.6488243
000020 40 a9 3b bf f8 3d 4d be 2b 42 ea 3f 98 dd 6a 3f
       -0.7330513 -0.2004317 1.8301443 0.91744375
000030 cf c9 e8 be 24 7c 53 be 87 9c 12 be 7e ac 7e 3e
       -0.45466468 -0.20652825 -0.14317523 0.24870488
000040 0f 4d cc 3e 6d b2 cc be 70 e6 89 3e 84 0a 00 be
       0.3990254 -0.39979878 0.26933622 -0.12504011
000050 6a 8d 1b bd 87 cf a2 3d 59 cb 53 3e 92 13 17 bf
       -0.03797666 0.07949739 0.2068304 -0.59014237
000060 e0 80 8f 3d 48 8e a7 bd bd 00 4a 3e 0d a5 63 3f
       0.07007003 -0.08181435 0.19726844 0.8892372
000070 fa 28 ba 3d 5a db d9 3f b9 97 82 3e cb 01 d8 bd
       0.09089847 1.7020066 0.2550638 -0.10547217
000080 06 fa 21 be aa 91 10 3e 1e 30 a7 be db 99 c3 3f
       -0.15818033 0.14118066 -0.32653898 1.5281328
000090 8a 49 14 3f a5 68 e2 be 0f 74 06 3f 22 8c 00 bf
       0.5792471 -0.44220462 0.5252084 -0.50213826
0000a0 b5 ee 21 3d 1f 1f 0d 3e 49 dc 3e be a6 72 c4 3e
       0.03953429 0.13781403 -0.1863872 0.3836872
0000b0 94 55 0e 3c 9d d4 ec be 74 99 81 be 49 2a de 3e
       0.008687396 -0.4625596 -0.25312388 0.43391636
0000c0 d6 03 9d 3d 30 f6 07 3f 2d a2 ad bf 03 c5 e0 3e
       0.07666747 0.5311003 -1.3565117 0.43900308
0000d0 b1 f9 8f 3e 8b 4f fb bd bd 83 3b 3e 4f 4c 0a 40
       0.28120187 -0.12271031 0.18311973 2.1609075
0000e0 e2 17 fa bf 87 88 6f 3e 6e 64 47 be 61 47 02 c0
       -1.9538538 0.23391925 -0.19471905 -2.0356066
0000f0 f9 ac ba be 1d 3a 24 3e c7 d6 00 bf 48 43 a6 be
       -0.36460093 0.16037793 -0.50327724 -0.32473207
000100 97 1a 88 bd e6 db 7e bf 2e f7 92 3c c6 07 91 be
       -0.066456966 -0.9955429 0.01794013 -0.28326243
000110 44 74 af be 86 c7 5d 3d 75 3c 22 bd 64 0f b5 3e
       -0.3426839 0.05414536 -0.039608438 0.35363305
000120 ca 3f 93 3e 2c 28 4d 3f d4 eb 22 be d3 9d 3b bd
       0.28759605 0.8013942 -0.15910274 -0.04580481
000130 d0 ef 2a be 46 8c 67 be d2 53 9c 3d af 2f 82 bc
       -0.16693044 -0.22612104 0.07633175 -0.015891878
000140 c8 36 65 3e 2c f9 41 be 36 81 27 be 37 95 d4 3d
       0.22384179 -0.18942708 -0.16357884 0.10380023
000150 f1 e8 d3 be c2 fa 33 be db 37 3a 3f 55 c0 92 3e
       -0.41388658 -0.17576125 0.7274148 0.28662363
000160 2f 39 12 3f c3 b9 23 3f 18 a7 3d 3f 45 8e b3 be
       0.57118505 0.63955325 0.7408309 -0.3506948
000170 cd ae 7e 3d e4 e4 b0 3c d4 d2 ad be df 10 68 bd
       0.06217842 0.021593519 -0.33949912 -0.056656715
000180 4f f3 49 3f 75 5a 02 be 03 4f df be 5c cf 32 bf
       0.78886884 -0.12729819 -0.4361497 -0.69847655
000190 24 80 1c be f8 5b d1 be a1 78 54 3e a7 b7 a8 3e
       -0.15283257 -0.4089048 0.20749141 0.32952616
0001a0 10 d4 13 3e 49 5e d0 3d 23 c8 b8 3f 4c a9 18 be
       0.14436364 0.101742335 1.4436077 -0.14908332
0001b0 ae 2e 1d be 52 18 77 3e 88 67 85 3d ca 85 17 be
       -0.15349838 0.24130371 0.06513888 -0.1479713
0001c0 2c d2 e4 bc 07 c9 95 be e6 ff 61 3d bf b8 11 3d
       -0.027932249 -0.29254934 0.055175684 0.03557658
0001d0 d7 67 11 bc e7 a3 08 3f f6 d8 3e 3c 0c a2 91 3e
       -0.008874855 0.53375095 0.011648407 0.28443944
0001e0 70 28 42 3f 72 d4 9a 3e 6a b2 3e be 68 25 6d 3f
       0.7584295 0.30240208 -0.18622747 0.926352
0001f0 9f 56 2e bf 3f 26 c3 be dc 64 25 be 57 3f 4c bb
       -0.68100923 -0.38115117 -0.16151756 -0.0031165683
000200 a1 4b 96 bd eb f2 cd 3f b2 27 6c be 70 5b 4b be
       -0.07338644 1.6089758 -0.23062018 -0.198591
000210 92 a3 60 3e 81 e8 e3 bc d1 36 31 bf 34 5a 4a bf
       0.21937397 -0.027820827 -0.6922427 -0.7904389
000220 1a b4 22 be 86 d3 d6 bd 28 99 88 bd 07 92 b5 3c
       -0.15889016 -0.10489564 -0.06669837 0.022164358
000230 2a e3 4e be 7a bf 8e 3e 1c d3 a5 3e 9f b2 0b bf
       -0.20203844 0.2788046 0.32387626 -0.5456943
000240 7f 14 36 3e bb 85 9c 3d 14 81 c0 be 64 d8 d7 bd
       0.17781256 0.076426946 -0.3759848 -0.1053932
000250 42 15 3e bb f2 45 a7 be 85 78 be 3c 2d 3f 60 3d
       -0.002900437 -0.32670552 0.023250828 0.05474775
000260 20 de a0 be ee bc 96 bd 30 9f 8b bd 60 d0 31 bf
       -0.31419468 -0.07360254 -0.06817472 -0.6945858
000270 96 89 84 3e 18 8a 27 be a8 18 de bc ee 77 99 bd
       0.2588622 -0.16361272 -0.027111366 -0.07493578
000280 41 fa 26 3d 60 4f a9 3e bd d6 a8 3e 12 70 49 3e
       0.040766004 0.3306837 0.32976332 0.19671658
000290 df e8 d1 bd 14 32 a9 bd ea a7 90 3d 6a c5 2f 3e
       -0.10249495 -0.08261505 0.07063277 0.17165151
0002a0 c9 77 6a be e6 03 d0 3e d5 b4 fe bd b9 81 c0 be
       -0.22897257 0.40627974 -0.12436835 -0.3759897
0002b0 f0 ea 05 3d d2 22 d1 3c 53 78 36 3e 0e b2 d5 3d
       0.032694757 0.025529299 0.17819338 0.10434352
0002c0 32 b7 35 bf 60 fd 12 bf d9 cb 61 bf 5b da d7 be
       -0.7098266 -0.5741787 -0.8820167 -0.4215878
0002d0 ba 0f c3 be cc d7 16 3e 88 a3 a2 be e7 ac fc bd
       -0.38097936 0.14730757 -0.3176539 -0.12337666
0002e0 93 fb af be 83 d5 9f bb 42 79 37 bf 49 16 52 bf
       -0.34371623 -0.0048777475 -0.716694 -0.82065254
0002f0 cd 96 5b bd 2f 53 cd 3c 80 fb e3 bc 00 28 28 bf
       -0.05361061 0.02506408 -0.027829885 -0.65686035
000300 69 ce 8f 3e 24 5f e1 3e 0c 86 a4 be 3c cb 08 3e
       0.28087166 0.440179 -0.3213352 0.13358778
000310 38 91 f0 3e 0e eb ba 3d b7 47 2b 3e 07 3a ca be
       0.46985793 0.091268644 0.16726576 -0.39497396
000320 7c 24 b5 3d 09 b6 5f 3d cb a9 bd 3e f7 34 ab be
       0.088448495 0.05461696 0.37043604 -0.33438846
000330 ed 98 21 bf 77 2c ce 3d 81 a9 32 3e ae 53 af be
       -0.6312397 0.10067075 0.17447473 -0.3424353
000340 04 1a 0b 3d 6f f4 c3 3c 19 5a b5 3c 9e 59 2b be
       0.033960357 0.023920266 0.022137688 -0.16733405
000350 4c c4 02 bf b8 b0 28 3f 5c 5d ed bd ec dc 2c be
       -0.51080775 0.6589465 -0.115900725 -0.1688115
000360 83 6c 1a 3d e5 e6 32 be c0 50 af 3d 02 c0 48 3e
       0.03770114 -0.17470892 0.08560324 0.19604495
000370 d5 9a 8c 3d a2 64 bb 3d 2b 7d fe bd ad 8b 9b be
       0.06865469 0.091500536 -0.12426218 -0.30380002
000380 d6 2b 05 3d 94 7d 2e be 50 67 a4 be 47 af 2b bf
       0.03251251 -0.17040092 -0.3211007 -0.67064327
000390 1b 1d b9 3c 0c 37 40 3e 1d ba 04 3f af 20 ce 3d
       0.022596886 0.18770999 0.51846486 0.10064828
0003a0 b7 8a 3b 3f 04 e8 8b bf 6c 3e 2c bf c8 5b ce bd
       0.7325854 -1.093018 -0.6728275 -0.100761
0003b0 9c 68 80 bc ba ad 1a be e9 da 7c 3e 02 ea b4 3e
       -0.015674882 -0.15105334 0.24692883 0.35334784
0003c0 39 67 f1 3e 4f 93 a3 3e 3f 48 c8 bc 5e 96 ce 3c
       0.47149065 0.31948325 -0.024448512 0.025218185
0003d0 2b 4a c0 3d d6 d4 b2 3e bd 6c f0 3d 1d 6b c2 3a
       0.093891464 0.34928006 0.1173949 0.0014832948
0003e0 e1 01 ba bf b4 60 02 be 9c e2 65 be e0 de 6e 3d
       -1.4531823 -0.12732202 -0.22449726 0.05831802
0003f0 64 cf 20 bd b9 bf b3 bd d2 bf e6 be 5e 7e 12 bc
       -0.039260283 -0.087768026 -0.45068222 -0.008941261

lstm.bias_ih_l0 f4 [512]
000000 66 ce 21 3f ce 89 6e 3d 69 95 96 3d 75 e2 f2 3e
       0.63205564 0.05823689 0.073527165 0.47438398
000010 2b af 59 3e 5c 55 a6 be 2a 8f d7 3d 18 5d e5 3e
       0.21258228 -0.32487 0.10525353 0.44797587
000020 49 32 c0 3e 7f f1 3a bd 05 47 1a be 8f 87 58 be
       0.37538365 -0.045640465 -0.15066154 -0.21145461
000030 15 7b 08 bf 7c 1e 5b 3e b6 64 23 bf 82 c2 7e be
       -0.5331281 0.21398348 -0.6382555 -0.24878886
000040 ee 2f 02 3f fd ed 89 3e 28 cd ac bd f7 d5 fa be
       0.50854385 0.26939383 -0.08437568 -0.48991367
000050 16 78 6d be 73 65 53 be 48 58 9d 3e b5 11 00 3e
       -0.2319034 -0.20644169 0.30731416 0.12506755
000060 11 8f 31 be 13 19 b9 be 98 61 21 bc 27 f8 97 be
       -0.17339732 -0.36151943 -0.009849928 -0.29681513
000070 a1 73 d1 be 67 f1 60 bf ba 0d 0d bd a5 3f c2 3c
       -0.4090853 -0.8786835 -0.03443692 0.023711989
000080 2b 02 dc be 66 b6 2f 3e 76 df aa 3e 5b 67 06 3f
       -0.42970404 0.17159423 0.33373612 0.5250146
000090 e8 cd 1f 3e a7 f4 9f 3e de 8c b6 3e fd 06 1e 3f
       0.15605891 0.31241342 0.35654348 0.61729413
0000a0 57 46 7d bd c5 64 6a 3e 11 d6 ed be c9 a3 3f 3d
       -0.06183466 0.22890003 -0.46452382 0.046787057
0000b0 80 ce 55 be c2 00 10 3e 74 97 33 be 8a d3 29 bf
       -0.20879555 0.14062789 -0.17538244 -0.6633841
0000c0 db 79 82 be 50 fb e6 be 94 c1 2f bf 5d dc e9 be
       -0.25483593 -0.4511361 -0.6865475 -0.45675936
0000d0 c8 64 f7 bd 17 22 97 3b 7f 09 5b 3e 10 92 fe be
       -0.120797694 0.004612218 0.21390341 -0.49720812
0000e0 14 9b a7 3d 2c 10 60 be 9d ef 5d be eb 4e cf bd
       0.08183876 -0.21881169 -0.21673436 -0.10122474
0000f0 fd 29 a1 3c 46 10 f4 be e4 a2 99 bd 90 a3 ad bd
       0.019673342 -0.47668666 -0.07501772 -0.08478463
000100 2a 35 c2 3d f2 c5 ab 3e 0d c0 a1 3d 72 91 01 be
       0.094827965 0.33549458 0.07897959 -0.12653139
000110 84 2e 67 be 86 51 97 bd ea 05 d2 bd 29 17 95 bd
       -0.22576338 -0.07388596 -0.10255034 -0.07279808
000120 54 8b 33 be f3 09 a4 be 7f 06 f2 3e 42 9f 35 bd
       -0.17533618 -0.3203884 0.4727058 -0.044341333
000130 07 b4 b6 be 2d 2b 97 bc d7 0f 2e 3f 9f ce 8f 3e
       -0.35684225 -0.018453205 0.6799292 0.28087327
000140 3b 51 81 be 0a 98 03 be 3a e3 11 3e de a8 cc 3d
       -0.25257286 -0.12850967 0.14246836 0.09993146
000150 68 93 b7 be 0e 06 ff be 5b 9d 64 3f a7 d9 01 3f
       -0.3585465 -0.49809307 0.89302605 0.50722736
000160 e5 32 2f 3f a4 aa b1 bd f8 83 e7 ba 41 a1 83 3d
       0.68437034 -0.08675125 -0.0017663231 0.06427241
000170 6d 8d c0 be e5 0c 8b 3e 19 da 61 3e f1 ec 47 3d
       -0.376079 0.27158275 0.22055854 0.04880995
000180 30 33 ca be 4b f4 32 be 4d 3f 32 3d e9 b9 9f be
       -0.39492178 -0.17476003 0.0435174 -0.31196526
000190 ad 4b 33 bd 06 e1 8f be 2b 81 f2 bb f0 5f 49 be
       -0.043773342 -0.28101367 -0.007400652 -0.19665504
0001a0 e2 1c b1 3e 7d 67 1e bf 19 91 a7 3d f7 59 8a 3e
       0.34592348 -0.6187666 0.08181972 0.27021763
0001b0 ec 8b 43 be b7 be 32 3f a3 65 33 3f 7c e9 d0 be
       -0.19096345 0.6982226 0.7007696 -0.40803134
0001c0 45 26 c5 bd 0a 02 3c be 75 45 cb be 52 b7 47 3d
       -0.0962644 -0.18360153 -0.3970143 0.048758812
0001d0 17 2c 20 be 03 ae d4 be b1 45 34 be b7 26 89 3e
       -0.15641819 -0.4153901 -0.1760471 0.2678735
0001e0 49 f6 30 bf c6 6d da be a0 58 a6 be fe 01 02 3f
       -0.691258 -0.42661875 -0.3248949 0.5078429
0001f0 cd bd 8a 3e c4 a4 5e 3d 6a 75 d6 be 48 7b 29 3e
       0.27097932 0.05435635 -0.41886455 0.16550934
000200 bc 79 24 3e 3c c2 2f be d0 b0 32 bf d8 ae 4d 3e
       0.16062063 -0.17163938 -0.69801044 0.20086229
000210 d1 32 f6 bd bb e4 2c 3c 17 d6 2d 3e ea 11 ee 3d
       -0.12021411 0.0105525805 0.169762 0.116245106
000220 b7 92 b2 3e 37 c6 5f 3d 13 e0 21 3f 4f 42 7d 3e
       0.3487756 0.05463239 0.63232535 0.24732326
000230 12 08 13 3f 72 39 49 3e b0 67 18 3f c8 d6 90 bd
       0.5743419 0.1965082 0.59533215 -0.07072216
000240 b3 d9 38 3e 8b 48 81 3d 59 b4 3e bf dd d8 f3 3e
       0.18051796 0.063126646 -0.7449394 0.4762639
000250 33 e3 19 3f 66 c4 eb be cc 8a 69 be f4 d4 84 be
       0.60112303 -0.46048278 -0.22806853 -0.2594372
000260 ae 9c 12 bd af ef 75 3f 95 48 34 bf 66 67 aa 3e
       -0.035793953 0.96068853 -0.7042325 0.33282012
000270 02 35 00 3f 2f 17 f1 bd 41 dd 07 3f 26 a5 64 3e
       0.50080884 -0.11772 0.5307198 0.22328624
000280 35 a6 6f 3f 93 35 2f bf c8 65 6d 3e 70 ac 99 3e
       0.93612987 -0.6844112 0.23183358 0.30014372
000290 4b 33 d4 be 9f 0c 21 3f 0d cd fb 3e 3c d4 8e 3e
       -0.41445383 0.62909883 0.4917988 0.27896297
0002a0 34 07 44 be 0b 1c 52 3e 70 3b 2b 3f ae 4b 7b 3d
       -0.19143373 0.2051851 0.6688757 0.06135147
0002b0 b1 62 3e 3d 67 61 19 be e6 a5 31 bf dd a5 82 3e
       0.04648084 -0.14978562 -0.69393766 0.2551717
0002c0 e4 28 7b 3e 0c 47 ec 3e f5 36 f3 3e ef 39 40 3f
       0.24527317 0.46147954 0.47502866 0.750884
0002d0 3c 52 8f be cb 81 24 bf 6a 24 2a bf 1f 78 10 3f
       -0.27992427 -0.6426055 -0.66461813 0.5643329
0002e0 86 6e da be 13 23 9a bd 72 25 2f 3e 53 1d 2d bd
       -0.42662448 -0.07526221 0.17104128 -0.042264294
0002f0 91 e1 8e be 4c f8 70 3e 1d 97 e9 3e ef 9a d8 3e
       -0.2790647 0.23532218 0.45623103 0.42305705
000300 0c 78 3a 3e 88 ee 39 3c 39 94 c4 3e 8f ab 31 be
       0.18209857 0.011348374 0.38394335 -0.173506
000310 2a 2d 40 3e 5a f4 9f 3d 33 ea 4a 3c 9b 19 4b 3e
       0.18767229 0.07810278 0.012384939 0.19833986
000320 bb a9 be be a0 6b 43 3d 16 a7 0f 3f a4 b8 60 be
       -0.3723887 0.04771006 0.5611433 -0.21945435
000330 ec 13 62 3e af ed d1 bc 52 0c eb 3e b7 9a 67 be
       0.22077912 -0.025626032 0.45907837 -0.22617613
000340 e1 ed 66 be 2a f9 20 bf 0a 75 23 bd a7 35 c6 bc
       -0.22551681 -0.62880194 -0.03990654 -0.024195505
000350 bd da 03 bd b7 7d 25 3f 75 be 4e bf 9d 3f 13 bf
       -0.032191027 0.6464495 -0.80759364 -0.5751894
000360 d6 a9 e5 3e ba 19 b0 3d 97 04 63 3e f7 5f 83 3e
       0.44856137 0.08598657 0.2216972 0.25659153
000370 aa 69 82 3f a9 ca 87 3d ba 7c d9 3e 74 ae b2 be
       1.0188496 0.06630451 0.4247797 -0.34898722
000380 75 0a 9e bc 1b fa 1b 3e 95 03 6c be 91 e6 13 3f
       -0.019292096 0.15232126 -0.23048241 0.5777369
000390 db 51 45 3e 7c cb a7 be ec 64 01 bf 34 95 0b 3f
       0.19269507 -0.32772434 -0.5054462 0.5452454
0003a0 a4 ab 9b 3e 7b 81 66 3e c8 0f 2f 3e cf b2 98 bd
       0.3040439 0.2251033 0.17095864 -0.0745598
0003b0 fa 8a 2a 3f 71 e5 06 be 83 a2 4d 3f 19 2e 63 3f
       0.6661831 -0.13173462 0.803261 0.88742214
0003c0 42 38 a2 be e7 5c 1e be 22 cb dd bd 32 6e 58 bf
       -0.31683546 -0.15465127 -0.1082976 -0.84543145
0003d0 af e2 58 be 91 68 5a 3f 89 4a 58 be 38 f5 01 3f
       -0.21180223 0.85315806 -0.21122183 0.507648
0003e0 80 e6 91 3e 99 35 b6 3d a8 ab 84 3f af f3 38 3f
       0.2849617 0.08896942 1.0364885 0.7224683
0003f0 5e cf 0f 3f bf d5 fd 3d fb f7 18 3d 96 18 9c be
       0.5617579 0.123942845 0.037345868 -0.30487508

lstm.bias_hh_l0 f4 [512]
000000 33 cc 1e 3f b0 50 90 3d ce d5 96 3d 2f b2 b0 3e
       0.62030333 0.0704664 0.07364999 0.34510943
000010 b1 31 4f 3e 5d c1 5c be 72 40 a4 3d 7c c5 e0 3e
       0.202338 -0.21558137 0.080201045 0.4390067
000020 6c 42 dc 3e b6 cf fd bd 9e 3b 2a bc 40 d9 8a be
       0.43019426 -0.12393133 -0.01039019 -0.27118874
000030 d7 24 22 bf a7 14 ed 3d a8 dc 35 bf e5 02 6c be
       -0.63337463 0.11576205 -0.7103982 -0.23047979
000040 00 ea f5 3e 95 1e 8a 3e 4d e7 87 bd b1 51 06 bf
       0.4803009 0.26976457 -0.06635914 -0.524684
000050 5a 38 80 be e7 10 0f be b6 e3 d9 3e b1 54 0b 3d
       -0.25042993 -0.13971291 0.42556542 0.034016315
000060 8c 94 77 be de 5e c6 be 4e d0 82 3c ef df ae be
       -0.2417776 -0.38744253 0.015968468 -0.34155223
000070 8f 9c d8 be e5 a3 6e bf 10 d1 35 3d 23 ec 1a bd
       -0.42306945 -0.93218833 0.04438883 -0.037822854
000080 75 dc 0d bf ba c7 5b 3e 5f 0b 8c 3e 92 cd 1c 3f
       -0.55414516 0.21462908 0.27352425 0.61251175
000090 51 b4 62 3d 32 7b cf 3e cb 8e b4 3e a7 37 33 3f
       0.055347744 0.40523678 0.35265192 0.70006794
0000a0 e2 25 07 3d f3 fa 8c 3e 0c 42 f0 be 7a 6f f6 3d
       0.032995112 0.2753521 -0.4692539 0.12032981
0000b0 cf 4d ec bd 2d 54 16 3e 5f 46 2f be 85 3c 16 bf
       -0.11538278 0.14680548 -0.17116688 -0.58686095
0000c0 cb 1b 74 be 51 e9 15 bf e7 91 16 bf fe b7 fe be
       -0.23838727 -0.5855914 -0.5881638 -0.4974975
0000d0 ef 62 b1 3b f1 09 22 3d 9f 58 aa 3e 85 e1 e9 be
       0.005413405 0.039560262 0.33270738 -0.4567987
0000e0 76 93 13 3e fa 68 bf be ad 47 ce bd 89 c2 44 be
       0.1441172 -0.37384778 -0.10072265 -0.19214834
0000f0 a9 89 22 bd 0f 4e a2 be 6c dc 2a bd a5 4d 4d be
       -0.039682064 -0.3170018 -0.041714117 -0.2004915
000100 14 30 39 3e 52 af e8 3e c7 8a d2 3d 2e 90 e5 bd
       0.18084747 0.4544626 0.10280376 -0.11209141
000110 77 b7 75 be 76 01 dc bd de a8 1b be 9b 71 a4 bd
       -0.23995768 -0.10742466 -0.15201136 -0.08029481
000120 8e 6f 6f bd b8 6b 9c be b1 71 ec 3e fe 51 bd bb
       -0.058455996 -0.30550933 0.4618049 -0.0057775965
000130 67 cb f5 be 13 64 f9 bd 7b d9 23 3f 73 76 8b 3e
       -0.48006746 -0.12177291 0.64003724 0.27238807
000140 6d 7d a1 be 4d 7a 85 be e3 e4 4c 3d 87 05 33 3e
       -0.31541005 -0.2606987 0.05002297 0.17482577
000150 a6 b7 c0 be c3 68 13 bf 50 fb 46 3f 00 63 e6 3e
       -0.37640113 -0.5758173 0.7772722 0.44997406
000160 1d 1b 32 3f b0 a4 d7 bd 0d 47 09 3b e5 d6 18 bd
       0.6957262 -0.105294585 0.002094689 -0.037314314
000170 3b 5d 82 be fc 9e 8f 3e 65 d3 40 3e 2a a0 44 bd
       -0.25461754 0.28050983 0.1883064 -0.048004307
000180 16 9c b0 be bb bd 37 be 40 e1 ba 3d f3 cb b2 be
       -0.34494084 -0.1794347 0.09124994 -0.34921226
000190 90 23 cc 3a 05 73 33 be f8 6c 5c bb c7 51 70 be
       0.0015574563 -0.17524345 -0.0033634286 -0.23468696
0001a0 54 2b a8 3e 28 74 18 bf d0 ae bc 3d 34 4c 73 3e
       0.32845557 -0.5955224 0.0921303 0.23759538
0001b0 5b 88 93 be 37 40 1e 3f fc 27 39 3f 94 73 fd be
       -0.28814968 0.61816734 0.72326636 -0.49502242
0001c0 59 fd 56 bd 5d 96 81 be 1f 41 ac be 20 1b 86 bd
       -0.052487705 -0.2531003 -0.33643433 -0.065481424
0001d0 42 22 40 be a6 bd 10 bf 17 12 cc bd 6a 1a aa 3e
       -0.18763068 -0.5653938 -0.09964388 0.33223277
0001e0 ff 1a 1c bf 5c ac f9 be 9e db aa be 22 5a 0c 3f
       -0.6097869 -0.48764312 -0.3337068 0.5482503
0001f0 2d e0 d5 3e d6 ac c6 3d b2 53 ec be 0a 1b 5d 3d
       0.41772595 0.097009346 -0.46157604 0.053980865
000200 1e 87 26 3d 92 1c 98 be 1b d5 0c bf 2d b8 30 3e
       0.0406562 -0.29709297 -0.55012673 0.17257757
000210 7e ce eb bd 72 62 93 3d cd 38 f2 3d 5f 13 dd 3c
       -0.11513995 0.07196511 0.1182724 0.026986776
000220 14 c0 97 3e 44 36 b0 3c 20 c8 1e 3f de 31 4f 3e
       0.2963873 0.02151025 0.62024117 0.20233867
000230 62 68 fd 3e 2d 06 1f 3e a4 f8 1d 3f 6c df ac bd
       0.494937 0.155297 0.6170752 -0.08441052
000240 ee 99 3e 3e 40 2a 02 3e 9b b9 42 bf 55 15 cf 3e
       0.18613407 0.1271143 -0.7606446 0.40445963
000250 3c f9 0c 3f 2c cd f0 be cc 11 54 be d3 9c 82 be
       0.550678 -0.47031534 -0.20709914 -0.25510272
000260 96 91 7e 3c 3f 8c 65 3f 77 43 37 bf 50 25 99 3e
       0.01553764 0.89667124 -0.7158732 0.2991128
000270 eb 14 fd 3e b0 30 d2 bd f8 c6 1a 3f 2e 46 a2 3d
       0.49430022 -0.10263193 0.6045985 0.07923542
000280 a2 12 5a 3f 1c 88 2a bf 28 7e a0 3e 68 4a 81 3e
       0.8518468 -0.66613936 0.3134625 0.2525208
000290 31 aa 00 bf 42 e7 0d 3f c0 0f f0 3e 20 2e 74 3e
       -0.5025969 0.55430996 0.46887016 0.2384572
0002a0 9f f9 05 be f9 b3 60 3e e6 86 3b 3f 1a 51 02 bd
       -0.13083504 0.21943654 0.73252714 -0.031815626
0002b0 a6 94 0a 3c 09 38 72 be 0d be 30 bf 97 e6 87 3e
       0.008458292 -0.23654188 -0.69039994 0.26543114
0002c0 d1 e0 7c 3e 28 1b fb 3e 4f 82 04 3f f5 ec 26 3f
       0.24695136 0.49044156 0.51761335 0.6520532
0002d0 16 e7 92 be fa 6f 28 bf e6 ad 42 bf dc 4b 05 3f
       -0.2869193 -0.6579586 -0.760466 0.5206888
0002e0 dc 57 b3 be 56 a6 2b be 62 42 ea 3d 3c 9c bc 3d
       -0.3502797 -0.16762671 0.11438443 0.09209487
0002f0 c7 1e af be 58 c7 81 3e 35 cd e1 3e c6 89 87 3e
       -0.3420317 0.253474 0.44101873 0.264723
000300 05 42 50 3e 83 6d 87 3b 53 52 f4 3e 8c 25 81 be
       0.20337684 0.004132928 0.47719058 -0.25223958
000310 c0 b6 2d 3e 7a 77 c0 3d 1e 61 b1 3d 2d 91 bb 3e
       0.16964245 0.09397788 0.08661102 0.36634198
000320 e8 f2 eb be aa 86 c4 3d 13 62 ec 3e 06 3e 98 be
       -0.4608376 0.09595998 0.46168575 -0.2973482
000330 34 79 ac 3d ab aa 8d 3d ba cd c9 3e 7a 5a 8b be
       0.08421555 0.06917318 0.3941477 -0.27217466
000340 8f b7 48 be 02 cb 22 bf 73 f2 20 be bc 20 0d bc
       -0.19601272 -0.63591015 -0.15717487 -0.0086137615
000350 56 c8 9f 3c 0f 37 0d 3f e4 98 35 bf fb 10 01 bf
       0.019504707 0.5516214 -0.7093642 -0.50416535
000360 7a 3f 9a 3e 62 61 94 3d 4f ec 5a 3e 6a b1 01 3e
       0.30126554 0.07245137 0.21379207 0.12665334
000370 00 3c 7b 3f cb 5a 4c 3e 47 22 91 3e 0f 95 b9 be
       0.9813843 0.1995651 0.28346464 -0.36246535
000380 95 17 1b 3d 92 d4 5f 3e c3 bb 2e be 05 5e 37 3f
       0.037864286 0.21858433 -0.17063813 0.7162784
000390 96 a0 0f 3e 8a a9 d0 be 77 7a 07 bf 7f 27 33 3f
       0.14026102 -0.40754348 -0.5292124 0.6998214
0003a0 91 e4 9b 3e 95 b3 6d 3e b2 3e cb 3d f7 b1 b9 bd
       0.3044782 0.23213036 0.099240676 -0.09067147
0003b0 3d 5f 35 3f 12 a4 6b be 37 ec 66 3f a6 53 7a 3f
       0.7084845 -0.23011807 0.90204185 0.9778389
0003c0 d9 46 67 be e2 4b c3 bd ab fc 95 bc 83 6a 53 bf
       -0.2258562 -0.09535958 -0.018308958 -0.825844
0003d0 63 b0 5b be 61 97 5b 3f 2f 1e 88 be bd 58 e8 3e
       -0.21454005 0.8577786 -0.26585528 0.45380202
0003e0 91 5b 41 3e 71 c0 83 3d 9c 12 7a 3f 78 0e 13 3f
       0.18882586 0.0643319 0.97684646 0.5744395
0003f0 b5 0a 19 3f 5d c1 84 3e dd 61 c1 3d db 73 c4 be
       0.5978196 0.25928774 0.09442494 -0.3836964

decoder.weight f4 [128, 128]
000000 cd 9e 72 c0 42 7d e2 bd 35 f9 16 bf 75 f9 ee 3e
       -3.7909424 -0.11059047 -0.5897401 0.46674696
000010 98 7c d2 3d 74 6e f7 be 12 bc 77 bf 2d 10 80 40
       0.102776706 -0.48326457 -0.9677135 4.0019746
000020 da 05 8b bf 6a 6f 53 3b b4 85 f2 3e 82 11 25 c0
       -1.0861161 0.0032262453 0.47367632 -2.5791936
000030 0b 77 d1 be 57 c7 63 3f 83 ac 24 bf 33 7d 30 c0
       -0.40911135 0.88976043 -0.6432573 -2.7576416
000040 35 69 c0 3f d8 77 ae bf d5 9f a9 3e 7c bb 8d bf
       1.5032107 -1.3630323 0.33129755 -1.1072841
000050 c0 09 13 3e b5 b2 dd 3e 70 11 89 3e df 81 66 3f
       0.14359188 0.43300405 0.26771116 0.9004192
000060 31 05 d0 3f 97 8a 97 3e a6 36 37 3d 57 15 47 40
       1.6251584 0.29597923 0.04472985 3.1106775
000070 7c 28 07 be 8f ce 25 40 c3 57 1d 3f f8 d2 9f be
       -0.13199037 2.5907323 0.6146204 -0.31215644
000080 a4 33 2e bf 7a 8e 18 bf 11 27 08 3f c3 c3 0f 40
       -0.6804755 -0.595924 0.5318461 2.2463233
000090 18 e8 02 3f 19 76 51 bf df c4 87 3f 8c a7 19 40
       0.51135397 -0.8182083 1.0606955 2.4008512
0000a0 f8 fc a4 bc 7e 0f 4a 3f 42 6e 38 3e 16 f4 c0 bf
       -0.020140156 0.7892989 0.1801081 -1.5074489
0000b0 5a ea 2f be 0d da 7f bf 0f 10 79 3e ad 01 dd 3d
       -0.17179242 -0.99942094 0.24322532 0.10791335
0000c0 d6 71 4a bf bd fb e4 3e 33 f3 05 40 08 cf 7e 3f
       -0.7907995 0.4472331 2.0929687 0.99534655
0000d0 f3 3e 07 3f 6c 71 8e be 7e d8 c9 3e 22 f8 93 3f
       0.5283043 -0.2782091 0.39422983 1.1560099
0000e0 66 90 ce bf b0 af b9 3e 54 66 00 3e 93 7a 6d 40
       -1.6137817 0.3626685 0.12539035 3.7106063
0000f0 c2 c2 b0 bd 05 9d c7 be e2 6c 9b 3e d5 a0 6a bf
       -0.08630897 -0.38986984 0.30356508 -0.9165166
000100 45 e8 91 bf 8e bd 83 c0 ae 71 cd 3e 1d 1c 1e be
       -1.1399008 -4.116889 0.40125793 -0.15440412
000110 7e 1b ad be 03 45 67 bd 37 ac b3 bf 1b f1 a2 bd
       -0.33810037 -0.0564623 -1.4036931 -0.079561435
000120 f1 f2 31 3e f8 aa 86 40 bf 8b 44 40 db 08 0c bf
       0.17377831 4.20837 3.0710294 -0.5470101
000130 da c0 45 bf 0d 73 16 bf ef 37 f8 3e be 64 6b 3e
       -0.77247393 -0.58769304 0.48480174 0.22987649
000140 b4 c0 45 3f e7 83 25 3f 9f 97 54 3f f6 ad 03 bf
       0.77247167 0.6465439 0.83043855 -0.5143732
000150 7f fe a6 bf 41 0c 78 be b2 c7 61 c0 72 ad c1 c0
       -1.3046416 -0.24223424 -3.5278134 -6.0524225
000160 1e 0c 8b 3f 05 77 1c be fc 8e 73 3f 89 59 bf bd
       1.0863073 -0.15279777 0.9514005 -0.09343249
000170 40 d1 08 bf 0c 4f a7 3f 10 8b ab be 99 a4 65 3f
       -0.5344429 1.3070998 -0.33504534 0.8970428
000180 f4 e8 5a c0 ee ea 25 be f2 92 1f be 42 1d bf 3d
       -3.4204683 -0.162029 -0.15583399 0.09331752
000190 b5 24 07 c0 e0 21 59 3e 30 09 8c 3e a5 66 9c 3e
       -2.1116154 0.21204329 0.2735076 0.30547062
0001a0 a1 39 c3 3f e7 4f 89 3f ac 7f 15 c0 9d 40 03 3e
       1.5251962 1.0727509 -2.3359175 0.12817617
0001b0 3a 2b 96 bd 4d b8 63 3f 4d 59 07 3f 7f 41 4d 3f
       -0.073324636 0.88953096 0.5287064 0.80178064
0001c0 2b fb 74 40 dc 13 4e 3e d4 f0 1c bf bb fc 74 3f
       3.82783 0.20124763 -0.61304975 0.95698136
0001d0 1f c0 ce be 59 8d 8b be 96 16 fc be a1 63 bc bd
       -0.40380952 -0.27256277 -0.49235982 -0.0919869
0001e0 72 fb 4a be c7 2a 99 be e8 f5 6a 3f db 69 a9 3f
       -0.19822481 -0.2991545 0.91781473 1.323543
0001f0 36 65 81 bf df dd 69 bf 09 76 08 3e 3b c6 15 3f
       -1.0109012 -0.91354173 0.13326277 0.585056
000200 a7 83 cd 3e 92 65 8a be a2 2a b9 3e f1 b0 ac be
       0.40139505 -0.27030617 0.3616534 -0.33728746
000210 92 03 bf 3e 02 c3 94 3e ac 96 a7 3d cc 24 b8 bd
       0.3730741 0.2905503 0.08183035 -0.089913934
000220 7c 54 84 3f c3 66 16 be e9 59 c5 be 07 02 17 3e
       1.0338283 -0.14687638 -0.38545159 0.14746867
000230 3e 9d 19 3e bb 0e 81 bf 8d 1e 02 ba d9 93 80 3d
       0.1500139 -1.008262 -0.0004963659 0.062782
000240 51 eb 43 3d e8 d7 27 3e 34 c8 08 3e f3 55 ea 3e
       0.047831837 0.16390955 0.13357621 0.457687
000250 3d 94 b1 be fb 04 e0 bc fd fd e7 3e ff 76 7c 3e
       -0.3468341 -0.027346125 0.45310965 0.24654768
000260 ca 6b fb be 2b 49 37 be 1a 7b 8d 3e f3 0d 95 be
       -0.49105674 -0.17899005 0.27632982 -0.29112205
000270 51 a4 d7 3e 4d b8 1a be 05 36 49 3e bc 04 12 3f
       0.4211755 -0.15109368 0.19649513 0.57038474
000280 4a 37 df 3c 6e 04 df be 7e e9 47 bf b5 36 3f bf
       0.027248044 -0.43558067 -0.78090656 -0.7469285
000290 70 20 5a 3d 33 e0 53 3f c8 b4 98 bf 52 35 2c bf
       0.05325359 0.82763976 -1.193017 -0.6726886
0002a0 1e 75 7a 3c 47 5c c2 be 0a 39 2b be 82 e4 79 3d
       0.015286712 -0.37961027 -0.16720977 0.061008938
0002b0 4e a8 8d bd 59 2d da 3e 68 20 b3 be b0 e0 bd be
       -0.06916867 0.42612723 -0.34985662 -0.37085485
0002c0 91 41 a7 3e e4 58 3e be 09 57 9d 3e 8f 63 c4 bd
       0.3266721 -0.18588597 0.30730465 -0.09589302
0002d0 b2 85 ab be e6 4e fb bc ac e3 bd 3e e5 fd 19 3b
       -0.3350044 -0.03067727 0.37087762 0.002349728
0002e0 a6 64 05 bf 13 58 17 3d ac b3 e4 3d 15 12 13 3f
       -0.521067 0.03694923 0.11167082 0.57449466
0002f0 d0 bf 92 3e fb dd b1 3e e4 02 90 be af 5f 91 3e
       0.28661966 0.3473967 -0.28127205 0.28393313
000300 17 23 2f be a9 3c a6 3e 80 ab f7 be 2e 8c 69 be
       -0.1710323 0.32468155 -0.48373032 -0.2280738
000310 cd 0b 49 3f 46 92 aa bd 34 cb 0c 3f 92 59 31 3e
       0.7853363 -0.08328681 0.54997563 0.17319325
000320 3c ae 85 be 9e 44 04 bd 63 11 8f be 13 e4 08 3f
       -0.26109493 -0.032292 -0.27942953 0.53473014
000330 ed 62 55 be 82 8a 87 3e 43 ea 73 bf 99 37 08 3e
       -0.20838518 0.2647286 -0.9527933 0.13302459
000340 8e ef 8a be ca e1 92 be 78 2d 5b be 91 53 19 be
       -0.2713589 -0.28687888 -0.21404064 -0.14973284
000350 ba ed c4 3e 51 d7 1a be dd 54 d2 bd 77 f6 6e bd
       0.3846262 -0.15121199 -0.10270093 -0.058340516
000360 6e dc 86 bf 7a 89 f6 3d 9c 15 0e bf 7f 5b 18 3e
       -1.053602 0.1203794 -0.55501723 0.14878653
000370 a2 0c 9d 3e 3a 51 32 bf b3 e9 a1 3e 08 ef 80 3e
       0.306737 -0.6965519 0.3162361 0.25182366
000380 1b 58 15 be c4 52 4e 3e 9a 5a 0a 3e 0b 44 94 be
       -0.14584391 0.2014876 0.13511124 -0.28958163
000390 18 ea 3e bd 4c e1 23 be a9 f6 45 3d 02 2c 4c bf
       -0.046609968 -0.16003913 0.048330937 -0.7975465
0003a0 03 f2 0f 3e 75 be 28 3e 5a 0c 0b 3e 5a ab ef be
       0.14057164 0.16478904 0.1357893 -0.46810418
0003b0 88 b1 d6 3d fc e2 98 be 21 9b 2e bf 4e af b9 be
       0.1048308 -0.29860675 -0.6820546 -0.3626656
0003c0 d4 f5 2d be b0 b1 ef bd f2 3d 94 3e 18 e4 34 3e
       -0.16988307 -0.11703813 0.2895351 0.17665136
0003d0 7a 65 d1 bd 34 6a 0f 3e a4 30 9c 3e f2 79 6d be
       -0.10224433 0.14005357 0.3050586 -0.2319105
0003e0 b3 4b 79 be 98 f2 44 3e 0d 8e df be 4c 82 88 3d
       -0.24345283 0.19233167 -0.43663064 0.06665477
0003f0 db f8 a0 3f be e9 9d 3d af db 33 3e c2 76 0b 3e
       1.2575945 0.077105984 0.17564271 0.13619521

decoder.bias f4 [128]
000000 75 bd 77 3f 48 ee 3a bf d9 67 3b bf 2d 6a 54 bf
       0.96773463 -0.7301984 -0.73205334 -0.8297451
000010 da 60 30 bf 74 32 5a bf f9 7e 59 bf a9 9a 35 bf
       -0.68897784 -0.85233235 -0.8495937 -0.7093912
000020 d0 36 40 bf 79 57 3d bf cf 7e 3e bf a1 72 5e bf
       -0.7508364 -0.739616 -0.74412245 -0.8689366
000030 e7 d1 26 bf fb 9e 20 bf e9 89 38 bf d2 3b 3e bf
       -0.65164036 -0.62742585 -0.72085434 -0.7431003
000040 1c d1 57 bf 22 97 4d bf 87 97 26 bf ae 05 31 bf
       -0.8430345 -0.80308735 -0.6507496 -0.6914929
000050 94 a4 5c bf ab 1d 68 bc 09 da a7 be 3d c4 8c bd
       -0.86188626 -0.01416723 -0.32783535 -0.06873367
000060 53 6a 87 be 29 5d 36 be 10 9f 98 bd 0f 25 b8 bd
       -0.26448306 -0.17808975 -0.07452214 -0.08991443
000070 39 1b 13 bd 6f d9 11 3e e0 63 2f be ea 74 86 be
       -0.035914633 0.142431 -0.17127943 -0.26261073
000080 d7 a0 45 be 81 cf d7 bd cb 03 1b be fa ac 20 bd
       -0.19299637 -0.10537625 -0.15138166 -0.039227463
000090 ac 50 05 be 2b b3 c2 be 7c 98 f3 bd 10 17 58 3b
       -0.13019055 -0.3802732 -0.118943185 0.003297273
0000a0 a1 7a 1f 3e 5f 90 98 3e e6 6d ee bd f3 b8 35 bc
       0.15574123 0.29797646 -0.11642055 -0.011091459
0000b0 66 31 4b bd 2b b5 71 be ab 75 52 be b0 2c 90 3c
       -0.049607657 -0.23604266 -0.205527 0.017599434
0000c0 2b bb 4a be 27 cf 4b 3e 51 ef ff bd af d0 3c be
       -0.19797961 0.19903241 -0.12496818 -0.18438981
0000d0 25 1e 4a be 5f a0 16 be e4 3f c0 bd ce 70 dd bd
       -0.19738062 -0.14709614 -0.09387186 -0.108125314
0000e0 b2 7e 47 bb 8a e9 92 bd 2b 75 97 3d 9f 6d 46 be
       -0.0030440507 -0.0717345 0.07395395 -0.19377755
0000f0 22 08 72 3d b3 15 d0 bc d7 b9 f8 3d 30 a9 14 3e
       0.059089787 -0.025400972 0.12144821 0.14517665
000100 06 c3 7a 3d 51 46 8d ba f0 71 61 be af c1 ac 3d
       0.061221145 -0.0010778402 -0.2201612 0.0843538
000110 0e 62 52 be 6f 48 83 bd 9e 61 cf 3d e8 7b a4 be
       -0.20545217 -0.064103 0.10126041 -0.32125783
000120 5b df fb bd 17 84 95 be 87 03 77 be fb ba b3 3c
       -0.12298461 -0.2920234 -0.2412244 0.021939745
000130 ee be d9 bd 5a 72 04 be 6c 04 02 be 57 87 47 bc
       -0.1063212 -0.12934247 -0.12697 -0.012178264
000140 9e 45 25 be ce 9a 68 bc dc 7e b4 bd b0 d5 74 3d
       -0.16139838 -0.014197065 -0.08813259 0.0597741
000150 97 12 3d be 14 81 22 be 5c 8a ee bd 48 92 0a be
       -0.18464123 -0.15869552 -0.11647484 -0.13532364
000160 2e b2 0e 3e 33 7f 59 3d 7a c8 da bd 47 81 3e be
       0.13935158 0.053099822 -0.10682769 -0.18604003
000170 8d 03 be bd b0 18 ac bb 97 08 11 3d ca 66 31 bd
       -0.09278021 -0.0052519664 0.035408583 -0.043310918
000180 66 6c 28 be 4a 8e 83 be dd 53 46 bd 9b 47 b8 3d
       -0.164476 -0.25694495 -0.048419822 0.08998033
000190 86 68 94 be 4f cb 8d be ac 27 ac bd e0 19 4f bd
       -0.28985995 -0.27694175 -0.08406004 -0.050561786
0001a0 9c 4e fa bd 8c 29 87 be a4 08 69 be 43 7c 5f be
       -0.12222025 -0.26398885 -0.22757202 -0.21824746
0001b0 e1 ca a3 be bf aa 45 bf 20 a3 3f bf c1 c9 4b bf
       -0.31990722 -0.7721366 -0.74858284 -0.7960473
0001c0 fe bd 38 bf 06 86 32 bf 28 49 30 bf 3a 95 54 bf
       -0.72164905 -0.69735754 -0.6886163 -0.830402
0001d0 37 74 4f bf 46 3d 44 bf 35 d0 21 bf 85 b2 46 bf
       -0.81036705 -0.76655996 -0.63208324 -0.7761615
0001e0 dc 53 5e bf 6f e2 35 bf a5 76 44 bf ea 5c 56 bf
       -0.8684671 -0.71048635 -0.7674354 -0.83735526
0001f0 e9 fa 32 bf ad f7 4e bf ac d2 36 bf a7 8a 30 bf
       -0.6991411 -0.80846673 -0.7141521 -0.68961567
