models/decoder.model (torch, 416321 bytes, 7 tensors)

embedding.weight f4 [128, 32]
00000000: 460d 7abf 849e c3bf 27ad 863e 4bcd 9f3f
00000010: 0e90 13bf 68be f33e 2cbe 4d3e 298d 0bbe
00000020: de23 c7bf a718 553e fa0b 57bf da40 013f
00000030: 7abd c9bf 0a53 adbf 014f 923d fd1a bcbe
00000040: a91e e4bc baa4 1abf 7a3b a63f 0698 f6bf
00000050: 3aa6 4fbe f606 653e dd54 0540 3d2f b8bf
00000060: 9d36 7e3e 1f76 063f b124 e83d b8a3 3abf
00000070: deda a1bf a809 d93f b85b 273f 04b8 1a40
00000080: c230 86be b8bd d13d d195 b1be 7e9f 723d
00000090: a7f0 79be 0b05 c7be 26fc 91bf 04fb 15bf
000000a0: 92cc debe 871a dc3d b11f 95bf 5f2f 24c0
000000b0: 825c 713f 7f2e 863f 82d5 d43e 5ac2 133f
000000c0: 3c9d 19bf 96f3 853f 4d28 c53f 96e6 84bf
000000d0: 5e26 933f 42b5 9c3e ff85 88bf b9d8 24be
000000e0: 52f7 2ebf 2971 e23e 3246 703e abfe a3be
000000f0: e55d 22bf f02d c13e 0abf 643f e777 b33f
00000100: 6a0b 9fbf 2a55 36bc 1cc5 59bf 01ae 193f
00000110: ceff 25bf 7e99 973e 87ee e2bc cbcf a43e
00000120: c40c eb3e ba75 283f 0c5f 8b3f 04a4 5cbf
00000130: c014 543f 803a 79bf 9695 6dbf 90e7 e63e
00000140: 95ad a13f 2964 b5bf 4fb7 8dbf 559c 42bf
00000150: f0a4 403f b7ca 3fbf c46a 4fbf 001e 9fbf
00000160: 7ba6 cebe b529 eabd bafb d0bc 2e34 33bf
00000170: 6c90 48bf 9ee9 1a3f 8a32 4d3f 469e 1bbf
00000180: 3697 8abf 8fd8 a7bf 687e 40be d909 77bf
00000190: b766 413f e1b3 8b3f 66e5 903d cddd 30bf
000001a0: ccfc 47bf bca6 3ebf 6e48 bc3f a8ac ebbe
000001b0: de7f e6be 5b7a 1c3f e9e7 cdbf e903 aabe
000001c0: 0356 c03d 8027 e93d 88b5 023f e7b3 ebbe
000001d0: c03e 933f 5df0 b23f d22b 1440 54b5 d93f
000001e0: fded 02c0 7be5 373f 20b3 01c0 d29f bd3f
000001f0: 214e afbf e058 b83f 674b 03bf 64bb 5a3e
00000200: 0a18 8b3e 5f54 2e3f 8af3 d2bd 4012 11bf
00000210: cc1e f33d d771 a8be e402 b5be 4775 2f3f
00000220: de5d 4abf bc85 e43e ff73 06c0 d271 903f
00000230: 403d 06bf 683f 7dbf d38b 83bf 34d3 e63f
00000240: 5490 06be 1706 4c3f d2aa 5ebf 493a b0be
00000250: 8297 96be a670 e5be 899c b73f 3b11 23bf
00000260: 85db 2c3f 8b9d e5be 6f76 59bf 7093 be3e
00000270: 9678 c43c f92d 8d3f a0dc 0b3f 2844 72bf
00000280: 0a8b babd 4b5e bebf 9e15 c73e f3b7 aa3f
00000290: 21e6 5c3f c04a d7be 5c45 25c0 2dfa 48bf
000002a0: f8fd 18bf aa24 8fbf b561 cf3e b439 963f
000002b0: 8c79 efbd ff45 25be 7492 373f bbd2 2ebf
000002c0: 5a7a 733f ad0d b2bd 2f6a d6bc fc81 cb3e
000002d0: d10e bebe 79c3 903f ed83 e9be fa1a a1be
000002e0: 47ae fa3f 0195 1d3f 38b9 dabf daab 8c3f
000002f0: 5627 febf b1e9 fe3e dd47 19be 9fa3 17bf
00000300: 0b9c 813f 3985 993e 3d4f b6bb 46bf a3bf
00000310: a571 e9be 1e22 19bf 9bac d23e a145 7fbf
00000320: f811 a1bf 7070 78bf 8424 63bf 7455 ab3f
00000330: 149e 1ebe f6dd 15bf 211a 74bf 6d47 2bbf
00000340: 412a 47bf a1ae c2be 71f0 7b3f a72b d2bf
00000350: 9831 153f 43db b03e 4479 e3be de79 9abe
00000360: a1c2 973e c34c f93f fd98 bcbf c4a0 70bf
00000370: 710b a83f 61cd d2be 255b 12bf 3753 88bf
00000380: c56c 873f f3fb c4bf c3bc 3bbc 7ca1 35bf
00000390: b7f3 433e efa8 a83f 3f1e f23e dbe8 a03f
000003a0: 1b5a 243f a145 7bbf 9a79 2abd 9767 0cc0
000003b0: 8278 333f 5bf2 bd3f 8402 dabf 80be d4bf
000003c0: d5cb 88bf 9da4 753f ab81 2cbf 6453 8c3f
000003d0: da89 643f c318 1bbc 9d5d a13f 6726 84be
000003e0: 5d45 09bf 6013 c53d de27 a23f 9798 0240
000003f0: cd6a 873e 3495 b63f 69f0 d9be 9bff 45be
-0.97676504 -1.528275 0.2630398 1.2484525 -0.57641685 0.47606206 0.20092076 -0.13628067
-1.5557821 0.20810185 -0.8400265 0.5048958 -1.5760949 -1.3540967 0.07143975 -0.3673934
-0.027846651 -0.604076 1.2986901 -1.9265144 -0.20278254 0.22365937 2.0833046 -1.4389416
0.24825521 0.5252399 0.11335123 -0.72906065 -1.2644918 1.6956072 0.65374327 2.4174814
-0.26209074 0.10241264 -0.34684613 0.059234135 -0.24408208 -0.38871035 -1.1405075 -0.58586144
-0.4351545 0.10747247 -1.1650296 -2.5653913 0.9428178 1.048294 0.41569144 0.5771843
-0.60005546 1.0464962 1.5402924 -1.0382869 1.1496084 0.3060704 -1.0665892 -0.16098298
-0.6834613 0.4422696 0.23464277 -0.32030234 -0.6342452 0.3773036 0.89354 1.4020966
-1.2425358 -0.011128703 -0.8506639 0.60031134 -0.6484345 0.29609293 -0.02770163 0.32189783
0.45908177 0.65804636 1.0888381 -0.8618777 0.8284416 -0.9735489 -0.92806375 0.45098543
1.2631098 -1.4171191 -1.1071566 -0.76019794 0.75251675 -0.74918693 -0.81022286 -1.243103
-0.4036139 -0.11433736 -0.025510658 -0.70001495 -0.7834537 0.6051272 0.8015524 -0.6078838
-1.0827396 -1.3112963 -0.1879822 -0.964994 0.75547355 1.091427 0.07075004 -0.6908844
-0.7812011 -0.74473166 1.4709604 -0.46030164 -0.4501943 0.611242 -1.6086398 -0.33206108
0.093914054 0.11384487 0.51058245 -0.46035692 1.1503525 1.3979603 2.3151746 1.7008462
-2.0457757 0.71834534 -2.026558 1.4814398 -1.3695718 1.4402122 -0.5128693 0.21360546
0.27166778 0.6809749 -0.10300358 -0.5666847 0.118711084 -0.32899353 -0.35353768 0.68538326
-0.7904948 0.4463328 -2.1008298 1.1284735 -0.5243721 -0.98924875 -1.0277046 1.8033204
-0.13140994 0.7969679 -0.869794 -0.34419468 -0.29412466 -0.44812506 1.4344646 -0.63698167
0.6752246 -0.44846758 -0.8494634 0.3722186 0.023983281 1.1029655 0.5463352 -0.9463525
-0.09108551 -1.4872526 0.3888368 1.3337387 0.8628865 -0.42049217 -2.5823584 -0.7850674
-0.59762526 -1.1183064 0.40504232 1.173636 -0.11693105 -0.16139983 0.71707845 -0.682903
0.9510857 -0.08694015 -0.02617368 0.39747608 -0.3712068 1.1309654 -0.45608464 -0.31465894
1.9584435 0.61555487 -1.7087774 1.0989945 -1.9855754 0.49787667 -0.1496882 -0.5923404
1.0125746 0.29984453 -0.005563645 -1.2792747 -0.45594516 -0.59817684 0.41147313 -0.9971562
-1.2583609 -0.97046566 -0.88727593 1.3385453 -0.1548999 -0.5854181 -0.9535237 -0.6690586
-0.7779885 -0.38023856 0.9841376 -1.6419572 0.582788 0.34542283 -0.44428456 -0.30171102
0.29640678 1.9476551 -1.4734188 -0.9399531 1.3128492 -0.41172317 -0.57170326 -1.0650395
1.0580069 -1.5389389 -0.0114585785 -0.7094953 0.19135939 1.3176554 0.472887 1.2571062
0.6419999 -0.9815312 -0.041619875 -2.1938226 0.70105755 1.4839586 -1.7032018 -1.6620636
-1.0687205 0.95954305 -0.6738536 1.0962949 0.89272845 -0.009466353 1.2606694 -0.2581055
-0.53621465 0.09622836 1.2668417 2.0405633 0.2644867 1.4264283 -0.4256623 -0.19335787

lstm.weight_ih_l0 f4 [512, 32]
00000000: d561 133e 7ce6 60bc 6e9f 653c 5eec 64bd
00000010: 3a19 a6bc bc94 99ba 5feb debc 2b4c 633d
00000020: ddd3 9f3c e121 22bd 66fe 8abd c4a9 56bc
00000030: 246a 433d f7ce 913d 06bc 3bbd d8f0 463d
00000040: e7e3 833d f303 84bc 57de b83d 47f1 da3c
00000050: bcf0 dfbd 6293 c53d 458d 8a3d b226 1e3d
00000060: d858 403e 7678 b2bc 12dd 313c 8397 5dbd
00000070: e221 60bc bb09 b13b 5a38 ab3d 97df f63d
00000080: cd36 dabc 442f 59bc e2e1 2cbe 423d e6be
00000090: abde 0ebf 44c0 d9bd a63f cebc f533 cd3d
000000a0: 54da e03d 95aa f33d 5485 803d 9389 b4bd
000000b0: 17a9 60be a3b6 9a3d 5a5a ddbd dc86 07be
000000c0: 5a47 223d 1365 633d 3e2f cb3d b724 fb3d
000000d0: 1e6d f83d db9b 93be 2f2f cdbd 4cd2 dc3d
000000e0: f1b2 d33e cbf8 4bbe e6c7 233e 308f 03be
000000f0: 825a fbbd d3c4 253e d199 bf3c 340b 4f3d
00000100: 12d3 09be 1707 713c e225 14bb 77e5 d9bc
00000110: 6942 54bd 4b5b e1bb f7f9 d7bd 0ab6 0b3d
00000120: 606e 23be 9f5b 50bd d58c 473d 2a88 1f3d
00000130: 782f eabb 3401 623d 9395 223c 8bb3 a7ba
00000140: 4d28 96bd 98ac b23b 63d6 803b 66e9 163d
00000150: 4eda f33d 2aee 9a3c 5e23 05bd ea71 4bbd
00000160: 5a85 a83d 48d7 b23d c7dd f53c 81f7 8b3c
00000170: ef2a 4b3b a67e 363b 9133 923d 7765 55bd
00000180: 7ab9 fb3c 9d96 8ebd a7a8 093e 1e2f 833d
00000190: 3534 72bd 3048 e0bd 44a5 15bd abe4 a5bd
000001a0: 68ea 933c c5af 2bbe c4b4 dd3d 9e98 043b
000001b0: a7d8 63be 0669 18bd a5cc 02bd 423e 05be
000001c0: 3b8f 673d e797 8d3c 6a2b babc 693a 3c3d
000001d0: d9d6 023e 5bc6 2c3e ecbb 32bd 2bf9 df3c
000001e0: d85c 023e f6ff 8e3e 79ba e93d 567a eabd
000001f0: 12a4 eebb faca e5bd 805f 843e c017 9bbd
00000200: a075 003e 7ccc dc3d 674c 263e 5a7a 44b9
00000210: 4bca 18bc c8d0 9e3c 8947 1a3e b8af cfbb
00000220: 029f 3d3d def3 05be 882c c43d e361 39be
00000230: 7ef9 7b3d f5ce 723d ad2b 603e 518e 073d
00000240: dff8 0e3e 847c 5ebe 2a27 013d 9a87 4d3e
00000250: eacb 8b3d 09bb ccbd fc53 b7bd a886 5a3e
00000260: 90ed 1dbd 929b 9339 5f01 c1bd c2be 85be
00000270: 4d59 013e 2000 213d 4f28 19be 13be 08bd
00000280: ae6e 55bd 1496 753d 9218 563d 2fb0 c73a
00000290: 11e0 91bc 3a6c afbd 6226 30bd 478b 0dbd
000002a0: 92a9 fabc 0857 b2bd 8344 0a3b 0205 b33d
000002b0: 8c00 b9bd 679a b03d f19d fcbd 3f7f ee39
000002c0: 7a10 183c 1262 f8bd a499 7cbc 40de 1dbc
000002d0: e236 b2bd c52a 85ba 3a1a 3ebc d736 60bc
000002e0: 1c63 303d 9cc0 e53c c197 f7bc f87f e8bd
000002f0: 9e6d 6b3d 19ee 653d 4927 89bd ae3b 973d
00000300: abfc a3be bdd9 5dbe cee1 1c3e 23ed 863e
00000310: 54f7 88be 279c 2c3e e008 183e 376e 7e3d
00000320: bb0a 9abe 664a 003e 9c8d 8ebe 1562 a23e
00000330: 2a12 9abe 7e2e 95be 996c 893d 99e5 7cbd
00000340: 18dd a2be 8a4b 63bd 24c5 243e 551c b6be
00000350: 21d9 513d f497 babb 6b94 933e e7f7 92be
00000360: 0f67 953d 5170 403e e76d 84bd 4be3 31be
00000370: a140 bbbe 2fc3 ca3e ee9a 943e 1325 6f3e
00000380: b087 113e 35e8 463e 0372 77bd f79a 1fbe
00000390: 6943 f83d 35f2 8fbd a708 53bd 6ce6 91bd
000003a0: 2172 1b3e 77e3 7cbd b343 1c3e 9b48 a5bd
000003b0: 75ab b03d 472e e03d d21b 8a3d a1c1 ec3c
000003c0: c3bf 763d 6923 913c 9dc0 f5bd 4c2c 013e
000003d0: ac08 64bd c236 d6bd 9214 b6bd 33d5 0a3e
000003e0: e232 c2bd e04f 08be 2c68 1b3d dd60 8b3d
000003f0: b49a f33d 7ac2 87bd d5d7 91bd c3c0 23be
0.14392789 -0.013726827 0.014015062 -0.05588948 -0.0202757 -0.00117173 -0.027211843 0.05549256
0.019510204 -0.03958309 -0.06786804 -0.013101999 0.047708645 0.071195535 -0.04583361 0.04856953
0.06439953 -0.016115164 0.09026783 0.026726378 -0.10934588 0.09647252 0.06765226 0.03861112
0.18783891 -0.021785956 0.01085593 -0.05409957 -0.013679953 0.0054027713 0.083603576 0.12054365
-0.02663746 -0.013255898 -0.16883042 -0.4496861 -0.55808514 -0.10632375 -0.025176834 0.10019676
0.10979143 0.1189777 0.0627543 -0.08815303 -0.21939503 0.075543664 -0.10808249 -0.13235039
0.039618827 0.055516314 0.0992112 0.12262862 0.121301875 -0.28829846 -0.10018765 0.107822984
0.4134746 -0.19919126 0.15994224 -0.1284759 -0.12273122 0.16188364 0.023388775 0.050547794
-0.13459423 0.014711163 -0.0022605588 -0.026598675 -0.051821146 -0.006877338 -0.10545724 0.034109153
-0.15960073 -0.050868627 0.048718292 0.038948216 -0.007146772 0.05517693 0.009923357 -0.0012794597
-0.073319055 0.0054527037 0.003931807 0.03684368 0.11906873 0.018912394 -0.032504432 -0.049669184
0.0822856 0.08732468 0.030012978 0.017085792 0.0031000932 0.0027846484 0.07138742 -0.052098718
0.03072809 -0.06962321 0.13443242 0.06405471 -0.05913182 -0.10951269 -0.036534563 -0.081002556
0.01805611 -0.1676627 0.10825494 0.0020232568 -0.22250615 -0.037209533 -0.031933445 -0.1301203
0.05653308 0.017284347 -0.02272578 0.04595414 0.1277727 0.16872542 -0.043636248 0.027340492
0.1273073 0.27929658 0.1141252 -0.11449115 -0.0072827423 -0.11220355 0.2585411 -0.07572889
0.1254487 0.1078119 0.16240083 -0.00018737596 -0.009325574 0.019386664 0.15066351 -0.006338086
0.04629422 -0.13081309 0.09578806 -0.18103747 0.06151723 0.0592794 0.21891661 0.033094708
0.13962124 -0.21727186 0.03153149 0.20071259 0.06826003 -0.099966116 -0.089515656 0.2134043
-0.038556635 0.00028153934 -0.0942409 -0.261221 0.12631722 0.03930676 -0.14956783 -0.033384394
-0.052107506 0.05995758 0.052269526 0.0015235002 -0.017807039 -0.085655645 -0.043005355 -0.034556653
-0.030598436 -0.08708006 0.0021097965 0.087411895 -0.090333074 0.086232 -0.123348124 0.00045489703
0.009281272 -0.121280804 -0.01541749 -0.009635508 -0.08701874 -0.0010159841 -0.011602933 -0.01368495
0.043063268 0.028045945 -0.03022373 -0.11352533 0.057477586 0.05613527 -0.06696946 0.0738443
-0.32028708 -0.21665092 0.15320513 0.26352796 -0.26751196 0.16856442 0.14847136 0.062116828
-0.30086312 0.12528381 -0.27842414 0.31715456 -0.30091983 -0.29137033 0.067101665 -0.0617424
-0.31809306 -0.05549196 0.16090828 -0.3556849 0.05123246 -0.0056943838 0.2882417 -0.2870476
0.072950475 0.18792845 -0.06466275 -0.17371862 -0.36572745 0.39602038 0.29024452 0.23353986
0.14211917 0.19424517 -0.060411464 -0.15586458 0.121222325 -0.07028619 -0.051521923 -0.071240276
0.15180255 -0.061740365 0.152602 -0.08070489 0.08626453 0.10946327 0.067435876 0.028900923
0.060241472 0.01771708 -0.11999629 0.12614554 -0.055672333 -0.10459663 -0.08890642 0.13557892
-0.094823614 -0.1331172 0.037941143 0.068055846 0.11894742 -0.0662889 -0.07121245 -0.15991502

lstm.weight_hh_l0 f4 [512, 128]
00000000: 73a7 87be a274 4ebe 8b74 52bd 67d8 16be
00000010: 96d2 73bd 95f4 85bd ca6e cdbc 4f06 33bd
00000020: 0714 b53d cbb2 b4bd c794 f93c 1e1f a8bd
00000030: 0a6b 5bbc 7ab8 c03c 5165 d7bd ad4c 55be
00000040: 6d7d 9ebd 80b8 10be 494e 08be 418a 5f3d
00000050: ceb6 8dbd e56c 873d ccf9 6d3d 53a9 23bd
00000060: 20d1 183e c12d 75bd 20c2 cc3d 3b12 c43d
00000070: d693 e7bb 7542 853c de9b 953d 33a4 3a3d
00000080: ff94 a13d 77db c23c aad2 f83d ad0e 333d
00000090: 4d2b dcbd d687 03be e377 16be e7fc b83d
000000a0: 74dd 943d 0948 8ebd 3dd5 7dbd ac30 e43d
000000b0: c24e 1c3e 9391 0abe d43b 293e 2830 3abe
000000c0: fa70 983c 8205 cf3c f66c eb3b 3d67 9f3c
000000d0: a571 34bd bc9a a1bd e9c3 083e 0070 543d
000000e0: a328 ca3d d627 453d f8a4 5bbc cbba 953d
000000f0: 51c8 e2bc 4a5e bbbd 4983 a43a 54ab ca3d
00000100: 8d71 cd3d 64a1 9d3c 0e42 1e3e 2af8 f5bd
00000110: ab81 46be 738e 4cbd 680c 223d d598 e13d
00000120: a863 c33d 54e1 32be fa4b 3fbe 05c9 97bc
00000130: f0d5 653d 7961 5f3d 1670 7d3d eecf 743c
00000140: 3a4a 013e 843c d43b 6db2 7c3d d684 49bd
00000150: e76c f3bd 7c86 0abe d956 593d 25a5 64bd
00000160: 1014 f8bd 50ca 0e3e 5d20 4abc 1ced 3b3e
00000170: 9bce 01be 5e1a 0e3e 9c8e 1b3c 2dd6 103c
00000180: 340b aebd ae93 2e3d 78fd b73d 7f0f 0bbe
00000190: 07b3 073e d594 203c ae62 b0bc 7a76 303e
000001a0: 2b10 443d abf4 d43d c967 84bb e2fb 973b
000001b0: f001 91bd b695 4f3e 75ef d0bd e4d0 e5bd
000001c0: a136 513d 026c 2a3e ac41 07be 824c 77bd
000001d0: b73b cdbd f8ca ef3d ecb4 9b3d 0624 723c
000001e0: 71b1 7e3d b71a 8b3c c433 5c3d 151c f23d
000001f0: f8db 343e 7b8c cf3b 472b 82bc 7185 f03d
00000200: f293 00be 0891 243e 0a9d 9abe 9e83 61bd
00000210: 2abe 63be 297b 03be 20d8 f8bc f58b 813e
00000220: 0938 c4be 2c45 7e3d 43f5 243d f7e9 bbbd
00000230: 1dc3 683e 91a2 963d 592a 9abd cc81 183b
00000240: aec8 bd3d 7ac0 033d aa58 f3bb 9cf0 363d
00000250: 197e 2f3e a80b 9c3e 4ebd 6d3a 4de1 f0bc
00000260: d743 cebc cf06 c2bd c2f2 813d 99b2 0f3d
00000270: bd51 b43e 91b2 9ebd 7e30 3f3d 2d03 883e
00000280: 0939 423d 2114 96bd 0f12 d53d bd63 afbd
00000290: dbd0 e03e 4435 2cbe bfc2 54be 7539 8b3e
000002a0: 672d c93e 3f77 cabd bd6e a33a 240e 503e
000002b0: 88aa d23d 929e 263d f115 e73b 0ade f03d
000002c0: a025 4abe c9a8 513e 1ee6 533e b3a6 f03c
000002d0: 5bef 613d 580d af3d 442f 083e b07d 163e
000002e0: cfff 81bc e489 98be c6b7 993e 6a88 c1bc
000002f0: 7cf4 433e 09cb 1bbe 0873 d73d 7e2e 48bd
00000300: a4bb 1a3e 6af5 273e 3f44 0a3e 01d9 76be
00000310: 289d 86be 6793 75bd 6937 b8be af82 07bc
00000320: 3ee7 de3d 1784 a8bd c7c8 1bbe 387d 5d3d
00000330: 460c 3a3e 468b 3e3e 7b28 23bd 75d2 e0bd
00000340: 42ac a13d 679d 00bd c0bc d63c 3093 843d
00000350: 6c57 f3bd e053 8bbe f4d7 7ebd f37e 2d3f
00000360: 2f9c 5cbd a646 653e 73ea ff3d 20df 26bb
00000370: a89a 1abd a161 61bd 3765 4d3d a94a 083b
00000380: 5a30 403e b077 e5bd fd66 193c a8b3 873d
00000390: 6028 a93e fd97 e7be f087 183e 3613 743d
000003a0: 6d30 ca3d e6cc 83bd 49a0 9bbe fbc8 a8bf
000003b0: 2d00 2f3d c38c 5c3e e9b5 eebc d867 03bd
000003c0: 876c 4a3e dc25 8f3b c6ec f8bd 938a 9ebd
000003d0: c483 4bbd 9884 3f3e 0efd 40bd ede8 c93d
000003e0: 6bec 73bd beb8 d23d a3e5 bc3d 4a03 db3d
000003f0: 221d 2c3e 5004 f7bc 84cd 9abd 014a 8fbb
-0.2649494 -0.2016168 -0.051380675 -0.14730988 -0.059527002 -0.06540791 -0.025077242 -0.04370719
0.088417105 -0.088231646 0.03046645 -0.0820906 -0.013392219 0.023525465 -0.105173714 -0.2083003
-0.07738767 -0.14132881 -0.13311113 0.05457521 -0.06919633 0.06612567 0.058099553 -0.039956402
0.14923525 -0.059858087 0.09997964 0.0957379 -0.007067184 0.01626704 0.0730512 0.04556675
0.07889747 0.02378629 0.12149556 0.043715168 -0.107504465 -0.12844786 -0.1469417 0.09032612
0.07268801 -0.06947333 -0.061970938 0.11142096 0.15264419 -0.13532095 0.16526729 -0.18182433
0.018608559 0.025271181 0.00718462 0.019458408 -0.044053692 -0.07890841 0.13355984 0.051864624
0.09871032 0.048133694 -0.013406031 0.073110186 -0.027683409 -0.091488436 0.0012551333 0.098959595
0.10031424 0.019241996 0.15454885 -0.12010224 -0.19385402 -0.049940538 0.039562613 0.110154785
0.09540492 -0.17468768 -0.18681327 -0.01852847 0.05611223 0.054536317 0.06187447 0.014942152
0.12625971 0.0064769406 0.061693598 -0.049198948 -0.11886006 -0.13527864 0.05306134 -0.055821557
-0.121132016 0.13944364 -0.012336818 0.18352169 -0.1267647 0.13877246 0.00949445 0.008840126
-0.084982306 0.042621307 0.08983892 -0.1358013 0.13251887 0.009801109 -0.02153143 0.17232695
0.04786698 0.10398229 -0.0040406925 0.004638181 -0.07080448 0.20271954 -0.10201923 -0.11221483
0.05107749 0.16642764 -0.13208646 -0.060375698 -0.10021155 0.11708635 0.076028675 0.0147790965
0.06218094 0.016980512 0.053760305 0.118217625 0.17662036 0.0063338852 -0.015889777 0.11744202
-0.12556437 0.1607095 -0.30197936 -0.05505716 -0.2224051 -0.1283995 -0.030376494 0.2530209
-0.38324 0.062077686 0.040272962 -0.09175485 0.2273068 0.07355226 -0.075276084 0.0023270724
0.09266792 0.03216598 -0.007426341 0.044663057 0.17137946 0.30477643 0.0009069041 -0.029404307
-0.025178833 -0.09473955 0.063451305 0.035082433 0.3521861 -0.077489026 0.046677105 0.26564923
0.047417674 -0.07328058 0.10403835 -0.085639454 0.43909344 -0.16817194 -0.20777415 0.27192274
0.39292452 -0.09886026 0.0012468916 0.20317894 0.102864325 0.04067857 0.007052176 0.117611006
-0.19740915 0.20474543 0.20693251 0.029376363 0.055159908 0.08547467 0.1329928 0.14696383
-0.01586905 -0.29792702 0.3002302 -0.023624618 0.19136232 -0.1521417 0.10519987 -0.048872463
0.15110642 0.16402212 0.13502596 -0.24106218 -0.26291776 -0.059955027 -0.35979775 -0.0082709035
0.1088395 -0.08228319 -0.15213309 0.054074496 0.18168744 0.18607816 -0.039833527 -0.109776415
0.07894184 -0.03140011 0.02621305 0.06473386 -0.11881909 -0.2721243 -0.062217668 0.67771834
-0.053859886 0.22390231 0.124958895 -0.0025462583 -0.037745148 -0.055024747 0.050145354 0.0020796454
0.18768445 -0.11204469 0.009362933 0.066260636 0.33038616 -0.45233145 0.14895606 0.059588633
0.09872518 -0.06435566 -0.30395725 -1.3186334 0.042724777 0.21538071 -0.029139476 -0.032081455
0.19767962 0.004368527 -0.12154536 -0.07741275 -0.04968621 0.18702924 -0.04711633 0.0985888
-0.059551638 0.10289143 0.09223487 0.10693987 0.16807988 -0.030153424 -0.0755873 -0.0043728356

lstm.bias_ih_l0 f4 [512]
00000000: 095c ba3d cc25 0d3e 4e21 3fbd d4f4 163d
00000010: 6a2e df3c a704 983d 5f74 c3bd be89 13be
00000020: 3680 ff3c cb16 043e 8987 46bd d529 ba3d
00000030: 4982 463e 75b1 f13d cdfc 7f3d 93eb c83c
00000040: 55cb d33c 3d21 bdbd a2da 303d 8ff7 6ebe
00000050: 2949 ed3d cca6 c13d 5a20 d03d 381f 12bc
00000060: 0364 a2bd 96d1 80bd ad62 9abd bcbb b8bd
00000070: fdcb a23d ebf3 c9bd 254a 43be de77 08bc
00000080: c12d 343d fdce 78bd 60b9 913c 2a1d 1a3e
00000090: aca4 503d 65a7 b63d 9bb8 0c3d 2269 623d
000000a0: f76c de3d e76b c93d f963 223c 54cf 633d
000000b0: c5ae ce3d 8063 cd3d d818 a23d 5cf0 aabc
000000c0: 7849 e23c 9af6 e73d 9d4f 773d 6362 b5bd
000000d0: 824d 1ebe d97a 2dbe 6041 e33d 9277 943d
000000e0: 2cbf a3bc f37b 153b 1918 1f3e 5769 193e
000000f0: 8552 f83d a4dd a63d e706 173e 9b9a 143d
00000100: fd99 b73d 7754 563e 6635 893d 175d 363e
00000110: 77a9 153e 4a68 053e cbef 383e 331f 823d
00000120: f4cc 8d3d b3ff f3bb c3e5 0f3e 5dae b1bd
00000130: 9978 4a3d a3b3 8c3d 202e 81bd da3f e53d
00000140: 85d7 ad3c 1001 823d f682 413e 2ee6 5b3d
00000150: fbd3 a1bc 0d74 a93c 2b14 e6bc 6e18 823e
00000160: 50e3 ee3a 58cc 223d 4abe 5d3d 7ad7 243a
00000170: a934 bd3d 688c 5b3d dd22 723e 364e 84be
00000180: 4af4 693d ee76 6f3c e0f9 c33c 1f47 19bd
00000190: 4834 ea3d e68f 713d 4a93 873d 1b1e 13bd
000001a0: 8cf4 4b3e c3bd fdbd 4436 bf3c c9b6 34be
000001b0: 44d4 203e d45e 2f3d bcea 91bd f8f4 1e3e
000001c0: 2e17 123d 9a19 0e3e 9411 213d bddf e33b
000001d0: 07e0 423d 7fe7 70be 2b51 073d 9164 323e
000001e0: ee7c b6bd d382 2f3c 8e14 b23d 4836 973d
000001f0: af27 883b 62a3 92bd 2ceb 543d eb6c 0d3e
00000200: 6b4c be3d d88c 393e ade1 2f3e 2a75 e23d
00000210: 328a aebc 452a 9d3d 8a24 a83e 2434 c03e
00000220: 1e79 b83e 332c cc3b e2c0 bc3e 3f8f 0e3e
00000230: 9c40 f8bd 41eb 27be 7033 26be bda1 f93c
00000240: 5eae bb3d 11a6 733d deee 46bd f8a0 c33e
00000250: 6f85 403d ca65 cd3c 8e6e 60bc 8a69 3e3e
00000260: 296a d23c 9f35 293e 4894 033d 0d61 bb3d
00000270: ddb0 963c ff5e 3c3e d55d 433e 5c86 1d3d
00000280: e8a5 3cbd d3c6 4c3e d068 4fbd 3737 cc3c
00000290: 73e5 b7bd ea8d 113e 33bd 2dbc d6d9 e2bd
000002a0: aae2 0dbd 3b0b db3d 0838 c53c e27e f93c
000002b0: ea18 08bd 6824 023e 6746 d23d ed39 cb3c
000002c0: a52e 093e 967f 4eba 5b6d 94bd 8cb3 bd3d
000002d0: a15d f03d b3e9 bb3d cfc7 d73d 7570 823b
000002e0: b06c d93e 5145 213e 5cd0 5dbd 7209 d3bd
000002f0: 68ef fabd b96f 2abd 3278 93bd 1fd6 dabd
00000300: ff8f a4bd a9f8 a0bd 62f7 4fbb 21e0 a9bd
00000310: a759 06bc 4165 80bb be26 e4bc de60 bb3b
00000320: 87aa c6bc 0239 593d 0b58 103e e6a5 9d3d
00000330: 1534 c6bc 9e1f b23d 4957 123e 8ecb cf3c
00000340: bf91 0fbd bafc 313d 64d4 3fbc 2445 a3bd
00000350: 70b0 8abd 35bd 87bd 5789 9c3d b8b3 dd3d
00000360: 8c94 78bd 5c59 16bd ff2d 3dbd 542b 5ebd
00000370: 0b4b 45ba 49a6 babd 9f1b cfbd bdea ae3e
00000380: fa09 bcbd 1014 a43b b273 cd3d 5131 d8bc
00000390: 5d11 e5bd c66c 87bd 171e cd3d 9e4f b83d
000003a0: a419 b53d bab3 4e3e 7de9 dabd 88a1 8b3e
000003b0: 0b64 693c e00d f2bc 9761 293e d07a 543d
000003c0: 7fde cfbb 584d 9fbd 8487 ffbd f4a2 bfbd
000003d0: 621b cebc 9c6b c13d b44f c83e 9c67 dabd
000003e0: db5a e63c 9e5c 06be 3fba 813d a048 78bd
000003f0: 2d1e 253e f1ed ca3e f8c8 8bbd e490 483e
0.090995856 0.1378395 -0.04666262 0.03685458 0.027243812 0.07422762 -0.095436804 -0.14408013
0.031189065 0.1289932 -0.0484691 0.0909001 0.19385637 0.11801425 0.06249695 0.024526393
0.025853792 -0.09234855 0.043177254 -0.23336624 0.1158622 0.09455642 0.101624206 -0.008918576
-0.07929232 -0.06289975 -0.07538352 -0.090201825 0.07949064 -0.09860977 -0.19071253 -0.00832936
0.043988947 -0.060744274 0.017788589 0.15050188 0.050938293 0.08918647 0.03435574 0.055276044
0.10860627 0.09835034 0.009911531 0.055617645 0.100919284 0.10028744 0.07914895 -0.020866565
0.027622923 0.113263324 0.06037866 -0.088566564 -0.15459254 -0.16941394 0.11096454 0.07249369
-0.019988619 0.0022809475 0.15536536 0.1498159 0.12125114 0.08147743 0.14748727 0.036280256
0.08964918 0.20930658 0.06699638 0.17808948 0.14615427 0.13028064 0.18060224 0.06353607
0.06923857 -0.007446253 0.14052491 -0.08675835 0.049431417 0.068702005 -0.06307626 0.11193819
0.021220932 0.06347859 0.18897614 0.053686313 -0.0197544 0.02068522 -0.028085789 0.25409263
0.0018225703 0.03974566 0.054136552 0.0006288212 0.0923856 0.0536007 0.23646112 -0.2584092
0.057117738 0.014615757 0.02392286 -0.037421342 0.11435753 0.058975123 0.0661989 -0.035917383
0.19917506 -0.1238971 0.023341306 -0.17647852 0.15705973 0.042815045 -0.0712485 0.15523136
0.035666637 0.13876954 0.039323404 0.006954162 0.04757693 -0.23525809 0.033036392 0.17421176
-0.08910547 0.010712343 0.08695327 0.073834 0.0041551213 -0.07160069 0.05198209 0.1381108
0.09291919 0.18120134 0.17175932 0.110575035 -0.021306131 0.07674078 0.32840377 0.3753978
0.36029905 0.006230855 0.36865908 0.13921832 -0.12121698 -0.16398336 -0.1623056 0.03047263
0.09164117 0.059484545 -0.048567645 0.38208747 0.047002252 0.02507295 -0.013698233 0.18594947
0.025685387 0.16524361 0.032123834 0.0914937 0.018394882 0.18395613 0.19078763 0.038458213
-0.046056658 0.1999772 -0.050637066 0.024928672 -0.08979311 0.14214292 -0.010604191 -0.11076705
-0.03463999 0.106955014 0.02407457 0.03045601 -0.033226885 0.127092 0.102673344 0.024807895
0.133967 -0.0007877288 -0.072474204 0.092627615 0.11736608 0.09175434 0.10536157 0.003980691
0.42465734 0.15749098 -0.054153785 -0.10304536 -0.12252694 -0.041610453 -0.0720066 -0.106853716
-0.080352776 -0.07859928 -0.0031733145 -0.08294702 -0.008200086 -0.0039183204 -0.027850505 0.0057183346
-0.024251236 0.053032883 0.14096086 0.07697658 -0.024194757 0.08697437 0.14291109 0.025365617
-0.035051104 0.04345391 -0.011708353 -0.07972172 -0.06771934 -0.06627885 0.07643383 0.10825294
-0.06068854 -0.036706313 -0.046186443 -0.05424054 -0.0007526136 -0.091137476 -0.1011269 0.34163466
-0.091815904 0.0050072744 0.10031833 -0.026390703 -0.111849524 -0.06612544 0.10015505 0.08999561
0.08842781 0.20185748 -0.106890656 0.27271676 0.0142450435 -0.029547632 0.16541134 0.051874936
-0.0063436623 -0.07778424 -0.124770194 -0.09357253 -0.025159542 0.09444353 0.3912331 -0.10664293
0.028119495 -0.13121268 0.06334352 -0.060616136 0.16124792 0.3963466 -0.06825441 0.19586521

lstm.bias_hh_l0 f4 [512]
00000000: 0bb9 413e fd2d 043e 2318 0fbd d667 6f3d
00000010: 8300 033d 9732 273d 4e96 9dbd e1cd b6bd
00000020: ef3d debd a7a5 173e 08e3 94bd a210 d3bc
00000030: 1699 4d3e efe7 163e 6685 f53d e8a3 be3c
00000040: 49d4 34bd 2b13 1abc a246 eb3d 06dd 98bd
00000050: 986b 323e 4b16 3a3e fad7 f63c 9fd6 a43c
00000060: 932a 8cbc 6aad b1bd a0aa 5d3d de60 18bc
00000070: 1e89 80bd b233 7dbd 1a9c 23be 5ae9 133b
00000080: 7f90 1fbc 7ff3 693d af3a 1d3d 3c52 eb3d
00000090: 128c 5f3d 3582 063e f17c 203d eefd 0f3e
000000a0: 3c18 5e3d 52fa 303e ddbb cf3d d014 f4bb
000000b0: 969b 903d 4e9d ff3d 7eea 343d edaf 15bd
000000c0: 1b81 623c d50b d03d eb7c 2f3e 4d82 d83c
000000d0: 681a 13be f59f 4dbe 98f8 323d e6c7 02bb
000000e0: 4dc8 c5bb c040 0bbe 6cde 0d3d c5ef 053e
000000f0: 64bf 4f3e 3c2b 173e a057 e63d c1d8 0d3e
00000100: ea6e b63d a959 713e 8a42 293e dfc5 ca3d
00000110: 4aa5 a93d 9c7e 9b3d 4283 cf3d 3f6f d53c
00000120: 1d6a 5a3d e7f5 3fbc cf46 f83d a033 5cbe
00000130: 9015 8e3d 07e2 d93d 914c acbd c0ff c43d
00000140: 7359 8b3d c209 093e b176 863d a7b8 fa3d
00000150: c4b1 4c3d 5812 8d3d e111 a0bc 8c59 d33d
00000160: d9e5 7cbc 168a 25bd e622 623d 0982 933d
00000170: dcaa a0bc 71f3 113d b512 4f3e 3c4e 99be
00000180: d633 9abc c0a1 483d cb77 023d 59e2 1b3d
00000190: d53d cb3c eeea 913d 3e1c c93d 593e 36bd
000001a0: 63d2 ea3d f051 71be 0b14 c63b 3185 47bd
000001b0: 1f5e 2b3d 8bc3 383c 1da6 37be 3f4f b43d
000001c0: 1817 103e dc1e 8f3d 846c 193e fd8e 2c3e
000001d0: 463c 423c 3adc 09be d22b 83bd 9d46 993d
000001e0: b7c0 583d c2c8 aa3d acc7 d1bc 4bb7 113e
000001f0: 9949 e1bd 9b5f abbd 653d 233e 0dca bb3b
00000200: 4fef 763e c6ab c43d 712e 2a3e 7d26 ad3c
00000210: cb4f a8bd 167d ef3d db02 c43e 91eb ca3e
00000220: 5b8a a23e 60f3 0abe 9803 a13e 7db2 093e
00000230: 05f8 edbd ff7d bdbc 020d 2dbe 77ec 70bd
00000240: 8b6f 823d 43a7 5a3d 3233 e53c da2e ad3e
00000250: 8f53 2c3d 52e6 0bbc 541e 553d cd46 4d3e
00000260: 78ce d83d 4fd3 7e3d 907c 9ebc f699 353e
00000270: 161e b03d 76cc 4c3e e8a8 6c3e ba46 75bb
00000280: 16d8 c0bd 5c0e 6e3e 7479 12be 6ad8 15bd
00000290: e4b8 c0bd af1b ae3d 2751 17be c45f f7bd
000002a0: 314d 93bd e0f5 983c eff9 3f3d 9bf7 343e
000002b0: 2aba febc 1e20 0f3e d9bb e93d 99c4 f53c
000002c0: e91c 0f3d 6f42 a3bd 979a 67bd 60a4 7cb9
000002d0: 219e db3d 384c 493e 7c01 093e d069 a53a
000002e0: 7e68 ac3e 1ed3 943e 903e 943b 7e91 c4bd
000002f0: 9158 f13a 857e 93bd 3e0c 25bd 9238 f4bd
00000300: 422d 35bc 7a16 44bc 8dc1 0cbd c9b6 5fbd
00000310: aa63 1fbe 0326 133e a8b0 603d 2e79 973c
00000320: a2d0 13bd a493 de3d 550d 413e f60d d83d
00000330: be25 28bd 9062 dd3d 648e 72bb 99a8 ec3b
00000340: 97d4 29be 51dc febb a0fe 573d 772e 993c
00000350: 007a 38bd 311f 323c aee5 3e3d f0c1 da3d
00000360: c554 32bc 6988 91bd 5270 7cbd f594 9abd
00000370: 94e2 88bd 59f6 87bc 9602 2bbb 7095 ae3e
00000380: d665 fdbd c16a 8dbd 2172 5f3c 9fda 353d
00000390: 173c 10be a451 c4bd 672c 283e f0c4 e03d
000003a0: fecc b23d 275c 2d3e 4718 31bd 3401 393e
000003b0: 8294 90bd 0a1f d03d 3d33 083e fa07 623c
000003c0: c421 13be 34b0 50bd 6a6e 0cbd 33c7 83bd
000003d0: 4da2 98bd 51ea 1d3d 5177 d13e 164b a0bd
000003e0: 6070 92bc f6c3 76bd cde0 c83c 2196 00be
000003f0: 1c93 0f3c a895 b93e 98be 52bd d089 b63d
0.18918245 0.12908168 -0.034935128 0.058448635 0.03198291 0.04081973 -0.07694684 -0.08925987
-0.10851657 0.14809285 -0.07269865 -0.025764767 0.20077929 0.14736913 0.11988334 0.023271516
-0.044147763 -0.009403984 0.114880815 -0.07464032 0.17423856 0.18172567 0.030132283 0.02012187
-0.017110145 -0.08675654 0.0541178 -0.009300439 -0.06276153 -0.06181688 -0.15977517 0.0022569508
-0.00973904 0.05711698 0.038386043 0.11490294 0.05457694 0.13135608 0.039181653 0.1406171
0.05422233 0.1728299 0.10143254 -0.00744877 0.07060926 0.12481175 0.04416894 -0.03654473
0.013824726 0.10158507 0.17137496 0.02642932 -0.14365542 -0.2008055 0.04369411 -0.0019955575
-0.0060358406 -0.13598919 0.034635946 0.13079746 0.20287853 0.14762586 0.11247182 0.13852216
0.08907874 0.23569359 0.16529289 0.09901022 0.082834795 0.07592508 0.10132457 0.026054023
0.053323854 -0.0117163425 0.12122881 -0.21504068 0.069377065 0.106388144 -0.084130414 0.09619093
0.068041705 0.13382629 0.06565607 0.12242251 0.049974218 0.068882644 -0.019539775 0.10319814
-0.015435659 -0.040414892 0.055209063 0.072025366 -0.019612722 0.035632554 0.2022198 -0.299425
-0.018823545 0.04898238 0.031852525 0.03805766 0.024809757 0.071248874 0.0981984 -0.044493053
0.11465909 -0.23566413 0.00604487 -0.048711006 0.041837808 0.01127709 -0.17934461 0.088041775
0.1407131 0.06988308 0.14982802 0.1685142 0.011855191 -0.13462916 -0.064048424 0.074841715
0.052918162 0.08339073 -0.025607906 0.14230077 -0.11000366 -0.08367845 0.15941389 0.0057308734
0.24114726 0.09603076 0.16619278 0.021136517 -0.08218344 0.1169378 0.3828343 0.39632848
0.31746182 -0.13569403 0.31448054 0.13446994 -0.116195716 -0.023131369 -0.16899493 -0.05881926
0.063689314 0.05338217 0.027978513 0.33824807 0.042071875 -0.008538799 0.052030876 0.2004654
0.10586256 0.06221324 -0.019346505 0.17734513 0.085994884 0.1999987 0.23111308 -0.003742619
-0.09416215 0.23247665 -0.14304143 -0.03658334 -0.09410265 0.08501374 -0.14777051 -0.12078813
-0.071924575 0.01867193 0.046869215 0.17672579 -0.03109463 0.13977095 0.11412782 0.030000972
0.03493968 -0.079716556 -0.056543913 -0.00024093827 0.1072352 0.19657981 0.13379472 0.0012620036
0.3367347 0.2906732 0.0045240596 -0.09598063 0.0018413236 -0.07201866 -0.04029488 -0.119248524
-0.011058154 -0.011968249 -0.034364272 -0.054617677 -0.15565363 0.14369969 0.054855973 0.0184904
-0.03608764 0.10868004 0.18852742 0.10549538 -0.04105162 0.10809815 -0.003701114 0.007222247
-0.16585003 -0.0077777286 0.052733064 0.018698914 -0.045038223 0.010871694 0.04660576 0.10681522
-0.010884468 -0.07106096 -0.061630554 -0.075479425 -0.06683841 -0.01659696 -0.002609407 0.34098387
-0.12372939 -0.06905127 0.01363805 0.044397946 -0.14085422 -0.09585884 0.16423188 0.10975063
0.087305054 0.16929685 -0.043236043 0.18066865 -0.070595756 0.1016217 0.13300796 0.013795847
-0.1436835 -0.05094929 -0.034284987 -0.064344786 -0.074528314 0.03855354 0.40911344 -0.078268215
-0.01787585 -0.060245477 0.024521256 -0.1255727 0.008763101 0.3624699 -0.051451296 0.089130044

decoder.weight f4 [128, 128]
00000000: 9e25 72be 0ede f3be 6b7e 8fbe 228a 00bf
00000010: 9106 763e b672 85be 65a3 20bf 4e68 d9be
00000020: 04a2 f83d ea7d 953d ef90 083d b501 3ebe
00000030: df6e d3be e828 8bbf 4341 a73e 8cf3 c8be
00000040: a2d7 98be bac9 12be 38f5 90be 3552 ca3d
00000050: 2372 03bf 5616 553f df96 0a3f ee8d 46be
00000060: 6860 a63e ec46 59be d71f 623e 294e fe3e
00000070: 5900 043f b7ee ddbd c721 5d3e aef5 1bbf
00000080: 2d8e cbbe 3aa8 a23d 51f1 723e 05cc c03e
00000090: 0e96 50bf e877 41be 3421 06be 11f9 5b3f
000000a0: 2a8f c8bd 4c45 71be 7b9f 84bf 4731 873e
000000b0: 269a cf3e 671f 7fbe cc76 493e 9d26 1140
000000c0: 257f cebe f541 063e 59a9 883e cc0c c73e
000000d0: 6823 93bc 9560 98be cd1a 7c3e 1777 d13e
000000e0: f45d f5bd 4e5d 2bbf f5d8 103f 610a b3be
000000f0: 4f02 183f ab28 9bbe 5823 57bf 19f4 1f3f
00000100: 40e1 afbc d0d1 4d3d 5a6e 023f b0f5 a1be
00000110: 54c1 aebe 2781 6bbe 2bc0 a63e 8b62 e2bb
00000120: 1427 ed3e 8cb2 94be eb98 8cbe cec0 bebd
00000130: fb13 213f b753 5b3e 014f aa3e 0be8 d5be
00000140: 95de 33bd 8454 be3d b97a 4c3e 34a7 59be
00000150: 9154 c6be 2fe6 95be 8315 e83e 1a73 a53f
00000160: b324 bbbd 7553 d33d aa3d bfbc 82ec 593e
00000170: 5615 0dbe 6a3c 183f 8b7a efbe b425 51be
00000180: daa6 063f f079 fe3e 8876 293e 4e0f f7bc
00000190: 3ddb 243f 5e8a d2bd 47a0 b53f 2685 403e
000001a0: abf6 483e 33e6 d83d 0d0f 28be 78e6 2a3e
000001b0: b364 02bf 615c 4f3f 5044 133e 8298 12be
000001c0: b32a 9e3e 5dc1 03be b23b a8be 7032 be3f
000001d0: 419d fbbd d21b f03d c436 1a3e 3da9 2dbf
000001e0: 868d a43e ecef a63e a3fe 803e fbfc 1f3f
000001f0: 0689 1a3f f327 e0bc 55f0 febd 47cb 4d3e
00000200: e46d cb3e 8c13 523d 88eb 923e c575 393e
00000210: edc5 153d 14ac 113e 3980 a43d 0c26 bd3d
00000220: 45e8 013e 18a2 1c3e 81d5 18be 4708 863e
00000230: cf6a a43d d85b 633d 041e e2bc 5b0c 0a3e
00000240: fdf9 473d 2964 8d3d 31b7 683e 75e0 b13c
00000250: a113 c13d 0098 dbbd 47c2 0cbb 7011 8f3e
00000260: b1df 26be 3ba9 463d ec57 8abe ce97 2cbe
00000270: d1d9 81be 4dc4 3fbd 3e74 88be 8eba 6cbc
00000280: d827 4cbd 031d 013e d1ff 09be 8f9f 65bd
00000290: 00a7 2b3d 4f64 7b3e 28fe 8a3e 2d9b f63c
000002a0: 83bc eebd 0425 873e 50e4 d23c da5a 84be
000002b0: 0a24 453d b4ee 863e 6e1d 66be 3cd5 853e
000002c0: 66bf 6a3e 7d24 18be 4b85 8bbe 5972 3bbe
000002d0: d4a0 26bd 59fd 4c3e d9b3 7bbe 0b34 7abe
000002e0: ce1c 063d c1be 083e be6a c1bd 1b00 d53d
000002f0: 745f 1abd a348 febc 32f2 9dbe 756a 2abd
00000300: a944 cebd 2c52 91be f6d6 0ebe 181d 3c3e
00000310: 114d 6d3d 4ee2 9e3e eac8 be3a 059c 4abe
00000320: ac76 b8bc dfa3 653e eb6e 3d3e c62b 10bc
00000330: 54a0 c9bc a035 40be 8150 f0bd 36d6 503d
00000340: e50e c0bd 7de5 993e 9dcb bfbe 10d7 573d
00000350: 1350 3d3e 6101 c73d 4fef 34be 641d e0bd
00000360: 6c2c 003d cf64 94be 0167 58bd 86b1 e0bd
00000370: 7f81 273e a6ba f0bd 9077 91bd 1ffc 5a3e
00000380: 1526 323d c6b9 adbd 0a9b 20bc 8e0d 863d
00000390: 98f0 aabd 7425 d33d c749 28bc 77f8 68be
000003a0: f6d2 88be cb0a 1c3d 61da 3e3e 0f74 273f
000003b0: 1bd7 593d 7ef1 00be d931 d1bc 44cd 2b3e
000003c0: 329e c23c ef07 67be 433a dd3d 346d 303e
000003d0: c3b9 673e 98eb 90be bb43 e6bd 3d2e 023d
000003e0: 2c87 34be e93f 1d3c df4c fcbd 888d 5cbe
000003f0: 3c5e e0bd 4b51 5ebc 854a d03d 4824 24be
-0.23647162 -0.47630352 -0.28026137 -0.50210774 0.24025942 -0.2606408 -0.6274932 -0.4246239
0.12140277 0.07299407 0.033341344 -0.18555339 -0.41295525 -1.0871859 0.32666978 -0.39248312
-0.29852015 -0.14334765 -0.28312087 0.09878961 -0.51346034 0.83237207 0.5413646 -0.1939008
0.32495427 -0.21218461 0.22082458 0.49669006 0.5156303 -0.10836547 0.21594916 -0.6092175
-0.3975691 0.07942243 0.23724867 0.37655655 -0.81478965 -0.18893397 -0.13098603 0.8592692
-0.097929314 -0.23561591 -1.036117 0.26404783 0.40547293 -0.24914323 0.19674224 2.2679818
-0.4033138 0.13111098 0.26691702 0.3887695 -0.017961219 -0.29761186 0.24619599 0.4091117
-0.11980811 -0.66939247 0.5658105 -0.34968856 0.5937852 -0.30304465 -0.84038305 0.6248184
-0.021469712 0.05024892 0.50949633 -0.31632757 -0.34131873 -0.22998486 0.32568488 -0.00690872
0.46318877 -0.2904247 -0.27460417 -0.09314118 0.6292111 0.21418653 0.332634 -0.41778597
-0.043913443 0.09293464 0.1996869 -0.21255189 -0.38736394 -0.2927718 0.45328912 1.2925751
-0.09137859 0.103186525 -0.023344833 0.21281627 -0.1377767 0.59467185 -0.4677318 -0.20424539
0.52598345 0.49702406 0.16549122 -0.030158665 0.6439703 -0.10280298 1.4189538 0.18800792
0.19625346 0.10590782 -0.16411991 0.1668948 -0.50934905 0.81000334 0.14381528 -0.1431599
0.30891952 -0.12866731 -0.32858044 1.4859142 -0.12285853 0.11724056 0.15059954 -0.6783636
0.32139224 0.3260492 0.25194272 0.6249539 0.6036533 -0.0273628 -0.124481834 0.20097075
0.39732277 0.051288173 0.2869532 0.18111332 0.03656571 0.14225799 0.08032269 0.092357725
0.1268626 0.15296209 -0.14925195 0.2617819 0.080281846 0.05550751 -0.027602203 0.13481276
0.04882239 0.0690387 0.22726132 0.021713475 0.09427572 -0.10722351 -0.0021478103 0.2794299
-0.16296269 0.048501235 -0.27020204 -0.16854784 -0.25361493 -0.046818066 -0.26651186 -0.014448775
-0.049842685 0.12608723 -0.13476492 -0.05606037 0.04190731 0.24549983 0.2714703 0.03010329
-0.116570495 0.26395428 0.025743634 -0.25850564 0.048130073 0.2635399 -0.22472164 0.26139247
0.22924575 -0.14857669 -0.27250132 -0.18305339 -0.04068072 0.2001852 -0.24580325 -0.24433915
0.032742314 0.13354017 -0.094441876 0.10400411 -0.037688687 -0.031040495 -0.30848843 -0.04160543
-0.1007169 -0.28383005 -0.13949189 0.18370473 0.057934824 0.31032032 0.0014555727 -0.19786079
-0.022517525 0.22425793 0.18499343 -0.008799499 -0.024612583 -0.18770456 -0.11734105 0.050985537
-0.09377841 0.30057898 -0.37460032 0.052695334 0.18487577 0.0971706 -0.17669414 -0.10943106
0.031292364 -0.2898316 -0.052832607 -0.1097136 0.16357993 -0.1175435 -0.07102883 0.21385239
0.04349335 -0.08482699 -0.009802589 0.06545554 -0.08346671 0.10309878 -0.010271496 -0.22751032
-0.2672345 0.03809623 0.18637992 0.65411466 0.053183656 -0.12592122 -0.025536465 0.16777521
0.023757074 -0.2256162 0.10802128 0.17229158 0.22629456 -0.28304744 -0.11243387 0.031782378
-0.17629689 0.009597757 -0.123193495 -0.21538365 -0.10955474 -0.013569186 0.101704635 -0.16029465

decoder.bias f4 [128]
00000000: 6c60 b73c 8481 07be 9ed7 3bbd 4d75 d8bd
00000010: a474 2bbe 55f0 b4bd 45d9 f5bd eb27 03be
00000020: 9ef3 2ebe fedb f6bd b750 2ebe 758b 06be
00000030: 0582 30be 1b91 2cbd 92a3 57be 0469 0ebe
00000040: bb7e 9dbc 24d8 54bd ada9 adbd 7457 95bd
00000050: 0b57 bfbd bf34 bebd 394d eabd caea 6cbd
00000060: 7d38 4dbe c20b e4bd 1930 3ebe 43bf cdbd
00000070: 7400 99bd de87 49be 37de 03be 0a52 b9bd
00000080: ae21 02be 2f13 a6bd f85c 13be ae87 e5bd
00000090: 3223 ddbd d824 36be 494f f4bd 9cb2 47be
000000a0: 776b ebbd 7b53 b8bd 2df4 a2bc ba50 4a3d
000000b0: 4d9a 85bd 56c6 f9bd f840 063d 1e48 acbd
000000c0: bab0 0b3c 450f 39bd 9ccb fdbc 3fe5 03bc
000000d0: bdf2 a8bd e344 06bb 5943 babd 39b8 3e3d
000000e0: c3ad 413d 2233 c0bd eeed 84bd ecf3 a93d
000000f0: 8a6a 313c a7ef 03bd 657d bc3c d59a 893d
00000100: 025f 5d3d ebf8 ec3d d146 08bd 0fdb b43d
00000110: f42d 363c 37b3 5f3d 8726 8c3d b15a d639
00000120: 5e61 8ebc be62 713d f258 413d 9f3c 4cbd
00000130: 6c4a 43bc ad3d e5bd 90fc a6ba 49b1 803d
00000140: 93f4 d53d 5dbb 04bd 5b0f 883d accf 0a3d
00000150: eb45 b2bd d5d2 4fbc 4665 87bd abc1 bf3c
00000160: 2ef5 c8bd dcbb 05bd 7c3c 583d 5c4d 3abd
00000170: 3793 b5bd 3658 7b3c 5d81 8fbd 4f34 673d
00000180: c4d9 ce3d d3c2 2ebe 2e10 dc3c e9c4 b8bd
00000190: dcd0 e9bd a7da 23be 68c4 21be 7b56 6ebd
000001a0: 8b5a d9bd b703 88bd 1ff8 cbbc 8ec9 16be
000001b0: 0b34 68bd 5170 40be 78a5 27be e499 bebd
000001c0: cf25 96bd a703 2ebe e761 4abd dbb0 9bbc
000001d0: 6f29 2cbe f17c c1bd 7321 26be 7e02 1fbe
000001e0: 8131 4dbe 12c3 26bd abf8 afbd 7462 44be
000001f0: 7ebf 0ebe 02d3 30be 0cff 8ebd 9191 8ebd
0.022384845 -0.13233 -0.045859925 -0.10569248 -0.16743714 -0.08834902 -0.120043315 -0.12808196
-0.1708512 -0.12053679 -0.17022978 -0.13139136 -0.17237099 -0.04213057 -0.21058491 -0.13907248
-0.019225469 -0.05196394 -0.08479629 -0.07292071 -0.09342774 -0.09287404 -0.1144051 -0.0578411
-0.2004108 -0.11135055 -0.18573035 -0.10046246 -0.074707896 -0.19680735 -0.12877737 -0.09048851
-0.1270816 -0.08109128 -0.14390934 -0.112075195 -0.107977286 -0.17787492 -0.11929185 -0.19501728
-0.11495107 -0.09000298 -0.019891823 0.049393393 -0.06523571 -0.12196033 0.032776803 -0.08412193
0.008526022 -0.045180578 -0.030980878 -0.008050262 -0.08249424 -0.0020487837 -0.09094877 0.046562407
0.047284853 -0.09384753 -0.06490694 0.082984775 0.010828624 -0.032210972 0.023009012 0.06718985
0.054045685 0.11570915 -0.03327066 0.088308446 0.0111193545 0.054614272 0.06843286 0.0004088483
-0.017380413 0.05893206 0.047203965 -0.0498625 -0.011919599 -0.11193404 -0.0012740064 0.062838145
0.104470395 -0.032405246 0.06643554 0.033889458 -0.08704742 -0.012684544 -0.06611113 0.023407778
-0.09812389 -0.03264986 0.052792057 -0.045483932 -0.0886597 0.015340855 -0.07007096 0.05644637
0.10100129 -0.17066507 0.026863184 -0.09021933 -0.1141679 -0.16001378 -0.1579758 -0.058187943
-0.10612973 -0.066413336 -0.024898587 -0.14725325 -0.056690257 -0.18792845 -0.16371715 -0.09306696
-0.0733143 -0.16993581 -0.049409773 -0.01900523 -0.1681268 -0.09447659 -0.16223697 -0.15528294
-0.20038415 -0.040713377 -0.085923515 -0.19178182 -0.13940236 -0.17267993 -0.0698224 -0.06961358
