models/encoder.model (torch, 349623 bytes, 5 tensors)

embedding.weight f4 [128, 32]
-1.5253189 -1.0329593 -1.2141582 -2.0927498 1.0226235 3.2536368 -0.20772639 -1.5074146
-0.80459034 0.1981401 -1.6778069 1.3446472 -0.60670984 -1.4791158 0.65175647 0.078207694
0.43255 1.9753821 0.7932168 -2.1531394 -0.5428443 0.15647247 -1.7688861 -1.5024225
0.1230883 0.1836818 -0.881852 -1.14197 0.6591504 0.18877058 -0.054084245 0.9014064
-0.04807548 0.022946343 -2.3257415 -3.290831 -0.7912404 0.90419483 0.5601808 -0.82172406
-0.21813227 -1.3388208 0.8335517 -1.6815296 1.2296433 1.7304524 -0.99426484 0.40604785
0.34968907 -0.8117799 1.5414985 0.20094039 1.6080407 -0.3786757 0.122538716 -1.4612283
0.98590356 -1.8825653 -1.7140868 -0.17511539 0.8275272 -1.5732087 -0.279701 1.7336315
0.2770946 0.29969618 0.38716874 0.56466573 0.19810888 -0.3822953 -0.26142755 -0.8847568
0.7780348 -0.49700424 0.1968608 -0.03692723 0.27507105 -0.9590944 -1.3614233 -0.14688665
-0.67831826 -1.1833816 0.24302945 -1.6201894 -0.3239844 0.02538107 -0.6672751 -0.063522935
-1.7913979 -0.48351973 0.7147246 2.0262675 1.3955142 0.8733295 0.18158345 0.6284062
0.088877305 0.046375606 1.5427544 0.059502333 0.4599645 -0.72139317 -0.9639924 1.5444118
1.9421245 -0.38473192 -2.0113108 -0.1405639 0.9069096 -1.9842726 0.069834396 0.58541954
-1.6027201 -0.2844399 -1.6269233 1.8843404 2.4853315 -1.2463789 -0.7477535 -0.08285017
-0.5692088 -0.574764 -0.6454016 -0.34289187 -0.20155446 0.037717123 -0.8632055 -1.0671129
0.7131768 1.6372515 0.90835935 -1.4793199 0.5014982 1.6813871 -1.1692406 0.39292556
-1.2310932 -0.6926917 -0.37320247 0.5548743 -0.37089014 -1.2680383 0.54120845 -0.87805814
-2.1040974 -1.6958647 -0.3729396 -1.5961585 -0.7734686 -0.109170094 0.07899337 0.3640759
-0.0010546648 -1.7040864 -0.1567116 0.6574402 0.41186485 0.40020537 -0.9290264 0.33916885
0.3545209 -1.2695973 1.4254836 -0.20289604 -0.88186425 -1.5968759 -0.5661805 0.66076326
-0.9789213 -1.3374612 0.26421517 0.46152142 2.0080745 -1.4283856 0.595618 -0.07730942
-1.0115117 1.4998916 1.2164719 -0.15082255 1.029613 0.35502437 1.0123262 0.47379225
-0.27750534 0.02518034 0.36282662 -1.0384518 1.4790653 0.5646359 -1.5327144 -0.19574872
-2.7542343 0.6629418 0.87083524 1.1621723 0.3168203 -0.4612041 1.6454897 1.0121939
-1.1739885 0.5198923 0.8702452 0.72623 1.4545935 0.5011628 -1.2233453 -0.32971644
-0.45526615 -0.9212894 2.203421 0.17066133 -0.25623465 -1.1927333 -0.3721039 -0.8646815
-0.75779676 -0.53112113 -3.1735384 0.7345713 0.04840518 -0.66179883 1.129938 1.3817846
0.63224554 -0.9792909 -0.8830455 -0.13718416 1.8314373 -0.184931 -0.20258276 -0.40126464
-1.7150601 -0.24766845 0.09167065 1.6033615 -0.08313349 -2.5005245 0.09988947 0.20556837
1.1638911 1.5845274 0.7473243 -0.46090278 0.5793076 0.49567458 0.4076122 0.004988029
-1.1957638 -1.2902924 0.13022351 0.08921348 0.22839999 1.8360565 -0.39126045 1.9300385
00000000: a63d c3bf 0338 84bf 8969 9bbf 9def 05c0
00000010: 54e5 823f 963b 5040 3ab6 54be f6f2 c0bf
00000020: a2f9 4dbf 3de5 4a3e 60c2 d6bf 661d ac3f
00000030: 5651 1bbf ab53 bdbf 83d9 263f 5b2b a03d
00000040: 3277 dd3e 52d9 fc3f 4210 4b3f 09cd 09c0
00000050: d8f7 0abf 523a 203e dc6a e2bf 614f c0bf
00000060: b815 fc3d 1517 3c3e 0dc1 61bf 132c 92bf
00000070: 15be 283f 134d 413e 7187 5dbd 92c2 663f
00000080: cbea 44bd f8f9 bb3c f3d8 14c0 fa9c 52c0
00000090: bb8e 4abf 5079 673f 0268 0f3f 825c 52bf
000000a0: 115e 5fbe 7b5e abbf a563 553f 5d3c d7bf
000000b0: f464 9d3f 777f dd3f 2488 7ebf 81e5 cf3e
000000c0: 720a b33e cfd0 4fbf d34f c53f 51c3 4d3e
000000d0: 47d4 cd3f c8e1 c1be 94f5 fa3d 8709 bbbf
000000e0: 2d64 7c3f e6f7 f0bf 3267 dbbf 7351 33be
000000f0: d3d8 533f e75e c9bf f834 8fbe a3e7 dd3f
00000100: 58df 8d3e c771 993e fb3a c63e ef8d 103f
00000110: 0edd 4a3e 36bc c3be d5d9 85be 6c7f 62bf
00000120: 4a2d 473f 5777 febe e195 493e 0241 17bd
00000130: 1dd6 8c3e 3687 75bf 1e43 aebf 7469 16be
00000140: 44a6 2dbf 0c79 97bf b6dc 783e 5e62 cfbf
00000150: 49e1 a5be f6eb cf3c 8ad2 2abf 5018 82bd
00000160: 874c e5bf e68f f7be 31f8 363f 5eae 0140
00000170: 36a0 b23f 8692 5f3f 03f1 393e 3bdf 203f
00000180: 4e05 b63d 59f4 3d3d fa78 c53f b8b8 733d
00000190: 7880 eb3e 39ad 38bf 35c8 76bf 49af c53f
000001a0: 8997 f83f 95fb c4be 51b9 00c0 fcef 0fbe
000001b0: 3a2b 683f a5fc fdbf 5605 8f3d 0ede 153f
000001c0: ef25 cdbf 1ba2 91be 063f d0bf 1132 f13f
000001d0: ac0f 1f40 5889 9fbf c66c 3fbf 5aad a9bd
000001e0: abb7 11bf bc23 13bf 0a39 25bf 868f afbe
000001f0: 4b64 4ebe 457d 1a3d 09fb 5cbf 2897 88bf
00000200: c192 363f 7591 d13f 3d8a 683f 5b5a bdbf
00000210: 3062 003f b137 d73f ada9 95bf 8a2d c93e
00000220: 7694 9dbf 3e54 31bf 6514 bfbe 3e0c 0e3f
00000230: 50e5 bdbe 144f a2bf a38c 0a3f 6bc8 60bf
00000240: 88a9 06c0 1812 d9bf f0f1 bebe ec4e ccbf
00000250: 0a02 46bf 9294 dfbd 47c7 a13d 2868 ba3e
00000260: ae3c 8aba 811f dabf 0179 20be 004e 283f
00000270: f3df d23e b8e7 cc3e add4 6dbf 8aa7 ad3e
00000280: c383 b53e 2a82 a2bf 3f76 b63f fbc3 4fbe
00000290: dbc1 61bf 6e66 ccbf 35f1 10bf c827 293f
000002a0: 969a 7abf ee31 abbf 3647 873e 894c ec3e
000002b0: 4b84 0040 57d5 b6bf 6c7a 183f 6754 9ebd
000002c0: 3779 81bf 73fc bf3f 5ab5 9b3f 3a71 1abe
000002d0: 5cca 833f c1c5 b53e e893 813f e694 f23e
000002e0: 2e15 8ebe 0047 ce3c 69c4 b93e fdeb 84bf
000002f0: 0352 bd3f fa8b 103f fc2f c4bf 5a72 48be
00000300: 6045 30c0 8eb6 293f 0fef 5e3f 10c2 943f
00000310: 4536 a23e f222 ecbe 689f d23f 928f 813f
00000320: 4145 96bf a917 053f 64c8 5e3f 36ea 393f
00000330: 1f30 ba3f 354c 003f 9496 9cbf 98d0 a8be
00000340: a518 e9be 9fd9 6bbf da04 0d40 d8c1 2e3e
00000350: 3031 83be 7cab 98bf 6784 bebe c45b 5dbf
00000360: f8fe 41bf 8ef7 07bf 411b 4bc0 dd0c 3c3f
00000370: 8344 463d a66b 29bf cfa1 903f 51de b03f
00000380: d8da 213f cfb2 7abf 450f 62bf 017a 0cbe
00000390: 8a6c ea3f 8d5e 3dbe db71 4fbe 8f72 cdbe
000003a0: 1787 dbbf cc9c 7dbe d2bd bb3d f33a cd3f
000003b0: e441 aabd 9808 20c0 da92 cc3d 8480 523e
000003c0: 62fa 943f cbd1 ca3f a550 3f3f 73fb ebbe
000003d0: 814d 143f 0fc9 fd3e 8cb2 d03e 9f72 a33b
000003e0: ca0e 99bf 4d28 a5bf 5059 053e 8fb5 b63d
000003f0: b0e1 693e e603 eb3f 4a53 c8be 800b f73f

lstm.weight_ih_l0 f4 [512, 32]
-0.23780438 -0.09270242 -0.12565795 0.06271928 0.17741907 0.02181668 -0.055296697 -0.18653676
0.04039804 0.1531776 -0.047710586 -0.13754478 -0.08575716 -0.03017864 -0.070661865 -0.017545408
0.24792872 0.10149062 -0.00022990459 -0.0018400833 -0.09468615 0.09756416 0.055043224 -0.18724133
-0.021124257 0.087811716 -0.119434185 -0.1493451 -0.04151518 0.19365022 -0.019239528 0.049129866
-0.08598127 -0.0058503286 -0.00785202 -0.06429242 -0.004115776 0.012704317 0.0003986462 -0.05026213
-0.17747173 -0.007843321 -0.11648739 0.0038166211 -0.046445727 0.014471332 0.010876392 -0.013701579
-0.11006068 0.109277524 0.015737291 -0.049884036 -0.1368691 0.0034267239 -0.095602885 -0.13268512
0.13578483 0.098481156 -0.091114886 0.005860122 0.09315031 0.013589311 -0.07760587 0.050092753
-0.07732238 -0.18092532 0.028865367 -0.094962634 0.084991165 0.24296059 0.03152066 -0.12119324
-0.14331147 0.06985699 -0.21846795 -0.081403345 -0.22996213 -0.04570462 -0.0044613085 0.07066991
0.08958656 0.05839108 0.108033225 -0.118905485 0.0704515 -0.0078864535 0.0041996418 -0.26346704
0.054155923 -0.04084638 -0.11894462 -0.04120591 0.07885764 0.016609741 -0.12693684 0.11369792
-0.22504783 0.050656848 -0.18459637 -0.19665654 0.058237776 0.29723263 0.034087084 -0.1732669
-0.24921066 0.11643645 -0.29706442 0.21033083 -0.23314324 -0.26545337 0.1980216 0.017926803
0.06435887 0.20163332 0.16771688 -0.28267902 -0.1316852 0.027294297 -0.16624054 -0.34048304
-0.056487992 0.10316278 -0.17613547 -0.1709433 -0.07657954 -0.12787253 -0.004431374 0.22709598
0.2274471 0.027762797 0.18190058 0.059208833 -0.08333221 -0.09876134 -0.06325608 0.0424354
0.19374825 -0.123260394 0.2219282 -0.20194256 0.06616625 0.076231316 -0.03328484 -0.018968245
-0.036462422 -0.12743641 0.027204582 0.1296655 0.11744329 -0.19782865 0.10146719 0.18580969
0.13255289 -0.05482318 0.16243918 0.061332405 0.019462254 0.011364883 0.077487506 -0.36196074
0.1860135 0.13714823 0.21228485 0.08252506 -0.11859334 -0.17303568 0.12154666 0.13266897
-0.07980408 0.041819867 0.07777351 -0.15896624 -0.1883612 0.17690298 0.010486682 -0.10821092
-0.07765844 -0.09927516 -0.14103626 0.25286123 0.092936374 -0.054156665 0.2021785 -0.08694714
0.11382107 0.03090836 0.028599057 0.08564716 -0.12367587 -0.030942803 0.08325186 0.018720096
0.24867769 -0.043112893 -0.019212734 0.08370029 -0.24208719 -0.16206184 -0.19217795 0.1371166
-0.29105407 -0.14800093 0.034611695 -0.11152459 0.020602833 0.17612265 -0.039752 0.06785831
0.14044678 -0.30932498 -0.13481694 0.17612255 0.1410744 -0.19396946 0.030514596 0.10890863
0.11457897 -0.0022613485 0.13614905 0.10725356 0.18644051 -0.06847821 -0.23579267 -0.12209509
0.12145341 0.061914425 0.0078563625 0.046875026 -0.091425315 -0.08544148 -0.066074796 -0.06971422
0.11835207 -0.06130481 0.13019091 -0.075084224 0.0933304 -0.011666657 -0.055371042 -0.060436435
-0.18322267 -0.010148468 -0.107651755 0.030895354 -0.017235821 -0.117245935 -0.062657565 0.09050276
0.0132656675 0.07714536 0.11430616 0.18241979 0.025488224 0.045659002 -0.016385162 -0.069802284
00000000: fe82 73be c4da bdbd 7aac 00be f772 803d
00000010: 58ad 353e e5b8 b23c ca7e 62bd 7e03 3fbe
00000020: 6a78 253d 97da 1c3e 2d6c 43bd 8ad8 0cbe
00000030: 73a1 afbd 3239 f7bc 2bb7 90bd 63bb 8fbc
00000040: 07e1 7d3e 50da cf3d 8b12 71b9 f32e f1ba
00000050: d0ea c1bd b8cf c73d 0175 613d 31bc 3fbe
00000060: c70c adbc a1d6 b33d e999 f4bd eced 18be
00000070: d20b 2abd 3e4c 463e 379c 9dbc 663c 493d
00000080: f316 b0bd 1db4 bfbb c2a5 00bc bfab 83bd
00000090: a2dd 86bb c525 503c 6301 d139 aadf 4dbd
000000a0: 26bb 35be 4681 00bc f190 eebd 4720 7a3b
000000b0: e03d 3ebd 2a19 6d3c e532 323c 967c 60bc
000000c0: 7e67 e1bd e5cc df3d 7eeb 803c 3453 4cbd
000000d0: 6a27 0cbe e392 603b 72cb c3bd 9cde 07be
000000e0: 2e0b 0b3e 7db0 c93d 719a babd 4406 c03b
000000f0: 97c5 be3d b4a5 5e3c d4ef 9ebd 0f2e 4d3d
00000100: 325b 9ebd 7d44 39be 1077 ec3c c57b c2bd
00000110: d90f ae3d a9ca 783e cf1b 013d 2934 f8bd
00000120: 3ec0 12be 2e11 8f3d 10b6 5fbe ccb6 a6bd
00000130: 317b 6bbe c534 3bbd 2b30 92bb 63bb 903d
00000140: 2979 b73d 7c2b 6f3d 8640 dd3d b884 f3bd
00000150: e048 903d 2f36 01bc 269d 893b 27e5 86be
00000160: 9ad2 5d3d 894e 27bd 3d99 f3bd 87c7 28bd
00000170: 1d80 a13d 2711 883c bbfb 01be 75da e83d
00000180: f072 66be 8e7d 4f3d d506 3dbe 5560 49be
00000190: bc8a 6e3d e02e 983e e69e 0b3d e16c 31be
000001a0: 1431 7fbe 3c76 ee3d d418 98be f760 573e
000001b0: 1abd 6ebe 81e9 87be 2dc6 4a3e 3bdb 923c
000001c0: 95ce 833d f778 4e3e f9bd 2b3e 4ebb 90be
000001d0: 7cd8 06be 4a98 df3c f63a 2abe cb53 aebe
000001e0: f45f 67bd 0247 d33d db5c 34be c30b 2fbe
000001f0: bcd5 9cbd 04f1 02be 0f35 91bb d98b 683e
00000200: e5e7 683e ce6e e33c 2544 3a3e f684 723d
00000210: 14aa aabd 6343 cabd 678c 81bd bed0 2d3d
00000220: f165 463e f26f fcbd 2541 633e 08ca 4ebe
00000230: 2c82 873d 2a1f 9c3d af55 08bd 4b63 9bbc
00000240: 9f59 15bd b17e 02be 25dc de3c 08c7 043e
00000250: 1c86 f03d 9893 4abe 08ce cf3d e544 3e3e
00000260: f2bb 073e 458e 60bd 7556 263e b037 7b3d
00000270: 4e6f 9f3c c633 3a3c c5b1 9e3d eb52 b9be
00000280: 537a 3e3e 9670 0c3e 3361 593e e602 a93d
00000290: 11e1 f2bd 4430 31be 75ed f83d 60da 073e
000002a0: 5270 a3bd 4f4b 2b3d b847 9f3d 0cc8 22be
000002b0: c2e1 40be 0e26 353e 55d0 2b3c b09d ddbd
000002c0: 630b 9fbd c650 cbbd cf6b 10be 0777 813e
000002d0: 6d55 be3d 61d3 5dbd e107 4f3e 5811 b2bd
000002e0: 051b e93d 8733 fd3c 9248 ea3c c767 af3d
000002f0: c649 fdbd c37b fdbc f47f aa3d e35a 993c
00000300: 5da5 7e3e 2597 30bd 0664 9dbc 0f6b ab3d
00000310: b4e5 77be 8af3 25be 4cca 44be 4b68 0c3e
00000320: 0a05 95be 8e8d 17be fec4 0d3d 0167 e4bd
00000330: 46c7 a83c 7f59 343e fed2 22bd 4cf9 8a3d
00000340: 48d1 0f3e d85f 9ebe 740d 0abe 7859 343e
00000350: cf75 103e ee9f 46be bff9 f93c 7d0b df3d
00000360: 61a8 ea3d 2233 14bb a86a 0b3e c1a7 db3d
00000370: 43ea 3e3e 4e3e 8cbd a273 71be fe0c fabd
00000380: 91bc f83d fb99 7d3d f9b7 003c 0700 403d
00000390: 323d bbbd f1fb aebd 3952 87bd 54c6 8ebd
000003a0: 9262 f23d c11a 7bbd c450 053e c2c5 99bd
000003b0: 0224 bf3d 8225 3fbc bfcc 62bd 328c 77bd
000003c0: b99e 3bbe c345 26bc 8678 dcbd 4118 fd3c
000003d0: 2332 8dbc a31e f0bd 9c52 80bd 8359 b93d
000003e0: 3e58 593c 63fe 9d3d 5919 ea3d 41cc 3a3e
000003f0: aecc d03c ef04 3b3d 2d3a 86bc 80f4 8ebd

lstm.weight_hh_l0 f4 [512, 128]
-0.097763285 0.12842038 0.06698387 0.2682611 0.04565376 0.17063212 0.027662309 0.16475683
0.1612943 -0.21206237 -0.0824057 0.22840619 -0.23747616 0.08287951 -0.029273562 -0.05735295
0.15460613 0.06358059 -0.029575301 0.17651612 -0.095835544 -0.040683422 -0.1762497 -0.027800499
-0.027320247 0.015600357 -0.27476186 -0.0298515 -0.030254984 0.04761095 0.06792221 -0.098720714
0.32852274 -0.05984233 -0.08964974 -0.20873271 -0.107873835 0.17307402 -0.053055834 0.20942017
-0.19477613 0.055401295 -0.07491002 0.12926576 -0.08079047 -0.046638317 -0.060137767 -0.13402556
0.016013684 -0.33405864 0.08970264 0.23217435 -0.040732034 0.36084175 0.14575577 -0.13039751
-0.090383135 0.16990781 -0.16559887 0.26419085 -0.44966856 -0.07564475 0.012681227 0.121651545
-0.06750071 -0.11782965 0.075691715 0.07018682 0.08786806 -0.27151832 -0.023829265 0.19354732
0.005860135 -0.03960126 0.15600954 0.025721246 -0.3994765 -0.042378526 -0.14093505 0.022130596
0.14979602 -0.23649594 -0.15338814 -8.519513e-05 -0.058703367 -0.230612 0.2699501 0.15060249
-0.31008047 0.12678361 0.16236725 -0.107744426 -0.098858066 0.11323274 0.03730348 -0.0027251793
-0.044720426 -0.063116536 -0.007807791 0.08380098 0.0290801 -0.120024204 0.0123034 0.17354786
0.0048302864 0.1811826 -0.027563784 0.13635664 0.09908564 -0.09002817 0.12561664 -0.092617765
0.10758541 -0.23459609 0.068811364 0.070302464 -0.12833667 -0.0831776 -0.19399288 -0.12169487
0.20025319 -0.14653383 -0.07341492 0.036061406 -0.22084422 0.39870915 0.009023226 0.05315243
-0.35832953 -0.047649823 0.1366435 -0.057535946 0.05759726 0.021248182 -0.064554356 -0.04215672
0.056638133 -0.01479175 0.08678836 -0.031828027 0.0535283 0.073253535 -0.005341644 0.28556135
-0.07398534 -0.31185192 0.051389962 -0.055946503 0.07983445 -0.08429863 -0.29614505 0.16743256
-0.09085763 0.013220204 -0.06488167 0.0626988 -0.07967113 -0.20663662 -0.06633409 0.005729152
-0.008623821 -0.016109064 -0.07377258 -0.041767374 -0.02801323 -0.1276161 -0.16536961 -0.0075145056
0.056044307 -0.1265477 0.0852339 -0.077085614 0.06897689 0.029536858 -0.088563964 0.032930773
0.07451841 -0.09419948 -0.16119005 0.036200665 0.22768772 0.13624872 0.04771668 -0.060386997
0.07820011 -0.004860995 0.010234185 -0.008423477 -0.111400045 0.11404087 -0.013722073 -0.142555
-0.16928431 0.1655866 0.02459213 0.030587954 2.3252405e-05 0.020843789 -0.058245957 0.07086415
-0.2989575 -0.21117324 0.03044893 -0.09122033 0.09979408 -0.15321508 0.010653353 -0.10668213
-0.07780299 -0.2481814 0.14635476 -0.18938604 -0.062001355 -0.12296956 0.0897366 -0.029529653
-0.19492261 0.13548993 0.090149105 -0.054813463 0.134868 -0.20028278 -0.04674475 0.03766552
-0.04530386 -0.104492165 0.07255051 -0.29537216 -0.048965815 -0.10457242 -0.06907296 0.033800554
-0.15184456 -0.049559347 0.104725786 0.13034704 -0.1094167 -0.18448076 0.00013140024 -0.032782096
0.012505382 -0.13811612 0.11936144 -0.18626581 0.048731912 -0.14728764 0.05406761 -0.0703934
0.26746753 -0.057664543 -0.023919107 0.10929235 0.07812979 0.15380952 0.1138267 -0.13264365
00000000: 1e38 c8bd a280 033e d72e 893d 8559 893e
00000010: 70ff 3a3d 30ba 2e3e 119c e23c 04b6 283e
00000020: 552a 253e e126 59be 52c4 a8bd 50e3 693e
00000030: f32c 73be bcbc a93d 1ccf efbc edea 6abd
00000040: 1251 1e3e 8a36 823d e747 f2bc a4c0 343e
00000050: 6d45 c4bd a9a3 26bd cd7a 34be dfbd e3bc
00000060: b6ce dfbc a498 7f3c 96ad 8cbe 228b f4bc
00000070: 4dd9 f7bc b303 433d cd1a 8b3d 162e cabd
00000080: 2234 a83e 3b1d 75bd 489a b7bd 07be 55be
00000090: f5ec dcbd 513a 313e 1351 59bd 3e72 563e
000000a0: 6573 47be 78ec 623d 6d6a 99bd 3e5e 043e
000000b0: 7975 a5bd d207 3fbd 0553 76bd ff3d 09be
000000c0: 212f 833c bc09 abbe 05b6 b73d 1dbf 6d3e
000000d0: a2d6 26bd 40c0 b83e 0041 153e ed86 05be
000000e0: cb1a b9bd 50fc 2d3e c092 29be 0644 873e
000000f0: f53a e6be a2eb 9abd ecc4 4f3c 7224 f93d
00000100: d03d 8abd ac50 f1bd 4204 9b3d 1cbe 8f3d
00000110: 2bf4 b33d 7304 8bbe 9735 c3bc 4531 463e
00000120: 6006 c03b ee34 22bd f7c0 1f3e 5db5 d23c
00000130: 2f88 ccbe 1b95 2dbd 4751 10be 394b b53c
00000140: 2164 193e fe2b 72be c811 1dbe caaa b2b8
00000150: f172 70bd 8d25 6cbe e636 8a3e 8a37 1a3e
00000160: dec2 9ebe 90d3 013e 9a43 263e 1ca9 dcbd
00000170: 1976 cabd 91e6 e73d 89cb 183d ec98 32bb
00000180: c42c 37bd 3e43 81bd 7fd8 ffbb d99f ab3d
00000190: 6439 ee3c 40cf f5bd 3394 493c 88b6 313e
000001a0: 6147 9e3b ee87 393e 72cd e1bc 13a1 0b3e
000001b0: 69ed ca3d b060 b8bd a6a1 003e 62ae bdbd
000001c0: bd55 dc3d f539 70be f9ec 8c3d bdfa 8f3d
000001d0: b06a 03be 0459 aabd 12a6 46be 293b f9bd
000001e0: 2c0f 4d3e f70c 16be 905a 96bd 20b5 133d
000001f0: fd24 62be 9b23 cc3e 27d6 133c 5db6 593d
00000200: f876 b7be 762c 43bd 46ec 0b3e d0aa 6bbd
00000210: 1beb 6b3d ab10 ae3c 1335 84bd 86ac 2cbd
00000220: 63fd 673d 1959 72bc 18be b13d 1b5e 02bd
00000230: 7e40 5b3d f305 963d f508 afbb 1935 923e
00000240: a085 97bd 0eab 9fbe 487e 523d 2928 65bd
00000250: 3e80 a33d c3a4 acbd 53a0 97be 7173 2b3e
00000260: 9113 babd 8e99 583c aee0 84bd 3a68 803d
00000270: 9e2a a3bd 8d98 53be 2bda 87bd 9cbb bb3b
00000280: ed4a 0dbc 28f7 83bc 1416 97bd 4414 2bbd
00000290: 007c e5bc cbad 02be a756 29be 3e3c f6bb
000002a0: b78e 653d b895 01be 1c8f ae3d 10df 9dbd
000002b0: c143 8d3d 48f7 f13c 0661 b5bd 6be2 063d
000002c0: 1c9d 983d a8eb c0bd 010f 25be 2647 143d
000002d0: f826 693e c984 0b3e 9172 433d 5b58 77bd
000002e0: 6127 a03d fb48 9fbb 48ad 273c a002 0abc
000002f0: b525 e4bd 428e e93d 8cd2 60bc f0f9 11be
00000300: de58 2dbe 898f 293e 6f75 c93c 9793 fa3c
00000310: 290e c337 98c0 aa3c 5093 6ebd 3921 913d
00000320: f510 99be cc3d 58be 0970 f93c b9d1 babd
00000330: d760 cc3d 6ae4 1cbe 678b 2e3c 297c dabd
00000340: 2d57 9fbd 4423 7ebe 06de 153e 6aee 41be
00000350: 22f5 7dbd 77d7 fbbd d3c7 b73d 2ce8 f1bc
00000360: cb99 47be dfbd 0a3e 18a0 b83d 1584 60bd
00000370: d61a 0a3e ee16 4dbe 6c77 3fbd 2947 1a3d
00000380: 8a90 39bd fdff d5bd 5d95 943d 053b 97be
00000390: 6190 48bd 112a d6bd 2076 8dbd 7372 0a3d
000003a0: 247d 1bbe befe 4abd 797a d63d b279 053e
000003b0: dd15 e0bd 86e8 3cbe 7cc8 0939 8546 06bd
000003c0: 60e3 4c3c 506e 0dbe c573 f43d 77bc 3ebe
000003d0: 1d9b 473d 92d2 16be 0076 5d3d 6a2a 90bd
000003e0: 81f1 883e a831 6cbd 01f2 c3bc abd4 df3d
000003f0: 8302 a03d 3e80 1d3e f91d e93d bdd3 07be

lstm.bias_ih_l0 f4 [512]
-0.14930631 -0.040131774 -0.111451946 -0.054236233 0.04247723 0.046952948 0.012904833 0.13436411
-0.18394403 0.032054156 -0.22780795 -0.13329749 -0.11776446 -0.066434085 -0.1076394 -0.053358044
-0.17965506 0.29860726 -0.022514772 -0.17878225 -0.09317619 -0.09997213 -0.13981858 0.0631302
-0.16362925 0.045510832 -0.0105399825 0.22013609 -0.002113993 -0.072329246 -0.08548685 -0.14091904
0.14097609 -0.2140973 -0.042793933 0.078122556 0.20990908 -0.060370576 0.044406034 -0.052257743
-0.063367955 -0.08286172 -0.13785012 0.0069298837 -0.20056649 -0.30096796 0.07344078 -0.11887595
-0.038292743 0.21382338 -0.060875546 -0.09099614 -0.07104424 0.02125334 0.058305528 -0.025117755
-0.042220473 -0.2311662 -0.12524694 0.17381375 -0.03734856 0.32637706 0.11367667 -0.20786378
-0.11468814 -0.23332287 -0.10206174 0.04377363 -0.06355524 -0.033904 0.12380771 -0.22643663
0.20609604 -0.26296875 0.27516153 -0.16809799 -0.15920864 0.102332026 -0.14601544 -0.081827216
-0.124290764 0.10076867 -0.036448073 -0.015873488 -0.22541286 -0.0923392 -0.08943246 -0.20638674
0.19880718 -0.039080787 7.314248e-05 -0.09960056 9.996866e-05 -0.049478333 -0.26271284 -0.13990197
0.09592742 -0.12894534 0.14025103 -0.12446853 -0.028703017 -0.034938235 -0.14712103 -0.2869545
-0.04109235 -0.06779174 0.08010827 -0.10031691 -0.04151306 -0.07214193 -0.04907178 0.04343381
-0.05577256 -0.16616216 -0.15741925 -0.044979505 0.055453822 -0.14081332 -0.057595402 -0.06808489
0.015379422 0.06301765 -0.10844715 -0.18675448 0.11919647 0.07273257 0.16469306 0.2352881
0.045206223 -0.13811703 0.14615966 0.09992215 0.116085716 0.10215586 0.047439735 0.039952394
0.01524151 0.07780365 -0.024848374 0.026959669 0.070257284 0.29427356 0.14001314 0.02309068
0.061263252 0.10438447 0.10966992 0.05186737 -0.10961095 0.10887149 0.011720851 0.1317775
0.009129347 0.04561428 0.23402002 0.23972481 0.11154404 0.092529334 -0.01598147 0.21174634
0.011662423 0.011261879 0.07750092 0.06339279 0.15191966 0.03767421 0.124197654 0.12042169
0.22663437 0.021585425 -0.020253897 -0.009561682 0.06913354 0.20034839 -0.00044123697 0.11464445
-0.025393194 0.16210061 -0.020309027 -0.037268255 0.1044285 0.0063913786 0.3132709 -0.09081149
0.16083449 0.041490227 0.07437134 0.21963009 -0.09531514 0.20054321 0.06352109 0.10678144
0.017277785 -0.08650882 0.03887794 0.010514981 0.2520401 -0.08119623 0.0046279766 0.09085659
0.12466607 0.18930933 0.043453462 0.106791615 -0.0069097006 0.022937011 0.044799805 0.060452968
0.07818033 0.07822588 0.07674578 0.110118486 0.22364931 0.11701504 0.10480482 0.20024987
0.050921112 -0.1396841 0.053527422 0.075520314 0.063381046 -0.035053965 0.07329935 0.16124655
0.09232143 0.11308068 0.21917473 -0.17122494 -0.0616928 0.20216839 0.11740211 -0.08160353
0.0932536 -0.09530529 0.21861993 0.091572694 -0.04003729 -0.10170886 0.0458139 0.21910986
0.05345198 0.028750893 0.1572745 -0.0094729485 0.014982662 0.018343272 0.14801252 0.21490662
-0.031541012 0.025447479 0.30565354 -0.07290323 0.01183288 0.0037735088 0.101869196 0.25106508
00000000: c1e3 18be 3761 24bd eb40 e4bd d026 5ebd
00000010: 9bfc 2d3d bc51 403d cb6e 533c bf96 093e
00000020: d35b 3cbe 384b 033d 7d46 69be 237f 08be
00000030: 7e2e f1bd 980e 88bd 0c72 dcbd f78d 5abd
00000040: 7ff7 37be 0de3 983e e670 b8bc b212 37be
00000050: 29d3 bebd 30be ccbd 9a2c 0fbe 684a 813d
00000060: 6d8e 27be 9169 3a3d e4af 2cbc 5b6b 613e
00000070: eb8a 0abb 5b21 94bd bb13 afbd 154d 10be
00000080: 095c 103e 533c 5bbe b148 2fbd b8fe 9f3d
00000090: 68f2 563e 2347 77bd 1ae3 353d 370c 56bd
000000a0: 0fc7 81bd 68b3 a9bd 9528 0dbe 1414 e33b
000000b0: 4d61 4dbe 7918 9abe 1f68 963d 3c75 f3bd
000000c0: dad8 1cbd 84f4 5a3e a358 79bd 2f5c babd
000000d0: a47f 91bd 7c1b ae3c c7d1 6e3d c0c3 cdbc
000000e0: 60ef 2cbd d5b6 6cbe bc40 00be 3bfc 313e
000000f0: cefa 18bd e51a a73e 50cf e83d 3eda 54be
00000100: 9ee1 eabd 31ec 6ebe bf05 d1bd fa4b 333d
00000110: 4029 82bd ecde 0abd e68e fd3d 01df 67be
00000120: d70a 533e d7a3 86be f9e1 8c3e e121 2cbe
00000130: 9707 23be 7493 d13d 1285 15be 0795 a7bd
00000140: 288c febd ce5f ce3d 934a 15bd 1e09 82bc
00000150: a1d2 66be 561c bdbd 5e28 b7bd 0c57 53be
00000160: 1c94 4b3e 2d13 20bd 1264 9938 61fb cbbd
00000170: 44a6 d138 cba9 4abd 4c82 86be 7642 0fbe
00000180: 9875 c43d 3f0a 04be f79d 0f3e 5be9 febd
00000190: 9722 ebbc 651b 0fbd e5a6 16be b3eb 92be
000001a0: 7450 28bd 65d6 8abd ce0f a43d f472 cdbd
000001b0: 9909 2abd 26bf 93bd 7eff 48bd a7e7 313d
000001c0: c571 64bd 6a26 2abe 8332 21be 6e3c 38bd
000001d0: 8c23 633d 5e31 10be 28e9 6bbd 1770 8bbd
000001e0: f9f9 7b3c 660f 813d 8a19 debd 913c 3fbe
000001f0: 471d f43d d0f4 943d 4ca5 283e 5def 703e
00000200: 292a 393d 8d6e 0dbe e1aa 153e fca3 cc3d
00000210: 59be ed3d 1737 d13d 2b50 423d 1fa5 233d
00000220: 87b7 793c 8557 9f3d d18e cbbc 86da dc3c
00000230: 0de3 8f3d 06ab 963e 9b5f 0f3e aa28 bd3c
00000240: 2def 7a3d 86c7 d53d 9f9a e03d e172 543d
00000250: b57b e0bd 04f8 de3d d008 403c aef0 063e
00000260: 4293 153c 0ad6 3a3d f2a2 6f3e 6c7a 753e
00000270: 3471 e43d 0580 bd3d 92eb 82bc 08d4 583e
00000280: bf13 3f3c be83 383c cdb8 9e3d 14d4 813d
00000290: d490 1b3e 4650 1a3d 575b fe3d a69f f63d
000002a0: d712 683e ebd3 b03c 80eb a5bc 9aa8 1cbc
000002b0: e395 8d3d 2128 4d3e d355 e7b9 b6ca ea3d
000002c0: 6305 d0bc b4fd 253e 1e5f a6bc 99a6 18bd
000002d0: 9cde d53d c56e d13b 0b65 a03e 60fb b9bd
000002e0: ccb1 243e a8f1 293d 0050 983d b6e6 603e
000002f0: 9634 c3bd 335b 4d3e 5817 823d 3ab0 da3d
00000300: 248a 8d3c 892b b1bd 7a3e 1f3d 0747 2c3c
00000310: 660b 813e 364a a6bd 48a6 973b 0513 ba3d
00000320: ed50 ff3d 4eda 413e 42fc 313d 90b5 da3d
00000330: c56a e2bb 66e6 bb3c 0080 373d 889d 773d
00000340: 021d a03d e434 a03d e42c 9d3d cd85 e13d
00000350: 5304 653e 95a5 ef3d e9a3 d63d 4d0e 4d3e
00000360: a892 503d 5909 0fbe 923f 5b3d 65aa 9a3d
00000370: eccd 813d bf94 0fbd f81d 963d d11d 253e
00000380: 0513 bd3d d896 e73d 576f 603e 9755 2fbe
00000390: 97b1 7cbd 3b05 4f3e 8470 f03d c01f a7bd
000003a0: befb be3d 6b2f c3bd e7dd 5f3e 778a bb3d
000003b0: 24fe 23bd bc4c d0bd 5ba7 3b3d 565e 603e
000003c0: 77f0 5a3d fe86 eb3c 910c 213e 6d34 1bbc
000003d0: d779 753c a144 963c 9890 173e 7b10 5c3e
000003e0: 2631 01bd 3b77 d03c 9f7e 9c3e 4a4e 95bd
000003f0: b2de 413c f94c 773b cca0 d03d 9a8b 803e

lstm.bias_hh_l0 f4 [512]
-0.12639003 -0.0405656 -0.14293484 -0.06750695 -0.090019435 -0.014898862 -0.031233758 0.11459528
-0.10805955 -0.09523197 -0.20618601 -0.16031148 -0.10747728 -0.115549624 -0.13390414 -0.009071315
-0.1610554 0.14072281 0.03153459 -0.022319764 -0.044510532 -0.10079857 -0.1243683 0.09572277
-0.16600868 -0.06796976 -0.07458204 0.14890067 -0.13450024 -0.07376803 0.034411438 -0.09052964
0.03309279 -0.1907709 -0.017349802 0.03641616 0.19220738 0.08575442 0.037350927 -0.07720573
-0.06539379 -0.1942937 -0.14893769 0.024401808 -0.19533779 -0.33857504 0.08225385 -0.10136621
-0.15170333 0.14550792 -0.063148625 -0.017744001 -0.09065727 0.038676582 0.20302574 -0.1066796
-0.0975475 -0.21707001 -0.1458088 0.16648044 0.025343984 0.46619335 0.24758136 -0.24064495
-0.10020256 -0.12573119 -0.19572297 -0.0031612723 -0.08781575 -0.0041323956 -0.035696354 -0.111606404
0.17575525 -0.17901568 0.14066902 -0.11780327 -0.12605655 0.097492605 -0.17794979 -0.09336809
-0.094505884 0.20597926 -0.026365671 -0.1601307 -0.2751821 -0.12493013 -0.045686226 -0.11551317
0.21053778 -0.09914728 -0.12928475 0.0474522 -0.056601934 0.028772252 -0.31203437 -0.07780785
0.028295405 -0.01955936 0.12580374 -0.20763011 -0.06978064 0.031913497 -0.06807711 -0.2364908
-0.03183634 -0.05703273 0.124965265 -0.17362079 0.03789583 -0.001189495 -0.19322029 -0.042466428
-0.10978586 -0.19583364 -0.2255328 -0.06740577 0.115537316 -0.12757926 -0.028315315 -0.13795808
0.0830554 0.085738406 -0.08448696 -0.16222876 0.011590267 0.09208335 0.15375438 0.22707258
-0.02329052 -0.11780019 0.042879228 0.036623504 -0.020877525 0.16150868 0.17002542 0.08701134
-0.019630304 0.110306785 0.043138515 0.019504359 0.15677294 0.29235375 0.14608356 0.019291239
0.04224745 0.10837701 0.10013436 0.0959382 0.012380568 0.115327686 -0.13150643 0.040745202
0.0033735356 0.10535424 0.12865828 0.22577992 0.032108802 0.14611033 0.023661291 0.20555766
0.12383933 0.09393587 0.09270165 -0.0004960523 0.1708405 -0.009877022 0.05668126 0.0965973
0.20778999 -0.07539819 -0.007912262 -0.045860857 -0.0097093545 0.21102773 0.028011817 0.10100484
0.0811624 0.009731018 -0.018120266 -0.025800617 -0.009253124 -0.13082017 0.25352192 -0.15165453
0.13517183 0.109393716 -0.03214612 0.23871 -0.15214355 0.22549033 0.10445452 0.11438614
-0.032958403 -0.08629399 0.041603 -0.07010779 0.16932508 -0.016616797 0.02841252 -0.06886247
0.12597838 0.2607855 0.065602206 0.18779223 -0.08141655 -0.040566575 0.06470738 0.0012379938
0.047088515 0.19016884 0.020671254 0.0862204 0.2581424 -0.00879556 0.051011242 0.09857467
-0.027765086 -0.08517976 0.052362964 0.09296146 0.14270005 0.08688983 0.14095418 0.08891139
0.106905766 0.09795738 0.09811604 -0.170154 0.059620682 0.11395808 0.017845599 0.073675215
0.11871094 -0.15484624 0.13292299 0.055312227 -0.08174601 -0.0025058682 -0.035340354 0.07185631
0.079505034 0.05273234 0.14524575 0.07364388 -0.023802163 0.020460743 0.31582934 0.05689222
0.08665384 -0.0036542274 0.20236295 0.035243634 0.037063714 0.04318412 0.08461379 0.24682996
00000000: 636c 01be 1d28 26bd 835d 12be 1541 8abd
00000010: 1c5c b8bd 5b1a 74bc f0dd ffbc eeb0 ea3d
00000020: 534e ddbd fb08 c3bd 6d22 53be b128 24be
00000030: 0c1d dcbd 48a5 ecbd 2b1e 09be da9f 14bc
00000040: b5eb 24be a419 103e 6a2a 013d f0d7 b6bc
00000050: ad50 36bd 7b6f cebd cfb4 febd 4d0a c43d
00000060: 2efe 29be bb33 8bbd 78be 98bd 6b79 183e
00000070: 6eba 09be b113 97bd 02f3 0c3d 9b67 b9bd
00000080: 4e8c 073d 7259 43be 2c21 8ebc 1d29 153d
00000090: 03d2 443e 03a0 af3d 49fd 183d 0a1e 9ebd
000000a0: 2eed 85bd edf4 46be 1f83 18be 4de6 c73c
000000b0: a106 48be b559 adbe b574 a83d 1699 cfbd
000000c0: 1e58 1bbe 0700 153e 1154 81bd de5b 91bc
000000d0: 85aa b9bd 566b 1e3d fbe5 4f3e d67a dabd
000000e0: fcc6 c7bd 9a47 5ebe e74e 15be d979 2a3e
000000f0: 309e cf3c e5b0 ee3e f885 7d3e a16b 76be
00000100: 0037 cdbd adbf 00be 9a6b 48be 592d 4fbb
00000110: bed8 b3bd 0c69 87bb 5736 12bd e691 e4bd
00000120: 2ff9 333e e34f 37be 8a0b 103e d742 f1bd
00000130: f814 01be 34aa c73d 7838 36be c537 bfbd
00000140: 4d8c c1bd 3aec 523e d2fc d7bc 4df9 23be
00000150: abe4 8cbe 5edb ffbd 7b21 3bbd 2b92 ecbd
00000160: 3797 573e bb0d cbbd 3963 04be 3d5d 423d
00000170: 6ed7 67bd c9b3 eb3c f8c2 9fbe b959 9fbd
00000180: c4cb e73c f33a a0bc b2d2 003e fd9c 54be
00000190: 27e9 8ebd bab7 023d 036c 8bbd a52a 72be
000001a0: d266 02bd 279b 69bd caed ff3d a6c9 31be
000001b0: a838 1b3d d4e8 9bba 8adb 45be 47f1 2dbd
000001c0: 69d7 e0bd 9d88 48be 12f2 66be 090c 8abd
000001d0: d49e ec3d 23a4 02be 85f5 e7bc e244 0dbe
000001e0: f318 aa3d 9e97 af3d 8007 adbd 4c1f 26be
000001f0: 1ae5 3d3c 3296 bc3d ca71 1d3e b785 683e
00000200: c3cb bebc 3a41 f1bd 21a2 2f3d 8702 163d
00000210: 5807 abbc 8862 253e 251b 2e3e 0033 b23d
00000220: bbcf a0bc 86e8 e13d 03b2 303d 9bc7 9f3c
00000230: 1689 203e 64af 953e ee96 153e a908 9e3c
00000240: aa0b 2d3d c4f4 dd3d 3e13 cd3d 3f7b c43d
00000250: ded7 4a3c ec30 ec3d 9fa9 06be 71e4 263d
00000260: 8916 5d3b f7c3 d73d ffbe 033e da32 673e
00000270: 8584 033d f29d 153e 53d5 c13c b57d 523e
00000280: 7a9f fd3d 7361 c03d 5dda bd3d 8209 02ba
00000290: d0f0 2e3e 3cd3 21bc 9c2a 683d ced4 c53d
000002a0: e6c6 543e 5e6a 9abd 6fa2 01bc 98d8 3bbd
000002b0: fc13 1fbc a717 583e 0a79 e53c a0db ce3d
000002c0: 7938 a63d d96e 1f3c f470 94bc d15b d3bc
000002d0: 6a9a 17bc b9f5 05be a0cd 813e 534b 1bbe
000002e0: 7c6a 0a3e d009 e03d a6ab 03bd 6570 743e
000002f0: 85cb 1bbe f0e6 663e 40ec d53d 4843 ea3d
00000300: 64ff 06bd e7ba b0bd e867 2a3d ac94 8fbd
00000310: 8e63 2d3e f31f 88bc 60c1 e83c c407 8dbd
00000320: 7a00 013e ad85 853e 735a 863d 9b4c 403e
00000330: b8bd a6bd 2329 26bd 4e85 843d 2e44 a23a
00000340: e3df 403d 9fbb 423e c356 a93c 5294 b03d
00000350: 3e2b 843e 411b 10bc 2af1 503d 84e1 c93d
00000360: 9b73 e3bc ba72 aebd 8c7a 563d 9462 be3d
00000370: f61f 123e 4cf3 b13d 4b56 103e 2d17 b63d
00000380: 69f1 da3d e19d c83d 10f1 c83d da3c 2ebe
00000390: d134 743d db62 e93d ef30 923c 08e3 963d
000003a0: b91e f33d 0390 1ebe f71c 083e 138f 623d
000003b0: 746a a7bd 7e39 24bb 0cc1 10bd 6729 933d
000003c0: 89d3 a23d defd 573d 4dbb 143e 9ad2 963d
000003d0: c1fc c2bc 4a9d a73c 62b4 a13e d107 693d
000003e0: 9277 b13d c37b 6fbb 3c38 4f3e a15b 103d
000003f0: 1fd0 173d d5e1 303d ff49 ad3d fec0 7c3e
