models/encoder.model (torch, 349621 bytes, 5 tensors)

embedding.weight f4 [128, 32]
0	0xbdf7d6bf	-0.121015064
1	0xbf8b3b35	-1.0877444
2	0xbf71223f	-0.9419288
3	0x3d757a12	0.05993087
4	0x3f2f6b0f	0.68522733
5	0xbdd307eb	-0.103042446
6	0x3fdcf59c	1.7262454
7	0x3ccff919	0.025387334
8	0xbfe72a25	-1.8059736
9	0xbf04e405	-0.5191043
10	0x3e471dc3	0.19444947
11	0xbf2d9e9f	-0.6782016
12	0xbcb47f32	-0.022033308
13	0x3f0a6cd9	0.5407234
14	0xbc9573ed	-0.018243754
15	0x3e97728b	0.29579577
16	0xbe876047	-0.2644064
17	0x3eaa901c	0.33313072
18	0xbe09473d	-0.13406081
19	0x3eba93e0	0.36440945
20	0x3d80a5a8	0.062815964
21	0xbec99167	-0.39368746
22	0xbd2acdf5	-0.041700322
23	0xbc399ce4	-0.01132891
24	0x3c4d39bc	0.012525972
25	0x3edb0c78	0.4278295
26	0x3ec7c8a1	0.39020255
27	0xbda22390	-0.07916939
28	0xbeb6d768	-0.35711217
29	0xbe884c13	-0.2662054
30	0xbf005a1e	-0.5013751
31	0xbffa9d8c	-1.957933
32	0xbe008924	-0.12552315
33	0x3f25478b	0.6456229
34	0x3f7ca2fd	0.986862
35	0x3d22eca7	0.03977647
36	0x3ec0d92a	0.37665683
37	0xbf7572df	-0.95878404
38	0xbf08ca14	-0.53433347
39	0xbfb67419	-1.425418
40	0x3fa16fb6	1.2612216
41	0x3f4d9b49	0.8031507
42	0xbe9b17bb	-0.30291542
43	0xbf9d3b58	-1.2283735
44	0x3f0e7547	0.556477
45	0xbf0a44a4	-0.5401099
46	0x3ed0786e	0.4071688
47	0x3fb1257d	1.3839566
48	0xbe9dc375	-0.30813184
49	0x3f9f026b	1.2422613
50	0xbdbf7712	-0.09348883
51	0x3f31185d	0.691778
52	0x3d3b243c	0.045688853
53	0x3efc950d	0.49332467
54	0x3f433fa6	0.76268995
55	0xbf4613ad	-0.7737377
56	0xbfd86d79	-1.6908408
57	0xbf19746f	-0.5994329
58	0x3da497b5	0.08036748
59	0x3fc52603	1.5402225
60	0xbeb4c253	-0.35304508
61	0xbe724a25	-0.23661096
62	0x3f68b284	0.90897393
63	0xbff2763c	-1.8942332
64	0xbf1adc36	-0.60492265
65	0xbf17b3ac	-0.5925853
66	0x3ec34c46	0.3814413
67	0x3fc7f288	1.562089
68	0x3e7f7cf6	0.24950013
69	0x3e89eda5	0.2693912
70	0xbf9b8202	-1.214905
71	0xbf557e61	-0.83395964
72	0x402e3ebc	2.722579
73	0x3f2f8c9d	0.68573934
74	0x3f9f065e	1.2423818
75	0xbe89e776	-0.26934403
76	0xbfa14cdd	-1.2601582
77	0xbf38d499	-0.721994
78	0x3e246ec0	0.16057873
79	0xbf9a6ab5	-1.2063814
80	0xbe064a09	-0.1311418
81	0x3ee77e65	0.4521362
82	0xbf92de79	-1.1474143
83	0x3fcaf3a5	1.5855604
84	0x3fa2dda0	1.2723885
85	0xc0129a63	-2.290673
86	0x3f51c1a2	0.81936085
87	0x4000d0f9	2.0127547
88	0xbf38eb76	-0.72234285
89	0xbcf55744	-0.029948838
90	0xbe92e593	-0.28690776
91	0x3e47b632	0.19503096
92	0xbfc36bd3	-1.526728
93	0x3f82a9c4	1.0208058
94	0xbfcfd4c4	-1.6236806
95	0x3e149fc3	0.1451407
96	0xbf727490	-0.9470911
97	0xbed63709	-0.41838863
98	0x3fa345d7	1.2755688
99	0x3e9477dd	0.28997698
100	0x3eb1c189	0.34717968
101	0xbfa4b6b4	-1.2868257
102	0xbe4a55c0	-0.19759274
103	0x3f87cc13	1.0609154
104	0xbf4ea874	-0.8072579
105	0xbf5acb44	-0.8546641
106	0xbe492eb6	-0.19646725
107	0xbf32cbb5	-0.6984208
108	0x3f343527	0.70393604
109	0x3f739b4c	0.9515884
110	0xbfb5a0d9	-1.4189712
111	0x3e1b866b	0.15187995
112	0x3f981bf1	1.1883527
113	0x3fae9c68	1.3641481
114	0xbfd3392e	-1.6501825
115	0x3dde22ca	0.10846479
116	0xbf27d5b9	-0.6556049
117	0x3f28c1cc	0.6592071
118	0xc0165367	-2.3488405
119	0xbf4ecd23	-0.80781764
120	0xbee2e5d7	-0.4431598
121	0xbf0793df	-0.5296001
122	0xbf676c6a	-0.903998
123	0xbf28b91c	-0.65907454
124	0xbcb46d1d	-0.022024686
125	0xbeb7baa4	-0.35884583
126	0xbf5f4330	-0.87211895
127	0xbe8c42ef	-0.27394816
128	0x401307cf	2.2973516
129	0x3f15da58	0.5853629
130	0x3f33f517	0.7029585
131	0xbe20d9f4	-0.15708143
132	0xbfd8df1a	-1.6943085
133	0xbe8b2392	-0.27175575
134	0xbf94ebbe	-1.1634443
135	0xbf12925f	-0.57254595
136	0x401a6c13	2.4128463
137	0xbee151dc	-0.44007766
138	0xbeca7df7	-0.3954923
139	0x3f324005	0.69628936
140	0xbf738642	-0.95126736
141	0xbe034643	-0.12819771
142	0xbf6b293b	-0.9185979
143	0x3f9397f6	1.153075
144	0xbfe64259	-1.7988998
145	0x40181b90	2.3766823
146	0xbed6fad4	-0.41988242
147	0xbf11d7bc	-0.5696981
148	0x3f469ce8	0.7758317
149	0x3fb0bc66	1.3807495
150	0x3eb21568	0.34781957
151	0xbee36302	-0.44411474
152	0x400c49d1	2.1920054
153	0x3f62c670	0.8858404
154	0xbd81d462	-0.06339337
155	0x3c8a2a87	0.016865982
156	0x3f53e9e1	0.82778746
157	0x3e1fa7e8	0.15591395
158	0x3eb6b2c7	0.3568327
159	0x3ecfc87d	0.40582648
160	0x3ef53474	0.4789158
161	0xbd55e013	-0.052215647
162	0xbf704cfe	-0.9386748
163	0x3f30fc7d	0.69135267
164	0x3fc01ff7	1.5009755
165	0xbeb39dc8	-0.35081315
166	0xbdc2286b	-0.09480365
167	0x3f18f5b6	0.59749925
168	0x3ef097d5	0.4699084
169	0xbf4d7afc	-0.80265784
170	0xbf6e3af6	-0.9305872
171	0x3f3c41f5	0.7353814
172	0xbdd1e602	-0.10248949
173	0xbf280bb2	-0.65642846
174	0x3fa19bea	1.2625706
175	0xbc523839	-0.012830787
176	0x3fc6376c	1.5485663
177	0x3f9bf9cf	1.218561
178	0xbd871718	-0.06596202
179	0x3e3f42e8	0.18677866
180	0x3f33b790	0.7020197
181	0xbe9fda1f	-0.312211
182	0x3ddd318a	0.108004645
183	0xbf218e79	-0.6310802
184	0xbd5cbc05	-0.053890247
185	0x3f5f7c7f	0.8729934
186	0xc001eefc	-2.0302114
187	0xbf7e6825	-0.9937766
188	0x40116cb5	2.27226
189	0x3daa044d	0.083016016
190	0xbe95352b	-0.29142126
191	0x3d88655a	0.06659956
192	0xbfc24b71	-1.5179273
193	0x3f9c4966	1.22099
194	0x3fbd127f	1.477127
195	0xbe25b279	-0.16181363
196	0x3f770417	0.96490616
197	0xc00d70dd	-2.2100136
198	0x3f35d3b0	0.71026134
199	0xbfc5feab	-1.5468343
200	0xbffcef46	-1.976052
201	0xbe9d94b5	-0.30777517
202	0xbfafee94	-1.3744683
203	0xbe8f7a25	-0.28022876
204	0xbf8c65b8	-1.0968542
205	0x3ffcd315	1.9751917
206	0x3f10bb04	0.56535363
207	0xbc10263f	-0.008798181
208	0x401f0301	2.4845583
209	0xbf059d77	-0.521934
210	0x3ed7a66a	0.4211915
211	0xbe912a97	-0.28352806
212	0x3e59897c	0.21243852
213	0xbe55c6c4	-0.20876604
214	0x3f04942f	0.5178861
215	0x3dd9ee2f	0.10641133
216	0xbc3806b2	-0.011232065
217	0xbf1da807	-0.61584514
218	0x3ea63412	0.32461601
219	0xbcad2175	-0.021134118
220	0xbecd1330	-0.400537
221	0xbf9b6846	-1.2141197
222	0x3f7aa4bd	0.9790762
223	0xbea4e2fb	-0.32204422
224	0xbfa8c978	-1.3186483
225	0xbfbaded6	-1.4599254
226	0xbe8e5827	-0.2780163
227	0x3edf7f93	0.4365202
228	0xbf98deb1	-1.194296
229	0xbe820e64	-0.25401604
230	0xbeafbc41	-0.34323314
231	0x3eb49efe	0.3527755
232	0xbfcb20d1	-1.586939
233	0x3cf4383c	0.02981197
234	0xbf27a7a4	-0.65490174
235	0xbf689f9c	-0.90868545
236	0x3fb0685e	1.378185
237	0x3f1d04d1	0.61335474
238	0xbe45978d	-0.19296093
239	0x3e6c86d3	0.23098306
240	0xbdb704bc	-0.0893645
241	0xbfd7c218	-1.6856108
242	0xbf2ea931	-0.68226916
243	0x3ee6ff4c	0.4511665
244	0xbf0a1fd8	-0.5395484
245	0x3f1bafe5	0.6081527
246	0x3f425716	0.7591413
247	0xc0082c11	-2.1276896
248	0xbf284655	-0.6573232
249	0x3e236ca4	0.15959412
250	0x40044b0a	2.06708
251	0x3ff4cc29	1.9124805
252	0x3f4742b0	0.7783613
253	0x3f2334f4	0.63752675
254	0x3fc0f83e	1.5075758
255	0xbedbbe2f	-0.42918536

lstm.weight_ih_l0 f4 [512, 32]
0	0xbe45e7ce	-0.19326708
1	0x3ed37140	0.4129734
2	0x3f544596	0.8291868
3	0xbfaaaa16	-1.3333156
4	0x3e4dbf6f	0.20092557
5	0xbeca8911	-0.39557698
6	0xbedfe9f8	-0.43733191
7	0xbedb04bb	-0.42777047
8	0xbd5ec108	-0.054383308
9	0x3e320332	0.17384031
10	0x3e479a6e	0.19492504
11	0x3f259968	0.64687204
12	0x3ea8bc48	0.32956147
13	0xbf36b5bf	-0.7137107
14	0x3e6059d1	0.21909262
15	0x3ed7facd	0.42183533
16	0x3f14fad4	0.58195233
17	0x3ed10ef7	0.4083173
18	0x3e1ae25e	0.15125415
19	0xbf7b6421	-0.9819966
20	0xbf1849cd	-0.5948761
21	0xbebf8ab8	-0.37410522
22	0x3ed514b0	0.41617346
23	0xbe42d8ff	-0.1902809
24	0x3f068467	0.5254578
25	0xbf4add99	-0.7924438
26	0xbc716e8c	-0.014735829
27	0x3f557ec9	0.83396584
28	0xbe3d424b	-0.1848232
29	0x3f420a12	0.75796616
30	0x3dd2d5e5	0.102947034
31	0x3f4e7f23	0.80662745
32	0xbd5fe758	-0.054663986
33	0xbe42e6cd	-0.19033356
34	0xbe0a8f84	-0.1353131
35	0xbe274a6b	-0.16336982
36	0xbe532228	-0.20618498
37	0x3e12234f	0.14271282
38	0x3d1437b9	0.036185954
39	0xbdabf9e0	-0.08397269
40	0xbc3de45e	-0.0115900915
41	0xbc20b4af	-0.009808703
42	0x3dcb4997	0.099261455
43	0x3e3e6382	0.18592647
44	0x3d004e8f	0.03132492
45	0xbdc95ad1	-0.09831775
46	0xbc37e581	-0.011224152
47	0xbe3f0def	-0.18657659
48	0xbe406b6b	-0.18790977
49	0xbdb7341a	-0.089454845
50	0xbd6a1423	-0.05714811
51	0xbdbe8fa0	-0.09304738
52	0xbddb4b21	-0.10707689
53	0x3dd20601	0.102550514
54	0xbe906304	-0.28200543
55	0xbbf99010	-0.0076160505
56	0xbe370f31	-0.17876889
57	0x3db2ce18	0.087307155
58	0x3d0e178d	0.03469043
59	0x3d6337cd	0.055473138
60	0xbb8aaa26	-0.004231709
61	0x3d5dbf08	0.05413726
62	0xbe3b91cd	-0.18317337
63	0x3d240824	0.040046826
64	0x3c102b41	0.008799375
65	0x3aacd7d1	0.0013186877
66	0xbd373069	-0.044723902
67	0xbdbd2858	-0.092362106
68	0x3d47ed87	0.048810508
69	0x3ae9b06e	0.0017829069
70	0xbd642c1f	-0.05570614
71	0x3d4ea57e	0.050450794
72	0x3d8cc60e	0.068737134
73	0xbcc284b2	-0.023744915
74	0x3c76dfa5	0.015067969
75	0xbc5b1ba2	-0.013373287
76	0x3ba1850f	0.004929192
77	0x3d2d50d4	0.04231341
78	0x3d3fac4d	0.04679518
79	0x3d0e4832	0.03473682
80	0xbd718437	-0.05896398
81	0xbc4b2a3c	-0.012400206
82	0xbcb51d94	-0.02210883
83	0xbd8cfa43	-0.06883671
84	0x3c9b0f40	0.01892817
85	0xbd740250	-0.059572518
86	0xbbe2c4b3	-0.006920421
87	0x3cb754b4	0.022379257
88	0x3c9c2b7a	0.0190637
89	0x3d49f6db	0.049307685
90	0x3c928dde	0.017889913
91	0x3cc9b33f	0.024621604
92	0x3d1b0755	0.03784879
93	0x3dbd4e1f	0.09243416
94	0xbcb97a9c	-0.022641473
95	0x3bdd22df	0.0067485417
96	0xbf214a18	-0.63003683
97	0x3ed7c9b6	0.4214608
98	0x3e0e1906	0.13876733
99	0xbe485989	-0.19565405
100	0xbed5d348	-0.41762757
101	0x3f635c82	0.8881303
102	0xbe8980ef	-0.2685618
103	0x3f0fb3a4	0.56133485
104	0x3f2b6ff9	0.6696773
105	0xbe19935d	-0.14997621
106	0xbe981ffe	-0.29711908
107	0x3e86a86a	0.26300365
108	0xbecc556d	-0.39908925
109	0xbeb3b96a	-0.35102397
110	0x3e203836	0.15646443
111	0xbd7dd577	-0.061971154
112	0xbeab8039	-0.33496264
113	0x3d53f962	0.0517515
114	0x3ed7f308	0.42177606
115	0x3e8272c4	0.25478184
116	0xbdec461f	-0.11536812
117	0x3f26514f	0.6496782
118	0x3f8326ec	1.0246253
119	0x3e6b9b83	0.23008542
120	0x3dab0a3d	0.08351562
121	0xbe0a0cdc	-0.13481468
122	0xbe3738cc	-0.1789276
123	0x3ec9de80	0.39427567
124	0x3f16f1ba	0.58962595
125	0x3ec8272f	0.39092395
126	0x3e7e3073	0.2482317
127	0xbd6fcc1c	-0.058544263
128	0xbe34be5a	-0.17650738
129	0xbd622a52	-0.05521614
130	0x3c1415d7	0.00903841
131	0x3d589c9b	0.052883726
132	0x3a9d7f55	0.0012016097
133	0x3d202943	0.03910185
134	0x3d476815	0.048683245
135	0x3c74ef92	0.014949696
136	0xbd55e68d	-0.052221823
137	0xbcc4ce94	-0.024024285
138	0xbd00099c	-0.031259164
139	0xbcb5349a	-0.022119809
140	0xbd42e4c7	-0.04758146
141	0x3bd8db6b	0.0066179535
142	0x3da60814	0.081070095
143	0xbd9d565f	-0.076824896
144	0xbd7897c6	-0.060691617
145	0xbc7c961d	-0.015416649
146	0xbd84e2c7	-0.06488567
147	0x3d64d8cf	0.055870827
148	0xbdc881d3	-0.09790387
149	0x3d3b19ee	0.045679025
150	0xbda12237	-0.07867854
151	0xbdf33db3	-0.118770026
152	0x3d49660b	0.04916958
153	0x3cdc5ab9	0.026898729
154	0xbd5fde69	-0.054655466
155	0xbcbe40b0	-0.023224205
156	0xbd813588	-0.063090384
157	0x3db698cc	0.089158624
158	0x3dd16aed	0.102254726
159	0xbcbcc7de	-0.023044523
160	0xbcb3b7da	-0.021938253
161	0xbdbb8c70	-0.09157646
162	0x3d8b6b14	0.06807533
163	0xbe830fc2	-0.2559796
164	0x3e90be4f	0.28270194
165	0xbdbc85f9	-0.09205241
166	0x3cd8efd1	0.02648154
167	0xbe9b80fd	-0.30371848
168	0xbe800a0d	-0.25007668
169	0xbd1530e2	-0.03642357
170	0x3d05b84a	0.032646455
171	0xbe11fe14	-0.1425708
172	0xbe348e76	-0.1763247
173	0x3e32fb0d	0.17478581
174	0xbcac63cc	-0.02104368
175	0x3dcefe7a	0.10107131
176	0xbe0c30dd	-0.13690515
177	0x3e71047b	0.23536865
178	0xbe294b4b	-0.16532628
179	0xbc226391	-0.009911434
180	0x3e6833d7	0.22676025
181	0xbe44bf06	-0.19213495
182	0xbd5bddaa	-0.053678192
183	0x3d9a3cbc	0.075311154
184	0xbd9934e4	-0.07480791
185	0xbe16b59c	-0.14717716
186	0x3de19d4a	0.11016329
187	0xbd788110	-0.06066996
188	0xbea4a0ae	-0.3215384
189	0x3e177752	0.14791611
190	0xbe32c0ed	-0.17456408
191	0x3e450733	0.19241028
192	0x3c10e150	0.008842781
193	0x3e01d8aa	0.12680307
194	0xbca6b123	-0.020348137
195	0x3e9e8a52	0.30964905
196	0x3d741494	0.059589937
197	0x3e5af62a	0.21382967
198	0x3ce8b26f	0.028405396
199	0xbd72f5b5	-0.059316356
200	0x3e1a21c8	0.15051949
201	0xbe167628	-0.1469351
202	0xbd48d5b1	-0.049031917
203	0x3e392904	0.18082052
204	0x3d08546b	0.033283632
205	0xbedf59a6	-0.43623084
206	0xbc06835a	-0.008210028
207	0xbe1bb075	-0.15204032
208	0xbe9ede13	-0.31028804
209	0xbeb6315d	-0.35584536
210	0xbe891aa5	-0.2677814
211	0x3e2f6465	0.17128141
212	0xbe67dca5	-0.22642763
213	0x3dbb775a	0.09153624
214	0xbe4a1483	-0.19734387
215	0xbe58f122	-0.21185735
216	0x3e2cf79c	0.1689133
217	0xbe40e6f7	-0.18838106
218	0xbdf2bc66	-0.118523404
219	0xbdd61f3d	-0.10455177
220	0x3e36e8f3	0.178623
221	0xbe91228e	-0.28346676
222	0x3ddda7af	0.10822999
223	0x3eb17c41	0.3466511
224	0xbe17ff25	-0.14843424
225	0xbd676626	-0.0564939
226	0xbe4ef91b	-0.20212214
227	0xbd9ce2b7	-0.0766043
228	0x3d5bfccb	0.05370788
229	0xbe254c39	-0.16142358
230	0xbc434b60	-0.011919826
231	0xbd850389	-0.06494815
232	0xbd59d693	-0.05318315
233	0xbdf7029d	-0.12061045
234	0x3e1c4971	0.1526239
235	0xbe096a94	-0.13419563
236	0x3deffaa0	0.11717725
237	0x3ea31a2c	0.31855905
238	0x3ed4d178	0.41566062
239	0xbb731f39	-0.0037097468
240	0xbe788a8d	-0.24271603
241	0x3dfd212c	0.12359843
242	0xbcbe3e5e	-0.023223098
243	0x3e72b43c	0.23701566
244	0xbe30fb67	-0.17283402
245	0xbe097a0c	-0.13425463
246	0xbb5352b5	-0.0032245342
247	0x3da7923c	0.08182189
248	0x3dd4bef0	0.10387981
249	0x3e7df030	0.24798656
250	0x3d944357	0.072394066
251	0xbd21abb0	-0.039470375
252	0x3d20b51b	0.039235216
253	0xbc7e2b08	-0.015513189
254	0xbd4c958c	-0.049947307
255	0xbe1d5efd	-0.15368266

lstm.weight_hh_l0 f4 [512, 128]
0	0x3f8bfea1	1.0937082
1	0xbed39d02	-0.41330725
2	0xbe1fdac5	-0.15610798
3	0x3eebfe5a	0.46092492
4	0x3f7c9421	0.98663527
5	0xbf80c912	-1.0061362
6	0xbfbbddd4	-1.4677072
7	0xbf46f558	-0.77718115
8	0x4004d5ff	2.0755613
9	0xbf01dd8f	-0.50728697
10	0xbff2715e	-1.8940847
11	0x3f0f6d22	0.560259
12	0x3e57eada	0.21085683
13	0xbe099a9c	-0.13437885
14	0x3e88b9ae	0.26704162
15	0xbf07e657	-0.53085846
16	0xbdd7e84d	-0.10542355
17	0x3e100048	0.14062607
18	0x3eab103b	0.3341082
19	0x3d3836cb	0.04497413
20	0xbf0283a0	-0.50982094
21	0x3f8d3d2c	1.1034293
22	0x3f16f370	0.58965206
23	0xbede15f2	-0.43376118
24	0xbf9f89b0	-1.2463894
25	0xbf04a8fa	-0.5182034
26	0x3e6070b3	0.21917991
27	0xbeb55604	-0.35417187
28	0x3e5587a4	0.20852524
29	0x3e3d43aa	0.18482843
30	0x3f0fd68b	0.5618674
31	0x3f846515	1.0343348
32	0x3f42f35c	0.76152587
33	0xbf6e4219	-0.93069607
34	0x3f70eda1	0.9411259
35	0x3ee7ebb6	0.4529702
36	0x3f928c82	1.144913
37	0xbd4eb164	-0.05046214
38	0x3ed79495	0.42105547
39	0xbedafe27	-0.42772028
40	0xbd95efa1	-0.07321096
41	0x3eba94b6	0.36441582
42	0x3e12c572	0.14333132
43	0xbf8ac4a8	-1.0841265
44	0xbe096b16	-0.13419756
45	0xbf57c1c8	-0.8428006
46	0xbe95b7b4	-0.29241717
47	0xbe9d7d3b	-0.30759606
48	0x3dbcbe4f	0.09215986
49	0xbe9b19af	-0.30293033
50	0x4008de9b	2.1385868
51	0xbf399969	-0.7249971
52	0x3ec0dfdf	0.376708
53	0x3f110921	0.56654555
54	0xbf4abea3	-0.7919714
55	0xbc8cbdc5	-0.017180333
56	0xbfe90e87	-1.8207558
57	0xbf5ce3ae	-0.8628491
58	0x3ec88472	0.39163548
59	0x3e85f1e6	0.26161116
60	0x3e43f8e1	0.19137909
61	0xc0464a89	-3.0982993
62	0xbf732111	-0.9497233
63	0xbf84cfc5	-1.0375906
64	0x3f88dd3e	1.0692518
65	0x3d0455b7	0.032308307
66	0xbf01dec8	-0.5073056
67	0x3ef7c977	0.48395893
68	0x3e833107	0.25623342
69	0x3eb53df1	0.3539882
70	0x3fc56775	1.5422198
71	0xbe04aada	-0.129558
72	0x3f4b6eeb	0.7946612
73	0x3e20cc1c	0.15702862
74	0xbf5129f3	-0.81704634
75	0x3e9a1b4f	0.3009896
76	0x3c5d631d	0.0135124
77	0xbe1c56db	-0.15267508
78	0x3f21ef9f	0.6325626
79	0xbf107465	-0.56427604
80	0xbf087306	-0.5330051
81	0x3fc44ae3	1.5335354
82	0xbf830499	-1.0235778
83	0xbf4ccd85	-0.800011
84	0x3fb0f7cd	1.3825623
85	0xbf4dbc73	-0.80365676
86	0xbe8810fb	-0.26575455
87	0x3eff53d0	0.4986863
88	0xbfa0a0f3	-1.2549118
89	0xbf3a6749	-0.7281385
90	0x4002c51a	2.0432801
91	0xbf0b5d99	-0.54439694
92	0x3d504551	0.050847355
93	0xbe6c3bfe	-0.2306976
94	0xbfe72228	-1.8057299
95	0xbd9b0369	-0.0756901
96	0xbca6c846	-0.02035917
97	0xbf85d046	-1.0454185
98	0xbf264c54	-0.6496022
99	0x3f40302a	0.7507349
100	0x40892c18	4.2866325
101	0xbed922d3	-0.4240938
102	0x3e19f3d7	0.15034424
103	0xbe6d4099	-0.23169173
104	0x3faebca0	1.3651314
105	0x3ead4ce1	0.33847716
106	0xbdacc63a	-0.08436246
107	0xbe5db4fd	-0.21651073
108	0x3e8080f4	0.25098383
109	0x3ee7fd51	0.45310453
110	0x3e887f9b	0.26659855
111	0x3d9691bf	0.073520176
112	0x3d4ca0cb	0.04995803
113	0x40279bef	2.6188924
114	0xbe4e1a56	-0.20127234
115	0xbd8b7f56	-0.06811397
116	0x3f36b938	0.7137637
117	0xbe39271b	-0.18081324
118	0xbc33f24c	-0.010983061
119	0xbf9091aa	-1.1294453
120	0xbe9ab82d	-0.3021864
121	0xbe343a04	-0.17600256
122	0x3f26a2d5	0.6509221
123	0xbfd73760	-1.6813774
124	0x3cd85d93	0.026411807
125	0xbde1d11f	-0.11026215
126	0xba9f154f	-0.0012137088
127	0x3d0c5eff	0.034270283
128	0x3eb8b75c	0.36077392
129	0xbf1416e6	-0.5784744
130	0x3f1dc95e	0.61635387
131	0xbf87000b	-1.0546888
132	0xbef2b459	-0.4740322
133	0xbf8f8e85	-1.1215369
134	0x3f4b4e43	0.7941629
135	0xbdb7296e	-0.08943449
136	0x3e685ed8	0.2269243
137	0xbeb50e02	-0.3536225
138	0x3ed6790d	0.4188923
139	0xbf1931f5	-0.59841853
140	0x3f6cb722	0.9246694
141	0xbf3346ff	-0.70030206
142	0xbfe96683	-1.8234409
143	0xbe0f83f1	-0.14015175
144	0xc0004a5c	-2.0045385
145	0x3f6d1a16	0.9261793
146	0x3edf0df6	0.4356534
147	0x3ed382a8	0.4131062
148	0x3c14746a	0.009060958
149	0xbeb7a6c4	-0.3586942
150	0xbef4edb6	-0.4783761
151	0x3d3a4b53	0.04548199
152	0x3cec4b36	0.028844457
153	0x3e9c12f8	0.30483222
154	0x3e8867b9	0.26641634
155	0x3e2125e5	0.15737112
156	0xbfe1a014	-1.7626977
157	0x3eac65fb	0.33671555
158	0x3e73e746	0.23818693
159	0xbe6f6475	-0.23378165
160	0x3eda835d	0.42678347
161	0xbf2f384a	-0.68445265
162	0x3ee6edc7	0.45103285
163	0xbe48c643	-0.19606881
164	0xbe8249eb	-0.2544702
165	0xbee0ad28	-0.43882108
166	0xbeaf5755	-0.34246317
167	0x3eb8be8c	0.36082876
168	0x3f359ac8	0.709393
169	0xbe8dd5bb	-0.27702126
170	0xbdbfb562	-0.09360768
171	0xbd7e34ea	-0.06206218
172	0x3e1b131d	0.1514401
173	0xbe82daba	-0.255575
174	0x3dd34ab3	0.10316982
175	0x3e51990e	0.20468542
176	0x3bb949e2	0.0056545595
177	0xbfba4383	-1.4551853
178	0xbf025b83	-0.50920886
179	0x3e89a83e	0.2688617
180	0x3f75476e	0.9581212
181	0xbe42d7ec	-0.1902768
182	0xbe798f97	-0.24371181
183	0x3e6eb614	0.23311645
184	0x3ca463b9	0.020067083
185	0xbf14c2a8	-0.5810952
186	0xbe73249c	-0.23744434
187	0xbe4afd5c	-0.19823211
188	0xbf8af882	-1.0857089
189	0xbe9df3ac	-0.3084997
190	0x3f5910de	0.8479136
191	0x3f0e8e25	0.55685645
192	0xbe8874a8	-0.26651502
193	0x3ecbcfe1	0.39807037
194	0x3e9a634f	0.3015389
195	0xbb33ba3d	-0.002742424
196	0x3f748357	0.9551291
197	0x3e93f722	0.28899485
198	0xbe7451c4	-0.23859316
199	0x3ea44630	0.320848
200	0x3f1333cf	0.5750093
201	0x3c6ed555	0.0145772295
202	0xbf032ad8	-0.5123725
203	0xbd30f9b8	-0.0432069
204	0xbf6b8a20	-0.9200764
205	0x3faf50f9	1.3696586
206	0xbe32f32b	-0.17475574
207	0xbed71f8f	-0.42016265
208	0x3f2a8d74	0.6662209
209	0x3efa7930	0.48920584
210	0xbf87ecb9	-1.0619117
211	0x3f529092	0.82251847
212	0x3d4f79c4	0.050653234
213	0xbe971cab	-0.2951406
214	0x3f2cdfdb	0.67529076
215	0x3f0bfabf	0.54679483
216	0x3f1ec15c	0.62013793
217	0xbdccf6ee	-0.100080356
218	0x3e0ba447	0.13636886
219	0x3e8c9c87	0.2746317
220	0xbe6c6221	-0.23084308
221	0xbed2e8ca	-0.4119323
222	0xbe3e6bf6	-0.18595871
223	0xbe038ff6	-0.12847885
224	0xbe6a6ab5	-0.22892268
225	0x3eb47587	0.35245916
226	0x3de2155a	0.11039229
227	0xbd799526	-0.060933255
228	0x3f6e6b9a	0.93132937
229	0xbb84e276	-0.0040553166
230	0x3d9d3a1c	0.07677099
231	0x3e99a5d4	0.3000933
232	0x3cd7b22b	0.026330074
233	0x3f873be8	1.0565157
234	0x3f996e36	1.1986759
235	0x3e4bed66	0.19914779
236	0x3e291d7d	0.16515155
237	0x3fa0dc5b	1.2567247
238	0xbe243635	-0.16036303
239	0x3d914a31	0.07094229
240	0x3e6775fa	0.22603598
241	0x3bc3705f	0.0059643234
242	0xbda349a2	-0.07973029
243	0xbd0b297e	-0.033975117
244	0xbf0710a3	-0.5275976
245	0xbe218c46	-0.15776166
246	0xbf2e985f	-0.6820125
247	0xbe64f48c	-0.22358912
248	0x3ec1e6c4	0.37871373
249	0xbe5679d8	-0.20944917
250	0xbeb1cb88	-0.34725595
251	0x3ea32e9a	0.31871492
252	0x3d3ce71d	0.046118844
253	0xbec5b8bf	-0.38617513
254	0x3e9ec752	0.31011444
255	0x3c1f8691	0.009736673

lstm.bias_ih_l0 f4 [512]
0	0xbedcd673	-0.43132362
1	0xbf2a2fad	-0.66479
2	0xbe1ddfa4	-0.15417343
3	0xbc7dbf80	-0.015487552
4	0xbf19e1d1	-0.60110193
5	0x3e9e38e7	0.30902788
6	0xbf3cef16	-0.73802316
7	0xbf00bf2b	-0.502917
8	0xbf3c097a	-0.7345196
9	0xbf048802	-0.5177003
10	0xbec70fad	-0.38879147
11	0xbf1d3584	-0.61409783
12	0x3f5a715b	0.85329217
13	0x3f809d70	1.0048046
14	0x3f406652	0.7515613
15	0xb8ebf98b	-0.00011252154
16	0xbddd0166	-0.10791282
17	0xbe46e0fd	-0.19421764
18	0xbec1f486	-0.3788187
19	0xbeaefe09	-0.34178188
20	0x3f21e23b	0.63235825
21	0xbe5ee2c8	-0.21766198
22	0xbf00075b	-0.50011224
23	0xbe5116b7	-0.20418821
24	0xbf392875	-0.7232736
25	0xbf1a7a88	-0.6034322
26	0xbf7a7f5c	-0.97850585
27	0x3e26b487	0.16279803
28	0x3fb79685	1.434281
29	0xbd3b8ae4	-0.045786753
30	0xbf7c805b	-0.98633355
31	0xbf0022d5	-0.5005315
32	0xbcaa98fb	-0.0208249
33	0xbe4d85f4	-0.2007063
34	0x3e96bf37	0.2944276
35	0xbf2238d0	-0.6336794
36	0xbf079398	-0.52959585
37	0xbe670c00	-0.22563171
38	0x3ebd4484	0.36966336
39	0xbe87cf19	-0.2652519
40	0xbe385cb7	-0.18004118
41	0xbf456482	-0.7710649
42	0xbe8cb07d	-0.274784
43	0x3d015ae2	0.031580813
44	0xbdc29439	-0.095009275
45	0xbefa2440	-0.48855782
46	0xbf13ddfc	-0.57760596
47	0x3f20c94c	0.62807155
48	0xbe92f29b	-0.28700718
49	0xbe0bdd88	-0.13658726
50	0xbf900a34	-1.1253114
51	0xbf9688be	-1.176048
52	0xbe6f9d4d	-0.23399849
53	0xbf741169	-0.95339066
54	0x3f1cee40	0.6130104
55	0xbeb1c478	-0.34720206
56	0xbf12222c	-0.5708339
57	0x3f3dc3e3	0.74127024
58	0xbedfc68a	-0.4370616
59	0xbeb863cb	-0.36013636
60	0xbf98f48a	-1.1949627
61	0xbf0becfb	-0.5465848
62	0xbc732914	-0.014841337
63	0xbf8ed935	-1.1160036
64	0x3d30b64c	0.0431426
65	0x3f88d076	1.0688617
66	0x3e84c599	0.25932005
67	0xbf088dc5	-0.53341323
68	0xbf202116	-0.62550485
69	0xbde0507a	-0.1095285
70	0xbeec9564	-0.46207726
71	0xbefef51a	-0.49796373
72	0xbef0f5cd	-0.4706253
73	0xbf2c4a5f	-0.6730098
74	0xbe630578	-0.22170055
75	0xbf312d24	-0.69209504
76	0xbf9ff3b7	-1.2496251
77	0xbe48a5b8	-0.19594467
78	0xbfb06948	-1.3782129
79	0x3e9cf414	0.30654967
80	0xbeaa0c10	-0.33212328
81	0xbe8b5a02	-0.27217108
82	0xbe88c78a	-0.26714736
83	0xbe9080de	-0.28223318
84	0xbf2ec93c	-0.6827581
85	0xbf1c6732	-0.61094964
86	0xbee20d1f	-0.44150636
87	0xbe29c2a0	-0.1657815
88	0xbe99cb75	-0.30038038
89	0xbf6e4ac5	-0.9308284
90	0xbf687fd3	-0.90820044
91	0xbe90289d	-0.28155985
92	0xbf1c03d9	-0.6094337
93	0xbeb6a788	-0.3567469
94	0xbeb17c6f	-0.34665248
95	0xbf065e5a	-0.5248772
96	0xbf776e43	-0.9665262
97	0xbe63764c	-0.22213095
98	0xbf11fe7c	-0.5702894
99	0xbe76b1cb	-0.2409126
100	0xbeaaa24c	-0.33326948
101	0xbf6dfdae	-0.9296521
102	0x3f707a5d	0.9393671
103	0xbe25f357	-0.16206108
104	0xbf0ff1ab	-0.5622813
105	0xbf0ebb30	-0.55754375
106	0x3e25a703	0.16176991
107	0xbe750b0a	-0.23929992
108	0xbeb2f94f	-0.34955832
109	0xbee21ea7	-0.4416401
110	0xbe99cbc7	-0.30038282
111	0x3cdad2f4	0.026711918
112	0xbfc29b0a	-1.5203564
113	0xbf0478dd	-0.5174692
114	0x3e84628b	0.25856432
115	0x3ec18e59	0.37803915
116	0xbde1d492	-0.11026873
117	0xbef54498	-0.47903895
118	0x3e8bf7a1	0.27337363
119	0xbe4225e8	-0.18959773
120	0x3f7ba598	0.9829955
121	0x3e9d6087	0.30737707
122	0xbf11cd73	-0.56954116
123	0xbf010dec	-0.5041187
124	0x3f169f57	0.58836883
125	0xbf1b9855	-0.60779315
126	0x3d3c82fc	0.046023354
127	0xbee96fb8	-0.45593047
128	0x3ee149bf	0.44001576
129	0x3d47dd55	0.048795063
130	0x3d669b7e	0.056300633
131	0xbec1d2dc	-0.37856185
132	0x3ddd4e8a	0.10805996
133	0x3f17307d	0.5905836
134	0x3e4be225	0.19910486
135	0xbe8d1de2	-0.2756186
136	0xbd9110a9	-0.07083256
137	0xbeb0f829	-0.3456433
138	0x3ddf4a10	0.10902798
139	0x3ea2406d	0.31689778
140	0x3e8ae8f1	0.27130845
141	0x3f033a06	0.5126041
142	0x3e64e59d	0.22353216
143	0x3ebd1f23	0.36937818
144	0x3e570b20	0.21000338
145	0x3ec61191	0.38685277
146	0xbcc70409	-0.024293916
147	0x3df3ced2	0.11904682
148	0x3ec32538	0.38114333
149	0x3f9eff73	1.2421707
150	0xbebbeb11	-0.3670278
151	0x3d7b20d8	0.06131062
152	0x3e6d3d5f	0.23167942
153	0x3e9a84ce	0.30179447
154	0x3f14edcb	0.58175343
155	0xbe713fe2	-0.23559526
156	0xbf178f60	-0.5920315
157	0x3d829cab	0.06377538
158	0x3e03cf94	0.12872154
159	0x3e2cbc1e	0.16868636
160	0x3e030a95	0.12797005
161	0xbee33b4e	-0.44381183
162	0x3f0c32ef	0.5476522
163	0xbd639fa9	-0.055572186
164	0x3ebc0b8c	0.3672756
165	0xbef98b17	-0.4873893
166	0x3e795fd7	0.24352966
167	0x3f27afbf	0.6550254
168	0xbe96c727	-0.29448816
169	0x3f806368	1.0030336
170	0x3e030989	0.12796606
171	0xbea2f32d	-0.31826153
172	0x3d9eba4e	0.077503785
173	0x3ecddab0	0.40205908
174	0x3f252ba0	0.6451969
175	0x3f894b1e	1.0726049
176	0xbee5cea8	-0.4488423
177	0x3f44d20f	0.76883024
178	0x3f8e406f	1.1113414
179	0xbe83dca5	-0.25754276
180	0x3cdcfc2b	0.026975712
181	0x3f32bb4c	0.6981704
182	0xbe37325a	-0.17890301
183	0xbd9766ac	-0.0739263
184	0x3eb59bb3	0.35470352
185	0x3e5b5e6c	0.21422738
186	0x3e956fe1	0.2918692
187	0xbc86e682	-0.016467337
188	0x3f4a7b22	0.79094136
189	0x3ea39d37	0.31955883
190	0xbe95d866	-0.2926666
191	0x3fa54e7f	1.291458
192	0x3e58b0b5	0.21161158
193	0xbe6d179a	-0.23153535
194	0x3e199571	0.14998414
195	0x3e9628c2	0.2932797
196	0x3c3d264d	0.011544776
197	0x3e957b52	0.29195648
198	0xbd7b80e9	-0.061402235
199	0x3e5b49fe	0.21414945
200	0x3de01610	0.10941708
201	0x3e63ccc0	0.22246075
202	0x3e1b2aa8	0.15152991
203	0x3de4ab70	0.111655116
204	0x3e6153d0	0.22004628
205	0xbe9bf394	-0.30459273
206	0x3eb7b221	0.3587809
207	0x3e185b0b	0.1487848
208	0x3d68f3aa	0.056873
209	0x3ebe7654	0.37199652
210	0x3e7d2e71	0.24724747
211	0xbec6ac31	-0.38803247
212	0x3ee332e1	0.44374755
213	0x3f0cb38e	0.5496148
214	0xbebe90eb	-0.3721994
215	0x3e9f2bdf	0.31088158
216	0x3e45152e	0.1924636
217	0x3f03601c	0.51318526
218	0x3ef203a5	0.47268406
219	0x3df9a2f4	0.12189284
220	0x3f5c7faf	0.8613233
221	0xbe0382cb	-0.12842862
222	0x3f5bc10f	0.8584146
223	0xbee4a0b2	-0.4465385
224	0x3c310500	0.010804415
225	0x3d21fd67	0.039548304
226	0x3de2595e	0.11052202
227	0x3f24c178	0.6435771
228	0x3eba19f9	0.3634794
229	0x3f2334ff	0.6375274
230	0xbeaea761	-0.34112075
231	0x3da96194	0.08270565
232	0xbc3c54fa	-0.011494869
233	0x3dd7e1cd	0.10541115
234	0x3db79e42	0.08965732
235	0x3e920a87	0.28523657
236	0xbce64697	-0.028109832
237	0x3edbc354	0.4292246
238	0x3f126c21	0.5719624
239	0x3d419361	0.047259692
240	0x3fa31e26	1.2743576
241	0x3e2f9deb	0.17150085
242	0x3ee5bf92	0.4487272
243	0xbc32228a	-0.010872493
244	0x3e93ced6	0.2886874
245	0xbea09c49	-0.31369236
246	0xbe27ef55	-0.16399892
247	0xbe2f95c9	-0.17146982
248	0xbce0a053	-0.027420199
249	0x3ec76cb3	0.38950118
250	0x3ee3acf2	0.44467884
251	0x3e837f47	0.25683042
252	0x3f193e8a	0.5986105
253	0x3ee51f89	0.44750622
254	0x3e968398	0.29397273
255	0xbd4c8e8c	-0.04994063

lstm.bias_hh_l0 f4 [512]
0	0xbebd283e	-0.36944765
1	0xbf1a2d66	-0.6022552
2	0xbe6979fe	-0.22800443
3	0x3d909863	0.070603155
4	0xbf109eca	-0.5649229
5	0x3ec868e5	0.39142528
6	0xbf336996	-0.70082986
7	0xbedb722c	-0.42860544
8	0xbf360713	-0.71104544
9	0xbf019d47	-0.5063061
10	0xbecca0e0	-0.39966488
11	0xbf0c2ff9	-0.547607
12	0x3f56e7e0	0.83947563
13	0x3f8510cc	1.0395751
14	0x3f3c0953	0.7345173
15	0x3abd0877	0.0014422078
16	0xbd2b5414	-0.04182823
17	0xbdd080b8	-0.10180801
18	0xbeb3242a	-0.34988528
19	0xbea797a9	-0.32732895
20	0x3f1748aa	0.5909525
21	0xbe39d79d	-0.18148656
22	0xbeea9a0b	-0.4582065
23	0xbe3d12f0	-0.18464255
24	0xbf253c4b	-0.64545125
25	0xbf0883b1	-0.53325945
26	0xbf78bc0a	-0.97161925
27	0x3e5200ab	0.20508067
28	0x3fbe855c	1.4884448
29	0xbe2c17d8	-0.1680597
30	0xbf7f9d6b	-0.99849576
31	0xbf0b1e12	-0.5434276
32	0xbd72f055	-0.05931123
33	0xbe8a0469	-0.2695649
34	0x3eaf9be3	0.3429862
35	0xbf08d910	-0.5345621
36	0xbefec14d	-0.49756852
37	0xbe86fa53	-0.26362857
38	0x3eb9c00f	0.36279342
39	0xbe99d058	-0.30041766
40	0xbe8dc004	-0.2768556
41	0xbf705ef6	-0.938949
42	0xbe886e3c	-0.26646602
43	0x3d9fd77e	0.07804774
44	0xbd9c0571	-0.07618225
45	0xbee5e65f	-0.44902322
46	0xbf1d480f	-0.6143808
47	0x3f0d4865	0.5518859
48	0xbeb2ee26	-0.34947318
49	0xbda089dc	-0.078387946
50	0xbf9f9863	-1.246838
51	0xbf9b079b	-1.2111696
52	0xbe8c87af	-0.27447268
53	0xbf730994	-0.9493649
54	0x3f2571ae	0.64626586
55	0xbedf8604	-0.43656933
56	0xbf21c718	-0.6319442
57	0x3f3afa68	0.7303834
58	0xbea33fcd	-0.31884614
59	0xbe895e8b	-0.26829943
60	0xbf84eb5e	-1.0384328
61	0xbefa8f67	-0.48937532
62	0x3c9f685f	0.019458948
63	0xbf90be4f	-1.1308078
64	0x3e2ba88e	0.16763517
65	0x3f843d34	1.0331178
66	0x3e8e5743	0.2780095
67	0xbed4d592	-0.4156919
68	0xbf12fafe	-0.57414234
69	0xbe2b79e7	-0.16745721
70	0xbee40d3c	-0.44541347
71	0xbf06096a	-0.52358115
72	0xbef2204d	-0.4729027
73	0xbf262709	-0.6490331
74	0xbeb32bdb	-0.34994397
75	0xbf2f437c	-0.6846235
76	0xbfa48a6e	-1.2854745
77	0xbe6f78c6	-0.23385915
78	0xbfb6e7ef	-1.428953
79	0x3e906306	0.2820055
80	0xbee389f1	-0.44441178
81	0xbe5932c0	-0.21210766
82	0xbe971b83	-0.29513177
83	0xbead7e80	-0.33885574
84	0xbf3d4761	-0.7393704
85	0xbf272fc2	-0.6530725
86	0xbed9560e	-0.42448467
87	0xbe3840cb	-0.17993467
88	0xbe637b3c	-0.22214979
89	0xbf6f05eb	-0.93368405
90	0xbf71c1f6	-0.94436586
91	0xbe964eb8	-0.29356933
92	0xbf11d763	-0.5696928
93	0xbeacb7c0	-0.3373394
94	0xbea32631	-0.31865075
95	0xbef55c7a	-0.47922117
96	0xbf84c4e4	-1.0372586
97	0xbea88419	-0.32913283
98	0xbed8ad6c	-0.4231981
99	0xbe9e27f0	-0.30889845
100	0xbe94a8ba	-0.29034978
101	0xbf704be4	-0.938658
102	0x3f532abe	0.82487094
103	0xbd8e1a6e	-0.06938635
104	0xbf13c72c	-0.5772579
105	0xbf146b20	-0.5797596
106	0x3e0c9e91	0.13732363
107	0xbe4ac5c5	-0.19802006
108	0xbed5bb8e	-0.41744655
109	0xbeb429e5	-0.35188213
110	0xbeae94dd	-0.3409795
111	0xbd6d97b1	-0.058005992
112	0xbfc14f55	-1.5102335
113	0xbf011189	-0.5041738
114	0x3e8f8f67	0.28039095
115	0x3e9c4f49	0.3052924
116	0xbc8b009d	-0.016968066
117	0xbef80006	-0.48437518
118	0x3e655025	0.22393854
119	0xbe7f4385	-0.249281
120	0x3f8bab85	1.0911719
121	0x3e89acc9	0.26889637
122	0xbee59aaa	-0.44844562
123	0xbeced28f	-0.40395018
124	0x3eecc91e	0.4624719
125	0xbf28d85c	-0.6595514
126	0xbc8ff257	-0.017571611
127	0xbee170ce	-0.44031376
128	0x3f077ac9	0.5292173
129	0xb9237007	-0.00015586625
130	0x3d979693	0.07401767
131	0xbea215e8	-0.31657338
132	0x3e4bbcff	0.19896315
133	0x3f2aa922	0.66664326
134	0x3e57ee54	0.21087009
135	0xbe97de97	-0.2966201
136	0xbdf207cf	-0.118178956
137	0xbeb11dfa	-0.34593183
138	0x3c0d7643	0.008634153
139	0x3ecb7d8d	0.39744225
140	0x3e28006d	0.16406412
141	0x3eb86f38	0.36022353
142	0x3e5eec9a	0.21769944
143	0x3eb9d6ce	0.36296695
144	0x3e0e104b	0.13873403
145	0x3edd2862	0.43194872
146	0xbe28aab3	-0.16471367
147	0x3e1ccd01	0.15312578
148	0x3ea713bb	0.3263224
149	0x3f8db3a7	1.107045
150	0xbe9249a0	-0.28571796
151	0x3b70f651	0.003676791
152	0x3e04bdd7	0.12963043
153	0x3ea9fe9b	0.3320206
154	0x3ef65c9b	0.48117527
155	0xbe5a15df	-0.21297406
156	0xbef550ac	-0.4791311
157	0x3de54393	0.111945294
158	0x3dfad904	0.12248424
159	0x3e9d63da	0.30740243
160	0x3e7fcb2f	0.24979852
161	0xbef86826	-0.4851696
162	0x3f0060f3	0.5014793
163	0xbd2bae2c	-0.04191415
164	0x3eb5dccf	0.35520026
165	0xbeb88c56	-0.36044568
166	0x3e9a78f0	0.30170393
167	0x3f428e44	0.7599833
168	0xbe4b01a7	-0.19824849
169	0x3f812046	1.0087974
170	0xba7176da	-0.00092111307
171	0xbebc6afd	-0.36800376
172	0x3cf4eef6	0.029899102
173	0x3ea811ee	0.3282618
174	0x3f095260	0.5364132
175	0x3f92c4d9	1.1466323
176	0xbf063dfb	-0.52438325
177	0x3f3cccbe	0.7374991
178	0x3f906d0d	1.128328
179	0xbe3763f7	-0.17909227
180	0x3d4d891a	0.05017958
181	0x3f46c442	0.77643216
182	0xbe471767	-0.19442521
183	0xbd9a41b6	-0.075320646
184	0x3eb59bc9	0.35470417
185	0x3e89dba4	0.26925385
186	0x3ebe81fc	0.37208545
187	0x3e11ad58	0.14226282
188	0x3f6238e1	0.8836804
189	0x3ed26f25	0.41100422
190	0xbecdf035	-0.40222326
191	0x3f9d6fed	1.2299782
192	0x3ddf67c8	0.109084666
193	0xbe0c9d33	-0.13731842
194	0x3cc439bc	0.023953311
195	0x3e8ecaf7	0.27889225
196	0x3c9dc286	0.019257795
197	0x3e1221d1	0.14270712
198	0xbe23ad5a	-0.15984097
199	0x3dd945de	0.10609029
200	0x3e9004bf	0.2812862
201	0x3e966452	0.29373413
202	0x3db09688	0.086224616
203	0x3cf0c3a7	0.02939017
204	0x3e8ce2e2	0.27516848
205	0xbe747f1c	-0.23876613
206	0x3ecf04ad	0.40433255
207	0x3e7450f2	0.23859003
208	0x3c0c0663	0.008546445
209	0x3eb46515	0.3523337
210	0x3e0de6a6	0.13857517
211	0xbeab426e	-0.3344912
212	0x3ec0d227	0.37660334
213	0x3f0ea5bf	0.5572166
214	0xbe9043c7	-0.2817671
215	0x3e910674	0.28325236
216	0x3e5568c2	0.20840743
217	0x3ee5ab4f	0.4485726
218	0x3ed1e09e	0.40991682
219	0xbd06cf29	-0.032912407
220	0x3f5884ed	0.8457783
221	0xbe045c8d	-0.1292593
222	0x3f50721a	0.81424105
223	0xbeed01f4	-0.46290553
224	0x3cd7606e	0.026291098
225	0xbca7a8cb	-0.020466229
226	0x3e0b6536	0.13612828
227	0x3f2d9112	0.67799485
228	0x3ea6846b	0.32522902
229	0x3f2b67d2	0.6695529
230	0xbe9d1999	-0.30683592
231	0x3e277842	0.16354468
232	0x3d3e17f8	0.046409577
233	0x3e67f43c	0.22651762
234	0x3d9d3239	0.07675595
235	0x3e9a8e24	0.3018657
236	0x3db8d055	0.09024111
237	0x3eba81e3	0.3642722
238	0x3ef3a531	0.4758697
239	0x3d540773	0.051764917
240	0x3f94e582	1.163254
241	0x3e713b6d	0.23557825
242	0x3f07a779	0.5298992
243	0x3d877a6d	0.06615148
244	0x3e623656	0.2209104
245	0xbe47fafc	-0.19529337
246	0xbe87b890	-0.26507998
247	0xbe2654c7	-0.16243277
248	0xbc3edf15	-0.011649867
249	0x3ecdf0f9	0.4022291
250	0x3ed104b2	0.40823895
251	0x3eb4432c	0.35207498
252	0x3f2cd362	0.67510045
253	0x3edda132	0.43287045
254	0x3e933881	0.28754047
255	0xbe06c90f	-0.13162635
