models/encoder.model (torch, 349623 bytes, 5 tensors)

embedding.weight f4 [128, 32]
000000 5d 20 ab bf bd cb 85 3f f8 e7 a7 be e1 57 6b be
       -1.3369251 1.0452801 -0.32794166 -0.22982742
000010 2c 92 a1 be 25 a2 9d 3e b6 59 8e be a6 22 15 40
       -0.31556833 0.3078777 -0.2780282 2.3302398
000020 7b bb bb bf d1 56 13 bd 86 cc 87 3f 00 88 0f 3f
       -1.466659 -0.035971466 1.0609291 0.56066895
000030 e1 82 3a be 5f 35 b0 3e 44 2f 90 3e 90 45 af 3c
       -0.18213989 0.3441572 0.2816106 0.021395475
000040 4a 3c 6c bf 80 fe 40 be 5d 83 e3 bd 4c 57 9b be
       -0.92279494 -0.18847084 -0.1110904 -0.3034004
000050 9e f5 21 40 73 6f ab bf dd 28 f3 3f 98 32 81 3d
       2.5306163 -1.3393387 1.8996845 0.06308478
000060 3e ca 5f bf 20 81 f4 3f 12 a1 2b 3e 93 a2 d7 3f
       -0.8741797 1.9101906 0.16760662 1.6846489
000070 53 7b 04 3e 47 35 e1 3f 7f 71 24 3f 0c 63 9e bf
       0.1293767 1.7594384 0.6423568 -1.2373977
000080 14 6c 98 bf 5a 0d d5 bf e8 a4 8e 3f e8 c1 2b 3f
       -1.1907983 -1.66447 1.1144075 0.6709275
000090 fe ab 81 bf 72 cf 5b 3e 9a 44 95 be 3f c6 57 be
       -1.0130613 0.21465853 -0.291539 -0.21071719
0000a0 21 02 4d bf dc c9 90 3f fb f6 4f bf 08 ca ac bd
       -0.80081373 1.1311603 -0.8123624 -0.08436972
0000b0 e2 ab fe bf 4c 2b 9d bf a8 14 0d 3f f7 48 f4 bf
       -1.9896204 -1.2278838 0.55109644 -1.9084767
0000c0 24 fd 53 3f 81 3e 02 bf 1b cb ae 3f 7c 71 d3 3f
       0.82808137 -0.50876623 1.3655733 1.6519008
0000d0 20 75 6b 3f 6c 34 a8 bf 79 b8 c8 bf cf 7a 32 bf
       0.91975594 -1.3140998 -1.5681297 -0.6971864
0000e0 68 a6 07 3f 6a d2 12 3f 3f 67 d9 bf 60 93 90 3f
       0.5298829 0.57352316 -1.6984633 1.1294975
0000f0 62 20 55 3f 93 bd c6 3e 2f 47 dd 3e 8d c0 8f 3f
       0.8325254 0.3881651 0.4321837 1.1230637
000100 8e a4 d5 bf 5e f9 7e 3e 85 66 7b bf 47 46 a3 3e
       -1.6690843 0.24899814 -0.9820331 0.31889555
000110 b6 32 92 3f aa ea fb bf 7a f0 bc 3e 3e 09 49 3c
       1.1421726 -1.9680989 0.3690222 0.01227027
000120 6f 9d 15 3e d4 38 7d 3f 97 74 2e bf d9 06 5c bf
       0.14610837 0.9891484 -0.6814665 -0.8594795
000130 49 ca be be e8 db 92 3d 35 23 f8 3f 4a a0 94 3f
       -0.37263706 0.0717085 1.9385744 1.1611416
000140 c2 c5 87 be 90 d4 3b 3e 3c 8e 6b be af 8b a9 be
       -0.26518065 0.18342805 -0.23003477 -0.33114383
000150 1e 53 2f 40 82 19 32 bd c1 f5 b1 be 6b c9 a2 bf
       2.739448 -0.043481357 -0.34757808 -1.2717718
000160 3e 69 b1 bf 3c 5b 41 be 4b 0c f7 3e 4e 52 3e 3e
       -1.3860242 -0.1888246 0.48251566 0.18586084
000170 a6 0b 70 3f 94 dc 81 3e 65 81 6d bf 16 69 9e 3f
       0.93767774 0.253636 -0.92775565 1.237582
000180 58 eb 99 be 0e 6c aa bf 68 40 3b bf c7 bc b0 bd
       -0.30062366 -1.3314226 -0.7314515 -0.086297564
000190 ec bf ae 3f 43 1f 68 bd ef 11 52 3f 31 0f c9 bf
       1.365232 -0.05667044 0.82058614 -1.5707761
0001a0 e3 d9 a6 bf 72 2e 8d bf 31 90 0d c0 24 04 46 3e
       -1.3035244 -1.1029799 -2.2119257 0.19337517
0001b0 f3 10 06 40 bd c3 7b be eb 6d b6 be 93 ba c5 bf
       2.0947845 -0.24586387 -0.35630736 -1.5447563
0001c0 54 ea 5a 3f 72 18 e3 be 75 f4 64 3f f3 8b 83 be
       0.85513806 -0.44354588 0.8943551 -0.2569271
0001d0 77 67 25 3f 64 1f a3 bf e0 33 5b 3d c2 ff 88 be
       0.64611 -1.2743955 0.05351627 -0.26757628
0001e0 1a f6 73 3f a4 cf d1 bf 40 5c 32 bf fb 45 bd bf
       0.95297396 -1.6391492 -0.6967201 -1.4786981
0001f0 34 5b ed be e5 d7 ad bf 86 33 5d bf c5 82 63 3f
       -0.46358645 -1.3581511 -0.86406744 0.88871413
000200 f0 0e aa be ec d8 23 40 7b ae 00 3f 0e 18 ab be
       -0.3321452 2.5601149 0.50266236 -0.3341679
000210 29 41 30 bf 5c 6d 26 bf 50 da f7 bf 7b dc d6 bf
       -0.68849427 -0.6501062 -1.9363499 -1.6786035
000220 89 e8 0f 3f 58 12 9a bf 95 e0 74 bf aa 09 bb bf
       0.56214195 -1.2036848 -0.95655185 -1.4612324
000230 bd f0 61 3e d3 f7 b8 3e 92 35 44 3e c5 eb e5 3e
       0.2206449 0.36126575 0.1916106 0.4490644
000240 05 a4 4a bb a8 32 82 3f e2 4c 32 bf e0 d1 83 bf
       -0.0030920517 1.0171709 -0.69648564 -1.0298424
000250 70 fc 88 bf d4 02 e2 be 56 e1 91 bf 28 11 76 3f
       -1.0702038 -0.44142783 -1.1396892 0.9611993
000260 fc 23 52 3f 23 f0 bf 3f 17 ab 08 be 4c 39 3a be
       0.8208616 1.4995159 -0.13346516 -0.1818592
000270 c9 44 14 3f ba 31 60 3f cb d1 f8 3e 1e 72 a4 3e
       0.5791746 0.87575877 0.4859756 0.32118315
000280 24 e1 12 bf 09 62 be bf e7 26 36 bf dc 12 e4 3f
       -0.5737479 -1.4873668 -0.7115311 1.7818255
000290 e3 19 c6 3e 63 68 c1 3e 81 83 98 bf 29 76 01 c0
       0.38691625 0.37774953 -1.1915132 -2.022837
0002a0 6d 81 6e 3f c6 ea c3 bf 97 43 b3 bf 2c 07 f0 bd
       0.9316624 -1.5306022 -1.4005002 -0.11720118
0002b0 7b 6f c2 3c 6f fa 46 3f f5 92 52 3f d4 39 a5 bf
       0.023734799 0.7772588 0.8225549 -1.2908273
0002c0 06 b9 81 3f 81 dd cf bf d1 cc e5 3d 9f f4 17 bf
       1.013459 -1.6239473 0.11220706 -0.5935764
0002d0 b3 4f c1 3f b2 fa b2 3e 3a 57 63 3e f5 b5 43 bf
       1.5102447 0.3495689 0.22201243 -0.7644952
0002e0 f9 df 86 3f 80 1c 4a bf c7 cb 8a bf 4d 88 a9 3d
       1.0537101 -0.7894974 -1.0843438 0.082779504
0002f0 2b 2b e3 bf 31 3e 20 bf 32 27 b1 3e 97 60 75 3f
       -1.7747549 -0.62594897 0.34600216 0.9585051
000300 67 a0 d3 3e 6d b0 03 be b1 93 de 3d 41 0a 81 be
       0.41333315 -0.1286027 0.10868014 -0.25203136
000310 ed f5 45 3f af 82 c9 be 81 09 7d 3f ec e9 cc 3f
       0.7732838 -0.39357516 0.98842627 1.6008887
000320 fc 8e 99 bf 5d 54 90 3f 74 18 f9 3e 41 d8 90 be
       -1.199676 1.1275746 0.4865147 -0.2828999
000330 cd ac 87 be 5a eb 7b bf dd 6d 98 be 78 f5 82 bd
       -0.26499024 -0.98405993 -0.2977132 -0.06394476
000340 2a f0 98 3f 9b 7d 8c 3f 47 f0 ca be 3a d4 b9 3e
       1.1948292 1.0975832 -0.39636442 0.3629473
000350 eb be c3 be fb 28 88 bf 65 b0 4a 3f cb c8 01 3f
       -0.38231596 -1.0637506 0.79175407 0.5069701
000360 07 01 3c 3f 7b 50 2e bf e6 0c b3 be 7e 97 0a 3f
       0.7343907 -0.68091553 -0.34970778 0.5413741
000370 ce a6 a6 3e f5 9a a4 bf 00 06 9c 3f 29 85 97 bf
       0.32549137 -1.2859789 1.2189331 -1.1837512
000380 7e 62 93 be f2 28 3b 3f c4 58 6e 3f f8 c2 66 3d
       -0.2878608 0.7310935 0.93104196 0.05633828
000390 72 fd 9f bf 65 83 00 3e 97 e3 46 3e 93 1e 36 3f
       -1.249922 0.12550123 0.19422756 0.711404
0003a0 80 ff a4 3f 6f 69 12 40 fe cf d2 3d 1b 40 43 3f
       1.2890472 2.2876852 0.102935776 0.7626969
0003b0 57 80 a4 be 0a 56 d6 3e 46 5c bf 3e bd 84 8c 3f
       -0.32129166 0.41862518 0.37375087 1.0978009
0003c0 cb 6f d6 bf eb d8 3d bb a8 8f 9a bc ce 64 03 40
       -1.6752867 -0.0028968405 -0.018867329 2.0530276
0003d0 63 9a 07 bf 10 3b 04 3d 86 29 ec 3e 49 b6 cc 3f
       -0.5296995 0.03228289 0.4612543 1.5993129
0003e0 ef 68 eb be 39 8a 9e 3f 4c b0 ce be 7f 3b 0d bf
       -0.45978495 1.2385932 -0.4036888 -0.5516891
0003f0 b2 bd ea be f2 e7 b9 be 36 9b 0e 40 7b 8e 2c bf
       -0.4584785 -0.36309773 2.2282233 -0.6740491

lstm.weight_ih_l0 f4 [512, 32]
000000 97 10 8a 3f 8d 59 a5 be 91 03 44 bf 00 08 0e 3f
       1.0786313 -0.32294884 -0.7656794 0.5548096
000010 04 da be 3d 66 90 18 3d 73 37 2c be 69 a9 37 be
       0.09318927 0.037247084 -0.16818027 -0.17935719
000020 7e 72 12 3e 06 9d d6 be 9e 99 d7 3c 79 5b 00 be
       0.14301488 -0.41916674 0.026318368 -0.12534894
000030 65 81 46 3f e8 15 08 3f 46 4e 24 bf bf 8f 8d be
       0.7754119 0.53158426 -0.64181936 -0.27648732
000040 79 18 a7 3e 43 c9 35 bd 40 cd d7 be be ac 50 3f
       0.3263586 -0.04438139 -0.4214878 0.81513584
000050 20 e4 fc be 5d 8e aa bd f1 7a 82 bd 84 3d a9 bf
       -0.49392796 -0.08327935 -0.063711055 -1.3221898
000060 07 4b 9e 3e 3d 90 41 be 43 dd d8 3e 90 61 cd be
       0.30916616 -0.18902679 0.4235631 -0.40113497
000070 c9 e6 90 be 96 8a 4b 3d 4f e5 f7 be a0 8a ad 3e
       -0.28301075 0.049692713 -0.48417136 0.33894825
000080 8e 69 0a 39 c1 36 eb 3d 34 82 34 be 8a 3b 82 3c
       0.00013200028 0.11485053 -0.17627794 0.015897531
000090 42 c0 5a be cd 20 35 3e 8a 13 bf be f1 33 32 3e
       -0.21362403 0.17688294 -0.37319595 0.17402627
0000a0 7e d4 0d be d0 e1 63 3d ec 38 9b 3e 0f cb b5 3d
       -0.1385059 0.055635273 0.30316865 0.08876621
0000b0 5f db 1e be 9d f8 3b 3e 8e ec 28 bd 30 3b 90 be
       -0.15513371 0.18356557 -0.04124122 -0.28170156
0000c0 fb 5f da bd b9 76 f4 bc e6 c3 8f 3b 38 a8 8d bd
       -0.10662838 -0.029841768 0.0043873666 -0.06916851
0000d0 d3 9f 85 3e b3 e6 ff bd 32 5a bb 3e fc 0f 80 bc
       0.260985 -0.12495174 0.3659225 -0.015632622
0000e0 ac dd 47 3e 4d 36 89 3e dd dc bd 3d ee f1 88 3d
       0.19518155 0.2679924 0.09270642 0.066867694
0000f0 b2 99 fe bd a3 65 87 3e de 13 d6 3c e5 ea 18 be
       -0.12431659 0.2644473 0.02613252 -0.14933355
000100 47 93 c6 bd a7 aa 01 be 86 9b 01 be 35 85 9a bd
       -0.0969606 -0.12662755 -0.12656984 -0.075449385
000110 55 32 81 bc 0a 58 b3 3e 0a e3 25 be fa df fd 3d
       -0.01577107 0.35028106 -0.1619989 0.12396236
000120 08 fa 28 bd f9 e6 9c 3d f3 b8 58 bd 2c b2 55 3e
       -0.041254073 0.07661242 -0.052910756 0.20868748
000130 8f 43 23 3e 88 c8 86 be a9 4b 5d 3e e3 0f 9b 3c
       0.1594374 -0.26324868 0.21610893 0.018928474
000140 a7 ba 4e bd ec 2b 38 3e 27 42 2c be 57 a2 83 3e
       -0.050470974 0.17985505 -0.1682211 0.25709793
000150 16 cb a4 bc b6 49 a0 3e b3 4f 30 be 58 ef 09 3e
       -0.02011637 0.31306237 -0.17217903 0.13470209
000160 2d 7d 77 3b ab c4 01 3e 4c e6 02 bd 99 09 e9 3d
       0.003776382 0.12672679 -0.03195791 0.11378784
000170 a0 4a 19 be 53 e4 68 bd 18 fb 90 3e 63 00 a9 bd
       -0.14969873 -0.056858372 0.2831657 -0.08252027
000180 4c 9e 90 3d c4 22 fe 3b b6 b5 72 be b5 99 ab be
       0.07061443 0.007755609 -0.2370213 -0.33515707
000190 f3 28 f5 bd 9f cd a7 be 6f 3f cb 3e 40 7b b6 bd
       -0.11970701 -0.32774064 0.39696833 -0.08910227
0001a0 05 fa fb bd d8 7a 34 be e8 2a 68 be 17 e5 17 be
       -0.12303547 -0.17624986 -0.22672617 -0.14833485
0001b0 4f a1 05 3f 28 d9 0b be 83 86 6c bd 7d cd 91 3e
       0.5219926 -0.13657057 -0.057745468 0.28477088
0001c0 70 16 b4 3d 71 d9 ef 3e b9 a1 b1 bd 0a fc cd 3e
       0.08793342 0.46845582 -0.08673424 0.40231353
0001d0 3b 1b 9e be 32 0c f4 3e 24 b2 ea 3d 31 91 01 be
       -0.3088015 0.47665554 0.11459759 -0.12653042
0001e0 23 82 9f 3c be 56 90 be be 06 8b 3e 18 7a c7 be
       0.019471234 -0.2819118 0.2715358 -0.38960338
0001f0 2b 21 13 3e 60 14 3b be d3 dc 97 3d c5 62 9d 3e
       0.14368121 -0.18269491 0.07415166 0.30739418
000200 94 8e 49 be 8d 4e 6d 3e 9c 51 47 be 18 fa 78 bd
       -0.19683295 0.23174496 -0.19464725 -0.060785383
000210 b0 65 0c be 9b 51 34 3e 8e c1 13 be db 15 88 3e
       -0.13710666 0.17609255 -0.14429304 0.26579174
000220 d8 d5 5b be a0 87 ca bd 83 be 97 3e 56 98 0f 3e
       -0.21468294 -0.0988915 0.29637536 0.14022955
000230 23 c1 13 be fe a8 a0 3d 92 06 94 3d d6 74 1e 3e
       -0.14429145 0.07844733 0.07227816 0.15474257
000240 25 e2 02 be 27 d8 93 bd 8e bc 23 be 78 fa 5a be
       -0.1278158 -0.07218962 -0.15989897 -0.21384609
000250 b2 5a a4 3e b1 f2 8c be 3c 13 a9 3e ab 9c 7c bc
       0.32100445 -0.2752891 0.33022487 -0.015418212
000260 5b 5b df bd 30 03 8a 3e 88 b7 a3 3d cf f0 95 3e
       -0.109060965 0.26955557 0.0799399 0.29285285
000270 60 23 1c 3d 43 f9 5e 3e 68 f2 2f 3e 65 74 74 be
       0.038119674 0.21774773 0.17182314 -0.23872526
000280 57 ac 78 3e 89 9b 1b be d6 9b 69 be d0 e0 5e 3e
       0.24284492 -0.1519605 -0.22813353 0.21765447
000290 c0 70 1a 3e ed cb 37 be 0c c1 0c 3d 3e 97 3f 3d
       0.15082073 -0.17948885 0.03436379 0.046775095
0002a0 ec 81 0e 3f f2 21 f4 3d 02 9b d0 bd b1 56 c7 be
       0.55666995 0.11920537 -0.101858154 -0.38933328
0002b0 3a 61 e7 3e 2b 7d a6 bd 18 f3 d9 bc 06 ed 83 3e
       0.45191365 -0.08129343 -0.026605174 0.25766772
0002c0 33 44 0b 3e 98 f7 9d 3e 0c d6 2d 3e 93 02 70 3e
       0.13600235 0.30852962 0.16976184 0.23438482
0002d0 9e 54 cd be e0 33 db 3d 4e 71 2a be 46 89 20 3e
       -0.4010362 0.10703254 -0.16644785 0.15677366
0002e0 fc ec 45 be 6f dc 62 3d e4 36 51 3d 29 59 c4 be
       -0.19328684 0.055386003 0.05107774 -0.38349274
0002f0 f4 e9 ab be d2 4c 6d bd b0 0f 19 3c 9e 28 a0 3d
       -0.3357693 -0.05793459 0.009342119 0.07820247
000300 df 46 2f be 38 9f 1b 3d 2f 96 fc bd 43 96 23 be
       -0.17116879 0.03799364 -0.12333333 -0.15975289
000310 6e 69 8a bd 97 53 33 3e ff 13 1b 3e 01 32 1e bc
       -0.0675839 0.17512356 0.15144347 -0.009655477
000320 e1 80 94 be 44 b5 68 bd 5e 7b 91 3d 3e 2b 8c 3d
       -0.29004577 -0.056813493 0.071036085 0.06844185
000330 b9 7e d0 bc 15 7a f5 3d 47 fb 9c 3e 13 f1 05 3d
       -0.025451051 0.11986176 0.3066046 0.03270061
000340 bd e5 15 3d ec cd 2a 3d eb be 18 be 94 10 54 bd
       0.03659605 0.04170029 -0.1491658 -0.051773623
000350 e5 09 2c 3d 48 68 30 be ff c2 87 3e 75 5a 68 3c
       0.042001624 -0.1722728 0.26515958 0.014181723
000360 29 d1 fe bc 22 2e 36 3e 53 44 b6 3d 2f e3 da bd
       -0.031105595 0.17791036 0.088997506 -0.10687863
000370 47 15 90 bd e3 e1 97 3c 09 c3 86 3d b6 7c 63 be
       -0.07035308 0.018540328 0.06580169 -0.22215542
000380 b7 78 49 3c 5d 7c 07 bd 90 73 30 3e fb 1c 06 3d
       0.012296847 -0.033077586 0.17231584 0.03274248
000390 4a 22 1a 3a 78 08 2d 3c ec 67 3d bb 75 46 33 be
       0.0005879743 0.010561101 -0.0028901054 -0.17507346
0003a0 f0 43 b0 b9 bc ff dc bc 12 26 cc 3d a1 81 53 3d
       -0.00033619953 -0.026977412 0.09968199 0.051637296
0003b0 46 35 20 3e fa 02 a6 3d 52 7b d0 bd 44 28 e1 bd
       0.15645322 0.081060365 -0.101797715 -0.10994008
0003c0 89 fa 4c bd 89 64 87 3d 2d 54 8c bd 1e b9 3f be
       -0.050043616 0.066109724 -0.06851993 -0.1872296
0003d0 5a 01 a0 bd 26 d0 0d bd bb 81 94 bd 69 32 7d 3e
       -0.07812758 -0.034622334 -0.072513066 0.24726261
0003e0 b1 dc cf 3d f2 45 88 3d 7d ad 28 bd 38 51 b2 3a
       0.101495154 0.06653966 -0.041181076 0.0013604527
0003f0 33 3f db 3c 69 b8 10 3e 69 48 ad bd 42 a6 83 bd
       0.026763534 0.14132847 -0.08461077 -0.064281955

lstm.weight_hh_l0 f4 [512, 128]
000000 32 26 b6 bc 8e f6 23 bd 58 89 e5 3d 2d 34 33 be
       -0.02223501 -0.040030055 0.11207837 -0.17500372
000010 1b 90 3a 3e 99 3f df bd 92 34 7b bc 7e 7e 3d 3d
       0.18219034 -0.10900802 -0.015332358 0.04626321
000020 43 1e aa bd b0 bb 85 3d 26 d2 29 be bb 84 50 3e
       -0.08306553 0.06529939 -0.16584072 0.20363133
000030 23 c3 5e bd db f1 63 3e 7e 59 16 be 80 1a 79 bd
       -0.054385316 0.2226023 -0.14682576 -0.060816288
000040 fe 5c f3 bc cf 09 45 bd 0b ed b0 3c ef 4e 0c bd
       -0.029707428 -0.048105057 0.021597406 -0.034254964
000050 57 fa b9 be 87 c9 a7 3c 4e 87 00 3f 35 84 0b 3d
       -0.36323807 0.020481838 0.5020646 0.03406163
000060 0a b7 fe bd 00 31 58 3e 07 4c 38 3f 7d af 32 3e
       -0.12437256 0.21112442 0.7199101 0.17449756
000070 0e c4 f2 3c 2e e4 0a 3d be 48 15 be e2 17 f1 bd
       0.029634502 0.033909015 -0.1457853 -0.117721334
000080 62 de 09 bf a3 40 b6 bd f6 45 bb be ad 4f 01 be
       -0.53854954 -0.08899047 -0.36576813 -0.1262805
000090 72 d4 28 3e d7 b8 f3 bd 60 47 2d bc d9 9e af 3d
       0.16487291 -0.1190049 -0.010576099 0.0857522
0000a0 8c f6 9a 3c 1a f7 a1 bd c2 05 85 bd ba 75 93 bf
       0.01891639 -0.07908459 -0.06495239 -1.1520302
0000b0 38 16 fa be 29 86 c0 3e 0c 6c cc 3d f7 a5 74 bd
       -0.48845077 0.37602356 0.09981546 -0.05972859
0000c0 ac 5d cc 3e 90 78 52 3e 92 04 0e be 2d b4 11 be
       0.39915216 0.20553803 -0.13868931 -0.14228888
0000d0 09 f2 41 3f de d2 d7 3c 9c aa a7 bd b2 01 e2 bd
       0.7575994 0.026345666 -0.08186838 -0.110354796
0000e0 a6 84 62 bd 09 82 be 3e 51 c0 f1 be 92 ad 9c ba
       -0.055302285 0.37208584 -0.47217038 -0.0011953583
0000f0 13 2e cd be 9e a0 18 3e b4 7f df bc 8b 07 7f 3e
       -0.40074214 0.1490502 -0.027282573 0.24905221
000100 14 e6 45 3e e0 3b 68 bc fc 20 dd 3d e0 66 a0 bd
       0.19326049 -0.014174432 0.10797307 -0.07832122
000110 63 26 2e 3d aa 3e 88 be 5e e1 0a 3e 54 af 1e be
       0.042517077 -0.2661031 0.13562533 -0.1549657
000120 3f e3 f9 3d f1 81 10 ba f0 95 7a 3e a4 80 bf 3e
       0.12201547 -0.0005512527 0.24471259 0.37402833
000130 ce 26 80 bc e8 2c 93 bd 3c 7f f5 3d 09 1c 29 3c
       -0.015643504 -0.071862996 0.11987159 0.0103216255
000140 b6 8e a8 3c b7 dd 0e 3e b7 1d 38 3e 73 a3 09 be
       0.020575862 0.13951765 0.17980085 -0.13441257
000150 17 06 56 bd b7 2d f9 3d db 35 f4 3d 83 6e 93 3d
       -0.0522519 0.121669225 0.119243346 0.07198813
000160 41 cf 83 3c e6 1e 32 bd f2 34 e5 bc 82 80 91 3e
       0.016090037 -0.0434865 -0.027979348 0.28418356
000170 50 b4 12 bd e8 32 60 3d d4 5a 92 bd 73 e7 b6 bc
       -0.03581649 0.054736048 -0.0714623 -0.02232716
000180 c1 3d 8d 3f 9f 69 b2 be 4b 37 d2 bd 31 a0 9a 3d
       1.1034471 -0.34846207 -0.102644525 0.07550085
000190 41 f6 e6 3d 10 55 da 3e 2b e9 8b 3d 39 c4 be 3c
       0.11277438 0.42643023 0.06831583 0.023286926
0001a0 70 9b f2 bd f8 ca 05 be 92 56 90 3d b3 a3 72 bd
       -0.118460536 -0.13065708 0.07047762 -0.059238147
0001b0 4e 5c 1f bf 56 13 e1 3c 34 b0 a0 3d 38 ac c1 bd
       -0.6225022 0.02747504 0.07846108 -0.09456676
0001c0 b5 11 1d 3d 63 b3 1b be 2b bd df 3d 45 a0 e6 3c
       0.038346965 -0.1520515 0.10924753 0.028152594
0001d0 6b da 63 bd 3e 31 db 3a 40 a2 fd 3c d7 68 11 3e
       -0.05562822 0.0016723049 0.030961156 0.1420015
0001e0 b9 90 fb 3b a9 25 23 40 04 81 c9 3d 1b 30 4e be
       0.0076771644 2.5491736 0.09839061 -0.20135538
0001f0 50 79 49 be 8a 6d 96 bd ba 63 9c 3b 46 db 8d 3a
       -0.19675183 -0.07345112 0.0047726305 0.0010822795
000200 5b 5d 02 be fe 77 19 be 6b d8 f3 3a 05 95 8c bd
       -0.12730925 -0.1498718 0.0018603926 -0.06864361
000210 eb 42 e1 3d d1 6f 83 3d 5b 46 83 3d 0c 01 a6 3d
       0.10999092 0.06417812 0.064099036 0.081056684
000220 dc 13 82 3e c9 ba d3 3e c4 21 44 be c6 c0 48 3e
       0.25405777 0.41353443 -0.19153506 0.19604787
000230 fa 72 12 3e a4 33 ee 3c e2 bd 56 3e 9f 92 20 bd
       0.14301673 0.029077359 0.20970872 -0.03920233
000240 f4 44 e4 bd 46 78 aa 3d 9e 10 76 be 03 68 28 3e
       -0.11145964 0.083237216 -0.24029776 0.16445927
000250 da 9d 21 bd 28 cc 3e be be 35 2d bd e5 c2 0a 3e
       -0.03945718 -0.18632567 -0.04228758 0.13550909
000260 3c 17 c5 bc 04 e1 60 bd 44 7f f5 bb 77 a4 27 3e
       -0.02405893 -0.05490209 -0.007491978 0.16371332
000270 1f be b5 bc 76 38 fd 3b 43 f0 31 3c 4b aa 69 3e
       -0.022185383 0.007727678 0.0108605055 0.22818868
000280 28 a6 fd bd 9e 4a 2a 3e e2 f1 20 be 91 a2 7b bc
       -0.123852074 0.16630027 -0.15717271 -0.015358583
000290 ac 24 4b bd ab 49 f8 3e 9c f6 98 3e 84 74 ac 3e
       -0.04959552 0.48493704 0.29875648 0.33682644
0002a0 1f c6 1d 3e 7b 37 06 3f 91 6a c5 3e c3 8f 04 be
       0.15407608 0.52428406 0.38557866 -0.12945466
0002b0 67 5f 01 3f 55 8d 12 bf bd 18 1a bc 9b 59 01 bd
       0.505362 -0.57246906 -0.009405312 -0.031579595
0002c0 d4 99 88 be 4a df 85 3e 44 d0 90 be 35 69 64 be
       -0.26679862 0.2614692 -0.28283894 -0.22305758
0002d0 0c da 8e bf 9b 2b a9 bd ab 41 b0 bb 35 96 af 3d
       -1.1160293 -0.0826027 -0.005378922 0.085735716
0002e0 4d 2d 8c be 45 28 a5 3e c8 3c c3 3e 53 28 ba be
       -0.27378312 0.32257286 0.3813231 -0.3635889
0002f0 f2 f9 23 3e a0 3b 96 be 2f e3 39 be e7 a5 85 3e
       0.16013315 -0.29342365 -0.1815307 0.26103136
000300 a2 cf b6 bc 7e 0d 12 3f dc 95 1b 3e d1 6d 1b 3d
       -0.022315804 0.5705184 0.15193886 0.037946526
000310 a0 ce 40 bd de c0 d6 be b0 cd 3c be 77 77 0b be
       -0.047072053 -0.4194402 -0.18437839 -0.13619791
000320 4a 23 a6 bd 13 d1 3b be 71 b6 b5 bd 76 e4 b1 3e
       -0.081121996 -0.18341474 -0.088726886 0.34744614
000330 e9 ff be bc 93 d9 9e be 6e 91 f6 bd be 8a 07 bf
       -0.023315387 -0.3102537 -0.12039457 -0.5294608
000340 7c 8f 6b 3d 00 68 81 3e f3 6d fc bb 9d b3 90 3c
       0.057509884 0.25274658 -0.0077035367 0.017663771
000350 08 35 b4 3e b6 7f 8a 3e d7 cf 2c bd 00 f5 5d 3d
       0.3519671 0.2705056 -0.0421904 0.05418873
000360 1e a3 8a be 43 a2 fd bd 9e c8 3d bd 99 dd ed 3d
       -0.27077574 -0.123844646 -0.0463339 0.11614532
000370 d4 29 82 3e 96 c2 b2 bb 24 95 e6 3e c6 40 cb 3d
       0.25422537 -0.0054553254 0.4503566 0.09924464
000380 c1 c1 a3 be 23 e3 d5 3e 90 8c 02 3c be 84 1b bf
       -0.3198376 0.41774854 0.007968083 -0.60749424
000390 72 48 1c 3e ef 08 c1 be 85 72 b1 3e f1 30 03 3d
       0.1526201 -0.37702128 0.34657684 0.032029096
0003a0 91 fa 48 bd 05 2e 7b 3e 08 4c 46 be 7e e5 e0 3d
       -0.049067084 0.24529274 -0.19364941 0.10981272
0003b0 4d 06 f6 3d 02 fd 3f bd 79 55 83 bc 51 8c f0 bc
       0.120129205 -0.046872146 -0.016031967 -0.029363783
0003c0 3e 3b f3 bd 7a 5e 4e be cc 06 89 be 55 86 75 be
       -0.11876534 -0.20153227 -0.26762998 -0.23977025
0003d0 f2 f1 2b 3e ca 8e cb bb 6c 20 03 be 19 52 51 3e
       0.16791514 -0.00621209 -0.12805337 0.20441474
0003e0 da 2b b2 be 4d 2e b6 3d d3 60 51 3e fd 6f c9 be
       -0.3479908 0.0889555 0.20447092 -0.39343253
0003f0 53 2e 1c bf 55 f4 3a 3e 30 c5 6d 3e 23 b0 a6 3d
       -0.61008185 0.18257268 0.23219752 0.08139064

lstm.bias_ih_l0 f4 [512]
000000 28 d1 0d bc 73 c9 30 be 39 42 13 3e 97 46 97 be
       -0.008655824 -0.17264347 0.1438073 -0.29546043
000010 b0 db da be a4 aa 48 3f 56 00 ed bd f8 08 5a bd
       -0.42745733 0.78385377 -0.1157233 -0.05323121
000020 87 a4 1c 3c 6f bc 03 be c8 cc 85 be 0b 89 79 be
       0.009560711 -0.1286485 -0.26132798 -0.24368684
000030 7a 6a 82 bd b5 1a 05 be 31 c0 87 be 8d d6 00 be
       -0.06367965 -0.12998469 -0.26513818 -0.12581845
000040 16 9c 93 bd 33 e3 c8 3f 33 8c 9e bd f8 8a 1a be
       -0.072075054 1.5694336 -0.07741585 -0.15092075
000050 bf bd 10 be 83 7a bb bd f0 52 8d be 64 c5 8c 3e
       -0.14134882 -0.09154227 -0.2760234 0.27494347
000060 cc c6 b8 be 56 36 bc bd 44 6c 65 3d ea 9c 5a 3e
       -0.3608917 -0.09190051 0.056011453 0.2134892
000070 af 9c b3 be d2 48 10 be 1e 5f d0 3c cb 5f 93 be
       -0.35080478 -0.14090279 0.02543598 -0.28784022
000080 3d 67 35 be 28 66 a8 3d 13 97 19 bd a6 56 af be
       -0.17715164 0.0822261 -0.03749759 -0.34245795
000090 00 34 f1 bd 6a 7c 80 3e 58 62 61 bd e2 a1 a5 bd
       -0.11777496 0.2509492 -0.05502543 -0.08087517
0000a0 67 f1 4f be 75 94 ae bc 7a b5 1c be 4c 65 db bd
       -0.20306931 -0.021311024 -0.15303603 -0.1071268
0000b0 84 27 27 be d0 0d 18 be 4a a8 8a be c8 22 40 be
       -0.16323668 -0.14849019 -0.2708152 -0.18763268
0000c0 eb d1 62 be 18 dc e5 be 50 50 27 be 02 c1 a4 be
       -0.2215039 -0.4489448 -0.1633923 -0.32178503
0000d0 6a be 60 be ad dc 2b 3e b2 66 16 be ab 5e d2 be
       -0.21947637 0.167834 -0.14687613 -0.4108785
0000e0 7b cf 0f 3e 9c c9 1b be 66 0a 9b bd 2f fa 69 be
       0.14043991 -0.15213627 -0.07570343 -0.22849344
0000f0 2c 95 26 be 0b bb 01 bf 99 af fd 3e df 3e af 3b
       -0.16267842 -0.5067603 0.49548033 0.005348071
000100 e5 6a 0d be 27 59 e3 be 0b 66 fa bc a3 0f 1d be
       -0.13810308 -0.44403955 -0.030566236 -0.15337996
000110 f1 05 d2 be ed 3e b5 be bc f1 4b bd 1e ce 3b 3e
       -0.41020158 -0.3539957 -0.049791083 0.18340346
000120 33 40 b6 be d7 4f fe bd 3b 2f 56 3c 9e e4 3b be
       -0.35595855 -0.12417572 0.013072784 -0.1834893
000130 3c 64 be be 05 90 d4 bd 3e 08 a3 3d cc ba f5 bd
       -0.37185848 -0.10379032 0.079605564 -0.11998519
000140 97 ed db bd 76 77 83 3d c1 c3 36 3d 9a a3 67 be
       -0.10738676 0.0641927 0.04462028 -0.22621003
000150 3c 82 95 3e 79 eb 44 be b5 ab 96 3b bc e2 b4 bd
       0.29200923 -0.1923045 0.004598106 -0.08832309
000160 2a be 1c be 2c bc 20 bf bd 58 04 be 62 87 89 bd
       -0.15306917 -0.6278713 -0.12924476 -0.06715275
000170 83 dd 16 be 44 7e c7 3e 8e 15 b0 bd f0 3f ce be
       -0.14732938 0.3896352 -0.08597861 -0.40283155
000180 22 23 52 3e 39 21 dd bd 51 f6 9a bd 40 15 c1 3d
       0.20521215 -0.10797352 -0.075665124 0.09427881
000190 d4 50 6b be 0e cd 62 be 03 69 11 3d f5 9a 68 3d
       -0.22980052 -0.22148535 0.035500538 0.056788404
0001a0 a0 bf 37 be e9 59 45 3c 33 cf 16 be c9 61 5c 3e
       -0.17944193 0.012045362 -0.14727478 0.21521677
0001b0 b9 f9 51 be 3c a9 64 3a 21 a3 f1 bd 1a 27 8e be
       -0.20505418 0.00087227277 -0.117986925 -0.27764207
0001c0 6d 14 77 be 01 dd e4 bd 12 bf 56 be bd 1c 15 bf
       -0.24128886 -0.11174966 -0.20971325 -0.58246976
0001d0 7a 35 4b be d2 80 ef 3c ab d4 c8 bd 60 0d a4 bd
       -0.19844618 0.029236231 -0.09806188 -0.080103636
0001e0 57 d8 c7 3c 54 7f 02 3d 11 a8 e1 3d ab 0e b5 bd
       0.024395151 0.03185971 0.11018384 -0.08840688
0001f0 49 aa 2f be 10 c2 9b be 39 ac 27 be 2b e5 99 be
       -0.17154802 -0.30421495 -0.16374291 -0.30057654
000200 28 c8 0b 3f 15 d5 6a be 15 79 1a 3e 0f 24 70 3e
       0.5460229 -0.22932847 0.15085252 0.23451255
000210 b6 0b 9c bc 65 c5 42 3e f8 fa 0b be 29 81 70 3e
       -0.019048553 0.19020613 -0.13669956 0.2348677
000220 ce a7 b0 3d 07 87 93 3e 5e b2 de 3e 6a 9d c9 3c
       0.08625756 0.28813955 0.43495458 0.024611194
000230 20 62 fc bd bf 0f c8 3d 1f 8a 62 3a 7f a5 96 3e
       -0.12323403 0.09768628 0.00086417975 0.29423138
000240 7b db 90 bd 05 c8 86 3e a2 0c 92 3d 92 c0 31 3e
       -0.070731126 0.26324478 0.07131316 0.17358616
000250 10 a6 fd bd dd 13 05 3e d3 3a d0 3d 56 d7 84 3d
       -0.123851895 0.12995858 0.1016747 0.064863846
000260 d6 6d 75 3e 95 fe fd bd a4 bb 92 bc 88 cf 83 3e
       0.2396768 -0.12402073 -0.01791174 0.2574427
000270 dc 9c d9 3e 7a c5 49 3e cc c2 1a 3d 65 6c 9e 3e
       0.42502487 0.19704238 0.03778343 0.30942073
000280 71 f7 a1 bd b8 eb 87 3d d7 e9 53 be 79 0c e9 3e
       -0.07908524 0.06636757 -0.20694672 0.45517328
000290 46 eb 9b bd a8 12 b8 3d 8b 18 2c 3f 5f b2 88 3e
       -0.07613234 0.089879334 0.6722495 0.26698586
0002a0 10 49 05 3e ae 6b f8 3d c5 b2 23 be 87 6c 4e 3d
       0.13016152 0.12129913 -0.15986164 0.05039647
0002b0 c0 8f a0 3d 08 82 80 bd 92 e1 2a 3e d3 1b b2 3e
       0.07839918 -0.062748015 0.16687611 0.34786853
0002c0 c4 33 13 be 80 6a 1e 3e 3b da da 3e 7c 5b ba 3e
       -0.14375216 0.15470314 0.42744622 0.36397922
0002d0 bd 89 39 bb 75 a5 26 3d 40 2b 07 be b3 e9 7f bd
       -0.0028310858 0.040685136 -0.13200092 -0.062478732
0002e0 92 10 2c be 50 7e 5b bc 6e 7d 9d bd 64 00 30 3e
       -0.16803196 -0.013396814 -0.076899394 0.17187649
0002f0 e9 9d 4a 3c 91 0a d1 3d e0 ce ec 3e f3 36 6a 3d
       0.01236675 0.102070935 0.46251583 0.05718131
000300 53 5e ee bc f6 41 eb 3e 8d c4 2e 3e 0e 94 da 3d
       -0.029097712 0.45948762 0.17067166 0.106727704
000310 8a e4 25 3e 8e 56 bd 3d 19 c7 8d 3e f8 44 19 3e
       0.16200462 0.092450246 0.27690962 0.14967716
000320 31 be 49 3e b3 8d 8d bd 62 24 f0 bd 86 65 f9 bc
       0.19701459 -0.069117926 -0.117256895 -0.030443918
000330 99 9e 06 3d a8 15 6e 3d e5 82 dc bd e9 eb 6d 3d
       0.032866094 0.05812612 -0.10767154 0.05808631
000340 42 e1 45 bd 11 f5 25 be dd f0 4d 3b e0 1f 04 3e
       -0.048310526 -0.16206767 0.0031424083 0.12902784
000350 f2 19 f5 3d e6 7c 80 3e a3 07 d9 3e 1b 0d 46 3e
       0.11967839 0.2509529 0.4238864 0.19340937
000360 15 05 c0 bc 12 23 41 3e 96 dc 41 3e 89 08 21 be
       -0.023439923 0.18861035 0.18931803 -0.15725912
000370 71 79 e5 3d a2 c6 56 3e cc 6b 15 3e 64 2e f6 3c
       0.11204804 0.2097421 0.14591902 0.030051418
000380 15 b0 56 be 80 44 d7 3d 6e 62 9d 3e cd 4f ee 3d
       -0.20965607 0.10511112 0.30739158 0.116363145
000390 a3 79 55 3d 6f d4 83 3d 19 a1 50 3c 10 b5 52 3e
       0.052117955 0.06437003 0.012733721 0.20576882
0003a0 da dd 56 3e e0 83 8a 3c 96 f3 27 3e bb ad 10 bd
       0.20983067 0.016908586 0.16401514 -0.035321932
0003b0 3a 19 a4 3c a5 94 6c 3d e9 06 53 3e 9d ac 0b 3e
       0.02003156 0.057758946 0.20608105 0.13640065
0003c0 16 d3 7a 3d 07 73 f3 3e e0 1e 1c 3e 12 25 ad 3e
       0.061236463 0.47548696 0.15246153 0.33817345
0003d0 f5 2f f2 3d 0e d2 43 3e 6a 73 a0 3d 28 28 80 3e
       0.11825553 0.19123098 0.078345135 0.25030637
0003e0 48 2c 97 3e 2d 53 88 3c 18 3a 07 3e 33 e5 f0 3e
       0.2952597 0.016641224 0.13205755 0.47049865
0003f0 af b8 7f 3e 25 be 88 bd e6 77 ea 3e 2e d3 cd 3e
       0.24972795 -0.06676892 0.457946 0.4020018

lstm.bias_hh_l0 f4 [512]
000000 21 dd d4 3d be 05 35 be d0 22 fa 3d 65 4c 88 be
       0.103937395 -0.17677972 0.12213671 -0.26620784
000010 69 29 ce be 16 53 44 3f b7 9c e8 bd 21 fc 0a 3d
       -0.40265968 0.7668928 -0.11358016 0.033931855
000020 c5 6f 40 3d fa 76 a6 bd 63 e4 25 be 82 50 56 be
       0.04698159 -0.08128162 -0.16200404 -0.20929149
000030 cd 46 06 bc 73 13 04 be 19 bc 8d be 07 b3 65 be
       -0.008195591 -0.12898044 -0.2768257 -0.22431575
000040 4f ee b1 bd 75 ae c1 3f 37 9a e4 bc 0d c9 51 bd
       -0.08688032 1.5131365 -0.027905567 -0.051217128
000050 18 e5 df bc 8d ef c4 bd 1b b7 22 be 96 c0 ad 3e
       -0.02733092 -0.09616003 -0.15890162 0.33935994
000060 92 02 e1 be c6 77 89 bd f1 9e 6f 3d c9 b5 9b 3e
       -0.43947273 -0.06712298 0.058501188 0.3041213
000070 28 9a db be bb ba 0c be 40 37 3b bd 87 4c 8f be
       -0.4289105 -0.13743107 -0.045706987 -0.27988073
000080 fb ef 10 be f4 0d 5b 3d a5 f1 98 bd 84 64 e4 be
       -0.14154045 0.053480104 -0.07467965 -0.44607937
000090 6c 8b b9 bd 3c c4 5d 3e 64 11 a6 bd cb 47 27 3d
       -0.09059796 0.21656889 -0.08108786 0.04083995
0000a0 4e 04 40 bd 49 c2 a7 bd c3 82 4e be 8b 69 39 be
       -0.046879105 -0.08191354 -0.20167069 -0.18106668
0000b0 f4 92 49 bd 07 c7 65 be 77 ea 77 be af 44 fd bd
       -0.04921241 -0.22439204 -0.24210535 -0.12366616
0000c0 61 3d 30 be a0 48 a7 be c9 c1 bf bd dd 14 96 be
       -0.17210914 -0.32672596 -0.093631335 -0.29312792
0000d0 64 b4 8a be 7d 7d 41 3e bf 5d c9 bd a8 0a 02 bf
       -0.27090752 0.18895526 -0.09832334 -0.5079751
0000e0 f2 e6 32 3e fa dc 1c be f6 1d 8f bc 2f 16 4a be
       0.17470911 -0.15318671 -0.017470341 -0.19735025
0000f0 20 ad b8 bd 14 2f fb be 10 56 18 3f dd 92 40 3d
       -0.09017396 -0.49059355 0.5950632 0.04701506
000100 da e7 b4 bd 1c 1b cd be ec 80 88 bd 8a 4f 84 bd
       -0.08833285 -0.40059745 -0.06665215 -0.06460483
000110 c8 ea b2 be 48 ee 98 be 8f 8f 9a bd cc 11 ef 3d
       -0.3494475 -0.29869294 -0.07546913 0.11673316
000120 1c a0 c1 be 1d 6f 1d be ea d4 26 3d 07 41 08 be
       -0.37817466 -0.15374418 0.040730394 -0.13306056
000130 c4 3e 81 be 52 9f 0c bd 01 90 b0 3d 4b 74 0c be
       -0.252432 -0.034331627 0.086212166 -0.13716237
000140 c0 f7 42 bd 83 a5 83 3c 3e ff 14 bd c9 35 20 be
       -0.047599554 0.016070133 -0.03637623 -0.15645517
000150 c5 ea c5 3e e7 b3 9a be 78 c6 bf 3c 82 19 6a bd
       0.38655677 -0.3021538 0.023410067 -0.057153232
000160 e3 fc 87 bd 1d 5b 12 bf 97 5e 3e be 38 f0 de bb
       -0.06640031 -0.5717028 -0.1859077 -0.0068035387
000170 24 6e a7 bd b7 96 f3 3e 96 59 fa bd e6 ee c8 be
       -0.081753045 0.47575924 -0.122241184 -0.39244765
000180 f4 fd 70 3e 8b 55 1e be d5 bc 61 bd 55 bd 00 3e
       0.23534375 -0.1546232 -0.055111725 0.12572224
000190 7d 13 5c be 1f 37 92 bd 73 f6 17 bd f2 ef 40 3d
       -0.21491809 -0.0713942 -0.037100267 0.04710383
0001a0 7c f2 68 bd ce c9 aa 3c 1f 51 15 be 75 b5 2c 3e
       -0.056871876 0.020848181 -0.14581726 0.16866095
0001b0 11 43 36 be a7 e7 29 be 99 92 64 bc 1d 2e 7b be
       -0.17799021 -0.16592275 -0.013950967 -0.2452931
0001c0 17 16 9f be 27 bd d3 bd b9 c4 6a be 26 b9 08 bf
       -0.3107154 -0.10338812 -0.22926606 -0.53407514
0001d0 08 01 a6 be 8f a0 32 3d fb db 36 be 8c bf 11 bd
       -0.32422662 0.04361015 -0.17857353 -0.035583064
0001e0 f0 6a 2f 3e d7 53 d0 bc b8 9a 3f 3e 25 1c 46 be
       0.17130637 -0.025430603 0.18711364 -0.19346674
0001f0 b8 53 32 be bc e7 ac be 2f 55 68 be e5 23 af be
       -0.17414749 -0.3377055 -0.22688745 -0.34207073
000200 be 10 e1 3e c9 32 a8 bd b8 e1 75 3e f0 0e 39 3e
       0.43958086 -0.082128115 0.24011886 0.18072104
000210 7f 33 12 3d e9 d4 9d 3e 9a 59 c3 bd cf b1 64 3e
       0.03569364 0.308265 -0.095385745 0.22333454
000220 40 7b 0f 3d ac 87 92 3e 1b 16 f6 3e 59 1d 7b 3d
       0.03502965 0.28619134 0.4806374 0.061307285
000230 b2 dc b9 bd 91 c3 84 bc 86 50 11 bd 4a 34 95 3e
       -0.090752974 -0.016206535 -0.035477184 0.29141456
000240 aa b3 6b bd 64 ca 93 3e 83 73 d4 3d b5 5c 80 3d
       -0.057544388 0.2886535 0.103735946 0.062676825
000250 8a 0f 74 be 28 57 3d 3e 27 bc 72 3e 3c f9 2c 3e
       -0.23834053 0.18490279 0.23704587 0.1689195
000260 ce 06 82 3e 53 25 d1 bd 1b 17 17 bb ab f4 7d 3e
       0.25395817 -0.10212197 -0.0023054543 0.24800365
000270 e1 23 f0 3e e4 15 8f 3e e7 e4 51 3d 85 dd 88 3e
       0.46902373 0.2794639 0.05124369 0.26731506
000280 6f 0d b2 3d 96 fa 1b 3d ed db 99 be 7c b3 c2 3e
       0.086939685 0.038080774 -0.30050603 0.3802756
000290 9e 41 14 3b 9a 21 cd 3d e1 e2 24 3f 42 b5 41 3e
       0.0022622119 0.100161746 0.6440869 0.189168
0002a0 b6 84 19 3d f7 8d 88 3d b6 c3 44 be 2c 77 93 3d
       0.03748008 0.06667703 -0.19215283 0.072004646
0002b0 4b 60 9a 3d 1c 5e 28 be c8 69 ae 3d 72 9f cd 3e
       0.07537898 -0.1644215 0.0851627 0.4016071
0002c0 46 9f 40 bd a4 9c 32 3d 94 a6 b1 3e 29 b1 bf 3e
       -0.047026895 0.043606415 0.34697402 0.3743985
0002d0 9e 0a 5f 3d c8 e4 d0 ba ef cd 9b bd 84 69 f6 bd
       0.054453485 -0.0015937323 -0.07607638 -0.12031844
0002e0 e1 c3 31 bc 99 da 95 bc af f2 e6 bd 52 9f b9 3d
       -0.010849924 -0.018292712 -0.11276757 0.09063591
0002f0 d1 1a d7 3d 47 2a 22 3e 70 02 c8 3e 05 55 ee 3d
       0.10503162 0.1583644 0.3906436 0.1163731
000300 73 e5 84 3d 10 0f c7 3e e1 82 85 3e a2 18 51 3e
       0.064890765 0.3887868 0.26076415 0.20419553
000310 94 f8 2c 3e 3c d8 ca 3d 52 08 9f 3e 2b 1a b8 3d
       0.168917 0.09904525 0.31061035 0.08989366
000320 a8 15 45 3e 07 55 63 3d f1 51 95 3c b8 f8 85 bd
       0.19246542 0.05550101 0.01822755 -0.0654158
000330 e5 ac 24 3e 17 31 31 3d c6 81 ee bc 1d 15 a8 3d
       0.16081579 0.043259706 -0.029114615 0.08207152
000340 ce d1 cc 3c b9 2f df bd 03 02 08 be 2b 4e 6a 3e
       0.025002386 -0.10897774 -0.13282017 0.22881381
000350 b2 96 33 3e 95 70 b4 3e 60 8e f7 3e b4 f5 3e 3e
       0.17537954 0.35242143 0.4835081 0.18648416
000360 c1 7d c3 bc 0e 27 3e 3e 62 91 2e 3e 6e db a9 bd
       -0.023863675 0.18569586 0.17047647 -0.08293806
000370 86 cc 0e 3e af fe 44 3e 4d a8 ad 3d 08 4c c0 bd
       0.13945207 0.19237779 0.084793665 -0.09389502
000380 f3 32 79 be dd 2d 03 3d 32 ec a3 3e 57 7d 30 3e
       -0.24335842 0.03202616 0.3201614 0.17235313
000390 99 6e c4 bd 37 c2 7a 3d f0 d3 26 3d 48 9d ad 3e
       -0.09591407 0.061220374 0.040729463 0.3390906
0003a0 a0 cb 3d 3e 45 72 5f 3d 9e 68 24 3e fd 4c d6 bd
       0.18534708 0.054552335 0.16055533 -0.10463903
0003b0 cf 40 31 3e fb 6d 12 3e d8 e6 64 3e 98 de 06 3e
       0.17309879 0.14299767 0.22353685 0.1317085
0003c0 97 6c 8a 3d 60 4c 09 3f b7 66 23 bc f4 1f 80 3e
       0.06758993 0.53632164 -0.00997322 0.25024378
0003d0 c0 f9 ea 3c 64 99 58 3e 4b e2 02 39 e4 c4 34 3e
       0.028683543 0.21152264 0.00012482067 0.17653233
0003e0 ac 97 14 3e 3a 45 22 bd 3a 5a f3 3d 29 ba db 3e
       0.14510983 -0.0396168 0.11882444 0.42915466
0003f0 68 aa 94 3e 41 1f 81 bd 8c ca 98 3e 5f cf 10 3f
       0.2903626 -0.06304789 0.2984203 0.56566423
