models/encoder.model (torch, 349623 bytes, 5 tensors)

embedding.weight f4 [128, 32]
000000 9a 74 ed be 4f bb a1 3f 2a 2e c3 3e 89 b6 b5 be
       -0.46378022 1.2635287 0.38121158 -0.35490826
000010 99 ed 88 3f a8 e8 5d 3f 82 3b 06 40 fa 07 9c 3f
       1.0697509 0.8668313 2.097382 1.2189934
000020 d1 df bc be f0 90 5f be db 55 ac bf ea bd 03 c0
       -0.36889508 -0.21832633 -1.3463701 -2.0584664
000030 00 8b 41 3f 71 bc 78 3f a0 7d b5 be 21 65 01 40
       0.7560272 0.9716254 -0.35447407 2.0217974
000040 91 1b ef bf 49 e1 ca bf f4 41 c2 3f df c1 0b 3f
       -1.8680288 -1.5850002 1.5176377 0.545927
000050 51 7d 72 bc 4c 45 af 3e f4 b6 0e 40 69 b5 b6 bf
       -0.014800386 0.34232557 2.2299166 -1.4274112
000060 f9 61 20 3f d3 6f 3e c0 63 b1 c0 bf 73 e5 cf be
       0.62649494 -2.9755752 -1.5054134 -0.40604743
000070 49 cd 06 3f 8f c2 96 bf aa 0d b4 3f d3 03 46 bf
       0.5265699 -1.1778125 1.406667 -0.77349585
000080 3d 9c 63 3f 93 b9 97 bf be 4d 0a bf 35 d7 92 3e
       0.88910276 -1.1853508 -0.54024875 0.28679815
000090 68 a1 80 bf fa ca 0a be 59 35 8b 3e aa 9e b8 3e
       -1.0049257 -0.13553992 0.2718914 0.3605855
0000a0 f8 1c 40 bf b1 82 b4 bf 98 2b d0 be 11 4a d5 3f
       -0.750442 -1.4102384 -0.4065826 1.6663228
0000b0 2a fb 32 3e fb a8 ac be da 8b a7 bf 46 b0 8d 3f
       0.17478624 -0.33722672 -1.3089554 1.1069419
0000c0 da a2 68 3f a4 ff e4 3f 7c 23 f1 3e 23 02 dc bf
       0.9087349 1.7890515 0.47097385 -1.7188152
0000d0 f9 4d 3c 3d b2 10 90 3d 5b d0 ad bf 71 d4 0e 3f
       0.045972798 0.070344344 -1.357921 0.5579291
0000e0 33 9d 44 bf f7 78 03 c0 0c 95 e7 be c2 56 e7 3e
       -0.76802367 -2.054258 -0.452309 0.45183378
0000f0 56 77 8b bf 9a 50 d9 be 96 33 68 be 83 fb ff be
       -1.0895793 -0.42444307 -0.22675928 -0.49996576
000100 95 8a f9 bd 97 6d ed 3f 2b fb 93 3f 55 e0 9c 3f
       -0.121846355 1.8549069 1.1561025 1.2255961
000110 df 2c d1 3f a0 ed a4 3f f5 ce 83 3f 61 86 cd 3f
       1.6341819 1.2885017 1.0297533 1.6056634
000120 ab 82 b1 bf 56 f9 fd 3e 8b eb 3e 3d c5 6b 7d be
       -1.3868002 0.4960429 0.04661135 -0.24748142
000130 16 38 09 3d 1b de dd 3f 22 c5 02 bf d1 ef 09 bd
       0.033500753 1.7333406 -0.5108205 -0.033675972
000140 7f 03 20 c0 9c 68 f2 3f 75 77 91 3f ce 78 0b 3f
       -2.5002134 1.8938174 1.136458 0.5448121
000150 c5 67 33 3e 99 92 a0 3f 85 1e 1c bf 29 84 15 40
       0.17520054 1.2544738 -0.6098407 2.3361914
000160 df c7 c7 bf 3c 6f 3e 3e 33 54 cc bf 8f 46 96 bf
       -1.5607871 0.1859712 -1.5963196 -1.1740283
000170 ec 19 69 bf 0c 0a 14 bf e7 d8 48 be 7d d2 b6 bf
       -0.9105518 -0.5782783 -0.19613992 -1.4282986
000180 72 ac cf bf 7e d8 10 bf d4 94 e1 bf 3a 8c 0a be
       -1.6224501 -0.5658034 -1.7623544 -0.13530055
000190 43 75 c2 3e dc f9 60 3f 7e 63 a1 3f d3 e4 1e 3f
       0.3798009 0.87881255 1.2608488 0.6206791
0001a0 e6 ab 4d bf f7 34 d2 be 53 4a a4 3f bd b8 df 3f
       -0.8034042 -0.41056034 1.2835182 1.7478253
0001b0 ea 7f ae bf 8d 9b f2 3e a3 24 2e 3f 17 03 4c 3e
       -1.3632786 0.473843 0.68024653 0.19923054
0001c0 1d e1 9c bf 23 4a b1 3e 53 3c 0f be f6 5a 3a be
       -1.2256199 0.34626874 -0.13987856 -0.18198761
0001d0 12 a6 d3 3f 89 f9 17 3f a7 81 47 be 0c 93 c9 bd
       1.6535056 0.59365135 -0.19483052 -0.098425
0001e0 24 87 45 bf f1 ab 95 3e 35 22 f8 3f a2 cb 7d 3f
       -0.77159333 0.29232743 1.9385439 0.99138844
0001f0 2a 37 e4 3c 3d 7f 62 3f d0 e0 c4 3f 6d b5 b0 3f
       0.027858336 0.884754 1.5381107 1.3805367
000200 70 88 9e 3f 7e 7b f2 be d0 06 9e 3f 97 ed a3 bf
       1.2385387 -0.47359842 1.2345829 -1.2806882
000210 e1 c9 47 bf 90 53 98 bf f4 8c 35 bf 98 f1 ea bd
       -0.7804242 -1.1900501 -0.709182 -0.114718616
000220 24 9b 82 be 61 ef 80 3f 4f c5 bf 3f 4f b6 83 bf
       -0.25508988 1.0073053 1.4982089 -1.0290011
000230 4a d2 84 be 19 6e f4 3d e8 b8 8a 3f c0 96 73 3f
       -0.25941688 0.11935062 1.0837679 0.951519
000240 c5 1e 1c 3f 0a c8 d1 3f 61 a3 45 3e e6 e9 3b bf
       0.6098445 1.6389172 0.19300605 -0.73403776
000250 61 ca b1 bf f7 1c 48 be d4 16 26 40 68 e1 50 bc
       -1.3889886 -0.19542299 2.5951433 -0.012749054
000260 1f 34 e1 bf cc 0b 05 40 9f b2 85 3e 5a 86 aa bf
       -1.7594031 2.078845 0.2611284 -1.3322251
000270 46 0b d2 3f 4a 3d 08 c0 ba 3c 2e be f1 3a 95 3f
       1.640969 -2.1287408 -0.17015353 1.1658612
000280 b1 30 a2 bf 65 4b 43 be c4 9d 2f 3f 20 8a 84 bf
       -1.267111 -0.1907173 0.68600106 -1.0354652
000290 3a dc fa be 57 50 4c bf aa d7 ff 3f c4 f2 f5 3e
       -0.48996145 -0.7981009 1.998769 0.48036778
0002a0 20 03 b5 3f 44 43 a5 3e c9 90 11 3e 92 3e f5 3d
       1.4141579 0.32277882 0.14215387 0.11974825
0002b0 d4 2e d1 bf 3f 4d e3 bf f0 0d 95 be d6 3d d7 bf
       -1.6342416 -1.7757949 -0.29112196 -1.6815746
0002c0 bb a5 54 be c0 e0 94 3e e2 10 8b bf d3 c4 17 bf
       -0.20766346 0.2907772 -1.0864527 -0.59284705
0002d0 77 9f 95 3f 85 34 36 bf 93 ad 35 be 64 49 b4 3f
       1.168929 -0.7117389 -0.17741995 1.4084897
0002e0 f5 f7 2b be 9c 46 b2 3e 76 b5 a6 bf 3e c4 2e bf
       -0.16793807 0.34819496 -1.3024127 -0.6826819
0002f0 50 48 91 bf fb 34 8d 3f c2 7d 62 bf 76 8e 28 3f
       -1.1350193 1.1031793 -0.8847314 0.6584238
000300 66 7b 68 bf 38 dc 09 bf c8 af 6c be 26 75 21 3f
       -0.9081329 -0.5385165 -0.2311393 0.6306938
000310 f6 be 27 3f 54 de b6 3e 69 b2 9b 3e 20 c6 30 40
       0.6552576 0.35716498 0.30409554 2.7620926
000320 39 6d 17 c0 61 39 1e bf f4 25 a9 be 9e 36 c0 be
       -2.3660414 -0.61806303 -0.33036768 -0.3754167
000330 86 c6 8e bf 99 d6 66 3f b2 45 6f 3e e0 10 84 be
       -1.1154335 0.901712 0.2336643 -0.25794125
000340 58 cb 9f bf a4 a9 af 3f 46 22 9e bf d8 fe 1c 40
       -1.248393 1.3723645 -1.235421 2.4530544
000350 78 39 c2 be 12 48 67 bf 14 0c af 3f 3e 3b 04 c0
       -0.3793447 -0.90344346 1.3675561 -2.0661159
000360 af b1 f1 be d0 d5 61 3e ac b7 6f bf 08 2e a9 3e
       -0.47205874 0.22054219 -0.93639636 0.33042932
000370 91 55 11 3f 4f 71 cd bd fb 74 62 3e 57 31 8b 3f
       0.5677119 -0.100313775 0.22114937 1.0874432
000380 76 26 6e bf 0f 1b 63 3f 2c 07 5c 3f b1 7e 8f bf
       -0.93027437 0.88713163 0.85948443 -1.1210538
000390 7e 35 ca be 78 d0 0b bf 5e 9e 19 bf 76 49 2f 3f
       -0.39493936 -0.54614973 -0.60007274 0.6847147
0003a0 36 1d 43 3f bf 5b 43 bc 66 2a c7 bf 74 49 2e 3f
       0.7621645 -0.011923729 -1.5559814 0.6808083
0003b0 79 94 62 3f e4 ba fc be 6f 90 03 c0 df 2c 07 40
       0.885078 -0.49361336 -2.0556905 2.1121137
0003c0 bc d6 d9 bf 24 33 2d 3f 0b 3d de 3e ca 13 cc be
       -1.7018657 0.6765616 0.43405947 -0.39858848
0003d0 d9 10 50 bf bf 0d b2 be 32 b2 51 be d0 85 0a bf
       -0.8127571 -0.34776112 -0.20478132 -0.5411043
0003e0 ec 1b 7b 3e c5 77 63 3e 02 f9 01 3e 16 d4 6c 3f
       0.2452237 0.22213657 0.12692645 0.9251112
0003f0 f6 28 2a bf 98 49 82 3f fd 73 94 3e 3e e2 f9 3e
       -0.6646875 1.0178709 0.28994742 0.48805422

lstm.weight_ih_l0 f4 [512, 32]
000000 d7 63 c7 bd 5b 89 5e 3d ce 0a 0b bc 98 9d 66 bc
       -0.0973584 0.05433021 -0.008486463 -0.014075659
000010 53 21 81 3d b8 0f 0d bd 37 fe 77 bd dd db db bc
       0.06305184 -0.03443882 -0.060545173 -0.026838237
000020 bc 19 21 3e 62 36 15 3c 95 a3 de 3c e5 05 36 3d
       0.15732473 0.009107204 0.027177611 0.044439215
000030 fb 27 cf 3d 05 69 26 bd 01 42 ae bc 04 96 b6 bd
       0.101150475 -0.0406275 -0.021271707 -0.08915332
000040 1a e2 ea 3c 88 0b a0 3d 80 a8 24 be 04 6e 31 be
       0.028672267 0.078146994 -0.16079903 -0.17327124
000050 22 82 81 3d c0 ed 05 bd ec 48 29 3d 52 1f 5a bd
       0.06323649 -0.03269744 0.04132931 -0.053252526
000060 94 09 4d bd 99 c3 06 3e bd 12 40 bd ee f1 1c 3e
       -0.050057963 0.13160552 -0.04689287 0.15326664
000070 0c 4b 41 3a d8 a6 0a 3d 49 87 f6 bd 88 61 b8 3d
       0.00073735486 0.03385052 -0.12037522 0.090029776
000080 4f 13 99 3d c8 9e b6 be e7 b6 a6 be 1e f5 16 3d
       0.07474386 -0.35668015 -0.32561418 0.036854856
000090 85 20 3d 3e 7b f3 f4 bd d2 fe fa 3d 50 10 58 3e
       0.18469436 -0.11960503 0.12255634 0.21099973
0000a0 af ff 23 3e 4a fd 90 be e2 13 c7 bc c5 38 9b 3e
       0.16015504 -0.28318244 -0.024301473 0.3031675
0000b0 24 1c 09 3e 47 49 3d be 38 2c 14 be 3e e9 24 3e
       0.13389641 -0.18484984 -0.14469993 0.161046
0000c0 75 25 37 be e8 2e 74 3e b3 1e 47 3e 96 ee b1 bd
       -0.17885382 0.23846018 0.19445305 -0.08688085
0000d0 7d 1a 3d 3e d3 5f 04 3d 80 22 c7 bc b3 49 8b bd
       0.18467136 0.032317948 -0.024308443 -0.068011664
0000e0 aa 88 0b be ea 14 6d bd 25 e8 12 3f a9 b8 98 bd
       -0.13626352 -0.057881273 0.57385474 -0.07457096
0000f0 e9 dc ce 3e f4 5e 68 3e a0 73 1e 3d 27 38 b3 be
       0.40402916 0.22692472 0.038684487 -0.35003778
000100 df fc 24 3d 0b b9 80 3b 67 70 17 3e 6a ca 37 bd
       0.04028022 0.003928309 0.14788972 -0.04487077
000110 35 87 d1 3d d1 95 1c 3d c3 c9 ea bc b4 f2 c6 3d
       0.10230867 0.038228814 -0.02866066 0.09714261
000120 b0 5d 97 3d 7b 93 bd 3d 44 db 21 3d f1 26 fa bd
       0.07390916 0.09256645 0.03951575 -0.12214459
000130 f7 0d af 3d 05 71 02 bb a6 2f 36 3c 1c 8a c0 3d
       0.085475855 -0.001990379 0.011119759 0.09401342
000140 56 7d ac bd cc 88 33 3d 8d 00 82 3c 4f 59 00 be
       -0.084223434 0.04383163 0.015869403 -0.12534069
000150 04 29 06 3d f6 d9 df 3c bd ce 9f 3d 4a a8 f9 3c
       0.03275396 0.027325612 0.07803104 0.030475754
000160 2f eb e7 3d ca b8 86 bd 37 fe 62 bb 79 80 0c be
       0.113241546 -0.065782145 -0.0034636387 -0.13720883
000170 5a fc 80 bc d5 2a 06 bd 23 a8 8a 3d f4 08 1c be
       -0.01574533 -0.03275569 0.06770351 -0.1523779
000180 52 6e 9a 3d cc 49 6d 3e aa 1f fd bc bc 8a 3e be
       0.07540573 0.23172683 -0.030898888 -0.1860761
000190 fd 61 4f be 40 83 a1 bd af 16 00 3c 92 d9 a9 bd
       -0.20252223 -0.07886362 0.007817908 -0.08293451
0001a0 cc f7 2c be 4a ed 39 3b 7e 41 fb 3d c1 17 77 be
       -0.16891402 0.0028370195 0.12268351 -0.24130155
0001b0 a9 5a 85 bd 77 0c bf 3d ac 18 f9 3c de 47 d8 3d
       -0.06511433 0.09328549 0.030407272 0.105605826
0001c0 f9 2d 06 bd a8 3d f4 3c 79 48 09 be 1d 8d 08 be
       -0.032758687 0.029814556 -0.13406552 -0.1333508
0001d0 4d 65 20 3e 67 5d 2d 3e 88 91 1a 3d d8 72 53 be
       0.15663643 0.16930161 0.037736446 -0.20649278
0001e0 5f 00 9d 3d 03 e6 ea bc dc 1f 86 be a6 db 7e 3d
       0.076660864 -0.028674131 -0.26196182 0.06222119
0001f0 3d 90 5a be fa 89 ce bd 95 c8 98 3d 6b 74 07 be
       -0.21344085 -0.10084911 0.07460133 -0.13228004
000200 c2 ee 48 3e c5 92 0b 3e bf 3f 17 3e d9 d3 7d be
       0.19622329 0.13630207 0.14770411 -0.24787845
000210 de fb 2c 3e 0a 49 14 3e 5d ed 87 3e a5 57 96 3d
       0.16892955 0.14480987 0.2654828 0.073409356
000220 8e 61 81 bd 34 a0 1c 3e 9b 6b 63 be c4 a9 74 bd
       -0.06317435 0.15295488 -0.22209017 -0.059732214
000230 47 8a 5d 3e a3 0a 89 bd bf e1 49 be d8 6e 4e 3d
       0.2163478 -0.06691482 -0.19715022 0.050398678
000240 40 ab 15 be 1b eb 23 be 09 1b 9d 3d 71 ef 6b bd
       -0.14616108 -0.16007654 0.07671172 -0.057601396
000250 b6 39 a8 3d 6e ed a3 3d b7 18 98 3d dc c6 40 be
       0.082141325 0.080042705 0.07426589 -0.18825859
000260 16 4a b4 3d 5d 8b a4 bd 54 77 58 be 5c 03 ae 3c
       0.08803193 -0.08034394 -0.2113927 0.021241836
000270 09 04 2a 3e b4 64 07 be 04 b5 55 3e 28 b3 8d bb
       0.16603102 -0.13222009 0.20869833 -0.0043243356
000280 d2 82 1e 3e 1b ad 18 3e e9 98 aa 3d 30 bd 52 be
       0.15479591 0.14909784 0.083299465 -0.20579982
000290 89 01 24 3e 3d d0 2d 3e 60 03 c4 3e 90 13 17 bc
       0.1601621 0.16973968 0.38283825 -0.009220973
0002a0 cf a3 c9 3d 82 d4 ea 3d e4 ff 12 be 1c f6 17 be
       0.09845697 0.11466314 -0.14355427 -0.14839977
0002b0 c3 0c 92 3e 17 ce 02 be 96 e0 f4 bd 2d 72 9d 3e
       0.2852536 -0.1277393 -0.11956899 0.30751172
0002c0 b8 61 13 be 6b b8 82 be c4 e7 42 3e 0d 4d a5 bd
       -0.14392745 -0.25531325 0.19033724 -0.08071337
0002d0 5b a1 da 3d ad 1f 74 3c 0f 47 3b 3e 9f a3 bd be
       0.10675307 0.01490013 0.18288825 -0.37038895
0002e0 65 24 23 bb 19 01 27 be 05 1f 9a be ec 3d bf bd
       -0.002489352 -0.16309012 -0.3010179 -0.093379825
0002f0 f0 31 2f be a2 0a 3a be d0 85 09 3e 34 bf 85 bd
       -0.17108893 -0.18168119 0.13429952 -0.0653061
000300 6c f1 9d bd 5f ef 84 3e c0 55 fb 3c c5 db 00 bd
       -0.07712063 0.25963876 0.030680537 -0.03145959
000310 f1 2b 15 3e 7e fb de 3d 8d 6f a0 3e dd 84 19 3e
       0.14567544 0.10887812 0.31335106 0.1499209
000320 d7 4d 13 bd 80 cb 7c 3d 20 0a 8c be d9 88 5f be
       -0.035962906 0.06171751 -0.27351475 -0.21829547
000330 b9 b5 8c 3e 8e 8c d9 3c 77 aa 45 be d3 93 88 3e
       0.27482393 0.02655628 -0.19303308 0.2667528
000340 ef 20 5e be 7b 6e 21 be b2 a8 9f 3e 0f 3b a0 3d
       -0.2169225 -0.15764801 0.31183392 0.078237645
000350 6a 07 ea 3b 49 dd 2e 3d 10 07 89 3e e8 55 7a be
       0.007141997 0.042691503 0.267632 -0.24446833
000360 e6 b5 17 3e 3a 42 3e be 91 fd 4b be 91 e4 85 3d
       0.14815482 -0.18579951 -0.19920947 0.06537736
000370 0c 88 fb 3d a5 01 61 be 29 3d 85 3e c4 14 db bd
       0.12281808 -0.21973284 0.26023224 -0.1069732
000380 b3 4e a0 3c 4f 34 7e bd e6 34 2f bb 4a 66 2d 3d
       0.019568777 -0.062061604 -0.002673441 0.04233388
000390 33 83 a5 bd d8 f6 68 bd 97 03 26 be b4 f9 9b bd
       -0.08081665 -0.056876034 -0.16212307 -0.076159865
0003a0 be bd e8 3c 59 e5 4e 3d e2 97 51 3d fe 27 ce 3d
       0.028410789 0.05051169 0.051170237 0.10066222
0003b0 7e 7d 15 bd 70 26 cf bc c6 08 bb 3c b0 67 3a be
       -0.03649663 -0.025286883 0.022831332 -0.18203616
0003c0 81 7c d2 3d 05 83 8e 3d b1 d6 95 bd df e2 0c 3d
       0.102776535 0.06958584 -0.0731634 0.03439605
0003d0 7b b9 1e bc 46 5a de bc 4f 6f e5 bd 61 18 07 3e
       -0.009687777 -0.027142655 -0.11202871 0.13192894
0003e0 ef 46 5c bd 66 5c 9e 3d 75 96 5f 3d b7 62 34 3d
       -0.053778585 0.07732467 0.054586846 0.044039454
0003f0 45 2d f9 bc 8f ab af 3d bb 35 b8 bd 2c a3 a7 3c
       -0.030417094 0.08577644 -0.08994623 0.020463549

lstm.weight_hh_l0 f4 [512, 128]
000000 22 38 5c be 5b 4b cb 3d 06 7b 21 3e ac 66 82 3e
       -0.21505788 0.09926482 0.15769586 0.25468957
000010 31 51 c1 3c 7a ab 4d 3e 12 33 44 bd 58 0b c8 3e
       0.023598285 0.20084944 -0.047900267 0.39071155
000020 de 48 e3 3c 79 dc 33 be 1e 69 b1 bd 26 57 58 3e
       0.027744707 -0.17564572 -0.08662628 0.21126994
000030 f4 52 fa bd 76 9c 99 bd 18 02 17 be 0c 62 f9 bd
       -0.12222853 -0.07500546 -0.14746892 -0.12176904
000040 f2 c6 9a 3c d3 7d 72 3d 97 1e 23 3e 7b fb e6 bd
       0.018893693 0.059202027 0.15929638 -0.11278435
000050 d1 99 b2 3d 78 79 db bd 5e 77 9a be 4b b5 04 3e
       0.087207444 -0.10716528 -0.30169195 0.12959783
000060 18 55 0a bc 6e 3b 51 bc 3c 3f af bd 4b e1 93 bd
       -0.0084431395 -0.012770517 -0.08556983 -0.072207056
000070 23 d4 1b be 81 5e 08 be 8d 7e 90 be 00 3a f5 3d
       -0.15217642 -0.133173 -0.2822155 0.11973953
000080 79 bd 1a 3e 4e a0 d5 bd f0 ce fb bd cc c1 13 bd
       0.1511134 -0.10430966 -0.122953296 -0.03607349
000090 70 b9 07 3d df 60 8c 3d 04 45 34 be 82 dd f6 bd
       0.03313583 0.06854414 -0.17604452 -0.12053968
0000a0 d3 ac 4e 3d 3a fb c5 3c 7d 83 01 bd dc 4b 92 3b
       0.050457787 0.024167646 -0.031619538 0.0044646095
0000b0 47 96 00 be 63 01 1c 3e 66 3d 08 3d 8a fd ac 3d
       -0.12557326 0.15234904 0.03326168 0.08446796
0000c0 e0 40 c6 bc 9e ff 1e bd 90 83 f2 bc 40 86 1e 3d
       -0.024200857 -0.038817994 -0.02960375 0.03870225
0000d0 57 4e 8a bd ef be ec 3c f7 01 65 be b9 a6 d5 3c
       -0.067532234 0.028899638 -0.22364031 0.026080476
0000e0 1e 3f cd bd 53 c5 99 be 0f cd 8e bd 9e 4a db 3d
       -0.10021804 -0.3003336 -0.069727056 0.107075915
0000f0 93 39 14 3e f8 f7 c1 bd 14 77 96 3e bf ec 12 be
       0.14475088 -0.094711244 0.29387724 -0.14348124
000100 2f 2e 97 bd ca 3b fd bd 1c 37 7d be bb 3b ef bc
       -0.07381856 -0.123649195 -0.24728054 -0.029203286
000110 56 83 55 3e 7b cc 03 be 92 76 40 be e8 92 10 bd
       0.20850882 -0.12870972 -0.18795231 -0.03529635
000120 1f a2 90 bc 92 b0 dd bc 46 58 88 3d 37 10 b5 bd
       -0.01765543 -0.027061734 0.06657462 -0.08840983
000130 93 5a 01 be 9b 22 3d 3e 74 a6 2a bd 65 77 b7 3c
       -0.12632208 0.18470232 -0.04166265 0.022395799
000140 fa c5 9b be 5b 8a 34 3c 69 bb 5d bd 43 74 8f 3e
       -0.30424482 0.011019315 -0.054133806 0.28018388
000150 65 df 21 3e d1 14 89 3d 51 c4 04 be bb bc 03 be
       0.15807875 0.066934235 -0.12965514 -0.12864964
000160 52 85 39 3d b8 bb a0 bc 73 45 29 3c 46 f9 00 be
       0.04529316 -0.019620761 0.010331499 -0.1259509
000170 d5 a8 a5 3d e3 f3 02 3d 48 0b c7 bd 2e 95 aa bd
       0.08088843 0.03197087 -0.097189486 -0.08329235
000180 b8 e2 a9 3d 8c 4d be bd 8b 7b db be 59 a6 8a 3c
       0.08295196 -0.09292135 -0.42867693 0.016925024
000190 b8 d7 23 be 52 49 87 bd 53 54 01 be 35 e6 ad 3d
       -0.16000259 -0.066057816 -0.12629823 0.08491174
0001a0 58 26 a7 bd 7d 31 16 bd 2d fd cf bc d7 ae e7 bd
       -0.0816161 -0.03666829 -0.025389278 -0.11312645
0001b0 b1 1b 9c be 73 10 81 be bb 0f b2 bb 03 98 5b 3c
       -0.30489877 -0.25207862 -0.005434004 0.013402942
0001c0 50 17 a2 bd 33 a0 21 be 2b 70 fa 3d 94 33 75 3d
       -0.07914603 -0.15783767 0.122284256 0.05986364
0001d0 d1 54 1d 3e 73 3c b6 bc 42 17 42 be f3 cd dc 3d
       0.15364386 -0.022245621 -0.18954185 0.10781469
0001e0 c2 d0 f1 bd 4c 2d 61 3c 13 99 57 3e 70 b8 88 3e
       -0.118073955 0.01374371 0.21054487 0.26703215
0001f0 a9 aa 08 3b 26 95 9d bd 68 81 2c 3e 6f 80 06 be
       0.0020853675 -0.076944634 0.1684624 -0.13134931
000200 69 a8 e2 3e 1d 5d d4 be bf 62 7f bd 93 fb d2 3e
       0.44269112 -0.4147729 -0.06235003 0.4120756
000210 68 17 5a 3e 9e dc 82 be 1e e1 b4 bd 99 d3 07 bd
       0.21297991 -0.25558943 -0.08832 -0.03316078
000220 87 c8 36 bf ae b2 c7 3e ad 80 6a be 0a 14 1b be
       -0.7139973 0.3900351 -0.22900648 -0.15144363
000230 ff d8 ec 3d 88 15 b7 ba 58 15 3b 3e 7e 7d cf 3e
       0.11564826 -0.0013968209 0.1826986 0.4052543
000240 ea ac 2d 3e 5b 5d 7f 3e c4 50 20 be 90 88 55 3e
       0.16960493 0.24937956 -0.1565581 0.20852876
000250 a4 dc ff 3d fd e9 92 3e 11 94 a0 3e 70 f9 e0 3d
       0.12493256 0.28694144 0.31362966 0.109850764
000260 fc 78 75 3c bb 7f 20 3e 31 a6 b1 bc 87 b2 af 3d
       0.014982458 0.15673725 -0.021685692 0.08578973
000270 8b 99 19 3f 8e 24 43 be 4e 6b 48 be aa 28 bf be
       0.5999991 -0.19056913 -0.19572183 -0.37335712
000280 9b 9a 2f bb 08 80 c5 bd d3 6a 21 be fa 10 0a bd
       -0.0026795033 -0.09643561 -0.15763406 -0.033707596
000290 20 26 1e be 22 d9 bf 3d f8 eb aa 3d f3 30 c9 3b
       -0.15444231 0.09367587 0.08345789 0.0061398684
0002a0 bd ce 17 be 8b 6b 0b bd 83 ff ad 3e 96 72 02 3d
       -0.14824958 -0.034038108 0.33984002 0.03184756
0002b0 21 b5 1c 3d 4f 28 cd bd a3 e7 2f be 86 ed e3 3d
       0.038258675 -0.10017454 -0.17178206 0.111292884
0002c0 7d d1 65 bd 02 82 3e 3c 46 ed 0f be af f3 63 be
       -0.056107987 0.011627676 -0.14055356 -0.22260927
0002d0 49 db 62 bf 76 06 15 3f 91 94 5f 3e 14 03 18 3e
       -0.8861585 0.58212984 0.21834017 0.14844924
0002e0 3a ae e9 3d 71 56 8d 3e ab 48 11 bd 56 87 38 bc
       0.11410184 0.27605012 -0.035469692 -0.011262735
0002f0 1b c6 f3 3d b9 31 78 3e ed a2 bb bd 14 fa 69 3d
       0.1190302 0.24237718 -0.09161935 0.05712326
000300 0b 50 82 3d 84 5f 9b be 6d 24 20 be ba 8e da 3e
       0.06362923 -0.3034631 -0.15638895 0.42687017
000310 6e 11 10 be 6a 00 b0 bd 88 9d e5 be 4d 5a e7 bd
       -0.14069149 -0.08593829 -0.4484675 -0.112965204
000320 59 9e 1c be ac 22 76 3e 31 2f 67 3c bb c0 fc 3d
       -0.1529478 0.24036664 0.014110372 0.12341448
000330 4a 70 34 bd b1 f4 92 be 20 aa 62 bd ac 6e aa bd
       -0.0440524 -0.2870231 -0.055338025 -0.0832189
000340 51 c3 88 be 82 f3 9a bd 0f 78 83 3c b7 2c 59 3e
       -0.26711515 -0.07565977 0.01604846 0.21208464
000350 2d 76 79 3d f3 7f 01 bd bd f6 4b be dc 77 1f 3f
       0.060903717 -0.031616163 -0.19918342 0.62292266
000360 fb 8f ec bc 53 9d bf be 19 24 f6 3c 07 a8 74 3c
       -0.028877249 -0.37424716 0.03004651 0.014932639
000370 ff 84 74 3d 7e 81 4a be 5b 4b ab 3d bf d6 37 bf
       0.059697147 -0.1977596 0.08363982 -0.7181205
000380 cf ef a1 3e 93 44 05 bf 78 2f c6 3e 0d 80 90 3e
       0.31628272 -0.5205776 0.3870809 0.28222695
000390 a3 23 03 3d 8c c3 00 3e 31 23 2f 3d 39 74 cd bd
       0.032016408 0.12574595 0.04275817 -0.10031933
0003a0 bb cb 8b bd f9 f7 e9 3d 5d 43 b8 3d 95 52 cb 3e
       -0.06825968 0.1142425 0.089972235 0.39711443
0003b0 93 aa 28 3d 26 af 4f be b9 31 d7 3e 7b ba 88 3e
       0.041178297 -0.20281658 0.42030123 0.26704773
0003c0 ca 9f 1e be 4d 97 43 3e ff e4 f2 bb c9 63 b5 bd
       -0.15490642 0.19100685 -0.0074125524 -0.08856923
0003d0 df ba 1b 3e 85 de 66 be 2a e0 a0 bd 82 36 7e bd
       0.15208004 -0.22545822 -0.07855256 -0.0620637
0003e0 fc e3 81 bb 6b 14 ca 3d 62 08 cb 3d 98 a6 a7 be
       -0.0039639454 0.09867176 0.09913708 -0.32744288
0003f0 c8 cc 7a 3d d1 44 69 be b8 e1 75 be 9d b1 90 bd
       0.06123045 -0.22780158 -0.24011886 -0.07065127

lstm.bias_ih_l0 f4 [512]
000000 4e 4d b0 be 60 24 1b bb 0c b5 15 bc 8a e4 86 3c
       -0.3443398 -0.0023672804 -0.009137403 0.016466398
000010 f5 50 96 3b 22 39 7a bd a5 54 45 be 2c 8c c6 bd
       0.0045872875 -0.061089642 -0.1927057 -0.096947044
000020 4e 41 54 bd 09 99 5a bd 64 90 04 be eb ef b7 bd
       -0.051820092 -0.053368602 -0.12945706 -0.089813076
000030 ae c5 e0 bd 9b 2f 02 3e 94 6c 10 be 41 94 16 be
       -0.109752044 0.12713473 -0.1410392 -0.14704992
000040 3c 12 0c 3d cf 51 84 be 89 1b 8a 3d 49 6c 37 be
       0.034197077 -0.25843665 0.06743533 -0.17912401
000050 4c 9c ee 3c 18 52 2c 3d b6 53 26 3e 43 43 85 be
       0.029127263 0.04207048 0.1624287 -0.2602788
000060 a8 92 0f be 9d 78 5f be 1e 8b 92 bd ff 7a 9c bd
       -0.14020789 -0.21823354 -0.07155441 -0.07640647
000070 56 93 38 bd cb 47 a9 bc df 94 92 be a7 70 93 bd
       -0.045062385 -0.020664116 -0.28629205 -0.07199221
000080 bd 37 1b be 2a 4f 65 3c 3f 4e ae bd 44 30 0a 3e
       -0.15157981 0.013995925 -0.08511018 0.13494974
000090 ff b2 06 bd a2 2a 37 be b8 a6 08 bd fd b8 03 3d
       -0.032885548 -0.17887357 -0.03336212 0.03215884
0000a0 82 0a 43 bd 7d 9a 22 bd f7 2b c6 3c 5c 27 bf bd
       -0.047617443 -0.039698113 0.024190886 -0.09333679
0000b0 9c 7b 82 3d 43 9f a0 bd e1 b4 18 3e c4 b6 0d 3d
       0.06371233 -0.07842877 0.1491275 0.034598127
0000c0 95 80 73 3d f1 4a 6d bc 54 85 48 3d 03 3e ff 3d
       0.059448797 -0.014483199 0.048955277 0.12463
0000d0 12 f5 17 be b5 ee 3d bd ab ce c7 bd 31 1e 09 bd
       -0.1483958 -0.046370227 -0.09756216 -0.03347606
0000e0 25 93 9c bc 46 99 fa bd 4a f8 3d bd 6a db 18 bc
       -0.019113133 -0.12236266 -0.046379365 -0.009329656
0000f0 e8 e8 1e 3d 55 22 86 3d 81 97 37 3e f2 b5 74 bc
       0.038796335 0.06549517 0.17928888 -0.014935957
000100 40 7e 82 3d d2 d8 bc 3d b5 56 5f 3d 51 ae 68 bd
       0.063717365 0.09221043 0.05452605 -0.056806866
000110 c7 87 73 bd 26 4e eb 3d 6a ec f0 bd 4b e4 b3 bd
       -0.05945566 0.11489515 -0.117638424 -0.08783778
000120 92 52 41 bd 95 e2 5f be c8 89 8c be 2d f8 47 be
       -0.047197886 -0.21863778 -0.2744887 -0.19528265
000130 ec 2e 13 3e c5 2b c8 bd fe b3 67 bd a4 dc b3 bd
       0.14373368 -0.097739734 -0.05656814 -0.08782318
000140 dd 17 d2 bd 79 1a e1 3c b9 59 8f bd c0 22 f3 bd
       -0.10258458 0.027478443 -0.06999535 -0.118718624
000150 19 36 a9 3e 3a 6c 33 be 5e bf 82 bd 51 16 3a 3e
       0.33049086 -0.17521754 -0.06384157 0.18172576
000160 2d 9d a2 3b a3 70 0a be a0 39 51 3d ec f1 59 be
       0.0049625845 -0.1351953 0.051080346 -0.21283692
000170 ea 7b fe 3c 19 4c 07 be 91 56 6f 3d 77 96 9c be
       0.031064946 -0.13212623 0.058432166 -0.30583546
000180 c0 3d fa bd fb d7 32 bd e4 b7 86 3e 67 21 9c 3d
       -0.12218809 -0.043663006 0.26312172 0.076235585
000190 2d 53 44 3d 09 b5 4d 3e 5e 27 ec bc 7e b5 13 be
       0.047930885 0.2008859 -0.028827365 -0.14424703
0001a0 1d 0c 43 be 2c 80 6e bd a3 3a cc bc a4 bd 96 be
       -0.1904759 -0.058227703 -0.024930304 -0.2944156
0001b0 28 cd ea 3d b9 03 59 bc ab df 11 be c9 ab d6 bd
       0.11464912 -0.013245516 -0.14245479 -0.10481984
0001c0 96 f6 82 3d fd a8 00 be 43 6c 97 3c 4f 95 26 bd
       0.06394689 -0.12564464 0.01848424 -0.040669736
0001d0 98 18 96 bd f0 40 f7 bc e1 00 13 be d8 6c 93 bc
       -0.0732891 -0.030182332 -0.14355804 -0.017996237
0001e0 ec 55 b7 3d b0 f7 c6 bc e6 79 77 3d 28 2b 76 3d
       0.08951935 -0.024288028 0.060418986 0.06009975
0001f0 61 44 ad bd 41 e0 d1 bd 27 21 3d 3d 79 37 53 be
       -0.08460308 -0.10247851 0.046174195 -0.2062663
000200 47 14 00 3e 96 05 19 3e 68 eb 5c 3d 1c ba 8a 3d
       0.12507735 0.14943537 0.05393544 0.06773779
000210 9e 91 32 3d f1 36 be 3d b9 00 3b 3e 93 24 a5 bd
       0.043595903 0.09287823 0.18261994 -0.080636166
000220 6e 50 b7 3e a2 c4 bd 3d 10 53 a9 3e 4f 95 12 3e
       0.3580355 0.0926602 0.33071184 0.14314769
000230 cc 1b 40 bd 5e 02 2b 3d 20 1d ed bd b9 f0 e4 3d
       -0.04690151 0.041750304 -0.11577821 0.11178727
000240 2b b9 b9 3d c6 36 13 bd 6f de a5 3d 0d 4e 05 3e
       0.09068521 -0.035940908 0.080990665 0.13018055
000250 d1 56 0a be 91 e3 d2 3d 9d 00 b4 bd 78 81 32 3c
       -0.1350968 0.10297311 -0.087891795 0.010895126
000260 2c 80 0a 3e db e7 47 3d 30 2f 9b 3d 48 d2 6c 3c
       0.13525456 0.0488051 0.0757736 0.014454432
000270 9c 34 14 3d f1 2b ca 3d 20 73 9f 3d f7 45 ab 3d
       0.036182985 0.098716624 0.0778563 0.08362954
000280 1f 51 1e be 0c a0 67 3e 65 d2 87 bc 1b ad 98 3d
       -0.15460633 0.22619647 -0.016579816 0.07454892
000290 6a 56 5b bd cf 44 a9 3d 3e 8d ab 3d c0 62 77 bc
       -0.053549208 0.08265077 0.08376549 -0.015099227
0002a0 a7 1b ae 3c bf 81 e0 bd 26 17 87 3d 4e 3f 0e 3e
       0.02125342 -0.10962247 0.06596212 0.13891336
0002b0 cc 7e fc 3d e9 c3 c8 3d 40 0b ac 3d 4a ae 20 bd
       0.12328872 0.09802992 0.08400583 -0.039228715
0002c0 7b 2f 13 bc 4f ce 61 3d b1 76 d1 bc e0 e1 1c 3d
       -0.008983488 0.05512839 -0.025569292 0.03830135
0002d0 7f c6 82 bc 00 75 54 bd cd 01 a1 bb 59 83 2d bd
       -0.015963791 -0.051869392 -0.0049135447 -0.04236159
0002e0 4d 79 da 3e 94 af a4 3d 06 0b b6 3d 08 ba cf 3d
       0.4267067 0.08041301 0.08888821 0.101429045
0002f0 59 e7 94 bd bd 43 e6 3b 35 22 8c 3d d8 de c2 3d
       -0.072706886 0.007027118 0.06842462 0.0951516
000300 0c 63 4e 3b 22 df c2 bd 49 4d 82 bd 13 a3 5e 3d
       0.0031492142 -0.095152155 -0.06362397 0.05435474
000310 dc 3d ec bd 28 52 43 bc 97 59 2a bd 30 aa 07 3e
       -0.11535236 -0.011921443 -0.041589346 0.13248515
000320 cd c0 b5 bc 32 f2 84 3d 94 a3 00 3e 90 b2 96 3d
       -0.022186661 0.064915076 0.125624 0.07358277
000330 89 80 09 3d a2 b7 13 bd 4a 1c 8c 3c 25 fd 34 3d
       0.033569846 -0.036063798 0.017103333 0.04418673
000340 3b 45 28 3e 26 51 8f 3d 95 8f 55 3d c3 60 3d bd
       0.1643266 0.069979 0.052138884 -0.046234857
000350 32 b8 ef 3d 03 e8 4b 3d f5 10 34 3e 46 2e 07 3f
       0.11705054 0.04978181 0.17584594 0.5280498
000360 15 aa 8e bd 0d e4 13 bd 65 d2 06 3e 86 5a 3e 3e
       -0.06966034 -0.036106158 0.13166197 0.1858922
000370 57 e2 cb 3d 1d e1 11 3e 1a d4 f6 3d 98 72 3f bd
       0.0995528 0.1424603 0.12052174 -0.046740144
000380 fd 8c 65 3d 11 92 2c 3c 8d b9 13 3a 36 97 e9 3d
       0.05604266 0.010532872 0.0005635254 0.11405794
000390 93 c4 7f 3d 4a ac 0f 3e 65 a3 64 3e b4 51 df bd
       0.062443327 0.14030567 0.22327955 -0.109042555
0003a0 b7 ae 2d 3e fa 54 5c 3e 24 a3 40 bc 35 1e 7b bd
       0.1696118 0.21516791 -0.011757646 -0.061308105
0003b0 8a 7d a1 3d 2f ab c6 bc 8b 1d ef 3d 37 28 94 ba
       0.07885273 -0.024251549 0.11675557 -0.0011303489
0003c0 5c 58 b4 bd d0 6d b3 3d 10 46 c6 bb f7 be 69 3d
       -0.08805916 0.087611794 -0.0060508326 0.057066884
0003d0 50 25 e1 3d 1a 76 bd 3c e0 19 89 3e d5 3e df 3d
       0.10993445 0.023127604 0.26777554 0.10900656
0003e0 33 92 86 3d f5 ba 66 bd 30 6d c3 bd a4 dc ba 3c
       0.06570854 -0.05633064 -0.0954231 0.022810288
0003f0 66 c6 53 3e 5c 54 50 3e 54 70 c0 bd 84 8b c8 3c
       0.20681152 0.2034468 -0.09396425 0.024480589

lstm.bias_hh_l0 f4 [512]
000000 b4 cd 90 be 36 12 fa bd fa b4 47 3d 9d b9 7a 3d
       -0.2828194 -0.12210505 0.048756577 0.06121217
000010 f0 99 f9 bd cb 21 b6 bd c3 e0 3b be e0 6f 16 be
       -0.121875644 -0.08893164 -0.18347459 -0.14691114
000020 d4 bf 3a be 73 f3 82 bd ed be dd bd 15 0d 68 be
       -0.18237239 -0.063940905 -0.10827432 -0.2266124
000030 a9 1d 12 be 3c 05 1a bd 60 3a cc bd fb 70 e9 bc
       -0.14269127 -0.03760265 -0.09972072 -0.028496256
000040 7f 20 11 3c 04 f0 86 be 01 1d f7 3d 23 4b 14 be
       0.008857845 -0.26354992 0.12066079 -0.14481787
000050 4d 4d fd 3b e4 1c 55 bd 04 90 7a 3d 3f 50 7d be
       0.0077301622 -0.052029505 0.0611725 -0.24737643
000060 e4 c1 47 bd 62 d8 94 be b1 6b 6f be f5 b7 36 be
       -0.048768893 -0.29071337 -0.23380925 -0.17843612
000070 2f 60 dc bd 6d 1d d7 bd 0d 5c 92 be 04 b0 dd 3c
       -0.10760533 -0.105036594 -0.28585854 0.02706147
000080 15 0c bc bd 2d cd 1a be cf 97 e4 bd 2b 54 4f 3d
       -0.09181992 -0.15117331 -0.11161768 0.05061738
000090 a0 f0 66 bd e9 2a 01 be 50 9a 91 bd b1 7f a7 3d
       -0.05638182 -0.12614025 -0.07109511 0.08178652
0000a0 d8 69 ab bd d4 b8 b7 bd db 1b 84 3d bf 2c 23 be
       -0.083697975 -0.089708 0.064506255 -0.15935038
0000b0 45 16 f3 3d 58 f4 83 bd 50 8c 17 3e 3b 41 f9 bd
       0.11869482 -0.06443089 0.14799619 -0.12170645
0000c0 04 ff 7d 3d 59 63 ae bc af b6 e9 bc 12 a1 91 3c
       0.06201078 -0.021287607 -0.028529493 0.017777
0000d0 83 d6 03 be e7 10 0e be c0 87 fd bc 4d 1a a5 bd
       -0.12874798 -0.13873635 -0.03094852 -0.08061657
0000e0 38 f9 af bd e0 d0 4d be 24 33 87 bd 96 eb 32 bc
       -0.085924566 -0.2009921 -0.06601551 -0.010920426
0000f0 4d 8a 94 3d 52 95 17 bd c2 28 ce 3d cc 0a 72 3d
       0.07252941 -0.037007637 0.10066368 0.059092328
000100 ec 4c 9f bd ce d1 a4 3d 7c 3d 4b 3d 42 f1 39 3d
       -0.077783436 0.080478296 0.049619183 0.045396097
000110 d9 d7 8b bd f1 48 8c 3d c3 1a 1e be a6 f0 70 bd
       -0.06828279 0.0684985 -0.15439896 -0.05882325
000120 b1 4b 15 be 3e bd 76 be 02 6d e5 bd 58 f7 6a be
       -0.14579655 -0.24095628 -0.11202432 -0.22945917
000130 a3 16 ac 3d 91 07 21 be 33 ce 21 be 2d 6e 4b bd
       0.08402755 -0.15725543 -0.15801315 -0.04966562
000140 ce a1 63 bd 6b 08 67 3d 87 fb 9c bd 7f d3 1b be
       -0.05557423 0.056404512 -0.076651625 -0.15217398
000150 ba 78 a1 3e 97 14 4b be 59 4b bc 3c e9 d7 13 3d
       0.3153742 -0.19832073 0.022985147 0.03609458
000160 fc 68 10 3e 2c 38 31 be 56 f6 36 3d 42 3f 1e be
       0.14102548 -0.17306584 0.044668518 -0.15453818
000170 b7 e5 43 bd 3b 2c 07 be 95 e5 4b bd 32 71 a3 be
       -0.047826495 -0.13200466 -0.049779493 -0.319223
000180 d7 f8 15 be ad 19 b1 3d ba 43 8a 3e 71 2f fb 3c
       -0.14645706 0.086474754 0.27004796 0.03066227
000190 af 56 3a 3d b5 c5 fc 3d b1 49 52 3d b8 e9 94 bd
       0.045492824 0.12342397 0.05133981 -0.07271141
0001a0 c6 33 39 be f2 43 60 bd ed 0f 48 bd bb c8 c7 be
       -0.18086156 -0.054752298 -0.048843313 -0.39020333
0001b0 8c b4 e7 3d 2a ce 65 bd 17 0c 1f be 5e 30 ca bc
       0.113137335 -0.056104816 -0.15531956 -0.024681266
0001c0 15 8a f9 bc 10 09 c3 bd fe d3 dd bd f3 31 0e be
       -0.03046135 -0.09523213 -0.1083145 -0.13886242
0001d0 94 e8 00 be de 86 ce bd 75 41 de bd 41 1d de bc
       -0.12588722 -0.100843176 -0.10852329 -0.027113559
0001e0 01 d1 4b 3d 20 69 84 3d 66 5e 9b bc b2 0f b7 3d
       0.04975987 0.064653635 -0.018965911 0.089385405
0001f0 7c fa 8b bc 36 c0 6a be 09 9f 7e bd 0f 64 80 be
       -0.017087214 -0.22924885 -0.062163386 -0.2507634
000200 50 0a 56 3d b8 bb c2 3d 6e f4 46 3d ef 14 ae 3c
       0.05225593 0.09508461 0.04857295 0.021250216
000210 ca 2e 77 bd 98 7b 81 3d 90 f0 4a 3e a7 52 85 bc
       -0.060347356 0.06322402 0.1981833 -0.016274763
000220 f6 83 b5 3e a8 d6 00 3e 5f 66 8c 3e 8f eb 0e 3e
       0.3545224 0.12581885 0.27421853 0.13957046
000230 51 76 7e 3d 1a 33 00 3e 24 9c 18 be 33 3c b9 3b
       0.062124554 0.12519494 -0.14903313 0.0056529283
000240 a6 3d a7 bb 29 dc 03 3c fb 9e e7 3d 6c 35 0e 3e
       -0.0051037846 0.008048096 0.1130962 0.13887566
000250 6a b8 a6 bd 30 23 c3 3c dc cc 0e be 1a fa 75 3c
       -0.08140643 0.02382049 -0.13945335 0.015013242
000260 a3 7d b7 3d 85 eb 39 3e d5 cf 03 3d 0e 02 01 3e
       0.0895951 0.1815625 0.032180626 0.1259844
000270 eb 89 04 3e b1 a5 54 3e 89 84 0c 3e 9f 1e 41 bd
       0.12943237 0.20766331 0.13722433 -0.047148343
000280 fe 3c 53 be 10 50 fe 3d 79 62 ad 3d f7 e6 18 3e
       -0.20628735 0.124176145 0.08466048 0.14931856
000290 4c 04 df bd 03 dc 26 3e 9e f2 f7 3d 14 c5 c7 ba
       -0.108894914 0.16294865 0.121068224 -0.0015241229
0002a0 0d af 9b 3d f3 7c 2a be 80 bc 9b bd 23 04 a2 3d
       0.07601748 -0.16649227 -0.07604313 0.07910945
0002b0 16 f9 13 bc e9 a7 5a 39 da 17 81 3d 0e f9 de 39
       -0.009031555 0.00020852652 0.063033774 0.000425287
0002c0 97 cd 85 3d 3a b8 3d 3d 93 4f 18 bd 63 10 b8 3c
       0.06533354 0.04631827 -0.037185263 0.022468751
0002d0 2e 6e a8 3c 36 22 27 3d 3a 8a ae 3d 9e 31 d6 3b
       0.02056035 0.04080411 0.085224584 0.0065366765
0002e0 d4 87 c7 3e 04 04 a5 3d 3b 11 81 3d 12 59 88 3d
       0.38970816 0.080574065 0.063021146 0.06657614
0002f0 93 9b 4d bd be 27 94 bc 09 7d 03 3e 0c 5e bb 3d
       -0.050197195 -0.018085357 0.12840666 0.091487974
000300 f9 8f 73 3c e8 b3 fb 3b 2f 97 6c 3b ef 19 ce 3d
       0.014865869 0.0076813586 0.0036100855 0.1006354
000310 aa c2 04 3d 88 ac 19 3d a6 0a b2 bc 65 92 0f 3e
       0.03241221 0.037518054 -0.021733593 0.14020689
000320 5a 26 c9 3d 12 a6 3a 3d 61 26 40 3e f4 e3 3c bc
       0.09821768 0.045568533 0.1876464 -0.011528958
000330 90 cc 39 3d 15 7d f8 39 ae 62 84 3d fa 63 12 3d
       0.0453611 0.0004739544 0.06464134 0.035739876
000340 5d d3 e7 3d d0 37 86 bc fa 8e 8c 3d 94 45 54 3d
       0.11319611 -0.016384035 0.06863208 0.051824167
000350 26 11 0b 3e 00 a1 84 3d b7 3f ab 3d d1 ce f9 3e
       0.1358076 0.06476021 0.08361762 0.487906
000360 b5 95 73 ba 8c da c0 3c 06 a9 1b 3e d2 e9 f2 3d
       -0.00092920224 0.023541711 0.15201196 0.11861004
000370 57 08 9e 3d 52 29 1d 3e e4 04 1b 3e 95 73 95 3d
       0.077164344 0.15347794 0.15138584 0.07297436
000380 c9 d5 2f 3e e6 27 13 3e 34 23 38 3d 99 03 c0 3c
       0.17171396 0.14370689 0.044955447 0.023439215
000390 19 54 f4 3b 02 f2 74 3e e6 02 0f 3e 5a 2f 26 3b
       0.0074563143 0.23920444 0.1396595 0.0025357814
0003a0 64 f0 8f 3d cf 55 49 3e ba 1d 1f 3d 72 02 51 bc
       0.07028273 0.1966164 0.03884671 -0.012756931
0003b0 80 7e 88 3d 05 01 3e 3d af 78 da 3d 33 73 ba bc
       0.06664753 0.04638769 0.1066755 -0.02276001
0003c0 50 ed 51 3d 1e 1d 57 bd 91 e5 e2 3d 76 e6 9d 3d
       0.05125171 -0.052518003 0.110789426 0.077099726
0003d0 b7 86 29 3e f5 3f d4 3c 7d 83 7b 3e 3a a1 dd bc
       0.16555296 0.025909403 0.24561878 -0.027054418
0003e0 ab ce d3 3d 43 d6 d4 bd 10 5f b5 bd dd 2d 8d bd
       0.10342153 -0.1039243 -0.08856022 -0.06893513
0003f0 9b 01 53 3e 4d d3 21 3e fe 15 46 bc 77 f4 f0 3c
       0.20606081 0.15803261 -0.012090204 0.029413445
