models/gru.model (torch, 940605 bytes, 7 tensors)

embedding.weight f4 [128, 4]
0	0x3f0f73a1	0.5603581
1	0x3f237d44	0.63863015
2	0x3ef73c43	0.48288164
3	0xbdb6f044	-0.08932546
4	0x3f81c8d5	1.0139414
5	0xbf0b4725	-0.5440543
6	0xc00112cc	-2.0167723
7	0xbf9e6882	-1.2375643
8	0xc03aac0a	-2.9167504
9	0x3df5436f	0.119757526
10	0x401f0063	2.4843986
11	0x3feb2371	1.8370191
12	0xbf8354ba	-1.0260231
13	0xbfe0e35e	-1.7569387
14	0x3e97dea2	0.29662043
15	0x3e415cb6	0.18883023
16	0x3f911f55	1.1337687
17	0xbf1d5ed8	-0.61472845
18	0xbe8eec1c	-0.27914512
19	0x3e615b4e	0.22007486
20	0x3e056886	0.13028154
21	0x3f007132	0.5017272
22	0x3f5b5dbe	0.85689914
23	0xbf12841a	-0.5723282
24	0x3d82f777	0.063948564
25	0xbfb27654	-1.3942361
26	0xbf384325	-0.71977454
27	0xbf192e70	-0.59836483
28	0x3ff3afd7	1.9038037
29	0xbe0b5248	-0.13605607
30	0xbfc6fddb	-1.554622
31	0xbf6159a2	-0.88027394
32	0xbe35df43	-0.17760949
33	0x3d57e0ab	0.052704494
34	0x3fc2cba6	1.5218399
35	0xbea9e082	-0.33179098
36	0xbf96c836	-1.177985
37	0xbdbda89d	-0.09260676
38	0xbfa70b28	-1.305028
39	0x3da3f887	0.08006387
40	0xbf165bf8	-0.58734083
41	0x3deec29b	0.11658212
42	0x3ed1a9a0	0.40949726
43	0xbe575975	-0.21030219
44	0xbfb2ffb9	-1.398429
45	0xbf9c2b0a	-1.2200634
46	0xbf52fcf5	-0.8241723
47	0x3c910520	0.01770264
48	0x3fa7d290	1.3111134
49	0x400c6db6	2.1941962
50	0xbf49a12d	-0.7876156
51	0xc00f9e75	-2.2440464
52	0xbe658159	-0.22412623
53	0xbfa05082	-1.2524569
54	0x3ed2952c	0.41129434
55	0x400b9375	2.180875
56	0x3e8f5031	0.2799087
57	0xbf0f1729	-0.55894715
58	0xbe9b720f	-0.30360457
59	0x3f26ec52	0.65204346
60	0x3fab52c5	1.3384634
61	0x3edc0412	0.42971855
62	0x3fc07596	1.5035884
63	0xbe11a743	-0.14223962
64	0xbf9bf39d	-1.218372
65	0xbf0c91c1	-0.549099
66	0x3faa99ab	1.3328146
67	0x3faba3c4	1.3409352
68	0x3da29380	0.0793829
69	0xbf481f19	-0.7817245
70	0xbf2722fa	-0.65287745
71	0x3ec88b6b	0.39168867
72	0x3f219f4a	0.6313368
73	0xbebb592b	-0.36591467
74	0xbf312af6	-0.6920618
75	0xbf91de2e	-1.1395929
76	0x3f9aeec4	1.2104115
77	0x3dd7eb17	0.10542887
78	0xbfbed92a	-1.4910023
79	0x3ca75027	0.020423962
80	0x3f33037c	0.6992719
81	0xbd9b8875	-0.075943865
82	0xbe6dcbb6	-0.23222241
83	0x3f8e7952	1.1130774
84	0xbe92cdd2	-0.28672653
85	0xbf297a61	-0.6620236
86	0xbf7e8de7	-0.99435276
87	0xc0991259	-4.7834897
88	0x3f394e65	0.72385246
89	0x3e371909	0.17880644
90	0xbf827d95	-1.0194575
91	0xbf057b6b	-0.52141446
92	0x3f33eb1b	0.7028062
93	0xc023e0ce	-2.560596
94	0x3d15182f	0.036400016
95	0x3fbf4d56	1.4945476
96	0x401a1986	2.4078078
97	0xbfed9963	-1.8562435
98	0xbfb08837	-1.379157
99	0xbf32a1d0	-0.69778156
100	0xbfadc63a	-1.3576119
101	0xc001f3cb	-2.030505
102	0x3e203cb3	0.15648155
103	0x3f016774	0.5054848
104	0x3fb0bf05	1.3808295
105	0xbfc07b3f	-1.5037612
106	0x3fcbfef5	1.5937182
107	0x401b2d98	2.4246578
108	0x3f3d577b	0.7396161
109	0xc0405782	-3.005341
110	0x3ffc3cf6	1.9706104
111	0x3f9fc6bf	1.2482527
112	0x402ad0f3	2.6690032
113	0x3f51d734	0.81969
114	0xbf4cd56d	-0.8001316
115	0x3f3c7034	0.7360871
116	0xbefdee71	-0.4959598
117	0xbf367f16	-0.7128767
118	0x3f51ff69	0.8203035
119	0x40218cfc	2.52423
120	0xbfab74ec	-1.3395057
121	0xbd34e6ce	-0.044165425
122	0xbf31faac	-0.6952312
123	0x3f767d93	0.9628536
124	0xc027cd57	-2.621908
125	0xbd2dc7c5	-0.042426843
126	0xc00f569d	-2.2396615
127	0xbf812567	-1.0089539
128	0xc0196e8b	-2.397372
129	0xc002ed44	-2.0457315
130	0x3e4fcd87	0.20293246
131	0xbfa46c7a	-1.2845604
132	0xbf10a020	-0.5649433
133	0x3e5f17cc	0.21786422
134	0xbfd0208a	-1.625993
135	0xbf0295b2	-0.51009667
136	0xc022d204	-2.5440683
137	0xbfb5c8c0	-1.4201889
138	0xbf298454	-0.6621754
139	0x3e951179	0.29114893
140	0xbf9c2c98	-1.2201109
141	0x3f8051b0	1.0024929
142	0x3f77c14d	0.9677933
143	0xc040862a	-3.0081887
144	0x406ee011	3.732426
145	0xbfa529d7	-1.2903394
146	0x3f81460b	1.00995
147	0x3f93dc8a	1.1551678
148	0x3fb33210	1.3999653
149	0xbfc9b34c	-1.5757842
150	0x3fc38466	1.527478
151	0xbf991999	-1.1960937
152	0x40030b07	2.047548
153	0x401c4eca	2.442309
154	0x3ea16cff	0.3152847
155	0x3fe70279	1.804763
156	0x3ea80bce	0.32821506
157	0x3fe8a852	1.8176367
158	0xbee61f7c	-0.44945896
159	0x4032ce16	2.7938285
160	0x3faaa0bb	1.3330301
161	0xc02a8c30	-2.6648064
162	0x3ebd04cf	0.3691773
163	0x3e276a8b	0.16349237
164	0x3fb300ac	1.398458
165	0xbe9a307e	-0.30115122
166	0x404f6392	3.2404523
167	0xbed21f35	-0.41039434
168	0xbf0baa1b	-0.54556435
169	0xbfb992d2	-1.4497931
170	0x4016b14b	2.354571
171	0xbfbd5147	-1.4790429
172	0xbff93ab3	-1.9471039
173	0xbfa34e0d	-1.2758194
174	0x3f9a6e02	1.2064822
175	0xbe78a672	-0.24282244
176	0xbf60474d	-0.87608796
177	0xbeac9a36	-0.33711404
178	0xbe7d9b3e	-0.24766251
179	0xbf1ff323	-0.6248037
180	0xc032a54f	-2.7913396
181	0xbdf1426a	-0.117802456
182	0x3f9f53b3	1.2447418
183	0xbfafeca7	-1.3744096
184	0x3fb93ced	1.4471718
185	0xbff65a9d	-1.9246403
186	0xbe83ef74	-0.25768626
187	0xbfd42745	-1.6574484
188	0x3df498ed	0.11943231
189	0xbf5a1a24	-0.8519614
190	0xbdf689ce	-0.12038003
191	0x3e64007a	0.22265807
192	0xbf08eb79	-0.534843
193	0x3f8126dc	1.0089984
194	0xbfe3af29	-1.778783
195	0x3fe1b740	1.7634048
196	0xbfc81869	-1.5632449
197	0x40045bc4	2.068101
198	0x3ff85318	1.9400358
199	0xbf421cf9	-0.7582546
200	0xbfa3b73d	-1.2790295
201	0x3e99728e	0.2997021
202	0xbf7f09a2	-0.99624074
203	0xc03da19c	-2.9629889
204	0xbf58b6d8	-0.84654
205	0x3f961da7	1.1727799
206	0x403f40fc	2.9883413
207	0x3fc0571e	1.5026586
208	0x3ea90f32	0.33019406
209	0xbf5d83ba	-0.86529124
210	0x3fefb25a	1.8726304
211	0xc0790389	-3.8908408
212	0xbfbfcf89	-1.498521
213	0xbf08aada	-0.533857
214	0x400a94b8	2.165327
215	0x3eb8c130	0.3608489
216	0x3ec9d3b5	0.39419332
217	0xbe896cc0	-0.26840782
218	0xc006ef49	-2.1083548
219	0xc02301f7	-2.546995
220	0x3f0b089f	0.5431003
221	0x3fdd5964	1.7292905
222	0xbee2ae01	-0.4427338
223	0xc0411663	-3.0169914
224	0xbf34ecf1	-0.70674044
225	0x3f3be2f5	0.73393184
226	0x3f18fd89	0.59761864
227	0x4036a687	2.853914
228	0x3fd497d3	1.6608833
229	0x3fb4de55	1.413035
230	0xc0090640	-2.1410065
231	0xc00aabd5	-2.1667378
232	0xc021619b	-2.5215824
233	0x3fcc2f25	1.5951887
234	0xbf4ccfea	-0.8000475
235	0x401ac6f8	2.418394
236	0xbf9758ee	-1.1824014
237	0xbfe76008	-1.8076181
238	0xc02e84d3	-2.726857
239	0xbec8af66	-0.39196318
240	0x3ef5e6e6	0.48027724
241	0xbf460a4c	-0.7735946
242	0xc0063683	-2.0970771
243	0x401b28b4	2.4243593
244	0x404bc4d1	3.1838877
245	0x3fea8dcb	1.8324522
246	0xbecbbe69	-0.3979371
247	0xbfbb4aec	-1.4632239
248	0xbe332b4c	-0.17496985
249	0xbfe58199	-1.7930175
250	0xbee2b2c5	-0.44277015
251	0xc02ff96e	-2.749599
252	0xbf233c4a	-0.6376387
253	0xbfc70474	-1.5548234
254	0xbeead462	-0.4586516
255	0xbf097ebb	-0.53709

gru.weight_ih_l0 f4 [768, 4]
0	0xbd72b84c	-0.05925779
1	0x3fb4fff3	1.414061
2	0x3e399f88	0.18127263
3	0xbf41986e	-0.75623214
4	0xbe8e5def	-0.2780604
5	0xbee9bc4a	-0.45651466
6	0xbe237884	-0.15963942
7	0x3e92769b	0.28606114
8	0xbacb0c5e	-0.0015491357
9	0x3d2fee67	0.042951968
10	0x3bf4e944	0.0074740965
11	0xbe1fb72f	-0.15597223
12	0x3f1a5893	0.60291404
13	0xbf2d986e	-0.67810714
14	0x3f6122bc	0.87943625
15	0x3ecd76bb	0.40129647
16	0x3f392907	0.7232823
17	0xbfdc5a27	-1.7215012
18	0x3f884104	1.0644841
19	0xbfaac98e	-1.334276
20	0xbd650ee4	-0.055922404
21	0x3fb51486	1.4146888
22	0x3f409979	0.7523418
23	0xbf96e55e	-1.1788747
24	0xbeffaabf	-0.49934956
25	0x3f0c9824	0.5491965
26	0xbd96b165	-0.07358054
27	0xbf07e331	-0.5308104
28	0xbf5016d9	-0.8128486
29	0xbee80b39	-0.45321062
30	0xbfb309f5	-1.3987414
31	0x3e0c02cd	0.13672943
32	0xbf00bb1f	-0.50285524
33	0x3e26ad26	0.16276988
34	0xbf90f84e	-1.1325777
35	0xbf1f3a9e	-0.6219882
36	0xbface65e	-1.3507802
37	0xbf0b7337	-0.5447268
38	0x3f81a439	1.0128242
39	0x3fd91dec	1.6962256
40	0xc0234950	-2.5513496
41	0xbea9bcab	-0.33151755
42	0xbf897f2a	-1.0741932
43	0xbf60a23f	-0.8774757
44	0x3e814a76	0.25252122
45	0xbf1f179a	-0.6214539
46	0x3e2d3083	0.16913037
47	0xbed148b2	-0.40875775
48	0xbd8b1b20	-0.06792283
49	0xbde792bc	-0.11307284
50	0xbd759bc6	-0.05996301
51	0x3dbf4467	0.093392186
52	0x3f05a9bc	0.5221212
53	0x3ed1a265	0.4094421
54	0xbe779cbf	-0.24180888
55	0xbc3dcb30	-0.011584088
56	0x3e1d3f91	0.1535628
57	0xbfb4ed19	-1.4134856
58	0xbf99ed89	-1.2025615
59	0xc0963a9e	-4.6946554
60	0x3e9aba0a	0.30220062
61	0xbd53723b	-0.05162261
62	0xbf3484e5	-0.7051528
63	0xbf37e74d	-0.7183731
64	0xbea60863	-0.32428274
65	0xbd83a061	-0.06427074
66	0xbf5bd8aa	-0.8587748
67	0x3f19081a	0.59777987
68	0x3eb8d421	0.36099342
69	0x3f6ab5fa	0.91683924
70	0xbe975409	-0.295563
71	0x3ead45c6	0.33842295
72	0xbf6b989b	-0.9202973
73	0x3f595cad	0.84907037
74	0xbec290de	-0.3800115
75	0xb963c532	-0.00021721868
76	0x3e0b7ea4	0.13622528
77	0x3f09b68a	0.5379416
78	0x3e113ad2	0.14182594
79	0x3da5894d	0.08082829
80	0xbf1a16e9	-0.6019121
81	0xbe67f011	-0.22650172
82	0x3dbffc66	0.09374313
83	0xbcf5331b	-0.029931596
84	0xbec1a814	-0.37823546
85	0xbf9251e8	-1.1431246
86	0x3fa4aaa1	1.2864572
87	0x3e53dc47	0.20689498
88	0x3fd1d3a0	1.6392708
89	0x3e045bf8	0.12925708
90	0xbf26b6f8	-0.6512294
91	0xbab9f1df	-0.0014186463
92	0x3f8f0e3e	1.1176221
93	0xbf86de75	-1.0536638
94	0xbf1b375c	-0.60631347
95	0x3f9c5906	1.2214668
96	0xbe197970	-0.14987731
97	0xbd766313	-0.06015308
98	0xbf0c109d	-0.5471285
99	0xbe70688a	-0.23477378
100	0xbf967c6c	-1.175672
101	0xbff15a83	-1.8855747
102	0x3e9c805e	0.30566686
103	0xbfb2f780	-1.3981781
104	0x3f29d0cb	0.6633422
105	0x3fea3708	1.8298044
106	0xbf968630	-1.1759701
107	0x3f9366b9	1.1515723
108	0xbc065323	-0.008198532
109	0xbe4501ac	-0.19238919
110	0xbd0a2d6c	-0.033734724
111	0x3d66969d	0.05629598
112	0x3f6e693f	0.9312934
113	0xbf089366	-0.5334991
114	0x3f04e39f	0.5190982
115	0x3ebd72da	0.37001687
116	0xbe7e8622	-0.24855855
117	0x3f33c6f4	0.70225453
118	0x3f895e39	1.073188
119	0x3f4d385e	0.80164135
120	0xbfdfbf00	-1.7480164
121	0xbf93c197	-1.1543454
122	0xbf112181	-0.5669175
123	0x3e7308db	0.23733847
124	0x3f879d5e	1.05949
125	0x3eb76534	0.358194
126	0x3f2c7977	0.6737284
127	0x3f00a81d	0.5025652
128	0x3e1bbb97	0.15208279
129	0x3f37fb84	0.7186816
130	0x3fe45ed1	1.7841436
131	0x3ff6e070	1.9287243
132	0xbd5bc634	-0.053655818
133	0xbd7db8fc	-0.061943993
134	0xbd5e3fcc	-0.05426006
135	0x3e37d96a	0.1795403
136	0x3eceaa27	0.4036419
137	0xbe73164e	-0.23738977
138	0x3f07004c	0.5273483
139	0x3f0ffbd0	0.5624361
140	0x3d5ff419	0.05467615
141	0x3f8bc6db	1.0920061
142	0x3ffb2503	1.962067
143	0xbf736fcc	-0.95092463
144	0x3ee2cf9e	0.44299024
145	0xbe8216e2	-0.25408083
146	0x3f0354b9	0.5130115
147	0x3d815b36	0.06316225
148	0xbe15dec8	-0.14635766
149	0x3e998866	0.29986876
150	0x3eac17d9	0.33611944
151	0x3ff59ecb	1.9189085
152	0xbf4a2324	-0.7895987
153	0xbf073032	-0.52807915
154	0xbe81745b	-0.25284085
155	0x3e909708	0.28240228
156	0x3e567009	0.20941176
157	0xbff49fc1	-1.9111253
158	0xbed05724	-0.40691483
159	0xc00103a7	-2.015848
160	0xbee1cf55	-0.44103494
161	0x3ee1c9b7	0.4409921
162	0x3dcaa2fc	0.09894368
163	0x3e8c43e2	0.2739554
164	0x3f501dcb	0.8129546
165	0x3e23204a	0.15930286
166	0x3fc5aefa	1.5444024
167	0xbf1d53e5	-0.6145614
168	0xbf1db288	-0.6160054
169	0xbf69e7f6	-0.9136957
170	0xbe934b71	-0.28768495
171	0xbe707bd3	-0.23484735
172	0x3eee3e2e	0.46531814
173	0x3ecf3d60	0.40476513
174	0xbf9dcaac	-1.2327476
175	0x3fc67f3f	1.5507582
176	0xbfb3380a	-1.4001477
177	0x3f608d96	0.87716043
178	0x40046bf8	2.06909
179	0xbddf51fb	-0.109043084
180	0xbfcc2e38	-1.5951605
181	0xbfa8e46a	-1.3194706
182	0xbf9f0983	-1.2424778
183	0x4011d6fc	2.2787466
184	0x3eb68247	0.3564627
185	0x3f2c57d0	0.6732149
186	0x4011350d	2.268863
187	0x4011c496	2.2776237
188	0x3ea4ebf0	0.32211256
189	0xbb98ae5e	-0.004659458
190	0xbf62853d	-0.88484555
191	0xbdf564f2	-0.119821444
192	0xbdaa4dcd	-0.083156206
193	0x3e40fad5	0.18845685
194	0x3f9b2bb2	1.212271
195	0xbe0134b3	-0.1261776
196	0x3f0d7352	0.5525409
197	0x3ea83a0c	0.32856786
198	0x3d6295c4	0.05531861
199	0xbe9b8d23	-0.30381116
200	0xbdb777fa	-0.089584306
201	0x3f301d7c	0.6879499
202	0xbf43bee1	-0.76463133
203	0xbf4eedc4	-0.8083155
204	0x3ed66c8b	0.41879687
205	0x3fc55a55	1.5418192
206	0x3ccfe693	0.025378501
207	0x3dd97457	0.10617893
208	0xbe83966b	-0.25700697
209	0x3f86b1c5	1.0523001
210	0x3f85c7ed	1.0451638
211	0x3f8d154f	1.1022128
212	0x3e86accf	0.26303717
213	0x3dd16b89	0.10225589
214	0xbdb6a0cd	-0.08917389
215	0x3f08fe42	0.53512967
216	0x3c584834	0.013200808
217	0x3e05fb83	0.13084225
218	0xbeaf865b	-0.34282193
219	0x3e694d62	0.22783425
220	0x3c55b2ac	0.013043087
221	0xbea4d87a	-0.3219641
222	0x3ed833f8	0.4222715
223	0x3fca2ab0	1.5794277
224	0x3e9b61af	0.30347964
225	0xbfbd7287	-1.4800576
226	0x3f361107	0.7111973
227	0x3f91aed2	1.1381476
228	0xbf453e9b	-0.77048653
229	0x3ed4c724	0.41558182
230	0x3ca13f83	0.019683605
231	0xbefecf75	-0.49767652
232	0x3e9b5ff9	0.3034666
233	0xbf093eff	-0.5361175
234	0x3d01434c	0.03155832
235	0x3fb0dab4	1.3816743
236	0xbda30f1d	-0.07961867
237	0x3ea553e7	0.32290575
238	0xbf52d787	-0.8236012
239	0x3f01ac47	0.506535
240	0x3fbc2a01	1.4700319
241	0xbec149d6	-0.37751645
242	0xbd49915c	-0.04921089
243	0x3fdd8351	1.73057
244	0xbed89364	-0.4229995
245	0x3e8e4da4	0.2779361
246	0x3f725b2b	0.9467036
247	0xbef8abf7	-0.485687
248	0x3d7dbb8c	0.061946437
249	0xbc93f88c	-0.018062852
250	0x3f37d89a	0.7181488
251	0xbe9b4586	-0.3032648
252	0xbe2b5c7b	-0.16734497
253	0xbcc42274	-0.02394221
254	0xbe7a9480	-0.24470711
255	0xbf15635d	-0.5835474

gru.weight_hh_l0 f4 [768, 256]
0	0x3eb03170	0.34412718
1	0xbc8aaa17	-0.016926808
2	0xbeaa6f06	-0.3328783
3	0x3db64e57	0.08901661
4	0xbf079f9b	-0.52977914
5	0xbe80f5dd	-0.2518758
6	0x3e6a4a6d	0.22879954
7	0x3ea0899e	0.31354994
8	0x3f4e335f	0.80547136
9	0xbf06d7e7	-0.5267319
10	0xbea1acf7	-0.31577274
11	0xbcb3f768	-0.021968558
12	0xbeed6a8b	-0.46370348
13	0xbec8da2b	-0.3922895
14	0xbe0c37d1	-0.13693167
15	0xbe2f0906	-0.17093286
16	0x3bf7446e	0.0075459993
17	0xbe2d4f73	-0.16924839
18	0x3f0a6e48	0.54074526
19	0x3da980ac	0.08276495
20	0x3de46fcb	0.11154135
21	0x3e195b1d	0.14976163
22	0xbd488c13	-0.04896171
23	0xbed3e7c0	-0.4138775
24	0xbf177e20	-0.59176826
25	0xbe4770ed	-0.19476672
26	0xbe102260	-0.14075613
27	0xbe9852c4	-0.29750645
28	0x3f5ad257	0.85477203
29	0xbe112f4d	-0.141782
30	0xbddba9f0	-0.107257724
31	0xbe823d92	-0.254376
32	0xbe0d75dc	-0.13814491
33	0xbf39b122	-0.7253591
34	0x3e766d2d	0.24065085
35	0x3f0a849f	0.54108614
36	0x3ee25e12	0.44212395
37	0x3f0fa9ea	0.56118643
38	0x3ecdcf32	0.4019714
39	0xbebf83ff	-0.37405393
40	0xbf9ea8ab	-1.2395223
41	0xbe82c4b9	-0.25540712
42	0xbf05cf40	-0.52269363
43	0xbd8476d4	-0.06467977
44	0xbee90bd5	-0.4551684
45	0x3df6f706	0.12058835
46	0xbe2055e0	-0.15657759
47	0x3e79f5d1	0.24410178
48	0xbd4f0e4f	-0.050550755
49	0x3e31743b	0.17329495
50	0xbec0df8f	-0.37670562
51	0xbe07b20e	-0.13251516
52	0x3dbfa5a5	0.09357766
53	0xbeb66539	-0.35624102
54	0xbef878c8	-0.4852965
55	0x3f0dbe9c	0.5536897
56	0xbf0b4335	-0.54399425
57	0xbcca807e	-0.024719473
58	0xbc49ca26	-0.012316262
59	0x3ec7d75e	0.390315
60	0x3e86c6a8	0.26323438
61	0x3d630dd8	0.055433124
62	0xbcc44160	-0.023956954
63	0xbea0e785	-0.31426635
64	0xbcd39af4	-0.025830723
65	0x3ec0e14b	0.37671885
66	0x3e82af12	0.25524193
67	0x3eccc8fd	0.39997092
68	0x3eeb327d	0.45936957
69	0xbea33f6e	-0.3188433
70	0xbc343a2e	-0.011000199
71	0xbf0b78b5	-0.5448106
72	0x3da6e2f6	0.08148758
73	0x3e212974	0.1573847
74	0xbe4e968a	-0.20174614
75	0x3e037722	0.12838414
76	0xbef56c7d	-0.47934332
77	0x3e9816fd	0.2970504
78	0xbe66bbef	-0.22532628
79	0xbe08294d	-0.13297005
80	0xbe3d2663	-0.18471675
81	0xbf20f949	-0.6288038
82	0xbd66360c	-0.056203887
83	0x3f7aacd4	0.97919965
84	0xbeb7d270	-0.3590274
85	0x3e4cae89	0.19988455
86	0x3dbdf938	0.0927605
87	0x3e60735f	0.2191901
88	0x3c54cd5c	0.012988415
89	0xbe874685	-0.2642099
90	0xbeab18b9	-0.334173
91	0x3dd8bb4b	0.10582598
92	0x3ed8185c	0.42206085
93	0xbe93c77b	-0.2886313
94	0x3ed01547	0.40641233
95	0x3f25f074	0.6482003
96	0xbdd3fc51	-0.1035086
97	0xbe0c64fc	-0.13710397
98	0x3e9b7234	0.30360568
99	0x3de80e9b	0.11330911
100	0xbe2c7cf8	-0.16844547
101	0xbe885f05	-0.26634994
102	0x3dc11796	0.09428327
103	0xbd75786f	-0.059929308
104	0xbeb21850	-0.34784174
105	0x3d9026dd	0.070386626
106	0x3e539054	0.20660526
107	0x3f432067	0.7622132
108	0x3eb96ba2	0.3621493
109	0x3d6b66af	0.057470974
110	0x3ef6f820	0.4823618
111	0x3d47d096	0.048782907
112	0xbe8aa049	-0.27075413
113	0xbf019fbb	-0.50634354
114	0x3f1c3ba3	0.610285
115	0x3ed6f912	0.419869
116	0x3e3185c8	0.1733619
117	0x3e4b4009	0.19848646
118	0x3d37d163	0.04487742
119	0x3dd17229	0.102268524
120	0xbe0b1d4f	-0.13585399
121	0xbc7e705b	-0.015529717
122	0xbe6b6233	-0.22986679
123	0xbeb10912	-0.34577233
124	0x3c17a6d6	0.009256085
125	0xbea002c9	-0.31252125
126	0xbe2124d0	-0.15736699
127	0x3ea480a4	0.32129395
128	0xbf02965f	-0.510107
129	0x3d343f01	0.044005398
130	0xbe41d14f	-0.18927501
131	0x3eaabb4f	0.3334603
132	0xbef05e1a	-0.46946794
133	0x3e8cc194	0.27491438
134	0x3e8be108	0.27320123
135	0xbfaf28ce	-1.3684328
136	0xbea9fac7	-0.3319914
137	0x3dd68c8b	0.10476025
138	0xbee1c8c8	-0.44098496
139	0x3e16ee8c	0.14739436
140	0xbea1e358	-0.31618762
141	0xbf083f7e	-0.5322188
142	0x3e9ea7e0	0.30987453
143	0x3bd33879	0.006445941
144	0x3f1a0e7f	0.6017837
145	0xbe0f992c	-0.14023274
146	0xbe91f1a7	-0.2850468
147	0x3e382692	0.17983463
148	0xbf0b911c	-0.54518294
149	0xbea800df	-0.32813165
150	0x3e93fb11	0.28902486
151	0x3ef0ee8b	0.47056994
152	0x3f0d05cd	0.55086976
153	0x3ebf0f69	0.37316445
154	0x3eb8ba57	0.36079666
155	0xbe85cd41	-0.2613316
156	0xbe27bfd3	-0.16381769
157	0xbe4fb990	-0.2028563
158	0x3d658fd4	0.05604537
159	0x3fc1d77b	1.5143884
160	0xbe07b9ff	-0.13254546
161	0xbd6414ba	-0.05568383
162	0x3db161b7	0.08661216
163	0xbf784b56	-0.96989954
164	0xbe5757c7	-0.21029578
165	0xbea8990d	-0.32929268
166	0x3d53c13f	0.051697966
167	0x3e71c852	0.23611572
168	0x3f01747a	0.50568354
169	0xbe9861ac	-0.29762018
170	0x3ebeb52e	0.37247604
171	0xbdf561b9	-0.1198153
172	0xbeceeafe	-0.4041366
173	0x3ce6d9dd	0.028180057
174	0xbec18ad2	-0.37801224
175	0xbdd056d2	-0.1017281
176	0x3db66f73	0.08907976
177	0xbecf8893	-0.40533885
178	0xbe0e4ee3	-0.1389728
179	0xbd6b1b2d	-0.057398964
180	0x3e96f609	0.29484585
181	0x3ec7110f	0.38880202
182	0xbe1b2a92	-0.15152958
183	0xbe87908e	-0.26477474
184	0xbd5bfbd1	-0.053706948
185	0xbdd3fece	-0.103513345
186	0xbe224b50	-0.15849042
187	0x3d2f4b52	0.04279644
188	0x3e17e5bd	0.14833732
189	0x3eba50ec	0.36389863
190	0xbf45cbcc	-0.77264094
191	0xbe44a645	-0.19204052
192	0xbf3e4256	-0.7431997
193	0xbe22fa24	-0.15915734
194	0xbccaa258	-0.024735615
195	0xbf0f0721	-0.5587025
196	0xbe9779d0	-0.29585123
197	0x3eed07c3	0.46294984
198	0x3e69d5f7	0.22835527
199	0xbecd1386	-0.40053958
200	0x3edac5a1	0.42728904
201	0xbf02fe8a	-0.51169646
202	0x3e6dc096	0.23217997
203	0xbe2bf4b9	-0.16792573
204	0x3eb85cc6	0.3600828
205	0xbeaef88f	-0.3417401
206	0xbf023fd9	-0.50878674
207	0xbf4133e6	-0.75469816
208	0xbec6d963	-0.38837728
209	0x3e7e74a1	0.24849178
210	0x3ea6720f	0.32508895
211	0x3d59f2a5	0.05320992
212	0xbdf9d9db	-0.12199756
213	0x3d97e1d6	0.07416122
214	0xbd950909	-0.07277114
215	0x3e952c7e	0.29135507
216	0x3d4de823	0.05027021
217	0x3e30cb7d	0.17265125
218	0xbe0a3b6f	-0.13499235
219	0xbdc34cf9	-0.09536166
220	0xbeec8bf2	-0.4620052
221	0x3e0b853e	0.13625047
222	0x3f230aac	0.6368816
223	0x3d797b63	0.060908686
224	0xbeaa7fc2	-0.33300596
225	0x3e28aae6	0.16471443
226	0x3e05a42f	0.13050912
227	0xbe9b30a6	-0.30310553
228	0x3e6cd358	0.23127496
229	0xbf225286	-0.6340717
230	0xbe526c70	-0.20549178
231	0xbee9e560	-0.45682812
232	0x3f0198a3	0.5062353
233	0x3ef7b415	0.4837958
234	0x3f6e6839	0.9312778
235	0xbe6d2757	-0.23159538
236	0x3f1e7ec6	0.6191219
237	0x3f36cecd	0.714093
238	0xbe888750	-0.26665735
239	0x3e1221d5	0.14270718
240	0x3e429cb3	0.19005089
241	0xbdb2e5cd	-0.08735237
242	0xbe2e2b74	-0.17008764
243	0xbe72f3ed	-0.23725863
244	0xbd2b3499	-0.041798208
245	0x3d720352	0.059085198
246	0x3dce75b8	0.10081047
247	0x3f09c90e	0.5382241
248	0xbdfa3518	-0.12217158
249	0x3ec051fd	0.37562552
250	0xbc15bb5d	-0.009138909
251	0x3ecb85f8	0.39750648
252	0x3da3890f	0.07985126
253	0xbe94695b	-0.2898663
254	0xbdfe10ac	-0.12405524
255	0x3f12ba1e	0.5731524

gru.bias_ih_l0 f4 [768]
0	0xbec879ef	-0.39155528
1	0x3e0fe682	0.14052776
2	0xbf0b8590	-0.54500675
3	0x3e8062d1	0.2507539
4	0x3d104f11	0.035231654
5	0xbda2ec14	-0.079551846
6	0x3f5b7473	0.8572456
7	0xbd8c547f	-0.06852054
8	0xbec17fcb	-0.3779281
9	0xbe0c95b1	-0.13728978
10	0x3df2c680	0.11854267
11	0x3e130627	0.14357816
12	0xbea3b0ae	-0.31970733
13	0xbd567049	-0.052353177
14	0xbe4d1b83	-0.20030026
15	0xbeb475f6	-0.35246247
16	0xbe123bea	-0.14280668
17	0xbe4bfb1f	-0.19920014
18	0x3ea0462d	0.3130354
19	0xbe819e61	-0.25316146
20	0xbeb068c9	-0.34454945
21	0xbd73d5ce	-0.059530072
22	0x3e122e47	0.14275466
23	0xbe2c7029	-0.1683966
24	0x3dea5c2a	0.1144336
25	0xbeae45d1	-0.3403764
26	0xbe91a9f0	-0.28449965
27	0xbddf867e	-0.10914324
28	0xbe1299aa	-0.1431643
29	0xbe28ef50	-0.1649754
30	0xbe535f9e	-0.20641944
31	0xbd3ae463	-0.045627963
32	0x3d8a83c8	0.067634165
33	0xbda232ea	-0.07919867
34	0xbf40640b	-0.75152653
35	0xbf295052	-0.66138184
36	0xbefa31c2	-0.48866087
37	0xbe1fc78e	-0.15603468
38	0xbe52e439	-0.20594873
39	0xbe06d505	-0.13167198
40	0x3e0c30d5	0.13690503
41	0xbe90eaf5	-0.28304258
42	0xbde470e6	-0.11154346
43	0x3d7083cc	0.05871944
44	0xbd5c11a2	-0.053727753
45	0xbcc201b6	-0.023682456
46	0xbdcc1bed	-0.09966264
47	0xbca13405	-0.019678125
48	0xbd480039	-0.048828337
49	0xbe73f7a8	-0.23824942
50	0xbea41a1d	-0.32051173
51	0xbe8d4c9e	-0.27597517
52	0xbe9a2dc5	-0.30113044
53	0xbe3c8aca	-0.18412319
54	0xbdbae233	-0.09125175
55	0xbec802d2	-0.39064652
56	0x3add08c0	0.001686357
57	0x3dc8be1b	0.09801885
58	0xbe89da17	-0.26924202
59	0xbe758374	-0.23975927
60	0xbf1f2339	-0.6216312
61	0xbefae536	-0.49003
62	0xbeabea56	-0.33577222
63	0xbe6dead0	-0.23234105
64	0xbf5c0684	-0.8594744
65	0xbe6c8bac	-0.23100156
66	0xbe834529	-0.25638703
67	0xbe57e4d8	-0.2108339
68	0x3cfb2895	0.030659
69	0xbdf6ddd7	-0.12054031
70	0x3dcd79fc	0.10033032
71	0x3cd5d8de	0.026104387
72	0xbf200828	-0.62512445
73	0xbeb1901c	-0.3468026
74	0xbeeed2b2	-0.46645123
75	0xbe00b22a	-0.12567964
76	0xbde1c629	-0.11024124
77	0xbe64b791	-0.2233565
78	0xbea9a1cd	-0.33131257
79	0xbe9ca65e	-0.30595678
80	0x3fcef903	1.6169742
81	0xbea6681a	-0.32501298
82	0xbf0f3809	-0.5594488
83	0x3ed7313c	0.4202975
84	0xbe54ed37	-0.20793615
85	0xbf4b4a25	-0.7941001
86	0xbdb7392a	-0.0894645
87	0x3f2c48f6	0.6729883
88	0xbe72157b	-0.23641007
89	0xbe8edfac	-0.27905023
90	0xbf04bf91	-0.5185481
91	0x3f0a1ce9	0.53950363
92	0xbede27f7	-0.43389866
93	0xbec068ac	-0.37579858
94	0xbdb10db2	-0.0864519
95	0xbdeee808	-0.1166535
96	0xbec42a30	-0.38313437
97	0x3dfbe9c6	0.12300448
98	0xbef2366b	-0.47307143
99	0xbe80a27f	-0.25123975
100	0xbe94db1d	-0.2907342
101	0xbe1ccc1a	-0.15312234
102	0xbcc81462	-0.024423782
103	0x3ec56e64	0.38560784
104	0x3d3d4672	0.04620976
105	0xbf25a679	-0.6470714
106	0xbe6ac832	-0.22927931
107	0xbd8c2cb0	-0.06844461
108	0x3eb1bf1e	0.34716123
109	0x3e7a65bc	0.24452871
110	0xbec337db	-0.38128552
111	0xbf3257f8	-0.6966548
112	0x3cfcdc69	0.030866819
113	0xbef43218	-0.47694468
114	0xbec35ebc	-0.38158214
115	0xbec6ae35	-0.38804784
116	0xbecd7d2d	-0.40134564
117	0x3c4f3ef0	0.012649283
118	0xbe9989b3	-0.2998787
119	0x3ea04a3c	0.31306636
120	0x3f4c2231	0.7973967
121	0xbedb6e61	-0.4285765
122	0xbdf0e6db	-0.11762782
123	0xbd3dc181	-0.046327118
124	0x3fd9ec15	1.7025172
125	0x3dc51170	0.096224666
126	0x3ef74f53	0.48302707
127	0x3d9d6fa0	0.076873064
128	0x3c44cbcd	0.0120114805
129	0xbe6f1727	-0.23348676
130	0xbf4bc373	-0.79595107
131	0xbeb26b6f	-0.3484759
132	0xbeb1838a	-0.3467067
133	0xbda2d402	-0.079505935
134	0x3e75ae57	0.23992287
135	0xbe23ea86	-0.16007432
136	0xbe62eb69	-0.22160114
137	0xbf093a4e	-0.5360459
138	0xbeca9f47	-0.39574644
139	0x3e2c4f0b	0.16827027
140	0xbe7dce94	-0.24785835
141	0x3d0982d1	0.033572022
142	0xbe821306	-0.2540514
143	0xbe3eb00b	-0.18621843
144	0xbe7f6bf7	-0.24943529
145	0x3df9967f	0.12186908
146	0x3ec201f2	0.3789211
147	0x3f59ef88	0.8513112
148	0xbe72605b	-0.23669569
149	0xbe9d7236	-0.307512
150	0x3d270960	0.040780425
151	0xbd8d4ee4	-0.06899813
152	0xbe5b33d2	-0.21406487
153	0xbe991efd	-0.29906455
154	0xbe8235e3	-0.25431737
155	0xbdb3503c	-0.08755538
156	0x3d68b69c	0.056814775
157	0x3f0cf1b6	0.5505632
158	0xbea1a522	-0.315713
159	0xbee7256b	-0.45145735
160	0x3e26cca3	0.16289
161	0xbe992073	-0.2990757
162	0xbdb2b6ec	-0.08726296
163	0xbeb4dd8b	-0.35325274
164	0xbf20a1d7	-0.6274695
165	0xbe6bc0b9	-0.23022737
166	0xbe38e0db	-0.18054526
167	0xbe9f7047	-0.31140348
168	0xbf05cef4	-0.5226891
169	0x3eaa5302	0.33266455
170	0xbe91225a	-0.2834652
171	0x3f020072	0.5078193
172	0xbe895517	-0.2682273
173	0xbe3a8cba	-0.18217745
174	0xbda530ac	-0.08065924
175	0xbee50dd5	-0.44737116
176	0x3eb4e2a1	0.35329154
177	0xbe231b48	-0.15928376
178	0x3de4d4ed	0.11173425
179	0x3dd42436	0.10358469
180	0x3d7d23f0	0.06180185
181	0x3f20f086	0.6286701
182	0xbedfe326	-0.43727988
183	0xbdccc65d	-0.09998772
184	0xbed8a445	-0.42312828
185	0x3e06cbda	0.131637
186	0xbeed1ebd	-0.46312514
187	0xbdfe7de4	-0.124263555
188	0x3e92bbf5	0.28659025
189	0x3f213784	0.62975335
190	0x3d307b95	0.043086607
191	0xbec47902	-0.38373572
192	0x3bfb3e51	0.007667341
193	0x3e61dbe7	0.22056542
194	0x3f03d581	0.51497656
195	0xbef05154	-0.46937048
196	0xbd6bc736	-0.05756303
197	0x3dc5f003	0.09664919
198	0x3f8b51a2	1.0884287
199	0xbf13dfb9	-0.5776325
200	0xbf3cc201	-0.73733526
201	0x3f7a30fd	0.97731
202	0xbec62935	-0.38703313
203	0xbeaa0c48	-0.33212495
204	0xbf0de918	-0.554338
205	0xbd070745	-0.032965917
206	0x3e7456d6	0.2386125
207	0x3c9b54f0	0.0189614
208	0xbf1bb71d	-0.60826284
209	0xbedd8a8f	-0.43269774
210	0xbf197e4c	-0.5995834
211	0xbeae8edf	-0.34093377
212	0xbf0fe468	-0.56207895
213	0xbd87995b	-0.06621047
214	0xbebdc90f	-0.37067458
215	0x3ea261ad	0.31715146
216	0xbe4dcf75	-0.2009867
217	0x3da9d25b	0.08292075
218	0xbe2af0f8	-0.16693485
219	0x3eb5a2ec	0.35475862
220	0xbe466fa5	-0.19378527
221	0xbe27bdcb	-0.16380994
222	0xbf24fd98	-0.64449453
223	0xbdb9a1bc	-0.090640515
224	0xbed90e16	-0.4239356
225	0xbe0e0e2b	-0.13872592
226	0x3e914904	0.2837602
227	0xbf025941	-0.5091744
228	0x3f52c4af	0.82331365
229	0xbe395115	-0.18097337
230	0xbd816666	-0.06318359
231	0xbe732ab1	-0.23746754
232	0x3e9846d1	0.2974153
233	0xbefd06d7	-0.4941928
234	0x3ee9af53	0.45641574
235	0x3bc344b1	0.0059591164
236	0xbec329b9	-0.3811777
237	0xbe950689	-0.29106548
238	0xbf125626	-0.571627
239	0x3e806866	0.2507965
240	0xbf1b93ee	-0.607726
241	0x3e445892	0.19174412
242	0x3e1459e2	0.14487413
243	0xbdeea050	-0.11651671
244	0xbee54464	-0.4477874
245	0x3d43521b	0.047685724
246	0x3f894f66	1.0727355
247	0xbea47b32	-0.3212524
248	0xbd1b5194	-0.037919596
249	0x3e872951	0.2639871
250	0x3cedccb6	0.029028278
251	0xbe064952	-0.13113907
252	0x3b249fdc	0.0025119698
253	0xbf1211ce	-0.5705842
254	0xbf0013f0	-0.5003042
255	0x3a66c57a	0.000880323

gru.bias_hh_l0 f4 [768]
0	0xbef390d2	-0.47571427
1	0x3dd5d406	0.10440831
2	0xbeee7f6a	-0.46581584
3	0x3e5547f0	0.20828223
4	0xbbb92021	-0.005649582
5	0xbd97db8a	-0.07414921
6	0x3f4cabb0	0.79949474
7	0xbdf9cd40	-0.121973515
8	0xbecb4449	-0.39700535
9	0xbe262d8b	-0.16228311
10	0x3dbb281f	0.09138512
11	0x3d619bbb	0.055080157
12	0xbe8912d0	-0.26772165
13	0xbcf5e789	-0.030017631
14	0xbe62b2b8	-0.22138488
15	0xbe8f8f3f	-0.28038976
16	0xbe117181	-0.14203455
17	0xbe96850d	-0.29398385
18	0x3e8dea0e	0.27717632
19	0xbe87252e	-0.26395553
20	0xbeab32b8	-0.33437133
21	0xbc390598	-0.011292838
22	0x3d985212	0.07437529
23	0xbe235984	-0.15952116
24	0x3e02dce4	0.12779576
25	0xbeccd8dd	-0.40009204
26	0xbe47f783	-0.19528012
27	0xbdd1fa6f	-0.102528445
28	0xbe3a3e05	-0.18187721
29	0xbe6535fb	-0.22383873
30	0xbe372e49	-0.1788875
31	0xbb007920	-0.0019603446
32	0xbd07e275	-0.03317495
33	0xbb9e48e9	-0.004830469
34	0xbf3846f1	-0.7198325
35	0xbf3a8433	-0.7285797
36	0xbefdbd03	-0.49558267
37	0xbe2165d9	-0.15761508
38	0xbe6cf879	-0.2314166
39	0xbe207a97	-0.15671764
40	0x3dc6c643	0.09705784
41	0xbe97d410	-0.29653978
42	0xbe0e88ac	-0.13919324
43	0x3d9fe6df	0.07807707
44	0xbdb92773	-0.090407275
45	0xbdfcac81	-0.1233759
46	0xbe01e85b	-0.12686293
47	0xbcad41ee	-0.021149602
48	0xbba39621	-0.004992262
49	0xbe49f6ab	-0.19723003
50	0xbeafde2c	-0.3434919
51	0xbeb62c61	-0.35580733
52	0xbeaea0b5	-0.34106985
53	0xbe8306ba	-0.2559107
54	0xbe2f766e	-0.17135021
55	0xbeec848d	-0.46194878
56	0xbd363ba0	-0.044490457
57	0x3d900d90	0.07033837
58	0xbe336db1	-0.17522313
59	0xbe999978	-0.299999
60	0xbf1d9dc6	-0.6156887
61	0xbefa1a17	-0.4884803
62	0xbe9ee5f6	-0.3103482
63	0xbe1cf0d1	-0.15326239
64	0xbf52fc06	-0.8241581
65	0xbdfdaa79	-0.12386031
66	0xbeaf6afb	-0.34261307
67	0xbe4811bb	-0.19538014
68	0x3d5f6cff	0.054547306
69	0xbe2b0c49	-0.16703905
70	0x3d91e65a	0.07124014
71	0x3c68932c	0.014195245
72	0xbf308757	-0.6895651
73	0xbeb7b7fb	-0.35882553
74	0xbec73208	-0.38905358
75	0xbe089084	-0.13336378
76	0xbd1e2d0f	-0.03861719
77	0xbe92c1f1	-0.2866359
78	0xbea8ca11	-0.32966664
79	0xbe9e76c9	-0.3095
80	0x3fdc1640	1.719429
81	0xbeae001d	-0.3398446
82	0xbf2356d7	-0.6380438
83	0x3ebbd6d1	0.3668733
84	0xbe0a7d27	-0.13524304
85	0xbf5b6f89	-0.85717064
86	0xbd2bec73	-0.041973542
87	0x3f225af1	0.63420016
88	0xbe891277	-0.267719
89	0xbe7ac5a2	-0.24489453
90	0xbf1e4a99	-0.61832577
91	0x3f192814	0.5982678
92	0xbef44694	-0.47710097
93	0xbe9a9a48	-0.30195832
94	0xbce770ed	-0.02825209
95	0xbddaa76d	-0.10676465
96	0xbeb0ce45	-0.3453237
97	0x3de48a72	0.11159219
98	0xbec9841a	-0.39358598
99	0xbeb57c28	-0.35446286
100	0xbeb44859	-0.35211447
101	0xbe3c1be8	-0.1837002
102	0xbca5d36d	-0.020242417
103	0x3ea76b27	0.32698938
104	0x3da7f533	0.08201065
105	0xbf16acf2	-0.58857644
106	0xbe4aba9a	-0.19797745
107	0xbd9402fd	-0.072271325
108	0x3eaf85b0	0.34281683
109	0x3e2c191a	0.1680645
110	0xbec5deb9	-0.38646486
111	0xbf2c1381	-0.6721726
112	0xbb32ee35	-0.0027302627
113	0xbeea2c2f	-0.45736834
114	0xbeca4726	-0.39507407
115	0xbecb99a1	-0.39765647
116	0xbec65820	-0.3873911
117	0x3dd51adf	0.10405516
118	0xbe83b2f6	-0.25722474
119	0x3e860beb	0.26180968
120	0x3f3932a3	0.7234289
121	0xbeeea75b	-0.46612057
122	0xbe636b43	-0.22208886
123	0xbdb836df	-0.08994841
124	0x3fdb0df0	1.7113628
125	0x3d7b49a1	0.061349515
126	0x3ee24d4a	0.44199592
127	0x3dd6720d	0.10470972
128	0x3c34f463	0.011044594
129	0xbe7905f9	-0.24318685
130	0xbf502da7	-0.8131966
131	0xbebae00d	-0.36499062
132	0xbec4f0d1	-0.38464978
133	0xbd90c7bd	-0.07069347
134	0x3e106df7	0.14104448
135	0xbd81fab9	-0.0634665
136	0xbe55c127	-0.20874463
137	0xbee9a01a	-0.4562996
138	0xbeb799ae	-0.35859436
139	0x3e1aea60	0.1512847
140	0xbe313900	-0.173069
141	0xbd1a778a	-0.037711658
142	0xbe6e80cd	-0.23291321
143	0xbe4c590d	-0.19955845
144	0xbe64e63a	-0.2235345
145	0x3dfda865	0.12385634
146	0x3ef446af	0.47710177
147	0x3f582c31	0.8444243
148	0xbe33f071	-0.1757219
149	0xbe70c152	-0.23511246
150	0x3cdbd0c3	0.026832944
151	0xbc5f2414	-0.013619442
152	0xbe92a134	-0.28638613
153	0xbe4c5ab4	-0.19956475
154	0xbe969f3d	-0.29418364
155	0xbd33572e	-0.043784313
156	0x3d638ee3	0.05555619
157	0x3f169cbf	0.58832926
158	0xbebe7d22	-0.37204844
159	0xbefdc916	-0.4956748
160	0x3e1ccceb	0.15312545
161	0xbe91dcb8	-0.28488708
162	0xbdf85a80	-0.121266365
163	0xbecbfbed	-0.39840642
164	0xbf1b86f2	-0.60752785
165	0xbe349f5a	-0.17638913
166	0xbda613bc	-0.08109233
167	0xbeb22f32	-0.34801632
168	0xbefe5530	-0.49674368
169	0x3ebc74ca	0.36807853
170	0xbeb3b738	-0.35100722
171	0x3f035eca	0.5131651
172	0xbe9a77b4	-0.3016945
173	0xbe9966dc	-0.29961288
174	0xbd88df49	-0.06683213
175	0xbef61bbb	-0.48068032
176	0x3eb1674f	0.3464913
177	0xbdd970f0	-0.10617244
178	0x3d80d30b	0.06290253
179	0x3e0ff4ac	0.14058179
180	0x3d552eb2	0.052046485
181	0x3f2139d2	0.6297885
182	0xbede802f	-0.4345717
183	0xbcf330f7	-0.029686434
184	0xbed19432	-0.40933377
185	0x3e3a87b2	0.18215826
186	0xbf01cf03	-0.507065
187	0xbd828347	-0.063726954
188	0x3e807d13	0.25095424
189	0x3f16e376	0.5894083
190	0x3da6232d	0.08112178
191	0xbedc155e	-0.42985052
192	0x3da17bb5	0.07884923
193	0x3e4e832a	0.20167223
194	0x3ef7f471	0.48428681
195	0xbee25a39	-0.4420946
196	0xbd9748e7	-0.07386952
197	0x3d9f9a2f	0.0779308
198	0x3f8cb33f	1.0992202
199	0xbf1deb0a	-0.61686766
200	0xbf39c9f7	-0.725738
201	0x3f7bb0ff	0.9831695
202	0xbef2af4a	-0.4739936
203	0xbea3e8ae	-0.32013458
204	0xbf0b63ef	-0.5444936
205	0x3d19570c	0.03743653
206	0x3e86e182	0.26343924
207	0x3d28603d	0.041107405
208	0xbf12e264	-0.57376695
209	0xbee059a8	-0.43818402
210	0xbf077237	-0.52908653
211	0xbea88102	-0.32910925
212	0xbf1680d6	-0.5879034
213	0xbc4b961c	-0.012425926
214	0xbea32df2	-0.3187099
215	0x3e85e1f4	0.2614895
216	0xbe7ed505	-0.24885948
217	0x3e0dbf9e	0.13842627
218	0xbe2a60c4	-0.16638476
219	0x3ecfb862	0.4057036
220	0xbe294e15	-0.16533692
221	0xbe240a54	-0.16019565
222	0xbf2cfc7f	-0.6757278
223	0xbddaea4d	-0.106892206
224	0xbede9e6c	-0.4348024
225	0xbe5c36fc	-0.2150535
226	0x3e9325b3	0.287397
227	0xbf086a86	-0.5328754
228	0x3f3b10d8	0.73072577
229	0xbe752f6c	-0.23943871
230	0xbd5404ed	-0.05176251
231	0xbe82bafe	-0.2553329
232	0x3eb5596f	0.35419795
233	0xbed04df7	-0.40684482
234	0x3ef209a0	0.47272968
235	0x3d7691ff	0.060197826
236	0xbed419db	-0.41425976
237	0xbe9af50f	-0.3026509
238	0xbf1a6f90	-0.6032648
239	0x3e38baa2	0.18039945
240	0xbf0ed23f	-0.5578956
241	0x3e8d8115	0.27637544
242	0x3e3d05b0	0.18459201
243	0xbdf0461b	-0.117321216
244	0xbef29dc0	-0.4738598
245	0xbd03114e	-0.031998925
246	0x3f8ae14f	1.0850009
247	0xbec1f7ff	-0.37884519
248	0xbd42b5a7	-0.04753652
249	0x3e772272	0.24134234
250	0x3d900a73	0.07033243
251	0xbe3b7fb7	-0.18310438
252	0xbd516907	-0.051125553
253	0xbf10af6d	-0.5651768
254	0xbee57217	-0.44813606
255	0xbd640e74	-0.055677846

decoder.weight f4 [128, 256]
0	0xbcb09fde	-0.021560606
1	0xbdafbfbc	-0.08581492
2	0xbdb22fb1	-0.08700503
3	0x3df697b3	0.12040653
4	0xbdbfb1d2	-0.093600884
5	0x3c78f910	0.0151961
6	0xbf8f94f3	-1.1217331
7	0x3dc7911e	0.09744476
8	0xbcf0a4ea	-0.029375512
9	0xbe2aabca	-0.16667095
10	0xbc81bb2a	-0.015836317
11	0x3d0b9a48	0.03408268
12	0x3d3d2834	0.04618092
13	0x3c7ce208	0.015434749
14	0x3e2c83a9	0.168471
15	0xbe04bcff	-0.12962721
16	0x3dbe0801	0.092788704
17	0x3e0a4a65	0.13504942
18	0xbcb5e796	-0.022205155
19	0xbcb15bcf	-0.021650223
20	0xbd435c7e	-0.04769563
21	0xbdd79ae8	-0.10527593
22	0x3d8982ca	0.06714399
23	0xbe164eb4	-0.1467846
24	0x3c1cf036	0.009578755
25	0x3e55c679	0.20876493
26	0xbde99806	-0.11405949
27	0x3ed7a4c6	0.421179
28	0x3bd24df7	0.0064179855
29	0xbce0c932	-0.027439687
30	0xbd9e4178	-0.07727331
31	0x3d8fb157	0.07016247
32	0xbda16ce7	-0.078820996
33	0xbe258a15	-0.16165955
34	0x3e513b74	0.20432836
35	0x3d03f214	0.032213286
36	0xbc85b820	-0.01632315
37	0xbddd0d0b	-0.107935034
38	0xbd49510b	-0.049149554
39	0xbdd70f2a	-0.10500939
40	0x3b9400b8	0.0045166872
41	0xbd4bf08e	-0.049789958
42	0x393192aa	0.00016934672
43	0xbda86309	-0.082220145
44	0xbdd625dc	-0.1045644
45	0xbd6d2d56	-0.057904564
46	0x3db6186d	0.088913776
47	0x3d5b9f8c	0.053618953
48	0x3d376193	0.04477079
49	0xbd31d26f	-0.043413576
50	0xbe71a941	-0.23599721
51	0xbc2ef6fc	-0.010679003
52	0x3c388723	0.011262688
53	0x3d0a501e	0.033767812
54	0xbd594ae4	-0.053049937
55	0x3d848bb5	0.064719595
56	0xbcc5539f	-0.024087725
57	0x3d9412ee	0.07230173
58	0xbdc95835	-0.09831277
59	0xbdd28b59	-0.10280485
60	0xbe6fc4fc	-0.23414987
61	0xbd64f6af	-0.05589932
62	0xbce0b9dd	-0.027432377
63	0x3da132db	0.07871028
64	0xbe1afce1	-0.15135528
65	0x3d4619fa	0.048364617
66	0x3d9407d4	0.072280556
67	0x3c4f5f5e	0.012657015
68	0xbd80cffd	-0.062896706
69	0x3d8a4598	0.06751555
70	0x3cd1e386	0.025621187
71	0xbd0e23e2	-0.03470219
72	0xbd8ab7f3	-0.06773367
73	0xbd868a65	-0.065693654
74	0xbcd6a2bd	-0.026200647
75	0xbdda1561	-0.10648609
76	0x3d1ec855	0.03876527
77	0x3e13d252	0.144357
78	0xbe089e2e	-0.13341591
79	0xbd95806a	-0.07299884
80	0x3dcd5716	0.10026376
81	0x3d25756c	0.040395185
82	0xbe60353c	-0.21895307
83	0xbea45204	-0.32093823
84	0xbda498fc	-0.08036992
85	0xbdff8d35	-0.12478105
86	0x3c491060	0.0122719705
87	0xbe6789bb	-0.22611134
88	0x3e55e6e2	0.20888856
89	0x3e1ef0ba	0.15521517
90	0xbcf7ddda	-0.030257154
91	0xbf997048	-1.198739
92	0x3d05608b	0.032562774
93	0x3e25b86a	0.1618363
94	0x3ce7c69d	0.028292948
95	0xbbce1718	-0.006289374
96	0x3db2b4e9	0.08725912
97	0xbe4e3d01	-0.20140459
98	0x3df15bcc	0.11785087
99	0x3db35e21	0.08758188
100	0xbda0c196	-0.078494236
101	0xbdb46175	-0.08807651
102	0xbc324592	-0.010880845
103	0x3f3bf41e	0.7341937
104	0xbc52f9be	-0.012876926
105	0xbd0047a7	-0.031318333
106	0xbe69ee68	-0.22844851
107	0x3d6763d7	0.0564917
108	0xbd9a10b7	-0.07522719
109	0xbda66b67	-0.08125954
110	0xbce2ea34	-0.027699567
111	0xbde1c40e	-0.110237226
112	0xbed8fbce	-0.42379612
113	0x3db21d13	0.08696952
114	0xbbcdc89d	-0.0062800185
115	0xbe09dd3f	-0.13463305
116	0x3d628095	0.055298407
117	0xbd57439f	-0.052554723
118	0x3d73cdff	0.059522625
119	0x3e216a73	0.15763263
120	0xbcc0b4bb	-0.023523679
121	0xbc9272ab	-0.017876944
122	0x3b381f55	0.0028094847
123	0xbd7e1456	-0.062031113
124	0x3dbbedf3	0.091762446
125	0xbcb98c4a	-0.022649903
126	0x3cd2c485	0.025728473
127	0xbe3a9005	-0.18219002
128	0xbd8a3a50	-0.067494035
129	0x3ebacd10	0.36484575
130	0x3e4f7f64	0.2026344
131	0x3bdbaedb	0.006704194
132	0x3eac41e4	0.3364402
133	0xbc1c847e	-0.009553073
134	0x3ce87ac1	0.028378846
135	0x3e22c275	0.15894492
136	0xbccf69f1	-0.025319071
137	0xbd5590e6	-0.05214014
138	0xbdc083e3	-0.094001554
139	0x3c110b4a	0.008852789
140	0xbe829ba1	-0.2550936
141	0x3d89b454	0.06723848
142	0x3d582953	0.052773785
143	0x3e375479	0.17903318
144	0x3de25b92	0.11052622
145	0x3c7dc13e	0.015487967
146	0xbd4c6631	-0.049902145
147	0xbf8f1b9b	-1.11803
148	0x3e0d55ab	0.13802211
149	0xbd9e2c0d	-0.07723246
150	0x3e64f687	0.22359668
151	0x3dd599f1	0.104297526
152	0xbe2a7926	-0.16647777
153	0x3b0792a1	0.0020686763
154	0x3d08c3f6	0.033390008
155	0xbd7e97a6	-0.062156342
156	0xbd7c2523	-0.061558854
157	0x3dc767f4	0.09736624
158	0xbe447549	-0.19185366
159	0xbda26cc8	-0.079309046
160	0xbdea891e	-0.11451934
161	0x3e09d1f4	0.13458997
162	0x3c25312d	0.010082525
163	0xbd52eb95	-0.0514942
164	0xbd1403b3	-0.03613634
165	0x3bcdaf49	0.006276999
166	0x3de987df	0.114028685
167	0xbb665775	-0.0035147343
168	0xbd22a2a7	-0.0397059
169	0x3d53e460	0.051731467
170	0x3e21e5a5	0.15810259
171	0xbd2c2ef2	-0.042036958
172	0xbe0a6958	-0.13516748
173	0xbd3057c8	-0.043052465
174	0xbd398b1b	-0.045298677
175	0x3b79d451	0.0038120935
176	0x3e328e2f	0.17437051
177	0x3a7c5025	0.00096249796
178	0x3de5e9a3	0.11226203
179	0xbdb80b0f	-0.08986484
180	0xbe0c0cca	-0.13676754
181	0x3d9bd09b	0.07608148
182	0xbcdcb5a7	-0.026942087
183	0x3df0f34d	0.11765156
184	0x3cfbe8d8	0.030750677
185	0xbda200d6	-0.07910316
186	0x3de57685	0.112042464
187	0xbd323c7b	-0.04351471
188	0x3cec8c74	0.028875567
189	0x3d556b4e	0.052104287
190	0x3c7e41db	0.015518631
191	0x3e6f4ea3	0.23369841
192	0xbd3fcea6	-0.046827935
193	0xbd531285	-0.051531333
194	0xbdc5aaa3	-0.09651687
195	0xbdf2fdc7	-0.118648104
196	0xbc80e7f9	-0.015735613
197	0xbd2448eb	-0.040108602
198	0x3f47b1e5	0.7800582
199	0x3d51602b	0.051117104
200	0xbe699617	-0.22811161
201	0x3d654bd0	0.055980504
202	0xbde6e949	-0.11274964
203	0xbe8ea0a9	-0.2785695
204	0xbeb79648	-0.35856843
205	0x3d1ecf87	0.038772132
206	0xbd6464b2	-0.055760093
207	0x3df4bead	0.11950431
208	0x3f0013aa	0.50030005
209	0x3e59bb68	0.21262896
210	0xbdedf5f7	-0.1161918
211	0x3d7ae77e	0.061255924
212	0x3e2686b3	0.16262321
213	0xbda75534	-0.08170548
214	0xbe3e0f13	-0.18560438
215	0x3dd890c6	0.10574488
216	0x3eca926f	0.39564845
217	0xbe9f196e	-0.3107409
218	0x3d4c70eb	0.049912374
219	0xbdd8bd10	-0.10582936
220	0x3e980e05	0.29698196
221	0x3d13bb87	0.036067512
222	0xbb1ef9f8	-0.002425788
223	0xbd8dd1f3	-0.0692481
224	0xbc1471d1	-0.009060339
225	0x3e16d4d0	0.14729619
226	0x3d219dab	0.039457005
227	0x3dbdf18f	0.09274589
228	0xbcb7c4df	-0.022432743
229	0x3d023e1c	0.031797513
230	0xbd33b4b3	-0.0438735
231	0xbd67714e	-0.05650454
232	0x3c1f72e5	0.009731983
233	0xbdd58256	-0.1042525
234	0xbe1ca9f1	-0.15299203
235	0xbe0bf980	-0.13669395
236	0x3d977b85	0.07396606
237	0xbc9801c8	-0.018555537
238	0x3e6301ae	0.2216861
239	0x3e28b2d7	0.16474472
240	0xbdfd6caf	-0.123742454
241	0xbd8cd8f6	-0.068773195
242	0xbd01da7d	-0.031702507
243	0xbd89139e	-0.06693195
244	0xbdf96dae	-0.12179123
245	0x3cba8697	0.022769256
246	0x3e123454	0.14277774
247	0x3d325736	0.043540202
248	0xbcccf2df	-0.025018154
249	0xbdd3b786	-0.10337739
250	0x3ea21401	0.31655887
251	0x3c805a3b	0.015668025
252	0xbd2d3083	-0.042282593
253	0x3d4fbbae	0.050716095
254	0xbdc21aed	-0.09477792
255	0x3e2659ea	0.16245237

decoder.bias f4 [128]
0	0x3faaca4e	1.3342988
1	0xbf589201	-0.84597784
2	0xbf5557be	-0.8333701
3	0xbf54a00b	-0.83056706
4	0xbf61becf	-0.88181776
5	0xbf523f05	-0.8212741
6	0xbf5a87c7	-0.8536343
7	0xbf546611	-0.8296824
8	0xbf45d883	-0.77283496
9	0xbf4ee081	-0.80811316
10	0xbf642d75	-0.8913186
11	0xbf629d45	-0.88521224
12	0xbf630a0f	-0.88687223
13	0xbf50bb69	-0.81535965
14	0xbf564c2c	-0.8370998
15	0xbf4a3efa	-0.79002345
16	0xbf62aefb	-0.8854825
17	0xbf5bc3b2	-0.8584548
18	0xbf46da15	-0.77676517
19	0xbf5c5f6d	-0.8608311
20	0xbf46e299	-0.7768951
21	0xbeefb3d9	-0.468169
22	0xbeeda386	-0.4641382
23	0xbeaa78b1	-0.33295205
24	0xbf0917fe	-0.53552234
25	0xbeba1544	-0.3634435
26	0xbe5368b1	-0.20645405
27	0xbe732702	-0.23745349
28	0xbda99162	-0.08279683
29	0xbe20c150	-0.15698743
30	0xbe9fd7b0	-0.31219244
31	0x3c0d1e38	0.008613162
32	0xbdfd1dd0	-0.12359202
33	0xbebb7d66	-0.3661911
34	0xbe0436bb	-0.12911503
35	0x3e44f078	0.19232357
36	0xbcafb537	-0.021448715
37	0xbe4650a5	-0.19366701
38	0xbde5f900	-0.112291336
39	0xbb0b13b8	-0.002122147
40	0xbd150aef	-0.03638738
41	0xbd508c39	-0.050914977
42	0xbe2ef8b0	-0.17087054
43	0xbd9a59a8	-0.07536632
44	0xbf0c7f9e	-0.5488223
45	0xbd9ef830	-0.07762182
46	0xbd2a1bea	-0.041530527
47	0xbe4786df	-0.19485043
48	0xbd31791b	-0.043328386
49	0xbd8c161b	-0.06840154
50	0xbdd7ee99	-0.10543556
51	0xbd5eeda8	-0.054425865
52	0xbdc12c18	-0.09432238
53	0xbebc7ad1	-0.3681245
54	0xbdcf8d5d	-0.10134385
55	0xbe6ce065	-0.23132475
56	0xbe8a4cde	-0.2701177
57	0xbeb59495	-0.35464922
58	0xbc0bf2f8	-0.008541815
59	0xbe21f63a	-0.15816584
60	0xbe9f3dd7	-0.31101868
61	0xbe82a6ef	-0.25517985
62	0xbe8a8f59	-0.2706249
63	0xbe903136	-0.28162545
64	0xbe68dee7	-0.2274128
65	0xbe299e6c	-0.1656434
66	0xbcaaf183	-0.020867115
67	0xbe8acbb3	-0.27108535
68	0xbe038b18	-0.12846029
69	0xbe481012	-0.1953738
70	0xbe7430bb	-0.23846714
71	0xbd9c40b9	-0.07629532
72	0xbe19fed0	-0.1503861
73	0xbe6944bc	-0.22780126
74	0xbda03d43	-0.07824185
75	0xbe6ca975	-0.23111518
76	0xbe9b87aa	-0.3037694
77	0xbd636278	-0.05551383
78	0xbeb5b25e	-0.35487646
79	0xbe7fd262	-0.24982598
80	0xbe4ed4d8	-0.20198381
81	0xbdcc380d	-0.09971628
82	0xbd4216ee	-0.04738515
83	0xba8a2d46	-0.0010542057
84	0xbe58f393	-0.21186666
85	0xbe334f63	-0.17510752
86	0xbdde0d6b	-0.10842403
87	0xbdf12e7f	-0.117764466
88	0xbe1635de	-0.14668986
89	0xbe52734d	-0.20551796
90	0xbdd172ad	-0.10226951
91	0xbe96bd12	-0.29441124
92	0xbeba15c9	-0.36344746
93	0xbd98121f	-0.07425331
94	0xbe1404ec	-0.14455003
95	0xbddd28c1	-0.10798789
96	0xbd24f21f	-0.040269967
97	0xbe478594	-0.1948455
98	0xbece030f	-0.4023671
99	0xbec5d172	-0.38636357
100	0xbe47f121	-0.19525577
101	0xbedc9937	-0.43085644
102	0xbe9d4c63	-0.3072234
103	0xbc89beb1	-0.016814562
104	0xbe2c3e9a	-0.16820756
105	0xbe9abe03	-0.30223092
106	0xbe633556	-0.22188315
107	0xbf146baa	-0.5797678
108	0xbe670e60	-0.22564077
109	0xbf4c0dfe	-0.7970885
110	0xbf58c60d	-0.846772
111	0xbf5e518d	-0.86843187
112	0xbf59d0b8	-0.85084105
113	0xbf5af206	-0.8552555
114	0xbf47e86e	-0.78089035
115	0xbf668516	-0.90046823
116	0xbf63e723	-0.8902456
117	0xbf4a0fa7	-0.78930134
118	0xbf638c70	-0.88886166
119	0xbf572170	-0.84035397
120	0xbf600c43	-0.8751871
121	0xbf563a02	-0.8368226
122	0xbf617a4a	-0.88077223
123	0xbf4f16b9	-0.8089405
124	0xbf55a9b9	-0.834621
125	0xbf4ed271	-0.8078986
126	0xbf4ee913	-0.80824393
127	0xbf5a82a4	-0.8535559
