models/gru.model (torch, 680827 bytes, 11 tensors)

embedding.weight f4 [128, 8]
0	0xbf9dd6ea	-1.2331212
1	0xbf49fab8	-0.7889819
2	0x3dd8c73a	0.105848745
3	0xbf5a5d9f	-0.85299104
4	0x3efff940	0.4999485
5	0x3f051548	0.519856
6	0x3e2be392	0.1678603
7	0xbe89c5bf	-0.2690868
8	0xbe792267	-0.2432953
9	0xbd5f477e	-0.05451154
10	0xbf12f766	-0.5740875
11	0x3f74dcf0	0.95649624
12	0xbf9df516	-1.2340419
13	0x3e63d6c3	0.22249894
14	0x3f81ce6e	1.0141122
15	0x3f8975b9	1.0739051
16	0xbf6d74cd	-0.9275635
17	0xbf601cb4	-0.875438
18	0xbfbec790	-1.4904652
19	0x3fa9234f	1.32139
20	0x3f11baf2	0.5692588
21	0xbfac7777	-1.3473958
22	0x3f1ea10e	0.619645
23	0x3f4ecaff	0.807785
24	0x3f198f99	0.5998474
25	0xbf84aa9f	-1.036457
26	0xbf63a377	-0.889213
27	0xbfbf83fb	-1.4962152
28	0x3f635636	0.8880342
29	0x3efe8f8f	0.49718902
30	0xbeffe2dd	-0.4997777
31	0xbf2db33e	-0.67851627
32	0xbf845eb9	-1.0341407
33	0x402dbc91	2.7146342
34	0x3e250283	0.1611424
35	0xbed3a91e	-0.41339964
36	0x3f96211d	1.1728855
37	0x3f7914d0	0.9729738
38	0x3f03748d	0.5134972
39	0xbe15894a	-0.14603153
40	0x3fd46aa7	1.6595048
41	0x3fa59b25	1.2937971
42	0x3f11ea66	0.5699829
43	0x3f03d20d	0.5149239
44	0x3f0621d6	0.5239538
45	0xbf0fcb9b	-0.5617005
46	0x3df8232e	0.12116085
47	0x3e8d83d9	0.27639654
48	0xbff014ef	-1.8756388
49	0x3f51fe3a	0.82028544
50	0x3dbfcfd8	0.09365815
51	0xbf3e266b	-0.7427737
52	0x3c8d3429	0.017236786
53	0x3f4a20db	0.78956383
54	0xbc44d154	-0.012012798
55	0x3f41949a	0.75617373
56	0x3f120095	0.5703214
57	0x3f9f8bf3	1.2464584
58	0xc02a1d77	-2.6580484
59	0x3f9e30e1	1.2358667
60	0x40204fd6	2.5048728
61	0x3f5278c9	0.82215554
62	0xbf31a14b	-0.6938674
63	0xbf521302	-0.82060254
64	0x3e2ae2d3	0.16688089
65	0xbf2aad38	-0.6667056
66	0x3f5e3446	0.8679851
67	0xbf8ab4fe	-1.0836484
68	0x3f8606ae	1.0470788
69	0xbf1a439b	-0.6025941
70	0x3f12426f	0.5713262
71	0x3ecd0aa0	0.4004717
72	0xbf07d1d6	-0.5305456
73	0x3e2ffaf6	0.17185578
74	0x3f8835c9	1.0641414
75	0x3f28a861	0.65881926
76	0xbf0af6d6	-0.5428289
77	0xbd904808	-0.07044989
78	0x3c1a2198	0.009407423
79	0xbf51edee	-0.82003677
80	0xbf8b5a98	-1.0887022
81	0xbedfabd3	-0.4368578
82	0x3f949b5e	1.1609914
83	0x3f8c35fa	1.0953972
84	0xbf9d8b0a	-1.2308056
85	0x3e0b6762	0.13613656
86	0x3fb30cb4	1.3988252
87	0x3f7f4753	0.9971821
88	0x3b972844	0.0046129543
89	0xbfc5b888	-1.544694
90	0x3f331005	0.6994632
91	0x3eaea875	0.34112898
92	0xbd8fee08	-0.07027823
93	0xbf018beb	-0.5060412
94	0x3f9ac624	1.2091718
95	0xbecd37c7	-0.40081617
96	0x3f0b3342	0.5437509
97	0xbea2b26b	-0.31776747
98	0xbf8454da	-1.0338395
99	0x3c940ab1	0.018071504
100	0xbfbeb237	-1.4898137
101	0xc0229994	-2.5406237
102	0xbdcff1ee	-0.10153566
103	0xbea4cc8f	-0.32187316
104	0xbf7534a0	-0.95783424
105	0x3face7bd	1.3508221
106	0x4014bd85	2.3240674
107	0x3ea73dc0	0.326643
108	0x3ee8059a	0.45316774
109	0x3f8e4ce2	1.1117213
110	0xbfa51043	-1.2895588
111	0x3f46b632	0.7762176
112	0xbf13de9d	-0.57761556
113	0x3fe05f35	1.7529055
114	0xbf1bc4ee	-0.60847366
115	0xbf2ea7e4	-0.6822493
116	0x3f5c7ed3	0.8613102
117	0xbfaeac79	-1.3646384
118	0xbf147294	-0.5798733
119	0x3f2f97c5	0.68590957
120	0x401974cd	2.397754
121	0xc028345b	-2.6281955
122	0xbece18bc	-0.40253246
123	0x3f43a6a2	0.76426136
124	0xbddec0fd	-0.10876653
125	0x3de60b2c	0.112325996
126	0xbf73c82a	-0.952273
127	0xbea79d62	-0.3273726
128	0xbf38757e	-0.7205428
129	0x3d38b1d5	0.04509147
130	0xbfabb11f	-1.3413428
131	0xbfb08f45	-1.3793722
132	0x3d11f680	0.03563547
133	0x3e9e7de5	0.30955425
134	0x3f939acf	1.1531619
135	0x3f33b7ab	0.7020213
136	0xbe4e0b7f	-0.20121573
137	0xbf6e22c4	-0.930218
138	0x3f6dc2ec	0.9287555
139	0xbed0f3b1	-0.40810922
140	0x3f4c7ff1	0.79882723
141	0xbea11354	-0.3146006
142	0x3efac24b	0.4897636
143	0x3d9515b7	0.072795324
144	0x3faaa6a2	1.3332102
145	0xbfe7a3b0	-1.8096828
146	0xbf27acbf	-0.65497965
147	0xbec540e3	-0.38526067
148	0xbf67439c	-0.9033754
149	0xbf437b06	-0.76359594
150	0xbffab19f	-1.9585456
151	0xbe4aaaaa	-0.19791666
152	0x3f12ed73	0.5739357
153	0x3f238f34	0.63890386
154	0x3f4bbfa8	0.7958932
155	0xbfcf36fd	-1.6188656
156	0x3eddb091	0.43298772
157	0x400dcfe4	2.2158136
158	0x3f066b19	0.5250717
159	0x3f92a8b8	1.1457739
160	0x3fd181ec	1.6367774
161	0x3cea2ce0	0.028585851
162	0xbeafa16c	-0.34302843
163	0xbf919c76	-1.1375873
164	0xbf56ca48	-0.83902407
165	0xbf3ba175	-0.7329324
166	0xbe86b5c7	-0.2631056
167	0x3d189e3f	0.03726029
168	0x3f346457	0.70465606
169	0x402c94f0	2.6965904
170	0xbf5bc9aa	-0.8585459
171	0x3ec98289	0.39357403
172	0xbecd76f0	-0.40129805
173	0xbfd88ae3	-1.6917385
174	0x3fd4a847	1.6613854
175	0xbf8b5893	-1.0886406
176	0x3f8ffb9b	1.1248659
177	0x3fdf090b	1.7424635
178	0x3f4926a4	0.78574586
179	0x3e8a47ec	0.27007997
180	0x3f9a395f	1.2048758
181	0x3fde7114	1.7378259
182	0x3f1aafb2	0.6042434
183	0x3ed21cff	0.41037747
184	0x4010dbca	2.2634149
185	0xbfcdc303	-1.6075138
186	0xbf32fa94	-0.699136
187	0xc0101847	-2.2514818
188	0xbd5aca91	-0.05341584
189	0xbebfc59e	-0.37455457
190	0xbf0c7a3e	-0.54874027
191	0x3f8380e4	1.0273709
192	0x3fc9ca77	1.5764912
193	0x3f0fe74c	0.56212306
194	0x3f41885c	0.7559869
195	0xbe35d331	-0.17756344
196	0x3cddba72	0.027066443
197	0x3f364e5d	0.7121332
198	0x4026fcfc	2.609191
199	0x3f7344d3	0.9502689
200	0x3f2403c1	0.6406823
201	0xbe26b9ae	-0.16281769
202	0xbf2e8cc5	-0.6818355
203	0xbf6b85eb	-0.9200122
204	0xbf989832	-1.1921446
205	0xbe94e61e	-0.29081815
206	0xbc9b6c0c	-0.01897242
207	0x3fc782bc	1.5586772
208	0x3fa89af5	1.3172289
209	0x3f3ac62c	0.72958636
210	0xbe3ccda6	-0.18437824
211	0xbf20b7f6	-0.627807
212	0xbed13ded	-0.40867558
213	0x3f7b2b12	0.98112595
214	0xbfc05ac2	-1.5027697
215	0x3eadeb83	0.33968744
216	0x3fcf2969	1.6184512
217	0xbd006432	-0.031345554
218	0x3e95c363	0.2925063
219	0xbf8eed36	-1.1166141
220	0xbf846862	-1.0344355
221	0xbf3b6c5d	-0.73212224
222	0xbee20566	-0.44144744
223	0xbf304b62	-0.68865025
224	0x3f681941	0.90663534
225	0xbfa24ff3	-1.2680649
226	0xbf97286c	-1.1809211
227	0x3f71aeda	0.9440743
228	0xbe84873c	-0.25884426
229	0x3e1c8a16	0.1528705
230	0xbf83d504	-1.0299382
231	0x3f1758df	0.5911998
232	0x3f885989	1.0652324
233	0xbd18ca75	-0.037302453
234	0xbd43a079	-0.04776046
235	0x3f0039e2	0.5008832
236	0xbf8c7930	-1.0974483
237	0xbe5cbbf1	-0.21556069
238	0x3f9bda4f	1.2175997
239	0x3efa6ec5	0.48912635
240	0x3f6929f1	0.9107962
241	0xbf805bb4	-1.0027986
242	0xbfc73389	-1.5562602
243	0xbf28753c	-0.65803885
244	0xbf88f442	-1.0699542
245	0x3f402107	0.75050396
246	0xbe07e382	-0.13270381
247	0xbf4b2ee6	-0.79368436
248	0x3d88de32	0.066830054
249	0xbf8363cb	-1.0264829
250	0xbecee57e	-0.40409464
251	0x40138fe8	2.3056583
252	0xbcb00ec1	-0.02149141
253	0x3f8d6bc8	1.1048517
254	0x3f8d8996	1.1057613
255	0x3f35292a	0.70765936

gru.weight_ih_l0 f4 [384, 8]
0	0x3eacde32	0.33763272
1	0x3e83ee13	0.25767574
2	0xbf86f02b	-1.0542043
3	0xbdb49ab1	-0.088185675
4	0xbe8fd3e8	-0.2809136
5	0x3e28c42d	0.16481085
6	0x3f3df9c1	0.7420922
7	0x3dd677e9	0.1047209
8	0x3ec264df	0.37967584
9	0x3fb247e0	1.3928185
10	0x3f087543	0.5330393
11	0x3e7634cf	0.24043582
12	0xbd643e3b	-0.05572341
13	0x3e3f5478	0.18684566
14	0xbe770869	-0.24124302
15	0xbd482bd4	-0.048869923
16	0xbf3a4b2c	-0.72770953
17	0xbf0c667f	-0.54843897
18	0x3f0c2c2a	0.5475489
19	0x3e7313c4	0.23738009
20	0xbf08b9ad	-0.5340832
21	0xbf5969a5	-0.84926826
22	0x3ea75f67	0.32689974
23	0xbed2fb35	-0.4120728
24	0xbe1482b3	-0.14502983
25	0xbeae21d6	-0.3401019
26	0x3dc93c5d	0.098259665
27	0xbeb66be7	-0.35629198
28	0x3e8ec03f	0.27881047
29	0x3d25ec36	0.04050847
30	0xbc9c7a0e	-0.019101169
31	0xbdc3a4b7	-0.09552901
32	0xbe8c672c	-0.27422464
33	0xbe169012	-0.14703396
34	0x3dca69d7	0.098834686
35	0xbe4cfcca	-0.20018306
36	0x3dc252f0	0.09488475
37	0x3e743bc2	0.23850921
38	0x3cd68744	0.026187547
39	0xbe4ead56	-0.2018331
40	0xbf2f11af	-0.6838636
41	0xbf041f22	-0.51610005
42	0x3e153864	0.14572293
43	0xbe9bd1b0	-0.30433416
44	0x3ea77d85	0.3271295
45	0x3e3f5a63	0.18686824
46	0x3e4d5e47	0.20055495
47	0xbe269926	-0.16269359
48	0x3e7cdf48	0.2469455
49	0x3cbbdb9b	0.022931864
50	0x3d5ad070	0.053421438
51	0xbde61cc1	-0.11235953
52	0x3de32a9b	0.11092111
53	0xbe737f8d	-0.23779126
54	0xbef5a6d0	-0.4797883
55	0x3f02cd80	0.5109482
56	0x3e034a19	0.12821235
57	0xbd8152b0	-0.063145995
58	0x3eaad1ba	0.33363134
59	0xbd36c81f	-0.044624444
60	0x3ee6a065	0.45044246
61	0x3ede1d86	0.433819
62	0xbd82fb80	-0.06395626
63	0x3f2298f1	0.6351462
64	0xbdf19390	-0.117957234
65	0xbe1be50b	-0.15224092
66	0xbd92e4dc	-0.07172558
67	0xbccd2e04	-0.025046356
68	0xbd98f6fe	-0.07468985
69	0x3d3e3e06	0.04644587
70	0x3e1eb5f2	0.15499094
71	0xbcf65fd6	-0.030074995
72	0xbee01561	-0.4376631
73	0x3cde05ea	0.02710243
74	0x3d84fd72	0.06493653
75	0xbec3fc21	-0.38278297
76	0x3e2aa07c	0.16662782
77	0x3da42c0c	0.08016214
78	0x3f0721a6	0.5278572
79	0xbe9a265c	-0.3010739
80	0x3ecffcd2	0.40622574
81	0x3eeb1846	0.45916957
82	0x3dbc58a4	0.09196594
83	0x3e838af2	0.25691944
84	0xbdac66f7	-0.084180765
85	0xbec1875b	-0.3779858
86	0xbd2da265	-0.0423912
87	0x3b2ccf61	0.0026368725
88	0x3f73b29e	0.95194423
89	0x3f8bb660	1.0915031
90	0xbed0b6a2	-0.40764338
91	0x3f61fe37	0.88278526
92	0xbeb7c6f6	-0.35893983
93	0xbf4803bc	-0.781307
94	0xbd9a1217	-0.075229816
95	0x3eefa7bc	0.4680766
96	0x3e7bbcd5	0.24583752
97	0x3e1e97e8	0.15487635
98	0x3d3e80ee	0.046509676
99	0xbddfc2c2	-0.10925819
100	0xbd8d8893	-0.06910815
101	0xbdae4854	-0.08509889
102	0xbe924dad	-0.28574887
103	0x3f1d4b07	0.6144261
104	0xbec63909	-0.3871539
105	0x3def85fa	0.11695476
106	0xbebde611	-0.3708959
107	0xbee4a3d1	-0.44656232
108	0x3e17e01c	0.14831585
109	0xbd1fa1e6	-0.038972758
110	0x3de9356f	0.11387145
111	0x3d4add1a	0.049527265
112	0x3bc23d99	0.005927753
113	0xbf62cb8e	-0.8859185
114	0x3e0eb8d4	0.13937694
115	0xbed65a32	-0.4186569
116	0xbebc8a79	-0.36824396
117	0x3f30e851	0.69104487
118	0x3dcb94b4	0.09940472
119	0xbf4d85da	-0.80282366
120	0x3ed9d763	0.4254714
121	0x3eb1cfa8	0.34728742
122	0xbe503f45	-0.20336635
123	0x3f36314a	0.7116896
124	0xbd7e96ea	-0.06215564
125	0xbf6f3238	-0.93436
126	0xbe9faded	-0.31187382
127	0x3ec1cbe8	0.3785088
128	0x3f1f6bfe	0.6227416
129	0x3ee2794d	0.4423317
130	0xbe4a23c8	-0.19740212
131	0x3ea33b82	0.31881338
132	0xbe3a4fda	-0.18194523
133	0xbe39ee7a	-0.18157378
134	0x3d7810c2	0.060562856
135	0x3e50568d	0.20345517
136	0x3f27e44a	0.65582716
137	0x3ecaaa04	0.39582837
138	0xbdb049bc	-0.08607814
139	0x3eee36d5	0.4652621
140	0xbecb1080	-0.39661026
141	0xbec638e2	-0.38715273
142	0xbdf5fd74	-0.12011233
143	0x3e4af28f	0.19819091
144	0x3ed72621	0.42021278
145	0x3d4aac42	0.049480684
146	0xbf3c11b7	-0.7346453
147	0x3f087cf9	0.53315693
148	0xbce1cf05	-0.027564535
149	0x3d8ce9d6	0.06880538
150	0xbd0241c0	-0.031800985
151	0x3f0bba80	0.5458145
152	0xbecfc999	-0.40583494
153	0xbec51497	-0.3849227
154	0x3e02efa2	0.12786725
155	0xbe62d1f7	-0.22150408
156	0x3e456a48	0.19278824
157	0x3e1a2dc2	0.15056518
158	0x3e738142	0.23779777
159	0xbe187817	-0.1488956
160	0x3c21d809	0.009878167
161	0x3e580263	0.2109466
162	0x3d99054e	0.07471715
163	0x3e5260ee	0.20544788
164	0xbf05a49a	-0.5220429
165	0xbf12e188	-0.57375383
166	0xbe3b95f4	-0.18318921
167	0x3f147b80	0.58000946
168	0x3ea7a742	0.32744795
169	0x3e89e56a	0.26932842
170	0xbdd3a0fc	-0.1033344
171	0x3e56fed3	0.20995645
172	0xbe3d6d13	-0.1849864
173	0xbd66f2ea	-0.056384005
174	0x3c0ba836	0.008523991
175	0x3d20366a	0.039114393
176	0xbd67105b	-0.056412082
177	0xbe1c935d	-0.1529059
178	0x3e44a186	0.19202241
179	0x3ebe3add	0.37154284
180	0xbf197f12	-0.5995952
181	0x3e86547d	0.26236334
182	0xbd100939	-0.035165045
183	0x3f0dd4cc	0.5540283
184	0xbeb12a8f	-0.34602782
185	0xbe615b55	-0.22007497
186	0x3cf3e174	0.02977059
187	0x3c6a2f15	0.014293452
188	0x3ea3eab3	0.32015
189	0x3e9a336c	0.30117357
190	0x3e21f5cd	0.15816422
191	0xbddb2cc3	-0.10701897
192	0x3f1335be	0.5750388
193	0xbdd82335	-0.1055359
194	0x3e6ef86d	0.23336954
195	0x3f138649	0.5762678
196	0xbe9e301e	-0.30896086
197	0xbf14a70b	-0.5806739
198	0xbbeca644	-0.007221969
199	0xbdbd1e43	-0.092342876
200	0xbf26167c	-0.6487806
201	0xbf3074be	-0.68928134
202	0x3da87cd1	0.08226932
203	0xbed19c31	-0.40939477
204	0x3e0ec1a6	0.13941059
205	0x3e2a37a5	0.16622789
206	0x3e8fd9f1	0.28095964
207	0xbf28d92f	-0.65956396
208	0x3d939c27	0.07207518
209	0xbe8e85c5	-0.27836433
210	0x3e251864	0.16122586
211	0x3e76e9b2	0.24112585
212	0xbeac6a20	-0.33674717
213	0x3ef5da0b	0.48017916
214	0x3e9a8a05	0.30183426
215	0x3deacbcd	0.11464653
216	0x3e0d9c8b	0.13829248
217	0x3f0d1e6d	0.5512455
218	0x3dc382e5	0.095464505
219	0x3e4dbd00	0.20091629
220	0xbdb91cce	-0.09038697
221	0xbe13ed00	-0.14445877
222	0xbe7d6add	-0.24747796
223	0x3e814704	0.25249493
224	0xbe1909b0	-0.14945102
225	0xbec96227	-0.39332697
226	0x3f7f9bea	0.9984728
227	0x3d334bc0	0.043773413
228	0xbeb922b4	-0.3615929
229	0xbf46baa8	-0.77628565
230	0xbef6d024	-0.48205674
231	0xbe10ad73	-0.14128666
232	0xbe9c080e	-0.30474895
233	0xbf421417	-0.75811905
234	0x3d940471	0.0722741
235	0xbea60c03	-0.3243104
236	0x3e6e6199	0.23279418
237	0x3eaa844c	0.3330406
238	0x3ebd8766	0.37017363
239	0x3e36f119	0.17865409
240	0xbef5a14b	-0.4797462
241	0xbf31835e	-0.69341075
242	0x3ecd6a46	0.40120143
243	0xbe98e3ca	-0.2986129
244	0xbdc3b6f7	-0.09556382
245	0x3e308510	0.1723826
246	0xbeadccf3	-0.33945426
247	0x3e9eefe5	0.310424
248	0x3ec71fb4	0.38891375
249	0x3e6fcc31	0.23417737
250	0xbe870d98	-0.2637756
251	0x3ec54abd	0.38533583
252	0x3ce3c220	0.027802527
253	0xbe6d8ba7	-0.23197804
254	0xbbcd9ef9	-0.0062750545
255	0x3e076ee5	0.13225897

gru.weight_hh_l0 f4 [384, 128]
0	0xbe6656b1	-0.22494008
1	0x3de6bac0	0.112660885
2	0xbdbb5fd5	-0.09149138
3	0x3e20aa41	0.15689947
4	0x3dd6ccec	0.104883045
5	0x3e6d8e34	0.23198777
6	0xbe9e7b32	-0.30953366
7	0xbe253478	-0.16133296
8	0x3dbb1555	0.09134928
9	0xbe5abddf	-0.21361493
10	0x3dcbdce1	0.09954239
11	0x3dff4e53	0.12466111
12	0x3e011bd4	0.12608272
13	0x3e5a8bd6	0.21342406
14	0x3ead1bdb	0.33810315
15	0xbe244514	-0.16041976
16	0xbe19f603	-0.15035252
17	0xbeeee812	-0.4666143
18	0xbdde0585	-0.108408965
19	0x3e66a258	0.22522867
20	0xbe4437d1	-0.19161917
21	0x3e34c5fb	0.17653649
22	0x3e52166c	0.20516366
23	0xbe9c3313	-0.30507717
24	0x3ec29086	0.38000888
25	0x3e88f82e	0.26751846
26	0xbdf4c520	-0.11951661
27	0x3ed4b5fe	0.415451
28	0xbea417ff	-0.32049558
29	0x3e57a461	0.210588
30	0x3eaa07d2	0.3320909
31	0xbddd065e	-0.1079223
32	0xbe30d6eb	-0.17269485
33	0xbf0d606b	-0.5522525
34	0x3d84e8b7	0.06489699
35	0x3ddc339e	0.10752033
36	0xbbbfcf43	-0.005853565
37	0x3be22ed8	0.006902557
38	0x3e1b388a	0.15158287
39	0x3d45c6b1	0.04828519
40	0xbde3ffa7	-0.11132746
41	0x3ebac0d0	0.3647523
42	0xbd8d93f4	-0.069129854
43	0x3e8c8ec9	0.27452686
44	0xbda1236a	-0.07868083
45	0xbd9f6908	-0.07783705
46	0x3bbd39a8	0.0057746954
47	0x3e84c536	0.2593171
48	0x3eb804fb	0.359413
49	0x3ebe21bf	0.3713512
50	0x3de4c8b3	0.11171093
51	0x3e344b27	0.17606793
52	0x3eb62dfd	0.3558196
53	0x3d844ffc	0.06460568
54	0x3ed91beb	0.42404112
55	0xbe136ab0	-0.14396167
56	0x3e9227a6	0.28545874
57	0x3db40fe3	0.08792093
58	0x3cfbdd9d	0.030745322
59	0x3e98f42e	0.29873794
60	0x3de4f39f	0.111792795
61	0xbe230aa3	-0.15922026
62	0xbef19a81	-0.4718819
63	0xbe010087	-0.12597857
64	0xbe532ac1	-0.20621778
65	0xbeb3976b	-0.3507646
66	0x3eb5505d	0.35412875
67	0xbedbea13	-0.42952022
68	0x3e7b3d7d	0.24535175
69	0x3e630e23	0.22173361
70	0xbe286dc0	-0.16448116
71	0x3e94a23c	0.29030025
72	0x3ec5e223	0.3864909
73	0x3e760c7f	0.24028204
74	0xbe667528	-0.22505629
75	0xbe180b18	-0.14847982
76	0xbddf1002	-0.10891725
77	0xbceb6ad2	-0.02873746
78	0xbc6fdd62	-0.014640184
79	0x3d1124b6	0.0354354
80	0x3e485e92	0.19567326
81	0x3e7ec7e3	0.24880938
82	0x3e5b64b5	0.21425135
83	0xbe8beb0c	-0.27327764
84	0xbea1946c	-0.3155855
85	0xbe884b9c	-0.26620185
86	0x3d92197d	0.07133768
87	0x3d33b1a0	0.04387057
88	0xbe299ca8	-0.16563666
89	0x3ea078e8	0.31342244
90	0x3e31b530	0.17354274
91	0xbe809cb9	-0.2511957
92	0x3ece1a46	0.4025442
93	0xbdd75e29	-0.105160065
94	0x3e92f2de	0.28700918
95	0xbe167e2c	-0.14696568
96	0x3e82eb9d	0.25570384
97	0x3e443747	0.19161712
98	0x3d2cfdcd	0.04223423
99	0xbee6f342	-0.45107466
100	0xbd543392	-0.051806994
101	0xbe09ef48	-0.13470185
102	0x3e94b912	0.29047447
103	0x3d92477e	0.07142542
104	0xbe9949a2	-0.2993899
105	0xbe1ed294	-0.15510017
106	0xbef0eaaf	-0.4705405
107	0xbd705986	-0.058679126
108	0xbd5c1b21	-0.05373681
109	0x3ea431f1	0.32069352
110	0x3e84ada9	0.25913742
111	0x3edf4dea	0.4361413
112	0xbd904172	-0.07043733
113	0xbeab8f01	-0.3350754
114	0xbe261f47	-0.16222869
115	0xbdd76379	-0.1051702
116	0xbf20600b	-0.6264655
117	0x3efe53d5	0.49673334
118	0xbdff536d	-0.12467084
119	0xbee691fc	-0.45033252
120	0xbebf892f	-0.3740935
121	0xbcd407fc	-0.025882713
122	0x3d8df66e	0.06931768
123	0x3e0a27c2	0.13491729
124	0x3e85d70f	0.2614064
125	0xbf24fc2f	-0.644473
126	0xbe3862b9	-0.1800641
127	0x3e521216	0.20514712
128	0xbcc656df	-0.024211345
129	0x3e83adb1	0.25718454
130	0x3ce2fa5c	0.027707271
131	0xbd966048	-0.07342583
132	0xbc367be1	-0.0111379335
133	0xbe40c2d0	-0.18824315
134	0xbe339b9d	-0.1753983
135	0xbbb331fd	-0.0054686056
136	0xbd0fcacc	-0.03510551
137	0x3df629b0	0.1201967
138	0x3dba0cf6	0.09084503
139	0x3e0e1b37	0.13877569
140	0xbe62207e	-0.22082707
141	0x3daf4a57	0.08559101
142	0x3e9e96ae	0.30974334
143	0xbce9ba0e	-0.0285311
144	0x3a821e17	0.000992718
145	0x3e213bc8	0.15745461
146	0x3d300d88	0.042981654
147	0x3e9bc311	0.3042226
148	0x3d18e65f	0.037329074
149	0xbba9dc2e	-0.005183718
150	0xbe08f54a	-0.1337482
151	0xbe94fd6f	-0.29099604
152	0xbe83bdd2	-0.2573076
153	0xbe62779a	-0.22115937
154	0x3e3df72c	0.1855132
155	0xbdea0884	-0.114274055
156	0x3da1f265	0.07907561
157	0x3ecdb418	0.40176463
158	0xbef4d5cc	-0.47819364
159	0x3ea464c1	0.3210812
160	0x3c6dd21f	0.014515429
161	0xbe862b92	-0.26205117
162	0xbe894cb4	-0.26816332
163	0xbe96b037	-0.29431316
164	0x3e0ab18c	0.13544291
165	0xbeb9b043	-0.3626729
166	0xbd0e0f31	-0.034682456
167	0xbed2f38c	-0.41201437
168	0x3e25a9c7	0.16178046
169	0x3de87060	0.11349559
170	0xbf05328b	-0.5203025
171	0x3e95bfcc	0.29247892
172	0x3e6a5609	0.22884382
173	0xbd090bf5	-0.03345867
174	0x3df8a839	0.12141461
175	0xbf0687e5	-0.5255111
176	0x3d499c17	0.049221125
177	0xbe0dabd9	-0.13835086
178	0xbebbc854	-0.36676276
179	0xbd94e4cc	-0.07270202
180	0xbdf62aa8	-0.12019855
181	0x3d91e730	0.07124174
182	0xbdf85fbf	-0.12127637
183	0xbc8b486c	-0.017002307
184	0xbe294672	-0.16530779
185	0x3d1e9bca	0.03872279
186	0x3eca8e91	0.39561895
187	0xbe465c0b	-0.19371049
188	0x3e681936	0.22665867
189	0xbe9d623e	-0.30739015
190	0x3da88857	0.0822913
191	0x3cd963be	0.026536819
192	0xbda928ff	-0.082597725
193	0xbce2b484	-0.027673967
194	0x3e97c372	0.296413
195	0x3ed178ee	0.40912575
196	0x3e40dd60	0.18834448
197	0x3e1066ed	0.14101763
198	0x3e6e08a6	0.23245487
199	0xbe2d4a88	-0.16922963
200	0xbc3ead62	-0.011638017
201	0xbe19efef	-0.15032934
202	0x3d44e7d7	0.048072662
203	0x3e2a0e84	0.166071
204	0x3dcf436a	0.1012028
205	0xbe3d3668	-0.18477786
206	0xbeadec8f	-0.33969542
207	0x3e958e0e	0.29209942
208	0x3c766a52	0.015039997
209	0xbd428a28	-0.047495037
210	0xbc290f07	-0.010318524
211	0xbdd7b2a8	-0.10532123
212	0xbda19373	-0.07889452
213	0x3decb985	0.115588225
214	0x3da522b7	0.08063262
215	0xbe44f0cb	-0.1923248
216	0xbdbd444a	-0.09241541
217	0x3e4f3099	0.20233382
218	0xbe5f3c25	-0.21800287
219	0xbc587635	-0.0132117765
220	0x3e059039	0.13043298
221	0x3e59ead0	0.2128098
222	0x3da4ddb2	0.080500975
223	0x3f086b8f	0.5328912
224	0x3d93ea27	0.072223954
225	0xbc18f441	-0.009335578
226	0xbe6a7d23	-0.22899298
227	0x3d7a0be7	0.061046507
228	0x3ea2171f	0.31658265
229	0x3cde633d	0.02714693
230	0xbd432d41	-0.04765058
231	0x3e736864	0.2377029
232	0x3e57df9d	0.21081395
233	0xbe228398	-0.15870512
234	0x3ecb1e30	0.3967147
235	0xbe367497	-0.17817913
236	0x3e0dde3d	0.13854308
237	0xbea44b65	-0.3208877
238	0xbe9f142c	-0.31070077
239	0xbe0adbeb	-0.13560455
240	0xbe5dc5e4	-0.2165752
241	0xbed69bed	-0.41915837
242	0x3cec9ea9	0.028884249
243	0x3ebbd305	0.36684433
244	0x3e1e4afe	0.15458295
245	0xbdfd8f35	-0.1238083
246	0xbe48214c	-0.19543952
247	0xbeff4554	-0.4985758
248	0x3eadd141	0.3394871
249	0xbbce2b95	-0.0062918165
250	0xbd2f0a7e	-0.042734616
251	0xbe98069a	-0.29692537
252	0xbd471191	-0.048600737
253	0xbc498c46	-0.01230151
254	0xbe27797d	-0.16354938
255	0xbe88b29d	-0.2669877

gru.bias_ih_l0 f4 [384]
0	0xbe12e823	-0.14346366
1	0xbe06ffa0	-0.1318345
2	0xbeab4844	-0.33453572
3	0xbed9db2b	-0.42550024
4	0x3d3a31ff	0.045457836
5	0xbe18131c	-0.1485104
6	0xbeef5055	-0.46740976
7	0xbf0a6522	-0.54060566
8	0xbe7ba4c3	-0.2457457
9	0xbf261148	-0.6487012
10	0x3e05e685	0.13076217
11	0xbde7a578	-0.113108575
12	0xbef9dda3	-0.48801908
13	0xbf0083bb	-0.50201005
14	0xbf429b72	-0.7601844
15	0xbc2f85b9	-0.010713034
16	0xbf117975	-0.56825954
17	0x3ea5e37f	0.32400128
18	0xbf087772	-0.5330726
19	0xbdbe9588	-0.093058646
20	0xbeff4ca6	-0.49863166
21	0xbdaf5fdb	-0.08563205
22	0x3d657378	0.056018323
23	0xbf00a4e7	-0.5025162
24	0xbe10278c	-0.14077586
25	0xbf55b6b0	-0.83481884
26	0xbb8c2dec	-0.0042779353
27	0xbec762d7	-0.38942596
28	0xbf4813cc	-0.7815521
29	0xbf447270	-0.7673712
30	0xbf178a93	-0.5919582
31	0xbeb04389	-0.34426525
32	0xbc0f01b6	-0.008728435
33	0x3d530458	0.051517814
34	0xbf03793a	-0.5135685
35	0xbf3adc8c	-0.7299278
36	0xbe562efa	-0.20916358
37	0xbf04e4b8	-0.519115
38	0xbef438d1	-0.47699597
39	0xbe8a0abf	-0.26961324
40	0xbeff302d	-0.49841443
41	0xbf0be50c	-0.5464637
42	0xbf2f5647	-0.68491024
43	0xbeee057e	-0.46488565
44	0xbf390a29	-0.7228113
45	0xbe91dff3	-0.28491172
46	0xbeddcdf7	-0.433212
47	0xbf3363c0	-0.7007408
48	0xbee45a38	-0.4460008
49	0xbed6f4e8	-0.41983724
50	0xbeb2a298	-0.34889674
51	0xbf33316e	-0.699973
52	0xbec95696	-0.39323872
53	0xbf05c782	-0.5225755
54	0xbf0b34ea	-0.54377615
55	0xbedfe002	-0.43725592
56	0xbe980e02	-0.29698187
57	0xbf318bd6	-0.69354
58	0x3e8a116c	0.26966417
59	0xbf10a4da	-0.56501544
60	0xbdbfb3a5	-0.09360436
61	0xbef9f5b3	-0.48820266
62	0xbe22fd0e	-0.15916845
63	0xbea90ebb	-0.3301905
64	0xbdd3e478	-0.10346311
65	0xbf3f8df0	-0.74825954
66	0xbef58921	-0.47956184
67	0xbf519298	-0.8186431
68	0xbf091b4d	-0.5355728
69	0xbe6f59f4	-0.23374158
70	0xbe79067e	-0.24318883
71	0xbec3a32e	-0.38210434
72	0xbf16dc5d	-0.5893
73	0xbedfe692	-0.437306
74	0xbe9a38f2	-0.3012157
75	0xbf0409bb	-0.5157735
76	0xbba8a8f0	-0.005147092
77	0xbe90c6eb	-0.28276762
78	0xbf6fa59b	-0.9361207
79	0xbf526e5c	-0.82199645
80	0xbcac6631	-0.021044822
81	0xbf293606	-0.6609806
82	0xbea8ea60	-0.32991314
83	0xbec2db97	-0.3805816
84	0xbf24fcac	-0.64448047
85	0xbeeb8400	-0.45999146
86	0xbecf5aad	-0.40498868
87	0xbec037f8	-0.375427
88	0xbf3ce429	-0.73785645
89	0x3d137d8d	0.036008406
90	0x3c0cbf31	0.008590505
91	0xbe5a06b7	-0.21291624
92	0xbf03c0cd	-0.51466066
93	0x3e3af3e6	0.18257102
94	0xbf607f69	-0.8769441
95	0xbefcd164	-0.49378502
96	0xbe705843	-0.23471169
97	0xbd9741ce	-0.07385598
98	0xbe8d5921	-0.27607062
99	0xbf274eda	-0.6535469
100	0xbf2916e1	-0.66050535
101	0xbf545560	-0.8294277
102	0xbf20d670	-0.62827206
103	0xbf0e782b	-0.5565211
104	0xbca34356	-0.01992957
105	0xbee4fff6	-0.44726533
106	0xbf29ee49	-0.6637922
107	0xbe9f5a44	-0.31123555
108	0xbdb90c44	-0.090355426
109	0xbb4ee910	-0.0031572022
110	0xbece3185	-0.40272155
111	0xbb8233f3	-0.003973478
112	0xbe65fdd7	-0.22460113
113	0xbf25d5df	-0.64779466
114	0xbf25b24f	-0.647252
115	0xbf22e295	-0.63626987
116	0xbf362665	-0.71152335
117	0xbf4cec36	-0.8004793
118	0xbdb46362	-0.08808018
119	0xbf23bd62	-0.6396085
120	0xbef21895	-0.4728438
121	0x3d195176	0.037431203
122	0xbe8884a1	-0.26663688
123	0xbeeb2248	-0.45924592
124	0xbecd5bf6	-0.40109223
125	0xbe8493a5	-0.25893894
126	0xbeed38c1	-0.46332362
127	0xbf08caa5	-0.5343421
128	0xbe6652cd	-0.22492523
129	0x3d85de61	0.06536556
130	0xbe54660c	-0.20742053
131	0xbf01810d	-0.5058754
132	0xbec6f258	-0.3885677
133	0xbe91c68c	-0.28471792
134	0xbf5fdc71	-0.8744574
135	0xbf3b857e	-0.7325057
136	0xbef52b9b	-0.4788483
137	0xbe2b1586	-0.1670743
138	0x3f14d1b9	0.5813251
139	0xbee7c3dd	-0.4526662
140	0xbeae4220	-0.34034824
141	0xbeeefea9	-0.46678665
142	0xbf866352	-1.049906
143	0x3e0b9c6c	0.13633889
144	0xbee47436	-0.44619912
145	0x3f50e9bc	0.8160665
146	0xbedd5e7a	-0.43236142
147	0x3f4cb290	0.79959965
148	0xbed62327	-0.41823694
149	0xbdc219be	-0.09477566
150	0x3f790f29	0.9728876
151	0xbef13df9	-0.47117594
152	0xbdb402a4	-0.08789566
153	0xbe2176bd	-0.15767951
154	0xbd9847b4	-0.07435551
155	0xbeef56de	-0.46745962
156	0xbf273a30	-0.6532316
157	0xbfae13e4	-1.359982
158	0xbf9a7cdc	-1.2069354
159	0xbe950f4c	-0.29113233
160	0x3e1c7a07	0.15280925
161	0x3f51f429	0.82013184
162	0xbf5a8213	-0.8535473
163	0xbf8fa07b	-1.122085
164	0x3df8bb83	0.1214514
165	0xbe5fe419	-0.21864356
166	0xbd446bc4	-0.047954336
167	0xbf519f86	-0.8188404
168	0xbf3854aa	-0.7200419
169	0xbebe7bbf	-0.37203786
170	0xbef733e3	-0.48281774
171	0xbe47c938	-0.19510353
172	0xbed5a92a	-0.41730624
173	0xbeb56527	-0.35428736
174	0x3c55dde3	0.01305339
175	0x3b0780e8	0.00206762
176	0xbe616a9d	-0.22013326
177	0xbe0a7663	-0.13521723
178	0x3d07b98a	0.03313593
179	0xbf5f3252	-0.8718616
180	0xbf0eed32	-0.5583068
181	0xbf8ae507	-1.0851144
182	0xbf5adfbb	-0.85497636
183	0xbf11eb7f	-0.56999964
184	0xbe0617b0	-0.13094974
185	0xbf928589	-1.1447002
186	0x3e9f994c	0.31171644
187	0xbedf1465	-0.43570247
188	0xbedf4dbb	-0.4361399
189	0xbf0be724	-0.5464957
190	0x3dc011fa	0.09378429
191	0xbe718e1d	-0.23589368
192	0xbf48be6c	-0.7841556
193	0xbe79b33c	-0.24384779
194	0x3d351a19	0.04421434
195	0xbf2dcdc7	-0.67892116
196	0x3d42c061	0.047546748
197	0x3dc32ce0	0.095300436
198	0xbf09c290	-0.53812504
199	0xbf73bb19	-0.95207363
200	0xbee9f133	-0.45691833
201	0xbeac551b	-0.3365868
202	0xbf2e32a5	-0.6804603
203	0xbe81aa65	-0.25325313
204	0xbcec898d	-0.028874183
205	0x3e5d84c2	0.21632674
206	0xbef497f1	-0.47772172
207	0xbf3005da	-0.6875893
208	0xbe45fc5a	-0.19334546
209	0xbf41b855	-0.75671893
210	0x3d2334da	0.039845325
211	0xbf9535f6	-1.1657093
212	0xbe5479d8	-0.20749605
213	0xbe63f324	-0.2226072
214	0xbf11c98c	-0.5694816
215	0xbec62bf3	-0.38705406
216	0xbf42ea5b	-0.7613885
217	0x3f486b8b	0.782891
218	0x3eb7ebcc	0.35922086
219	0x3e2131c6	0.15741643
220	0xbe7c668c	-0.24648494
221	0xbe52fdb1	-0.20604588
222	0xbf9d54f3	-1.229155
223	0xbf73551d	-0.9505175
224	0xbf254417	-0.6455702
225	0xbef30645	-0.4746572
226	0xbeb91427	-0.36148188
227	0xbe419c81	-0.18907358
228	0xbf2e6048	-0.68115664
229	0xbf0dc3b0	-0.5537672
230	0xbef4de35	-0.4782578
231	0xbecc1ad4	-0.39864218
232	0xbebe7b5f	-0.372035
233	0xbebdffa0	-0.3710909
234	0xbebad720	-0.36492252
235	0x3ed4b145	0.41541496
236	0xbea1429f	-0.3149614
237	0x3d8ca27b	0.06866928
238	0xbe65474a	-0.22390476
239	0xbe4ab089	-0.19793905
240	0xbe1f24bc	-0.15541357
241	0xbf17ea52	-0.5934192
242	0xbabcc721	-0.0014402607
243	0xbde6823e	-0.112553105
244	0xbf41ffc4	-0.7578089
245	0xbfaa9448	-1.3326502
246	0x3dfc603e	0.12323044
247	0xbda89b40	-0.082327366
248	0xbf995252	-1.1978247
249	0xbf9783cf	-1.18371
250	0x3e14c442	0.14527991
251	0xbec274db	-0.3797978
252	0xbefc5351	-0.49282315
253	0xbe8480ff	-0.25879666
254	0xbf0be0ea	-0.54640067
255	0xbd04ca9a	-0.03241978

gru.bias_hh_l0 f4 [384]
0	0xbe33ce4b	-0.17559163
1	0xbe5524e1	-0.2081485
2	0xbea08312	-0.3135
3	0xbec23ef9	-0.3793867
4	0x3cdf43cf	0.027254013
5	0xbe9f5019	-0.31115797
6	0xbeef2a68	-0.4671204
7	0xbf2596c2	-0.64683163
8	0xbe047621	-0.12935688
9	0xbf23d5ce	-0.63998115
10	0x3db1f5c2	0.08689453
11	0xbe29bf1f	-0.16576813
12	0xbeda1fe9	-0.4260247
13	0xbef20e90	-0.47276735
14	0xbf3f4600	-0.74716187
15	0xbd85ac71	-0.06527031
16	0xbf09f497	-0.5388884
17	0x3e960bb0	0.29305792
18	0xbedde0c7	-0.43335554
19	0x3c375bce	0.011191322
20	0xbf234bb7	-0.63787407
21	0xbe07fa33	-0.13279037
22	0x3d9c4f00	0.076322556
23	0xbefebce1	-0.49753478
24	0xbe2c1c03	-0.1680756
25	0xbf6ca47c	-0.92438483
26	0xbd7f3914	-0.062310293
27	0xbed3da69	-0.4137757
28	0xbf4a5770	-0.7903967
29	0xbf39a9b4	-0.7252457
30	0xbf3b8264	-0.73245835
31	0xbe717fcf	-0.23583911
32	0x3c659c68	0.014014341
33	0x3df166c3	0.11787178
34	0xbee7a172	-0.4524036
35	0xbf55fb89	-0.8358694
36	0xbe395a86	-0.18100938
37	0xbedb1793	-0.42791423
38	0xbed6b467	-0.4193451
39	0xbe8bf366	-0.27334136
40	0xbeee90f8	-0.46594977
41	0xbefc8948	-0.49323487
42	0xbf170758	-0.5899558
43	0xbf14fabf	-0.5819511
44	0xbf562b7e	-0.83660114
45	0xbec0b6f8	-0.37639594
46	0xbf0d2b20	-0.5514393
47	0xbf113ca6	-0.5673317
48	0xbee5fcdd	-0.44919482
49	0xbed30feb	-0.41223082
50	0xbef8de32	-0.48607022
51	0xbf29fd5d	-0.66402227
52	0xbedd289d	-0.43195048
53	0xbefb15b9	-0.4904001
54	0xbefda566	-0.49540251
55	0xbf0dfb07	-0.5546116
56	0xbec9e97d	-0.3943595
57	0xbf1aea0a	-0.60513365
58	0x3eaa28ff	0.33234403
59	0xbf13ad30	-0.5768614
60	0xbd862a2b	-0.06551012
61	0xbee8e62e	-0.45488113
62	0xbddead34	-0.108728796
63	0xbeb91150	-0.3614602
64	0xbe43d291	-0.19123293
65	0xbf35db78	-0.7103801
66	0xbf0e4ace	-0.5558289
67	0xbf6e3b53	-0.9305927
68	0xbefce1ad	-0.49390927
69	0xbe7f9c44	-0.24961954
70	0xbe9365a4	-0.28788483
71	0xbeca7cae	-0.39548248
72	0xbf20a5e0	-0.62753105
73	0xbefad8d5	-0.48993555
74	0xbedc214d	-0.42994156
75	0xbef9cf25	-0.4879085
76	0xbce491f3	-0.027901625
77	0xbe827476	-0.25479478
78	0xbf5e68dd	-0.8687876
79	0xbf38fb48	-0.72258425
80	0x3c0e6bdf	0.008692711
81	0xbf4052cf	-0.75126356
82	0xbe9d4bac	-0.30721796
83	0xbecfe213	-0.40602168
84	0xbf0e67d7	-0.556272
85	0xbe95dce5	-0.29270092
86	0xbf00d7c9	-0.5032926
87	0xbed36472	-0.4128757
88	0xbf291200	-0.6604309
89	0x3e0e1fc7	0.1387931
90	0x3e082f11	0.13299204
91	0xbea89148	-0.3292334
92	0xbed7f042	-0.4217549
93	0x3e802987	0.25031683
94	0xbf6d7274	-0.92752767
95	0xbee097d3	-0.43865833
96	0xbea2ccb4	-0.317968
97	0xbdf77908	-0.12083632
98	0xbe94309d	-0.2894334
99	0xbf2fa063	-0.68604106
100	0xbf161707	-0.58628887
101	0xbf7252c7	-0.9465756
102	0xbf1db601	-0.6160584
103	0xbf1d81d2	-0.61526215
104	0xbc6eedce	-0.014583064
105	0xbf0b3ad2	-0.5438663
106	0xbf36c15e	-0.71388805
107	0xbe7d5fff	-0.24743651
108	0xbe1325a8	-0.14369833
109	0x3cb4ddbb	0.022078386
110	0xbec24a5e	-0.37947363
111	0xbdcccfd3	-0.10000577
112	0xbe1d2481	-0.15345956
113	0xbf231119	-0.63697964
114	0xbf3af82f	-0.7303495
115	0xbf1ec6a9	-0.6202188
116	0xbf15e6fd	-0.58555585
117	0xbf560d35	-0.836139
118	0xbda99660	-0.08280635
119	0xbf085b5e	-0.53264415
120	0xbefe3287	-0.49647924
121	0xbcc2f199	-0.023796843
122	0xbe827482	-0.25479513
123	0xbecf12d7	-0.4044406
124	0xbeb7cb41	-0.35897258
125	0xbea8bba5	-0.3295566
126	0xbf02d9ab	-0.51113385
127	0xbf099113	-0.5373699
128	0xbe2d558c	-0.16927165
129	0x3d772c69	0.060345087
130	0xbe881ca4	-0.2658435
131	0xbef54781	-0.47906116
132	0xbea00981	-0.3125725
133	0xbe9e5547	-0.30924436
134	0xbf535baa	-0.82561743
135	0xbf152920	-0.58265877
136	0xbf0310e7	-0.51197666
137	0xbddc7989	-0.107653685
138	0x3f1bf97e	0.6092757
139	0xbea8e8e1	-0.32990173
140	0xbec24b85	-0.37948242
141	0xbed6ad0d	-0.41928902
142	0xbf80da6f	-1.0066661
143	0x3d933a4a	0.07188852
144	0xbe993ea5	-0.29930606
145	0x3f4d3921	0.80165297
146	0xbedc6183	-0.43043146
147	0x3f3cffde	0.7382792
148	0xbf053d81	-0.5204697
149	0x3d06e319	0.03293142
150	0x3f7ff618	0.99984884
151	0xbecc229e	-0.3987016
152	0xbbdd4ee3	-0.006753789
153	0xbd8c9562	-0.0686443
154	0xbe01bf73	-0.12670688
155	0xbef6b2fa	-0.48183423
156	0xbf256a3d	-0.6461523
157	0xbfa5ea2c	-1.2962089
158	0xbf881046	-1.0629966
159	0xbe447bdd	-0.19187875
160	0x3e1cb6e1	0.15304138
161	0x3f4d5acd	0.80216676
162	0xbf79511c	-0.9738939
163	0xbf9c5200	-1.2212524
164	0x3e66b90f	0.22531532
165	0xbe497ab5	-0.19675715
166	0xbd81cb87	-0.06337648
167	0xbf5bc7f3	-0.85851973
168	0xbf4bd8a8	-0.79627466
169	0xbe499393	-0.19685201
170	0xbf1352c0	-0.5754814
171	0xbe776d5b	-0.2416281
172	0xbed66aa7	-0.41878244
173	0xbe96f37e	-0.29482645
174	0x3dd99b60	0.106253386
175	0x3d9d3fe4	0.07678202
176	0xbe2f590f	-0.17123817
177	0xbe54bebc	-0.20775884
178	0x3d2a37e3	0.041557204
179	0xbf45bb4e	-0.7723893
180	0xbf0736d9	-0.52818066
181	0xbf9a90a8	-1.2075396
182	0xbf4f42ec	-0.8096149
183	0xbf1033e8	-0.563292
184	0xbe5634af	-0.20918535
185	0xbf98cd17	-1.1937588
186	0x3ed73a2a	0.42036563
187	0xbeb9c192	-0.36280495
188	0xbf00bc9b	-0.5028779
189	0xbef65704	-0.48113263
190	0x3dde23da	0.10846682
191	0xbe6cd91a	-0.23129693
192	0xbf57ab03	-0.8424532
193	0xbea69ba0	-0.32540607
194	0x3cc57158	0.024101898
195	0xbf283eb1	-0.6572066
196	0x3de04195	0.10950009
197	0x3c9b0198	0.018921658
198	0xbef55878	-0.4791906
199	0xbf74ce75	-0.9562753
200	0xbef8d3dc	-0.48599136
201	0xbec06378	-0.3757589
202	0xbf41c576	-0.75691926
203	0xbe9913f3	-0.29898033
204	0xbe216856	-0.15762457
205	0x3eaab705	0.33342758
206	0xbf000992	-0.50014603
207	0xbf36f86d	-0.7147282
208	0xbe8ac25d	-0.27101412
209	0xbf512963	-0.81703776
210	0x3d0b50c0	0.034012556
211	0xbf93d350	-1.1548862
212	0xbe0f770b	-0.14010255
213	0xbe71cc84	-0.23613173
214	0xbf182645	-0.59433395
215	0xbec58050	-0.38574457
216	0xbf61da53	-0.8822376
217	0x3f4ec0b3	0.80762786
218	0x3ea7fd9a	0.3281067
219	0x3e1ec217	0.15503727
220	0xbe6d7c7a	-0.23192015
221	0xbe4e7649	-0.2016231
222	0xbfa40454	-1.2813821
223	0xbf62371d	-0.88365346
224	0xbf35ed79	-0.7106548
225	0xbf01ab2a	-0.506518
226	0xbe77f508	-0.24214566
227	0xbd5ac28d	-0.053408194
228	0xbf289194	-0.65847135
229	0xbef248fa	-0.47321302
230	0xbefb2740	-0.49053383
231	0xbec3c0df	-0.38233086
232	0xbe89327d	-0.26796332
233	0xbec17bbd	-0.37789717
234	0xbeacc27c	-0.3374213
235	0x3ec2611b	0.3796471
236	0xbea9b64b	-0.3314689
237	0x3dd8b337	0.105810575
238	0xbe656de2	-0.22405198
239	0xbe739406	-0.23786935
240	0xbe81317b	-0.25233063
241	0xbf2ea8f0	-0.6822653
242	0x3d57eab8	0.05271408
243	0xbe68118c	-0.22662944
244	0xbf4a92cd	-0.7913025
245	0xbfac533e	-1.3462903
246	0x3e2815a9	0.16414513
247	0x3d1d6916	0.038430296
248	0xbf9f374b	-1.2438749
249	0xbf90d700	-1.1315613
250	0x3dc1d909	0.09465224
251	0xbede2576	-0.43387955
252	0xbed63313	-0.41835842
253	0xbe6dd298	-0.23224866
254	0xbee956f3	-0.4557415
255	0xbdfef9af	-0.12449967

gru.weight_ih_l1 f4 [384, 128]
0	0xbe7676d5	-0.24068768
1	0x3e9001b8	0.2812631
2	0x3e35ddb7	0.17760359
3	0xbd78d793	-0.060752463
4	0x3e896114	0.26831877
5	0xbcc4a174	-0.024002768
6	0x3e03432d	0.12818594
7	0xbeb9c94a	-0.36286384
8	0xbe664ae3	-0.22489505
9	0x3e35f8d2	0.17770699
10	0x3db1439c	0.086554736
11	0xbe1af8a2	-0.15133908
12	0xbf3e42c0	-0.743206
13	0xbc3ccf17	-0.011523983
14	0xbef4d320	-0.47817326
15	0x3d6c3acf	0.05767327
16	0xbefa4509	-0.48880795
17	0x3ef1c462	0.4722014
18	0x3e8f2168	0.27955174
19	0x3e21d53d	0.15804
20	0xbef6b373	-0.48183784
21	0x3e1ddd26	0.15416393
22	0xbeb613cd	-0.35561982
23	0x3c868ca6	0.016424488
24	0xbe4e6cc3	-0.20158677
25	0x3e812152	0.25220734
26	0xbf1678f0	-0.58778286
27	0x3e9c96e4	0.3058387
28	0xbe1d3574	-0.15352422
29	0x3e01a344	0.12659937
30	0xbeba74d4	-0.36417258
31	0xbe027818	-0.12741125
32	0x3eae7bd2	0.34078842
33	0x3ea99223	0.33119306
34	0x3ec4ba9b	0.3842362
35	0xbdc9969b	-0.09843179
36	0x3edff209	0.43739346
37	0xbf81d736	-1.0143802
38	0x3ea7e648	0.32792878
39	0xbf4ac1a4	-0.7920172
40	0xbe8f04b0	-0.27933264
41	0xbe82691f	-0.25470826
42	0x3cb44e99	0.022010135
43	0xbdc27352	-0.09494652
44	0x3ea16ff8	0.31530738
45	0xbec2f118	-0.38074565
46	0x3f32f560	0.6990566
47	0xbf29d3d7	-0.66338867
48	0xbe8e8cd5	-0.2784182
49	0x3f546d8f	0.82979673
50	0xbe83c938	-0.25739455
51	0xbe1e6974	-0.15469915
52	0xbf0057c9	-0.5013395
53	0xbc676057	-0.01412209
54	0x3e92262e	0.28544754
55	0x3eaf6845	0.3425924
56	0x3d33cc95	0.043896277
57	0xbe9caa45	-0.30598655
58	0x3eaff460	0.3436613
59	0x3bf7f597	0.0075671184
60	0x3e0dfe22	0.13866475
61	0x3e9407c5	0.28912178
62	0xbeb9a61b	-0.3625954
63	0x3d2400e2	0.040039904
64	0x3f284ff7	0.65747017
65	0x3e7c7b31	0.24656369
66	0x3e6e080e	0.2324526
67	0xbd90d363	-0.07071569
68	0x3e56a094	0.20959693
69	0x3f250661	0.6446286
70	0x3e45f8c5	0.1933318
71	0x3d11ded2	0.03561289
72	0x3e493058	0.19647348
73	0xbe7ee8dd	-0.24893518
74	0x3dbe94e7	0.093057446
75	0xbf324753	-0.6964008
76	0x3e460ec8	0.19341576
77	0xbe8e0008	-0.277344
78	0xbef109fc	-0.4707793
79	0xbedb228e	-0.427998
80	0x3e0d2fad	0.13787718
81	0xbe4fef0a	-0.2030603
82	0xbcd2cb7a	-0.02573179
83	0x3f214fdc	0.6301248
84	0xbb129621	-0.0022367316
85	0xbeab8bf3	-0.3350521
86	0xbf16ab5f	-0.5885524
87	0xbf337ec7	-0.7011532
88	0x3da52867	0.08064347
89	0xbf69d02a	-0.9133326
90	0x3b93ffe8	0.0045165904
91	0xbee011eb	-0.4376367
92	0x3ef95edf	0.48705193
93	0xbeadc2fb	-0.3393782
94	0x3d4f3b24	0.05059351
95	0xbea4b534	-0.32169497
96	0x3ed01383	0.40639886
97	0x3e39dd6a	0.18150869
98	0xbf8f5d6f	-1.1200389
99	0xbe5c0c17	-0.21488987
100	0xbead2d9d	-0.33823863
101	0xbd8fb0ae	-0.07016121
102	0x3f060a76	0.5235971
103	0xbea3cb0d	-0.31990853
104	0x3efcd95c	0.49384582
105	0xbdcb9a66	-0.099415585
106	0xbf1704e5	-0.58991843
107	0x3ddc758e	0.10764609
108	0x3daf1f1d	0.08550856
109	0xbdf13f19	-0.11779613
110	0xbe2764ea	-0.1634709
111	0x3ee2da31	0.44307092
112	0xbcd202d8	-0.025636122
113	0xbeb8adc2	-0.36070067
114	0xbe375a29	-0.17905487
115	0xbeb8b908	-0.36078668
116	0x3d6f78e7	0.05846491
117	0x3f8521d6	1.0400951
118	0xbe25a406	-0.16175851
119	0xbea3aa9e	-0.31966108
120	0xbe2c7a04	-0.1684342
121	0xbf072236	-0.52786577
122	0xbf6d86fa	-0.9278408
123	0xbe51b417	-0.20478855
124	0x3efe84fc	0.49710834
125	0x3dab01d2	0.083499566
126	0xbcadcfd7	-0.02121727
127	0x3f3b2fca	0.73119795
128	0x3e91df33	0.284906
129	0xbc957535	-0.018244365
130	0x3ea1f98e	0.31635708
131	0xbd9d66b3	-0.07685604
132	0xbe19b3ad	-0.15009947
133	0xbdd5e415	-0.10443894
134	0x3e7d97df	0.24764965
135	0x3e499f8e	0.19689772
136	0xbe02160a	-0.1270372
137	0xbcf2329d	-0.02956515
138	0xbeb675f9	-0.3563688
139	0xbe33e356	-0.1756719
140	0x3eb59bd8	0.35470462
141	0xbe6374a5	-0.22212465
142	0xbdc460f3	-0.09588804
143	0x3e98caaa	0.2984212
144	0xbf04b2cf	-0.5183534
145	0xbe5a76f6	-0.21334442
146	0x3e91fa83	0.28511438
147	0x3e8f5d8b	0.28001055
148	0x3eb170bc	0.34656322
149	0x3daec69a	0.08533974
150	0x3eefbee8	0.46825337
151	0x3f499315	0.78740054
152	0x3f0a5e09	0.54049736
153	0x3d162e7d	0.03666543
154	0xbe476d9b	-0.19475405
155	0x3e4f21b5	0.20227702
156	0x3e4d9fd3	0.200805
157	0x3dc83e41	0.09777499
158	0xbee5c81e	-0.4487924
159	0x3ec09f42	0.37621504
160	0x3e8d2468	0.27566838
161	0x3e780256	0.24219641
162	0xbed3958b	-0.4132503
163	0xbe08708d	-0.13324185
164	0xbe2569d1	-0.16153647
165	0x3e0bbcfd	0.13646312
166	0x3e730622	0.23732808
167	0x3d3ece7c	0.046583638
168	0x3ef6c937	0.4820039
169	0xbe5f621c	-0.2181477
170	0xbe669099	-0.22516097
171	0x3e02925f	0.12751149
172	0xbd807dec	-0.06274018
173	0xbe33b2dc	-0.17548698
174	0xbf172188	-0.5903554
175	0x3f3a0438	0.7266269
176	0xbdb41eb2	-0.08794917
177	0xbe9c3a8b	-0.30513415
178	0xbe83e505	-0.25760666
179	0xbdfa7459	-0.12229223
180	0x3e909219	0.28236464
181	0xbe0f69aa	-0.14005151
182	0xbe992072	-0.29907566
183	0xbe2467c4	-0.16055208
184	0xbe41f231	-0.18940045
185	0xbcf1aa01	-0.02950001
186	0x3e724894	0.23660499
187	0xbf09d4cd	-0.53840333
188	0x3ec82f38	0.39098525
189	0xbe083831	-0.13302685
190	0xbf887456	-1.0660503
191	0xbe9ed32f	-0.31020495
192	0x3f4fda1f	0.811922
193	0xbe1441bd	-0.14478202
194	0x3da88417	0.08228319
195	0x3e8c782c	0.27435434
196	0xbe8ae869	-0.2713044
197	0x3e1ddd41	0.15416433
198	0x3e27b940	0.16379261
199	0x3eb5ebc2	0.3553143
200	0x3f128a6d	0.5724247
201	0xbd6a3a37	-0.057184424
202	0xbd02f3fe	-0.03197097
203	0x3e48ef80	0.19622612
204	0xbe124a5c	-0.14286178
205	0xbd99da1e	-0.07512306
206	0xbdd6d81c	-0.10490438
207	0xbee9edf2	-0.4568935
208	0xbcb0e26e	-0.021592345
209	0x3dab0e21	0.08352304
210	0xbe75a7ab	-0.23989742
211	0x3f458a58	0.7716422
212	0xbd0c5e01	-0.034269337
213	0x3f4c167d	0.79721814
214	0x3e9fd0b1	0.31213906
215	0x3e599433	0.2124794
216	0xbb866086	-0.004100862
217	0x3f24558a	0.6419302
218	0xbe2a9f23	-0.16662268
219	0x3e135e8e	0.14391539
220	0x3e5f1f09	0.21789183
221	0x3d49aff3	0.049240064
222	0xbed21318	-0.41030192
223	0xbe536aae	-0.20646164
224	0xbec481ed	-0.38380376
225	0x3f5486a8	0.8301797
226	0x3d14f0d7	0.036362495
227	0xbd524839	-0.05133841
228	0xbf6f9878	-0.93592024
229	0xbc5c817b	-0.013458605
230	0x3ef036aa	0.46916705
231	0x3f2862f6	0.65776
232	0xbddbb0f8	-0.107271135
233	0x3ec8d9cc	0.39228666
234	0x3d9daed4	0.076993614
235	0x3f119db0	0.5688124
236	0xbd4aebb3	-0.049541187
237	0xbef66f08	-0.48131585
238	0xbed9699a	-0.4246338
239	0xbe210868	-0.15725863
240	0x3ef98d8d	0.48740807
241	0xbe9a97be	-0.30193895
242	0x3d113413	0.035450052
243	0x3dcff2dd	0.10153744
244	0x3eb5b4eb	0.35489592
245	0x3d5036e6	0.050833605
246	0xbe7b17ec	-0.24520844
247	0xbf1045d0	-0.56356525
248	0xbcacbd17	-0.021086259
249	0x3ea2c2ed	0.31789342
250	0x3e29c685	0.16579635
251	0x3f062add	0.52409154
252	0x3c09d585	0.008412723
253	0xbedc62d0	-0.43044138
254	0xbd3a106e	-0.045425825
255	0xbebd4842	-0.3696919

gru.weight_hh_l1 f4 [384, 128]
0	0x3d2c7b6c	0.04210989
1	0xbd6365e7	-0.055517104
2	0xbec27279	-0.3797796
3	0xbe8620bb	-0.26196846
4	0x3f13a927	0.5767998
5	0xbdfab548	-0.12241608
6	0xbe5cfce2	-0.21580842
7	0xbe737853	-0.23776369
8	0x3dcb69c8	0.099322855
9	0x3db4c8db	0.08827373
10	0x3d55b68f	0.052176055
11	0x3dd24355	0.10266749
12	0x3dc2dfae	0.0951532
13	0x3e5bf008	0.21478283
14	0xbed0326c	-0.4066347
15	0xbc4f5f4b	-0.012656997
16	0xbdf043db	-0.117316924
17	0x3e1fe371	0.15614106
18	0xbe12c224	-0.14331871
19	0xbdb9e06e	-0.0907601
20	0x3e849dd5	0.25901666
21	0x3e6825f5	0.2267073
22	0xbe7aad08	-0.24480069
23	0xbef532cd	-0.4789032
24	0x3c3cb8ce	0.01151867
25	0x3f13c2aa	0.5771891
26	0x3cc8663a	0.024462808
27	0xbd0ad9d6	-0.03389915
28	0xbf18d73d	-0.5970343
29	0xbf033632	-0.5125457
30	0xbe3d80eb	-0.1850621
31	0xbdeecdee	-0.11660372
32	0x3dbd705e	0.09249948
33	0x3d18959b	0.03725205
34	0xbe947ce2	-0.29001528
35	0x3e0b73a6	0.13618335
36	0xbf0318f4	-0.5120995
37	0xbc9f21eb	-0.019425353
38	0x3ebc4db1	0.36778024
39	0xbf03677c	-0.5132978
40	0x3e46a256	0.19397864
41	0xbe9fa8e6	-0.31183547
42	0x3e6f57b3	0.23373298
43	0xbe860b6e	-0.26180595
44	0x3e8ea4bf	0.27860066
45	0x3d4812b2	0.048845954
46	0xbd1c1479	-0.03810546
47	0x3ed63276	0.41835374
48	0xbe8e01b3	-0.2773567
49	0x3eebb495	0.4603621
50	0xbd00a344	-0.031405702
51	0xbe0bf845	-0.13668926
52	0x3de8960d	0.11356745
53	0x3e4ccaa5	0.19999178
54	0xbe099d9c	-0.1343903
55	0x3e02a632	0.12758711
56	0x3e7517c5	0.23934849
57	0xbd1abd63	-0.03777827
58	0xbd6a9416	-0.057270132
59	0x3da61263	0.08108976
60	0xbd569cad	-0.05239551
61	0xbe712e90	-0.23552918
62	0xbd0e7c0e	-0.034786277
63	0xbd4ab433	-0.049488258
64	0xbcf462e9	-0.02983232
65	0xbf55c47b	-0.8350293
66	0x3d024e49	0.03181294
67	0xbf2e7e42	-0.68161404
68	0x3da15697	0.07877844
69	0x3e46ff2f	0.19433282
70	0x3dde0980	0.10841656
71	0x3db42f51	0.087980874
72	0x3d3e2b4f	0.04642802
73	0xbe6670f5	-0.22504027
74	0xbe233755	-0.15939076
75	0x3e6fcc4f	0.23417781
76	0x3c6eb02e	0.014568372
77	0x3ed1d02c	0.40979135
78	0x3e04deff	0.12975691
79	0xbf2f44eb	-0.68464535
80	0x3f243158	0.6413779
81	0xbe9bcc3b	-0.30429253
82	0xbe87e21d	-0.26539698
83	0x3e42299a	0.18961182
84	0xbead3bf8	-0.33834815
85	0x3ec3f727	0.382745
86	0xbbbee78a	-0.0058259415
87	0xbea5a870	-0.3235507
88	0x3f2275b5	0.63460857
89	0x3c5f9362	0.013645979
90	0x3e1f96c1	0.15584852
91	0x3f51c193	0.81935996
92	0x3d38fa2b	0.045160454
93	0xbd8e8cfb	-0.06960484
94	0xbce93683	-0.028468376
95	0x3e4a348c	0.19746608
96	0x3ed9b290	0.42519045
97	0x3e7931df	0.2433543
98	0x3ddf01b1	0.108889945
99	0xbde3b85e	-0.111191496
100	0x3ec7e264	0.3903991
101	0x3e660364	0.22462231
102	0x3ed4a8de	0.41535085
103	0x3e6ab25c	0.22919601
104	0xbed85da2	-0.42258936
105	0xbebf0d65	-0.37314907
106	0x3e98e429	0.29861572
107	0x3c356bb8	0.011073045
108	0x3da89cfb	0.08233067
109	0x3e09d771	0.1346109
110	0xbf20ccac	-0.62812304
111	0x3d6a928e	0.05726867
112	0xbe0e210e	-0.13879797
113	0x3e35ec0f	0.1776583
114	0xbe2bcb18	-0.16776693
115	0xbbe6d188	-0.007044021
116	0xbe447015	-0.19183381
117	0xbe0c12bd	-0.13679023
118	0xbeb2323c	-0.3480395
119	0x3d936be7	0.07198315
120	0x3ea90195	0.3300902
121	0xbf3842e9	-0.71977097
122	0x3ecb96ac	0.3976339
123	0x3eb0c418	0.34524608
124	0x3e91c3bc	0.28469646
125	0xbe6ecde1	-0.23320724
126	0x3e8cebf1	0.2752376
127	0xbddd9dbd	-0.10821102
128	0x3d87f894	0.066392094
129	0xbeb611ab	-0.35560355
130	0xbe40eaad	-0.18839522
131	0x3e07c527	0.13258801
132	0xbedfbc9d	-0.43698588
133	0x3e4a616d	0.19763727
134	0x3e80fb2c	0.2519163
135	0x3decc618	0.11561221
136	0xbd7ec4a9	-0.06219927
137	0x3dfc1bfb	0.12310024
138	0x3ec7be71	0.39012483
139	0x3f20985a	0.6273247
140	0xbe2a1a1d	-0.16611524
141	0x3dfd736e	0.12375532
142	0x3ce2e9fc	0.027699463
143	0x3e685b77	0.22691141
144	0x3d957be6	0.072990224
145	0xbdb7fd3c	-0.089838475
146	0xbd87f95e	-0.0663936
147	0x3f358010	0.7089853
148	0x3d23b78a	0.03996996
149	0x3e130c4c	0.1436016
150	0x3e920ea3	0.28526792
151	0xbd1da854	-0.03849061
152	0x3e1587ff	0.1460266
153	0x3ef38f4d	0.47570267
154	0xbca86fcb	-0.02056112
155	0xbe39cd5f	-0.18144749
156	0x3ef682ca	0.4814666
157	0x3db49325	0.08817128
158	0xbe69b871	-0.22824265
159	0x3ea23aa6	0.3168537
160	0x3d80658d	0.06269369
161	0x3e189339	0.14899911
162	0x3d8cac57	0.06868809
163	0xbdfb8c99	-0.12282676
164	0x3ec3a3f1	0.38211015
165	0xbea604aa	-0.32425433
166	0x3e50d7b9	0.20394792
167	0x3e996e90	0.29967165
168	0x3dda2a5c	0.10652611
169	0xbe2ab5ff	-0.16670989
170	0xbeb414d5	-0.35172144
171	0xbf098e30	-0.53732586
172	0x3f01a525	0.50642616
173	0xbef3ab98	-0.47591853
174	0x3eaaa3a6	0.3332798
175	0xbe9e6ee9	-0.30943993
176	0xbf2383c4	-0.63872933
177	0xbe976522	-0.29569346
178	0x3eaf7dd3	0.34275684
179	0x3e06bd42	0.13158134
180	0x3cb93842	0.022609834
181	0xbec66efe	-0.38756555
182	0x3e4cd85d	0.20004411
183	0xbf253049	-0.645268
184	0x3ee15fc6	0.44018382
185	0xbe2cccb5	-0.16874965
186	0x3e8a36f7	0.2699506
187	0xbdbd1bec	-0.09233841
188	0x3f0d6759	0.5523582
189	0xbd225e6d	-0.039640833
190	0xbe8ba784	-0.27276242
191	0xbdbc54f6	-0.091958925
192	0xbe969473	-0.29410133
193	0x3c6be401	0.014397622
194	0xbdcd1690	-0.10014069
195	0x3d2a99b3	0.041650485
196	0xbcc5bbce	-0.024137404
197	0x3e4893d2	0.19587639
198	0xbeb86dc8	-0.36021256
199	0xbe8924b8	-0.26785827
200	0xbeb152db	-0.34633526
201	0x3e685148	0.22687256
202	0xbe5f09fa	-0.2178115
203	0x3e198d34	0.14995271
204	0x3ca1d2b8	0.019753799
205	0xbeda4e62	-0.42637926
206	0xbe3f7e7e	-0.18700597
207	0xbd200e3b	-0.03907607
208	0xbcb859d1	-0.022503765
209	0xbc975fa6	-0.018478226
210	0xbe668647	-0.2251216
211	0x3de5cb70	0.11220443
212	0x3eec847f	0.46194836
213	0x3e9269ed	0.2859644
214	0x3de9d44d	0.11417446
215	0x3cc242dd	0.023713524
216	0x3f13156f	0.5745458
217	0x3d04248f	0.032261427
218	0xbf41d2ce	-0.7571229
219	0x3e239f66	0.15978774
220	0x3db87505	0.09006695
221	0x3dc20849	0.094742365
222	0xbebf093e	-0.3731174
223	0xbe10105b	-0.14068739
224	0x3eb63ea3	0.35594663
225	0x3d6780e1	0.056519393
226	0x3f1d7637	0.61508507
227	0x3eb81c01	0.35958865
228	0xbf0551ad	-0.5207775
229	0x3eb4d8e1	0.35321715
230	0xbe8fa335	-0.28054205
231	0xbe43dff9	-0.19128408
232	0x3dc82613	0.09772887
233	0x3e832755	0.25615945
234	0xbe8602f0	-0.26174116
235	0x3e826388	0.2546656
236	0x3f33dd56	0.70259607
237	0x3ed0fa99	0.4081619
238	0x3e3520a8	0.17688239
239	0x3d42fc8c	0.04760413
240	0x3f09125d	0.53543645
241	0xbedaf3a8	-0.4276402
242	0xbdb0fd7a	-0.08642097
243	0x3e4fd73b	0.20296948
244	0x3eece3a5	0.4626743
245	0xbe6876a8	-0.22701514
246	0xbe5b583b	-0.21420376
247	0x3d27b2d8	0.040942043
248	0x3f06fb4e	0.5272721
249	0xbef93523	-0.48673353
250	0x3ee8e559	0.45487478
251	0x3e51dad3	0.20493631
252	0x3e04f154	0.12982684
253	0x3ede3435	0.43399206
254	0xbe078107	-0.13232814
255	0xbbd5f42c	-0.0065293517
