models/grudecoder.model (torch, 284161 bytes, 7 tensors)

embedding.weight f4 [128, 8]
00000000: 3a10 c33e b28f f43e c56b aebd 685d a4be
00000010: 8471 da3e a8d2 543d 1682 5a3e 9c6b 903f
00000020: 85b6 e8be 7dc7 5cbf e2f5 473f 2477 63bf
00000030: d639 c23f b838 22bf 3aa6 a53b 230c 07c0
00000040: 6a2a 803f 1a66 b5bf a314 263f d324 c9bf
00000050: fc03 0cbf ab87 0ebf 14b5 6c3f 26e5 793f
00000060: 413a 123d 6091 a3bf 7ab3 95bf ab0b 0d40
00000070: d58d 16bf 13ad ca3f da9d 55be 94d0 053f
00000080: 6b35 773e c46b 9dbe 2732 773f 20d7 e6be
00000090: 3659 25bf 6b42 ffbf 5c20 ecbd 2384 9bbf
000000a0: a0b6 db3f 6941 bc3b a063 8ebe 7692 483e
000000b0: 8eac 9f3e 28f0 50bf e27c 2cbe c79a b5be
000000c0: ab6d f1bf c435 e2bf 57a8 62bf f3e1 4bbf
000000d0: 4e50 34be f453 0a40 97b2 f0be 7ca2 9a3f
000000e0: d292 99be a13f ab3f 2880 89bf 393d e3be
000000f0: b23c b2bf a7ce 5f3f 78e5 b13e dd56 41bf
00000100: f587 873f e1f8 14bf 355a 57bf 1e28 ae3f
00000110: e2a2 1e3f 463d 95bf 35c6 dc3f bac6 3abf
00000120: 3f27 2abf f354 5bbe b3c2 95be 71cf 9b3f
00000130: 6e68 b23d d5fb 2140 f0c6 403f 8f26 0dc0
00000140: ffb0 b3be 0120 413f 2962 46bf 4935 0340
00000150: 9f25 543e ba43 8a3f 5419 5f3f 851d c23e
00000160: e714 14bf 3a38 a3be 714d 8ebf b60f bd3f
00000170: 4e7e 56bf e3e6 9cbf 9701 07bf 2472 a33f
00000180: 897e 22bf c1b8 4a3f 2270 c03c bb8d f63d
00000190: fcb1 24bf 5ae1 2bbf 4475 b9bf 7c86 13bf
000001a0: fd46 c3bd b321 473f 4e62 8fbf ef67 0b3d
000001b0: 1ea4 eb3e 8f3b a4bf 4688 9b3f f813 333f
000001c0: f97a 9dbe beea d0bd 39b9 a2be a79f da3d
000001d0: 67d8 4dbe 8d18 9a3f d4f5 e7bd 5cb3 803f
000001e0: 477e c33f 3465 e1be 270b b83f b53f 0f3e
000001f0: b236 93bf ffef 953f 2103 a0bf 7517 afbf
00000200: 5823 91be ea0e da3e 9b01 fd3e bcf6 bd3d
00000210: a686 173f 557a 5d3f 15b8 f93f 4f00 e03f
00000220: 7d83 e1be 2873 cf3e f8dc cabf 2ca2 63bf
00000230: 52b4 e0bf cb5c 26bf 4e3b e53f 8526 b7bf
00000240: 3d18 753e f807 873f c59e cfbe 6bf8 77bf
00000250: d1ec e9bd fb3d e7bf 03cc 21bf b784 0cbf
00000260: 3713 b93d 222a f33e 80b9 06c0 a847 adbf
00000270: e848 fc3e cf9c 2abf 0175 c6be aa98 58bf
00000280: a7eb c0be 8983 a43c 5a5e 8dbd ac4b 32bf
00000290: 838b 80be 20da 563f eb19 54bf c60b 203f
000002a0: 197e 8b3f af92 8cbf 2526 af3e e0cc 3c3e
000002b0: aa8d 8bbf 2106 213f d98e b8bf e667 4f3f
000002c0: ea6a 8a3f 98f0 33bf df0b b33f 6d43 82be
000002d0: 59b6 90bf 7755 083f 8ce4 4fbf a49a 2c3e
000002e0: 64cb 853f a760 25bf 9c3d b4bd 6b63 e0be
000002f0: 56bd 15bf 6bf2 f23e d968 4bbf 7300 04bf
00000300: 9cea a53f 3f05 81bf 3d26 983e fb40 003e
00000310: a6e4 3cbe c5d8 ac3e 8d6e 5a3e 7cf3 40bf
00000320: e842 6fbd 24da 2e3f 5dc9 8fbd b82c 5a3f
00000330: 662f 68bf eeee 653e d0de 06bf 76ee 773d
00000340: 9e53 ab3e 5ba4 83bf 8095 87be 501c 3ebe
00000350: 584a 6ebf 11c6 2d3e 0a48 af3e c485 363e
00000360: 7102 003f 977c 42bd d0d9 983e 45fc 503f
00000370: f66c 0a3d 1474 813f 8d6f 14bf 7522 00bf
00000380: e7ce fd3e 9d3b ddbe f016 c03e ea05 44bd
00000390: e408 2bbf 75c4 83bd d967 80bf 5329 c8bc
000003a0: 6dd8 45be 8106 a13c bcf3 c73e d485 ccbe
000003b0: 4bb6 eb3e 2294 c03e 05c7 1ebf e50c 5ebf
000003c0: 0021 0e3d 35ac 30bf df39 d63e 68ed 053f
000003d0: 6f22 a4be f2a4 943d 4b9d c6bc 0644 e63e
000003e0: 9683 d93e 2397 813e 5baa fa3e 632d 423d
000003f0: f573 4fbe f840 0c3e df3a f3bc 44a7 04bf
0.38098317 0.4776588 -0.08516649 -0.32102513 0.4266473 0.05195871 0.21338686 1.128284
-0.4545175 -0.86241895 0.7810956 -0.8885367 1.51739 -0.63367796 0.005055216 -2.1101158
1.0012944 -1.4171784 0.6487524 -1.5714363 -0.5469358 -0.5567576 0.92463803 0.9761528
0.035700087 -1.277874 -1.1695397 2.2038372 -0.5881017 1.5834068 -0.20860997 0.5227139
0.24141471 -0.3074628 0.965609 -0.45086002 -0.6458925 -1.9942144 -0.115296096 -1.21497
1.7165108 0.005745102 -0.27810383 0.1958712 0.31186336 -0.8161645 -0.16844514 -0.35469648
-1.8861593 -1.7672658 -0.88538116 -0.79641646 -0.17608759 2.161374 -0.47011253 1.2080836
-0.29994828 1.3378793 -1.0742235 -0.44382647 -1.3924773 0.874247 0.34745383 -0.7552317
1.0588366 -0.5819226 -0.8412202 1.3605993 0.6196729 -1.1659324 1.7247988 -0.7295948
-0.66466135 -0.21419124 -0.29250106 1.2172681 0.08711325 2.5309956 0.75303555 -2.2054784
-0.35095975 0.7543946 -0.7749353 2.0501273 0.20717476 1.0801919 0.8714802 0.37913147
-0.57844394 -0.31878835 -1.1117383 1.477042 -0.83786476 -1.2257961 -0.527368 1.2769208
-0.6347433 0.7918816 0.02349097 0.12038752 -0.6433408 -0.67140734 -1.4488912 -0.5762708
-0.09535024 0.77785796 -1.1201875 0.034034666 0.4602365 -1.2830676 1.2150962 0.69952345
-0.30757883 -0.102010235 -0.3178194 0.106749825 -0.20102082 1.2038742 -0.11326185 1.0054736
1.5272912 -0.44022524 1.4378403 0.13989146 -1.1501067 1.1713866 -1.2500955 -1.3679034
-0.28347278 0.42589504 0.49415287 0.092755765 0.5918983 0.8651479 1.9509302 1.7500094
-0.4404563 0.40517545 -1.5848684 -0.8891933 -1.7555029 -0.6498534 1.7908723 -1.430863
0.23935027 1.0549307 -0.4055082 -0.9686343 -0.11422122 -1.806579 -0.6320192 -0.54890007
0.09036868 0.47493082 -2.105072 -1.3537493 0.49274373 -0.6664552 -0.38761142 -0.84607947
-0.37679788 0.020082252 -0.06902762 -0.69646716 -0.2510644 0.8392658 -0.8285205 0.62517965
1.0897857 -1.0982264 0.3420879 0.18437529 -1.0902607 0.62899977 -1.4418594 0.8101791
1.0813878 -0.7028899 1.3987998 -0.25442067 -1.1305648 0.5325541 -0.8120811 0.16855866
1.0452695 -0.64600605 -0.088008136 -0.4382585 -0.5849203 0.47450575 -0.7945686 -0.51563185
1.2962222 -1.0079726 0.29716673 0.12524788 -0.18446597 0.33759132 0.21331234 -0.7537153
-0.058413416 0.68301606 -0.07020829 0.85224485 -0.90697324 0.22454426 -0.52683735 0.06053015
0.33462232 -1.0284532 -0.26481247 -0.18565488 -0.9308219 0.16970088 0.3423465 0.17824465
0.50003725 -0.0474821 0.29853678 0.8163493 0.03379532 1.0113549 -0.57982713 -0.5005258
0.49571916 -0.43209544 0.375175 -0.047857203 -0.6681044 -0.064339556 -1.0031692 -0.024433767
-0.19320841 0.019656422 0.39053142 -0.39945853 0.46037516 0.37613016 -0.6202243 -0.86738425
0.03469944 -0.6901277 0.41841027 0.5231538 -0.3205752 0.07258023 -0.024244925 0.44973773
0.42483205 0.2531062 0.48958096 0.047406565 -0.20259078 0.13696659 -0.029691158 -0.5181773

gru.weight_ih_l0 f4 [384, 8]
00000000: 0d1e d83e 381d 3b3e dc25 0cbc b76e ee3e
00000010: 2d0d ab3d 7019 c33e bda8 e53e a71c 6e3e
00000020: d834 6bbe 0add ad3c 6988 9f3c 38de 1cbf
00000030: e118 393f 4d41 00bf 1b95 5d3f 8eed b0be
00000040: 3394 893e 78ff 33be 0153 debe 651d 93bf
00000050: 0824 df3e 6fa8 58bf 752d ad3c ce5d 513f
00000060: 4f18 043f 1e5c e63e 6a0f 3bbf f22a 7abf
00000070: e4ab 533f bc5a 903d 4912 863e 9901 313f
00000080: be5f 173f 3356 003f dda2 8a3e 8d75 37bf
00000090: ba73 123f c488 783e 8144 513f b8d5 263f
000000a0: d774 49be 2e52 653d 1d9e 74be 12da bbbc
000000b0: 6ff9 bc3e c834 54bc 17eb e0be b8e3 dabd
000000c0: 0ad1 5fbe 8fbe 8abe 7872 623e 1e4a c83d
000000d0: fac2 8cbe caf0 9ebd bc40 20be 1eb4 06bf
000000e0: e163 d43e 4621 6f3d 9852 823d 979a 1c3d
000000f0: e35a 783e 6567 dabd c27a 823e ff4a 86be
00000100: 823c 2cbf 8666 5ebf 46df 2a3f 0532 203f
00000110: 142d 30bf 0b33 25bf f709 f1be 866d 73bf
00000120: 2d29 b2be 84b9 c3be 1403 84be cfde c83d
00000130: bba6 d4be cedc b1bc 1a8a 1e3e b4e2 ffbe
00000140: f628 a93e d2e1 d5bd 9175 2cbe aeb4 c7bc
00000150: 228d 833e 8d42 90bc c2f4 40bf 032f 7e3e
00000160: 9b4d 073f 204b 173f 9ec3 24bf 7052 dcbe
00000170: d0df 03bd 51f3 a33f 63dc d03e bc12 f43e
00000180: ee9b f6bd e2b9 5ebf 75ef bf3d 9fe2 8dbe
00000190: 7702 73be 2ea5 59bd 9dd2 d53e 5d82 6c3e
000001a0: f316 873e 9154 8e3e d249 1fbb 7642 80be
000001b0: eb12 053e 9f0b 723e 1bf4 133e 30a9 cd3e
000001c0: 231f 10bf 6326 a3be 6150 f33d f555 033f
000001d0: ea16 10bf f132 18be 254e d7be dc92 49bf
000001e0: 2b8a ae3d 786a 373e ea92 143e 0395 97bd
000001f0: 90b5 883d b46a ba3d 1bb8 903d 3879 5bbc
00000200: 5c37 cf3e 2462 0f3e 9540 2dbe 48fc f73e
00000210: b095 483e 9034 833e 4458 c23e a125 02bf
00000220: bb79 de3e 997a b63e f356 663d 7de4 0abf
00000230: 14c5 2b3f ce80 c23e 8add 063f 588e 103f
00000240: 20c8 9e3e d674 8d3e 599e 043e 23b3 cdbc
00000250: ada1 513e 4ee7 303e e231 423e fdd0 5a3e
00000260: 0433 7c3e 5e85 c43e b2fb 273e 5046 88bf
00000270: 4ed8 86be f1ec c8bf bc59 a1bd 4fd3 713e
00000280: cd3d df3e 2ac3 db3e 2311 c23e b895 fdbe
00000290: 8dd3 4b3f c54b 463e 8134 423f 64c5 293f
000002a0: 84cd 0f3f eb3f 083e fd54 b0bc 00d0 ecbe
000002b0: fce5 023f 79c7 1f3e 8231 013f 68c4 1c3f
000002c0: 0039 b53e 7c22 233f 24b2 3bbf c452 dabe
000002d0: 7abd 0e3f 2180 05be a742 a53d d71d 803f
000002e0: 9953 703e 3774 61be f769 483f e6d2 f8be
000002f0: 7695 693f 5ba8 7b3e 6f43 88bf add8 023f
00000300: 6523 8bbd ce50 fd3d ba46 383e 6168 06bf
00000310: 583e 803f dbfb ddbf 4ece 893f 2df6 763f
00000320: 9fb1 0d3c 6a74 013e 4979 27be 96f1 25bd
00000330: 0d95 023d a4a7 f83c 8e39 d5bd b770 9bbc
00000340: 168a 8a3e cad0 d03e 3a60 863e ca0e 81be
00000350: dfd4 883e fe21 c0be 379b 28be 258c 183e
00000360: 7691 9fbe 9ce3 83be 4787 463e dc34 a13e
00000370: f08a 9dbe 3e96 6dbe 3e45 ecbe ebf2 0bbf
00000380: b765 58bf bad7 2bbf 40e8 e7bd b3a9 26bf
00000390: 311c a13f 41a3 6b3f fb4e e43e e623 5d3f
000003a0: 00d0 a13e 3d62 763e d182 e7be ace5 573d
000003b0: e6c4 9f3e b8be 543e 87b5 fe3e 2570 ee3e
000003c0: 8677 b9bb e01e d03d 0195 b13e 90eb 16be
000003d0: 2cb5 503c f67a 9b3c 7dbf ad3e f13d 213d
000003e0: f174 943e 4aa7 cd3e 5bdd 9dbd 3e92 ccbd
000003f0: b1a7 b83e e24b e23c d147 b63e 956a 633f
0.42210427 0.18272865 -0.008553948 0.46568844 0.083521225 0.38105345 0.448553 0.23253118
-0.22969377 0.021223564 0.019474225 -0.6127658 0.7230359 -0.5009964 0.8655564 -0.3455624
0.2687088 -0.17577922 -0.43422702 -1.1493345 0.43582177 -0.8463201 0.02113984 0.8178376
0.5159959 0.44992155 -0.73070395 -0.9772178 0.8268416 0.07048556 0.26185825 0.6914306
0.59130466 0.5013153 0.2707738 -0.71663743 0.57207835 0.24270922 0.81745154 0.6516986
-0.19673477 0.055986576 -0.2388844 -0.022931132 0.36909053 -0.012952037 -0.4392936 -0.10687965
-0.21857086 -0.2709851 0.22113979 0.09779762 -0.27492505 -0.077607706 -0.15649694 -0.52618587
0.41482452 0.05838134 0.0636341 0.038233366 0.2425342 -0.10664252 0.25484282 -0.26229092
-0.6727983 -0.8687519 0.6674694 0.62576324 -0.68818784 -0.6453101 -0.47077915 -0.95088995
-0.3479704 -0.38227475 -0.25783598 0.09808122 -0.41533455 -0.021711733 0.15482369 -0.49977648
0.33039063 -0.104434624 -0.16841723 -0.024378147 0.25693613 -0.017609859 -0.7537347 0.24822621
0.5285279 0.59099007 -0.6436099 -0.43031645 -0.032195866 1.2808629 0.40793142 0.47670543
-0.1204146 -0.87002385 0.09371845 -0.2771196 -0.23731409 -0.053136043 0.41762248 0.23096605
0.26384696 0.27798894 -0.0024305475 -0.25050706 0.12995498 0.23637246 0.14448588 0.40168142
-0.5629751 -0.31865224 0.118805654 0.51303035 -0.56284964 -0.14863183 -0.42051807 -0.78739715
0.08522447 0.17911708 0.14509168 -0.074014686 0.06675255 0.09102383 0.07066365 -0.0133956
0.40471923 0.14002281 -0.16919167 0.48434663 0.19588351 0.2562604 0.37957966 -0.5083867
0.43452248 0.3564041 0.056235265 -0.54254895 0.6709759 0.37988895 0.5268179 0.564672
0.31012058 0.276282 0.1295103 -0.025109833 0.2047183 0.17275736 0.18964341 0.21368785
0.24628836 0.38383 0.16404608 -1.0646458 -0.26336902 -1.5697309 -0.078784436 0.23615764
0.43601838 0.42922336 0.379037 -0.4952829 0.79619676 0.19364841 0.75861365 0.6631682
0.56172967 0.13305633 -0.0215249 -0.4625244 0.5113218 0.15603437 0.5046617 0.6123719
0.3539505 0.63724494 -0.73318696 -0.4264127 0.5575787 -0.13037159 0.080693536 1.0009106
0.2346939 -0.22016989 0.7828669 -0.48598403 0.91243684 0.24575941 -1.0645579 0.5111187
-0.0679386 0.12368928 0.1799573 -0.5250302 1.0019026 -1.7342485 1.0766084 0.96469384
0.008648305 0.12642065 -0.1635486 -0.040513597 0.031880427 0.030353375 -0.10411368 -0.018974645
0.27058476 0.40784293 0.2624529 -0.25206596 0.26724908 -0.37525934 -0.1646546 0.14897211
-0.31165665 -0.2575959 0.19387542 0.3148564 -0.30770063 -0.23201844 -0.46146578 -0.5466754
-0.84530205 -0.6712605 -0.11323595 -0.6510269 1.2586728 0.9204598 0.44591507 0.863829
0.31604004 0.24060912 -0.45216992 0.052709267 0.3120491 0.20775878 0.4974787 0.46569934
-0.0056600003 0.10162139 0.34683993 -0.14738297 0.012738507 0.01897953 0.33935156 0.039365713
0.2899547 0.40166694 -0.07708236 -0.09988831 0.36065438 0.027624074 0.35601667 0.88834506

gru.weight_hh_l0 f4 [384, 128]
00000000: c023 04c0 31c4 ccbe 33c1 c4be 45c4 b63e
00000010: ed77 b83e 8d86 17ba a050 4f3e 4ee7 a63e
00000020: a27d 80be 4bf5 9f3e 9467 0ebd ec59 4abf
00000030: b742 2ebe 7614 55be 644c febd dd67 0a3e
00000040: 07cb 383f 0d6e df3e 2c99 7b3d c32a 073f
00000050: 677a 883e ab38 123e 18c4 083f 5ccc 493e
00000060: eb9f 99bf 21ea d4bd b9f7 f3bd 421b 93be
00000070: d879 bebe 800d 0c3d fdcc 88be cc00 d8be
00000080: bac8 b0be 068a c63e 4a19 5e3d e43b da3d
00000090: 77de babd 6384 c7be 4eec e7be 97da 1e3e
000000a0: 4d60 efbd 4fce 9bbe 05f3 7a3e 126c a53e
000000b0: 9df3 83bf 5a65 09be 0b7d 08be cb0c 793e
000000c0: bd90 cebd 41be 28be 272b 933e 3427 08be
000000d0: 0e7e 08be e2b5 bbbd 7016 a13e 5801 03be
000000e0: a953 833e faf3 abbe abe8 9abd 1019 10bf
000000f0: 065b 643e 34cc 7ebe f638 163f d00a 2a3c
00000100: 47ff 113e 0219 dbbd ffb9 e13e 8a4a b33e
00000110: 0b91 3c3f fee3 a5bd 244c 423e 5042 2a3e
00000120: c279 033e e99c c7be afa6 eabe 4bc7 153e
00000130: e98a 89be 8810 4ebd f7f7 bf3e b181 62be
00000140: c14e 493e 7168 dc3e cb15 44be 7890 9bbe
00000150: a2a0 303e 0547 f3be 8a03 aa3e 0dfa 853e
00000160: b1f5 a3be 6f16 a53e 28c8 74be bf4f 253f
00000170: 43dc 1bbe 548e 85be 274b 1dbc 60e2 353f
00000180: 9f3e 1a3d 84f8 44be c487 bd3e a69c fe3c
00000190: 059b df3d 5901 bbbe f3d7 84bd fdad 143f
000001a0: fdbd 1c3c f136 823e ac42 423e b9a8 733d
000001b0: 3b80 303e aca0 08bd d47c 083f 30c9 ca3e
000001c0: 2a1d ac3d 66ab 86be 4f70 edbd 9de4 163e
000001d0: 3051 2dbe 64e5 4ebf 15e5 b9bc 0759 ca3d
000001e0: 682b 19bc 97c8 9cbe 04ac 653e 2e76 be3e
000001f0: 6384 34be ea0e a4bf eb84 b53d f8c3 b13d
00000200: ed99 0dbf 5448 cebe 9ce6 553e 9762 e2be
00000210: ef4d 8e3e b24b 86bd 67b8 0b3f 4ec1 07bf
00000220: cb41 91bd fb4d 73be 60cc 43bf 7fff 0abf
00000230: 6c9e 4fbe c27f a83e 8f68 ac3b 3796 843e
00000240: 4a9a 0dbf 3af3 0d3f 2b83 9d3c 89b3 46bf
00000250: 911c 20bf cc23 ac3e 8335 1ebe 425e d53d
00000260: 97be 15be 977c a13d d4c4 803f b471 ee3e
00000270: 4e89 a33e be92 0b3e b102 9e3e 9c18 483d
00000280: f945 343e 24a6 93bd d485 5fbe 17b0 023f
00000290: 2d8a 3ebf 5ddb 96be c3d9 153f a473 b8be
000002a0: 9932 9a3e 3ace 993e fbec 0b3e 7439 003f
000002b0: 5436 26bf 5100 8d3d d012 cdbd 6994 5fbe
000002c0: e985 733e 850f dbbe 29fa 023e c5ce d13e
000002d0: 366e bbbc 88e3 a9be b8ac 133d 0a93 253e
000002e0: b550 01bf 70ec 0cbf 9be7 69be 2b51 163f
000002f0: 8daf e5be a251 543d 193f fb3e 1e71 133e
00000300: c393 91bd b4fe 51be 0cb5 1cbe 3692 803d
00000310: dd91 34bd 72dd dabd 979b 4b3e c6f4 473e
00000320: 6cab ab3f 2a4b 593e 9c87 8d3e 4985 bd3e
00000330: dbc8 1a3e 4f66 5e3e 1af1 bebe ce33 d83c
00000340: 0773 3a3d 78a4 153f fc71 92be 0b6f c33c
00000350: 13fd 29be 0fde 703e 87e9 cabe efd5 7bbe
00000360: 5944 09bf 5e50 143f 6362 afbd ebaf 5ebe
00000370: 9b94 b53e e102 443e 980d 87be ccca 0ebd
00000380: 07bb bcbc ede8 f2bd e5e6 d4be 4139 1a3f
00000390: d812 033f 063f 31bd bb94 afbf 9c80 b13d
000003a0: de55 84bd a47a d73c 6ea5 afbd ff8e 44bf
000003b0: 03ec c83d 354e c3bd 6722 893e 7bfc 8d3e
000003c0: f8cb 57be ba45 febd 0360 5b3e 7029 023e
000003d0: 6bcd 69be 0b84 c0be 0c5b 18bf f13c 9cbe
000003e0: a33a abbf e24c 30be 8f42 f33e 5847 dfbe
000003f0: 136e 353f 6441 db3e 3455 013e 791d 02bf
-2.064682 -0.39993432 -0.3842865 0.35696617 0.36028996 -0.00057802425 0.202456 0.32598346
-0.2509585 0.3124183 -0.03476675 -0.7904346 -0.17017637 -0.20808586 -0.12416914 0.13516183
0.72184795 0.4363865 0.061425373 0.52799624 0.26655886 0.1427943 0.53424215 0.19706863
-1.2001928 -0.10396219 -0.11912484 -0.28731734 -0.37202334 0.034192562 -0.26718894 -0.42188108
-0.34528142 0.3877718 0.054223336 0.106559545 -0.09124463 -0.3896819 -0.45297474 0.15513073
-0.1168829 -0.30430838 0.24506767 0.32309014 -1.030872 -0.13417569 -0.1332895 0.24321286
-0.100862004 -0.16478826 0.2874386 -0.13296205 -0.13329336 -0.09165551 0.3146243 -0.12793481
0.25649765 -0.33584577 -0.07563909 -0.5628824 0.22300348 -0.24882585 0.58680665 0.010378554
0.14257537 -0.10698129 0.44087216 0.35017806 0.7365882 -0.08100127 0.18974358 0.16626859
0.12839416 -0.389869 -0.45830294 0.14626805 -0.26863793 -0.050308734 0.3749387 -0.22119786
0.19658948 0.43048432 -0.19148938 -0.30383658 0.17248777 -0.4751512 0.33205825 0.26167336
-0.32023385 0.32243678 -0.23904479 0.6457481 -0.15220742 -0.2608515 -0.009600437 0.71048546
0.037657376 -0.19235426 0.37017643 0.031080555 0.109182395 -0.36524466 -0.064865015 0.58077985
0.009566781 0.25432542 0.18970746 0.05948708 0.17236416 -0.033356354 0.5331547 0.3960662
0.08404 -0.26302642 -0.11593687 0.14735647 -0.16925502 -0.8081877 -0.022692243 0.09880262
-0.009348728 -0.30621788 0.224289 0.3719954 -0.17628627 -1.2817051 0.08863243 0.08679956
-0.55313 -0.40289557 0.20888752 -0.44215843 0.27793834 -0.065574065 0.5457825 -0.53029335
-0.07092627 -0.23760216 -0.76483727 -0.54296106 -0.20275277 0.3290997 0.005261488 0.25895855
-0.5531355 0.5544926 0.019227585 -0.776177 -0.6254359 0.3362106 -0.154501 0.10418369
-0.14623486 0.07885092 1.0060067 0.46571124 0.31940693 0.13630196 0.30861428 0.048851594
0.17604817 -0.07209423 -0.21828395 0.5104994 -0.7442959 -0.29464236 0.58535403 -0.36025727
0.30116728 0.3004015 0.1366462 0.50087667 -0.6492665 0.06884826 -0.10013354 -0.21833958
0.23781551 -0.42785278 0.12790741 0.40978065 -0.022879701 -0.33181405 0.03605339 0.16169372
-0.50513774 -0.55048275 -0.22842257 0.587176 -0.44860497 0.051835664 0.49071577 0.1439862
-0.071082614 -0.20507318 -0.15303439 0.062778875 -0.04408442 -0.106867686 0.19883572 0.19526967
1.3411689 0.21220079 0.27642524 0.3701575 0.15115683 0.21718715 -0.3729332 0.02639189
0.045519855 0.58454084 -0.28602588 0.02385666 -0.16600446 0.23522209 -0.39631292 -0.24593328
-0.53619915 0.5793513 -0.08563688 -0.21746795 0.3546494 0.19141723 -0.2637756 -0.03486137
-0.0230384 -0.11860833 -0.4158241 0.6024361 0.5120063 -0.043272994 -1.3717264 0.086671084
-0.0646169 0.026303597 -0.08576475 -0.76780695 0.09810641 -0.09536401 0.2678406 0.2773169
-0.21073902 -0.12415643 0.21423344 0.1271112 -0.22832267 -0.3760074 -0.59513927 -0.30515245
-1.337727 -0.17216828 0.47511718 -0.43609118 0.70871085 0.42823327 0.12630159 -0.5082622

gru.bias_ih_l0 f4 [384]
00000000: fdba 623e e1cb d63d d049 0bbd bc89 123e
00000010: d404 cfbe 03d6 2abd 25fa 6b3d 33eb 3a3e
00000020: 47ff 883d 80f0 1c3e b8b7 29be f796 c3bd
00000030: b3b4 93be c9d8 383d 2ca9 82be 33d7 b4bd
00000040: 16f4 42be 225e 2cbd 69b2 25be 9f3f 20bd
00000050: 72e2 62be 1373 dfbd 849b 6c3e bfc6 d8be
00000060: bade c3be 397d 62bd fd30 7cbb 2fae 853d
00000070: 35a9 5ebe bfda 1abe e60b 05bd 8652 773e
00000080: 8838 63bd 1dc1 0ebe 7c4d a1bd ddbf 82bc
00000090: 3fe0 1a3e 7f16 0abf 2a99 17be ee90 38bd
000000a0: 79e4 febc 7638 85be 36cb 99be 0c5d c23b
000000b0: 940c 1cbe df16 ac3e 5b12 8b3d 9dba 21be
000000c0: 4c7b 05be 763c 163e 91b4 0b3e a031 313e
000000d0: f1e7 603e 7913 86be a1a1 25bf 4d17 893e
000000e0: 04f9 ec3d d12c 723e b67b 3abe 49e5 023c
000000f0: d4c9 25be 1fc9 0e3e a7dd 87be 3d8e 5cbd
00000100: 10f1 d9bd caa2 a4be 352d 483e 6497 e03d
00000110: f36b 973d 0c36 bfbd 09b6 de3d 693b 0e3c
00000120: d920 9abb 05f5 893e 17a0 273e f7d7 91bd
00000130: 1301 50be b45d 713e 99d9 453d 30a0 ddbd
00000140: 7a4b 0b3e 60a3 3cbd 11d4 583e d92b 39be
00000150: dc10 77be 3b04 323d e7da a0bd ac6f e73e
00000160: 810a 03be 09a1 d3be 6f26 3c3e 7536 e33d
00000170: 1192 bbbd 1662 0dbe f1c9 62bd cf90 753c
00000180: fd8d 22bf 0504 24be f585 a83c 9aa4 b2bd
00000190: b4d8 1ebe 5609 9d3d 0879 9d3e 0b69 9ebd
000001a0: 0835 953e adbf fdbd ed8d babb 478c f2bd
000001b0: d66b 403d afba 9dbe 0f3f 29bd c227 3e3d
000001c0: 8832 07be ec52 b43e ea68 033e cc3c f83c
000001d0: e0f0 b8be 86ff 28be 94d4 e63d 792b 95bd
000001e0: a14e cebe 9bdc 7ebd a98e 163e b55f 143d
000001f0: 44e1 d23c 058b ec3c 28ac 72be 7420 05be
00000200: bbae 543f faaa 453f 14e6 c8bd f738 70bc
00000210: 0d27 63bd 85c9 213f bab3 963e e64c e03e
00000220: c5ff dcbe cc29 e4bd 2e7b 8b3f 563d a6be
00000230: 746b 36be e03e 4b3e 4785 2fbf 024a 4b3e
00000240: 2e33 dc3d 49b9 19bf 3231 133d 4c25 bbbe
00000250: b132 0f3d e677 d9be f043 9fbe 2c61 8ebc
00000260: 902b 69bf 0c9e a73e 236b 203f 733c da3d
00000270: f7db a5be 06e1 cf3e 1846 a83e 597d 11bc
00000280: 0ef8 363e b6da 16bf 4b3f 1e3f f5d3 d0be
00000290: b8be 9d3e 7f44 c7be 32dc ae3e d3d1 ca3e
000002a0: e297 353f 71c5 a5be 82a0 7ebc 64bc bf3e
000002b0: 9f4a 32be d29a 9bbd a6de a73e e1df b73d
000002c0: 7dbf cdbe 8e3b 0a3f b66a 44be 8ff8 2d3f
000002d0: 5c07 243f cb44 77be 3f62 d3be f597 523d
000002e0: 9c8d b6be e877 713f f501 403e 1024 af3d
000002f0: 0ed0 873e 892a 8b3e 6d3d 79be 664a 203f
00000300: be11 f13d 146e 183f e247 293f 5048 b13e
00000310: 36e1 843d 9e90 263e bc82 d33d 4211 df3e
00000320: 6cf4 4f3f 7fad 383e d869 0e3f 6d03 b0be
00000330: 18d4 7cbe 9eaf 2c3f 4b34 b13e e3ef e13d
00000340: 413f 933e d13e 883e 5004 f63d 12fc 883e
00000350: 92fd 9cbd 5051 533e 2761 533e 3557 a03e
00000360: cf7a 0b3f 8f7c 87be 0fbc 013f 9ef1 b73e
00000370: 41bd dc3c 6722 21bf 36c4 d9bc ae91 a4be
00000380: 1bea c63e 3e08 1f3e 9dff 613e 7f96 40be
00000390: f756 95bd c8ad 203f 62f3 723f 53f8 123f
000003a0: bf1f dc3e dcbe 0dbf 49ba e3bd 8b4a b83e
000003b0: 6381 f7bd 9b51 d2bd a2fb cb3c 933b fa3e
000003c0: f0b1 17bf 5902 cf3e 00ab 093f 24c6 653a
000003d0: 877a bf3e 0e8c 1e3d 7c67 373f e7fd 853e
000003e0: 9d4d ae3e a347 4b3e ce42 363f 0d98 4f3f
000003f0: 4783 cd3e a380 203f 77f3 e8ba 44fb ba3e
0.22141643 0.104881056 -0.03400594 0.14310354 -0.4043337 -0.041708004 0.057611603 0.18253784
0.06689315 0.15326118 -0.1657399 -0.09550279 -0.288488 0.045128617 -0.25519693 -0.088301085
-0.19038424 -0.04208196 -0.1618134 -0.039123174 -0.22156695 -0.109106205 0.231062 -0.4233913
-0.38255864 -0.055295203 -0.0038481348 0.065273635 -0.21744235 -0.15122508 -0.03248205 0.24152574
-0.055473834 -0.13940854 -0.07876107 -0.015960628 0.15124606 -0.53940576 -0.14804521 -0.04506009
-0.031114804 -0.2601964 -0.3003785 0.005931502 -0.15239173 0.336112 0.067906104 -0.15793844
-0.13035315 0.14671502 0.136431 0.17304087 0.21963479 -0.2618673 -0.6469975 0.2677559
0.115709335 0.23649909 -0.18211254 0.007989236 -0.16190273 0.13943909 -0.26536295 -0.053846586
-0.10641682 -0.32155448 0.19548495 0.109663755 0.073936366 -0.093364805 0.10874564 0.008681157
-0.004703623 0.26944748 0.16369663 -0.0712127 -0.2031291 0.23570901 0.04830322 -0.10821569
0.13603011 -0.046054244 0.21174647 -0.18083133 -0.24127525 0.043461066 -0.07854252 0.45202386
-0.12796976 -0.41333798 0.18374036 0.11094371 -0.09158719 -0.13806948 -0.055368368 0.014988138
-0.63497907 -0.16017158 0.020571688 -0.087228015 -0.15512353 0.07667796 0.30756402 -0.07734879
0.29142022 -0.12390075 -0.0056931884 -0.11843162 0.04697784 -0.3080649 -0.041319903 0.046424635
-0.1320287 0.35219514 0.1283299 0.030302428 -0.36121273 -0.16503724 0.11271015 -0.072836824
-0.40294364 -0.062222105 0.14702858 0.036224086 0.02574218 0.028874883 -0.23698485 -0.13000661
0.8307912 0.77214015 -0.09809509 -0.014662019 -0.055457164 0.6319812 0.29433995 0.4380867
-0.43163887 -0.111407846 1.0896966 -0.3246867 -0.17814428 0.19848204 -0.6856274 0.1985245
0.10751949 -0.6004835 0.03593559 -0.36551893 0.034960452 -0.42474288 -0.3110652 -0.01738032
-0.91082096 0.32737768 0.6266348 0.10656061 -0.32394382 0.40601367 0.32865977 -0.008879983
0.17868063 -0.58927476 0.6181533 -0.4078671 0.3080957 -0.38919446 0.3415237 0.39613208
0.7093488 -0.32377198 -0.015541198 0.37448418 -0.17411278 -0.07597889 0.32787055 0.089782484
-0.40185156 0.53997123 -0.19181332 0.67957395 0.6407373 -0.24147336 -0.41285893 0.05141445
-0.35654914 0.9432359 0.18750747 0.085518 0.2652592 0.2718089 -0.24339838 0.62613523
0.11770962 0.59542966 0.6612531 0.34625483 0.06488268 0.16266105 0.1032767 0.43567854
0.81232333 0.18034934 0.55630255 -0.34377614 -0.24690282 0.6745547 0.3461021 0.11032083
0.28759196 0.26610425 0.12012541 0.26754814 -0.07665552 0.20636487 0.2064253 0.31316534
0.54484266 -0.26462218 0.5067758 0.35926527 0.026945712 -0.6294312 -0.026582818 -0.32142395
0.38850483 0.15530488 0.22070165 -0.1880741 -0.07291978 0.6276517 0.9490262 0.5741016
0.4299297 -0.55369353 -0.111195154 0.35994372 -0.120852254 -0.10269471 0.024900261 0.48873577
-0.59255886 0.4043148 0.5377655 0.0008765182 0.37398168 0.038707785 0.7164228 0.26170275
0.3404359 0.19851546 0.71195686 0.81091386 0.4013922 0.62696284 -0.0017772753 0.36519825

gru.bias_hh_l0 f4 [384]
00000000: 5f15 8c3e a4bc 8f3d dc00 b23c bc26 393d
00000010: f784 81be 73fe a33d 26ff fb3d 8e9f b23d
00000020: 1069 b63d 2f71 a93d 2422 1ebe 5f30 07be
00000030: aac2 35be 5d94 3c3d 46f1 3dbe f01b d2bc
00000040: 10ed 0dbe 4468 4f3a e9df 3cbe 5e9d 6abd
00000050: 0609 31be c0aa 51bd a8cf c63d 950e 8ebe
00000060: d0f1 89be 2793 9bbd 9abe f7bd b8b0 493d
00000070: 48de 37be 2aa4 8fbc 9d04 1cbe aa8c 6e3e
00000080: 9144 40be f57d aabd 937a a53d e8a3 5d3c
00000090: 2175 1c3e fe9e efbe 7e1b 7dbd f3ff 8f3c
000000a0: 60dd 56bd f4ec 6dbe e0c5 54be c110 a1bd
000000b0: 4141 44be 81b0 b23e 74a2 e73d c34d 94bd
000000c0: cdcf 3ebe 1750 383e bcf0 3c3e 5ff1 d03d
000000d0: 7b3a 8b3e 4fa1 89be a0f9 31bf 169b b73e
000000e0: 64ef 1d3e d28b e03d 3dc4 01be 2a62 aa3d
000000f0: 1243 40be ddc3 2b3d c65e 5dbe 8ad8 d8bd
00000100: 6109 3dbe b975 c0be 3463 433e c774 a1bc
00000110: 0819 babc ae42 61be e7e8 d33d a378 ac3d
00000120: 48bb 5cbd d70b 863e a89c 1f3e a30e f1bc
00000130: 37ea 1dbe a3e2 6d3e e116 42bd 05dd 48be
00000140: 6d78 553d 5086 a1bd 8e6c 4e3e 1e8d 7bbe
00000150: a58a 35be 54d5 aa3d 73b4 97bd e13c a43e
00000160: d54d 2f3d afcf bebe 2b7e 4e3e c6c4 553d
00000170: 5029 87bc 562f 68be 0cb1 7dbd c433 563c
00000180: bb32 1abf e039 0ebd 85c4 58bb 0f3a 92bd
00000190: 506b 33be 2029 403d 5679 bc3e 9252 cdbc
000001a0: 1c7a 873e cbe4 32bd bb9e 063e 40e4 2dbe
000001b0: 06bf b93d 8d6e 88be 7604 b93c 602e 043e
000001c0: a456 01be 59b8 703e 88a2 2fbd ae09 b43d
000001d0: 73ca 8ebe 910e 88bd 3089 303d 351d 6a3d
000001e0: 0ede a0be 5d2a 503d 16dc 003e f6c5 0c3d
000001f0: ead4 1f3d 03ea 833c 9361 80be c713 a8bd
00000200: da4b 513f 8faa 453f abd7 cabd 49e1 efbb
00000210: beea f2bd bcc0 353f c7f3 493e d4d5 b63e
00000220: 58ad 9ebe 27d4 36bc 4d48 7d3f f1a8 a3be
00000230: 60c5 6fbd 30e4 213e ca83 1bbf 08d4 593e
00000240: b832 c33d cce9 febe e13c 883d e811 e7be
00000250: 462a 35bd 8252 d4be 345a 90be f853 6d3d
00000260: f6e9 5abf 456b 9e3e e519 123f 244f c33d
00000270: 2b59 93be 5b37 d93e 63c9 8e3e 6092 0f3e
00000280: bcfe e23d b16e ebbe 4e69 3a3f 238c c4be
00000290: 4535 ef3e 39f4 dfbe eaaa 933e ce82 c63e
000002a0: b843 413f 073d 2fbe f3e8 913d 75e7 a23e
000002b0: 7b7a 30be fa04 2cbe cd5e 9f3e 122f 75bd
000002c0: b3a4 fabe a4b0 1e3f f8b8 a8be 9c10 0a3f
000002d0: 483f 203f 086f 5dbe cb0e adbe 2a7a 973d
000002e0: 234a f3be bf73 7b3f b22b 5e3e 59d1 4b3e
000002f0: 1326 813e 4cd9 6b3e 095f 82be c6c7 2b3f
00000300: 5913 273e 2313 023f 93d2 2d3f af0b 983e
00000310: 0bde 4a3d 5dfe 723e 2555 6c3d befc f73e
00000320: 43e3 663f 8d22 3a3e 0433 123f bf2f 92be
00000330: 96af 2fbe e7d9 1c3f ab3c a53e e223 543d
00000340: 057f 7d3e fa2f 023e 401a 083e ce10 ab3e
00000350: e884 80bd 5895 553e 94f4 8d3e 0bfd ab3e
00000360: 9893 0e3f 9091 5abe 3ecf de3e 0905 843e
00000370: 4bcd c83c 7c45 0cbf 8d9e 483d 4a89 a9be
00000380: 51f9 ba3e f5e0 e93d 31f1 973e fd3d 7bbe
00000390: 14cb bdbc a1fb 223f 94e9 5b3f ffd2 023f
000003a0: febe eb3e f64f 00bf 5ae0 0bbe 8f83 993e
000003b0: b4c9 8dbd 3e91 dfbd 46c0 4c3d b931 183f
000003c0: d425 15bf d91e 083f bf13 e93e 13da d03d
000003d0: 3ca4 b83e b33a bcbc 11ef 2f3f 8664 3f3e
000003e0: 3f3b a83e c9ae 143e 3dfa 4f3f d07f 5e3f
000003f0: 7d18 d03e e98f 183f f869 dabb 60c7 8e3e
0.27360055 0.07018402 0.021728925 0.045202956 -0.25296757 0.08007517 0.12304525 0.08721839
0.08906758 0.08273541 -0.15442711 -0.13202046 -0.1775004 0.046039928 -0.1854907 -0.025648087
-0.13859963 0.000791196 -0.1844479 -0.057278983 -0.17288598 -0.05118823 0.09707576 -0.277455
-0.269423 -0.075964265 -0.12096901 0.049240798 -0.17955887 -0.017534334 -0.15236135 0.23295847
-0.18776156 -0.08324806 0.0808002 0.013527848 0.15279056 -0.4680099 -0.061793797 0.0175781
-0.052457213 -0.23234922 -0.20778608 -0.07864524 -0.19165517 0.34900287 0.11310282 -0.07241394
-0.18633957 0.17999302 0.18451208 0.10202288 0.27193055 -0.2688088 -0.6952152 0.3586051
0.15423352 0.109641686 -0.12672515 0.083195046 -0.18775585 0.041934837 -0.21618184 -0.105881765
-0.18460609 -0.37589815 0.19080812 -0.019709004 -0.022717014 -0.21998093 0.10347157 0.08421447
-0.053889543 0.26180908 0.15587103 -0.029425925 -0.15421377 0.23230986 -0.0473851 -0.19615562
0.0521168 -0.07886946 0.20158598 -0.2456555 -0.1772867 0.0834147 -0.07407465 0.32077697
0.042798836 -0.37267825 0.20165317 0.05218961 -0.016499192 -0.22674307 -0.061936423 0.013073865
-0.6023366 -0.034723163 -0.003307612 -0.0713998 -0.17521405 0.04691422 0.36811322 -0.025063787
0.2646035 -0.043675225 0.13146488 -0.16981602 0.09069638 -0.26646844 0.022585135 0.12908316
-0.12630707 0.23507823 -0.04287961 0.08790909 -0.27888831 -0.06643403 0.043099582 0.05715676
-0.31419414 0.05082165 0.12583956 0.034368478 0.03902141 0.016102796 -0.25074443 -0.08206897
0.81756365 0.77213377 -0.09904417 -0.0073205573 -0.1186118 0.70997214 0.197219 0.35710013
-0.30991626 -0.0111589795 0.9893845 -0.3196483 -0.05853784 0.15809703 -0.6074797 0.2127229
0.09531158 -0.49787748 0.06652237 -0.4513085 -0.04422977 -0.41469198 -0.2819382 0.057941407
-0.85513246 0.30941215 0.5707076 0.09536579 -0.28778967 0.42425045 0.2788802 0.14020681
0.11083743 -0.45982888 0.7281693 -0.38388166 0.4672033 -0.43741015 0.28841335 0.3877167
0.75493956 -0.17113124 0.0712451 0.31817213 -0.17234223 -0.16798773 0.31127015 -0.059859343
-0.4895378 0.6198828 -0.3295362 0.53931594 0.6259656 -0.21624386 -0.3380035 0.07396348
-0.475175 0.9822349 0.21696356 0.19904079 0.2522436 0.23032111 -0.2546313 0.67101705
0.16315974 0.5081045 0.67899436 0.29696414 0.049528163 0.23729844 0.057698388 0.48435014
0.90190524 0.18177243 0.57109094 -0.28552052 -0.17156824 0.6126999 0.32272848 0.051792033
0.24755485 0.12713614 0.13291264 0.33411258 -0.0627535 0.20857751 0.2772566 0.33591494
0.5569396 -0.2134459 0.43517488 0.25785092 0.024511954 -0.54793525 0.04897933 -0.33112556
0.36518338 0.1141986 0.29676202 -0.24535365 -0.023168124 0.63665205 0.85903287 0.51103204
0.46044153 -0.5012201 -0.13659802 0.29983184 -0.069232374 -0.109163746 0.049988054 0.5945087
-0.58260846 0.5317207 0.45522878 0.10197844 0.360628 -0.022977209 0.6872416 0.1869069
0.328577 0.145198 0.8124121 0.86913776 0.40643683 0.5959459 -0.0066654645 0.27886486

decoder.weight f4 [128, 128]
00000000: 5dcd 393d 0205 043d 8202 e23e 4ad8 19bf
00000010: bf84 b03f cedd 34bc fa22 3840 87e6 ea3e
00000020: dcb2 01c0 b920 26bf c376 88bb 34dd c73d
00000030: 0789 8dbf f757 1b3d 5375 aec0 9d06 18bf
00000040: 2068 b93d 65fe bdbf bf02 b23f 541e cf3e
00000050: eb36 173f 1af0 cebf 32e1 d93f b3c6 0a3f
00000060: b3bd c7be 7ba4 7dbf 49ad 0ebf b1cd 3940
00000070: e706 d03e 72c6 433f 2630 473f 6ece 94bf
00000080: 21af 96bd a09f 0040 80ce f5be fc31 1bc0
00000090: 8f2d 53bf a7dc 69bd 458c 8ebf be50 0d3d
000000a0: 34dd 8c3f dfe7 bbbf ef28 013e f3b2 ad3f
000000b0: 7ac3 b5bc ca96 33be f3d2 873e 3506 70bf
000000c0: dd47 1f3e 6467 2dbe 7bb2 a53f bcd9 1b3f
000000d0: 6d2e 05bf d1df bbbf 4b2e 2b3e 187b 31be
000000e0: 9395 e3bf 7dc5 a8be 6297 8cbd d330 05bc
000000f0: 1e6f 03bf cb2b 9b3f 2936 643f 6f4c 10be
00000100: 67e7 3fbf ca8b 3abf 14fa a93e 6454 bebd
00000110: d01f 013e c473 b53f b391 c540 675a 22c0
00000120: 5d99 a33e 0a16 06bf e3f1 95be 0cdc c03f
00000130: c8fb 79bf a5f2 48bf 879f bc3e 3e0e 44bf
00000140: f855 293f ad9e 9bbf 90b0 38be 690e 3fbf
00000150: 74b2 70bf 0ad9 27c0 ddeb dc3e 91bd 263d
00000160: 8e24 22bd 4eb8 1f40 802e db3e 51c9 813e
00000170: 6fae 20c0 5579 c0bf 12ac 4c3f a8d3 8740
00000180: 34dc 693d fa48 e13f 5885 87bf c5ad 96bf
00000190: 55f5 893f 970b 24bf b4b7 ef3d cade fdbd
000001a0: 48e4 3c40 3f8a 333f 4de7 a73e 0ecb 493f
000001b0: 2c20 803f 18dd 8ac0 ee92 8d3f 5946 6bbe
000001c0: be3d cdbe 0aeb 993d 1ac0 423f a9b9 31bf
000001d0: 5025 60bb dbf9 ffbd fa8c e1bd e5fc 0a3f
000001e0: d65e a93e fa53 9fbf f025 9f3c e141 a13d
000001f0: 1abb 8cbe 19f7 d0be 7b9e ba3f b599 083f
00000200: d03d 993e ad43 f03e a1b7 743e f00b 14be
00000210: a66f e3be 3d85 b53e 46be 1bbf 910a babe
00000220: db27 523f 4ffd 863f 0c4b b03e b348 0c3f
00000230: a3bf 1bbe a0c4 17be 8567 3b3e 82ea 843e
00000240: 0a99 52bf dbe5 4abf 1f00 25bd 5d63 d13e
00000250: 8d47 ef3e 79b5 abbd aae4 963e f26d 913d
00000260: 9f91 0d3f e638 a43e 2f54 d43e 42aa b3be
00000270: e5ce 0abe e0d4 ab3e 253c 31be 1917 5a3f
00000280: 8218 25be 7181 30bf 29c0 9a3e f92f 59bd
00000290: 25cd 073f c808 cfbe 4fb6 db3e 9b97 64bd
000002a0: 60fa edbe 0ae3 f63e 07dc 0f3e a994 ea3c
000002b0: 4130 033e 8a1f ce3e 6a50 ae3c 206c e63e
000002c0: 30bb cdbe 3542 86be e534 9fbf 7047 19bf
000002d0: b298 183f e1f9 063f f46a 7a3e eb07 2bbe
000002e0: 7f43 d73e 9eb5 873e c57e be3e 2650 a03e
000002f0: b17e ac3e cd56 23bf 3a34 15be 1a4c fdbd
00000300: 9257 a63e f75f 563f 7814 2abf d550 123f
00000310: a5f4 6bbe 59fb babc 39dc b83e 509f 1d3e
00000320: 2c55 fbbe 1c5e 8c3f f163 063e 59df 373e
00000330: f1f8 c43e 13c0 f2bd 9355 aebe d7bc 1f3e
00000340: bbfb 01bf 1caf ccbe 2807 e13e 16ea 5b3d
00000350: aa71 65ba db07 283f 9c20 383e f7ff 343f
00000360: de54 213f fd32 fa3d 6fa3 3cbf df60 56bf
00000370: 4458 963d 6495 d33c efd5 b2bc 932b 07bf
00000380: bfc2 8c3e a8b3 95bd e94a 01be d430 cfbe
00000390: aad4 d0be 6386 e63d 734f d7be 6812 0e3f
000003a0: 4a2b 88bd 12dd 8dbf fb55 a7be ef54 1fbe
000003b0: aa1b bcbe 840d b2bd 0c9c 18bf 5bc0 40be
000003c0: 66ee e43e 1925 043f 5a18 86be 3618 a2be
000003d0: 8b3e 0e3f 5884 143e f900 433f 86e4 09bf
000003e0: f2f7 113d 1072 2ebd 2e18 e73e 0970 b93d
000003f0: ef80 a83e 4693 ff3e 8843 76be 7fb0 f5be
0.045361865 0.03223134 0.44142538 -0.60095656 1.3790511 -0.0110392105 2.8771348 0.45879003
-2.0265417 -0.6489368 -0.004164548 0.09758988 -1.1057442 0.037925687 -5.451822 -0.5938509
0.090530634 -1.484326 1.3907088 0.40452826 0.59068173 -1.6167023 1.7021849 0.5420944
-0.39011917 -0.990791 -0.5573316 2.9031794 0.40630266 0.7647468 0.77807844 -1.1625497
-0.07357622 2.0097427 -0.4800911 -2.4249258 -0.8249139 -0.057095196 -1.1136557 0.03450083
1.1005006 -1.4680136 0.12613271 1.3570236 -0.022187937 -0.1753799 0.2652813 -0.9375947
0.15554757 -0.16933972 1.2945093 0.6087911 -0.52023965 -1.4677678 0.16716878 -0.17332113
-1.7780021 -0.32963172 -0.068648115 -0.008129316 -0.51341426 1.212274 0.8914514 -0.14091657
-0.74962467 -0.7286955 0.33198607 -0.0929344 0.12609792 1.4175954 6.1740355 -2.5367677
0.31952944 -0.5237738 -0.29286107 1.5067153 -0.9764981 -0.78495246 0.3684046 -0.7658423
0.661468 -1.2157799 -0.18036103 -0.74631363 -0.940223 -2.622622 0.431487 0.04070813
-0.039585643 2.495624 0.42808914 0.25348905 -2.5106466 -1.5037028 0.7995006 4.244587
0.057094768 1.7600396 -1.0587568 -1.177178 1.0777994 -0.64080185 0.117049605 -0.12396009
2.9514332 0.7013282 0.32793656 0.7882546 1.0009818 -4.339489 1.1060464 -0.22976054
-0.40086168 0.07515533 0.76074374 -0.6942392 -0.0034201927 -0.12498828 -0.11013217 0.54292136
0.33080167 -1.2447503 0.01942727 0.078738935 -0.27486497 -0.4081352 1.4579614 0.5335954
0.29929972 0.46926633 0.23898174 -0.14457679 -0.44421118 0.35453215 -0.6083721 -0.36336187
0.82092065 1.0546054 0.34432256 0.5479843 -0.15209822 -0.148211 0.18301208 0.25960165
-0.8226477 -0.7925698 -0.04028332 0.4089612 0.46734276 -0.083842225 0.29471332 0.071010485
0.55300325 0.3207466 0.41470477 -0.35090834 -0.13555487 0.33560848 -0.173081 0.85191494
-0.1612263 -0.6894751 0.30224732 -0.053024266 0.530474 -0.40436387 0.42912528 -0.055808645
-0.46480083 0.48220092 0.14048778 0.02863534 0.12811376 0.40258437 0.021278579 0.45004368
-0.40181875 -0.26222387 -1.2438017 -0.5987463 0.59607995 0.52725035 0.24454862 -0.16702239
0.42043683 0.2650575 0.37206092 0.31311148 0.33690408 -0.6380432 -0.14570704 -0.12368031
0.32488686 0.8374018 -0.6643748 0.5715459 -0.23042543 -0.02282493 0.36105517 0.15392804
-0.49088418 1.096622 0.13124062 0.17956294 0.38471177 -0.118530415 -0.34049663 0.1559938
-0.50774735 -0.39977348 0.43950772 0.05369004 -0.0008752594 0.65636986 0.1798119 0.7070307
0.6302012 0.122167565 -0.7368688 -0.83741564 0.07341054 0.025828071 -0.021830527 -0.52800864
0.2749233 -0.07309657 -0.12626232 -0.4046694 -0.4078725 0.11256101 -0.42052802 0.55496836
-0.06648882 -1.108309 -0.32682785 -0.15559743 -0.36739856 -0.08693984 -0.5961311 -0.18823378
0.44713134 0.51619107 -0.26190454 -0.31659096 0.55564183 0.1450361 0.7617336 -0.53864324
0.03563685 -0.042589247 0.45135635 0.09054572 0.3291087 0.49917048 -0.24049199 -0.47986218

decoder.bias f4 [128]
00000000: e497 cb3e 16f9 7abf 274f 67bf dc36 79bf
00000010: 8593 67bf 0206 89bf f3fd 6fbf db3b 80bf
00000020: a30a 85bf b044 83bf 6001 83bf c98a 76bf
00000030: 51ac 86bf 2ece 89bf 5f89 81bf 03f8 62bf
00000040: b40f 78bf 312a 82bf 6dad 80bf 04b3 67bf
00000050: 19b4 89bf 38ea 8b3e 596d 27bf a736 b7be
00000060: 5330 30bf 3461 40bf 63d1 5bbe 8daa 05bf
00000070: 9ac1 cebb 1259 c9be 69a9 b5be 213a 59be
00000080: b729 81bc 06bc 6f3e ff4a b93e de6b 25bd
00000090: 1694 1d3e ce6a 15be 1486 483e b972 7fbd
000000a0: 860f 663e 30b1 6f3d c182 a0bd 7ecb 9a3e
000000b0: 204b 50be f3da a03e f545 7cbe faf4 c9be
000000c0: fa6b 9cbd 2b08 543e 55b9 7a3e e3a3 b4be
000000d0: b28b 153e 8d81 d93d 6e86 49be 5cc5 223e
000000e0: 584c 37be edd8 5a3d f6c2 79be 3f4f 45bb
000000f0: 06bf f53c 2647 a3bd 7dd8 3bbe 62a2 22bd
00000100: 0d1e 5ebe 6a97 59be 9673 aebd fdf6 37be
00000110: 0a19 c1be 42b5 2d3d aa0e 6ebd 2311 a7bb
00000120: 6a3e 123e 9012 12bc 5c36 e53c 7c1b c2bc
00000130: 0c2a 0a3f 786b 32be c86b 473e 6f49 ab3d
00000140: f37b fe3c 23c2 f13c 46f4 893d 064b 8a3e
00000150: 01b4 92bd 9959 573e 136b 16be f1a6 aebc
00000160: 320a adbd d449 a8bd ca3c a6bd 4682 683d
00000170: 003a a5be f474 b4bd cfd7 95bd 4518 113e
00000180: 3380 ae3d a0d6 e1bd 40a4 3bbe f5fe f7be
00000190: 6cee 1ebe 7c07 abbd 1e60 dc3d 8b3f adbe
000001a0: 78fa 0fbf c2b4 05bf 9343 9abe 1187 84be
000001b0: a0d1 59be 0513 7ebf f3c8 67bf ea8a 83bf
000001c0: 1691 6abf 3169 7bbf 1c35 81bf 4102 86bf
000001d0: 9e81 76bf dce8 7cbf 8c6c 72bf 96ae 85bf
000001e0: 949e 7dbf 4ee6 70bf 7c56 77bf ad44 72bf
000001f0: 5a0e 87bf 242a 89bf ac38 65bf f433 75bf
0.3976432 -0.98036325 -0.9035515 -0.97349334 -0.9045947 -1.0704958 -0.9374687 -1.0018266
-1.0393871 -1.0255337 -1.0234795 -0.9630552 -1.0521337 -1.0766046 -1.0120047 -0.88659686
-0.9689896 -1.0169126 -1.0052925 -0.9050753 -1.0758086 0.27327132 -0.65401226 -0.35783884
-0.68823737 -0.7514832 -0.21466593 -0.52213365 -0.0063097 -0.39325768 -0.35480812 -0.2121358
-0.015766962 0.23411569 0.3619003 -0.040386073 0.15388522 -0.14591524 0.19582397 -0.062365267
0.22466859 0.05851859 -0.07837439 0.30233377 -0.20341158 0.31417045 -0.24636061 -0.39444715
-0.076377824 0.20706241 0.24484761 -0.35281286 0.14604071 0.10620413 -0.19680187 0.15895599
-0.17900217 0.053429533 -0.24390778 -0.0030107049 0.029998314 -0.07972555 -0.18344302 -0.03970564
-0.21691151 -0.21249166 -0.0851814 -0.17965312 -0.37714416 0.04240919 -0.058119453 -0.0050984784
0.14281622 -0.008915558 0.027980022 -0.023694746 0.5397041 -0.17423809 0.19474709 0.08363616
0.031064963 0.029511517 0.067360446 0.27010363 -0.07163239 0.21030273 -0.14689283 -0.021319838
-0.0844921 -0.082172066 -0.08117063 0.056764863 -0.32270813 -0.088113695 -0.07316553 0.14169414
0.08520546 -0.110272646 -0.18324375 -0.48436704 -0.15520638 -0.08351037 0.107605204 -0.33837542
-0.5624156 -0.5222894 -0.3012968 -0.25884297 -0.21271372 -0.9924777 -0.90541 -1.0276768
-0.91627634 -0.98207384 -1.0094333 -1.0469438 -0.9629153 -0.98792815 -0.9469688 -1.0443904
-0.99070096 -0.9410142 -0.9661634 -0.9463604 -1.0551255 -1.0715985 -0.895396 -0.957824
