models/gruencoder.model (torch, 266679 bytes, 5 tensors)

embedding.weight f4 [128, 32]
00000000: 83ea c439 8554 bd3c 2d87 1f3d c290 653c
00000010: f17b 44be 124b eabd dadd dd3c 9900 d93b
00000020: e01e 243c 28ab f8bd 0201 443e 85c4 3abb
00000030: 5824 bc3e be8e ebbc 1aa1 7bbc 1203 f83d
00000040: 7a7e 0bbe 619e 51bf fc92 c43d b06d f0be
00000050: f501 a8bb eb3e 653e a596 5d3d 3a99 443c
00000060: e1c4 2b3c 6ae1 4938 b077 3d3d 959f cebf
00000070: 8284 c0bd 6cf6 caba 770e 8a3d 5b81 21bd
00000080: 0cf0 583f 649c 163e 21c5 4dbf 0d2f cb3f
00000090: 70e0 33be 6da1 ccbf 6200 e3be da71 a53f
000000a0: b45e 07bf 3097 2f3f 5d5d a5bf ab54 3bbf
000000b0: dc7c ab3e 3892 dbbc 5cf8 24bf 06e9 443f
000000c0: 4380 853f aa5d ab3d cba7 893f 956c a2bf
000000d0: aea1 713f 3216 95bf a001 8cbe 4e2d 0abe
000000e0: 852b d9be b3ba e03d 79f1 d8bd 6644 d9bf
000000f0: cd8d 753f 673d bb3f 4555 fbbe 73d4 8a3f
00000100: d956 203f b750 cd3e ce31 093f 39a0 e43d
00000110: 9663 ee3f e210 d5be 0fb0 67be 1332 9b3f
00000120: faee 66bf 52f8 ec3f 18cc df3f ac8c 993e
00000130: e4ec d73f ddf1 9d3e eeae f9be 4713 8e3f
00000140: d81c b33f e8f3 4a3f b8bc c43f 1ed0 7fbf
00000150: 7123 853d 491d d23e f220 2f3d 57fd 1cbf
00000160: 010d 453f 5b8c ae3e 1e14 a1bf 6d14 3abf
00000170: 7e95 ddbe 55d6 0a3e 6f60 753f ad2d 12bf
00000180: 98f4 a23f 7d20 063f 734a d93e 4907 113f
00000190: 1703 2abf 3cff e63f e001 15bf 0ed8 7d3f
000001a0: a23a b73f 1259 9c3f d16a 893f d0a2 95bf
000001b0: 5228 b43e 190e 653f 128e 393f c9eb 0d3f
000001c0: 1b36 013f 7659 86bf d43d 4cbd 1491 5cbf
000001d0: aa7c 983e 68cf 4c3f 421b 283d 2100 bebe
000001e0: 819b 18bf 2954 b6be 6471 d53f c569 bfbe
000001f0: 9ede 523e c893 d93c b27e cebf cf4f 85bd
00000200: 124a c2bd 284d 8cbe 2936 cebe 63d1 a53f
00000210: b5dc 523e 975f a0bd c781 7cbf cdf4 aabe
00000220: e25b 1abf 651b 8cbe 75ce b53f 4771 983e
00000230: 7b0f 92bf 4674 5a3f f86b 6c3f e409 ecbe
00000240: 092a ffbf 8e7d 433c 9590 88bf c6bb 86bf
00000250: a01c 91bf e866 1f3f b1b2 f0be eddf 06bf
00000260: acad 113f 9ca9 55bf de91 de3e 8d7b 8abf
00000270: 1d07 853f 8c4b fb3e 67a1 173f 7b03 25bf
00000280: c654 b73e 759d 02bf 48cc 163f fca7 a63f
00000290: 0276 64bf 0b54 ec3d 9413 a9bf aa53 2e3e
000002a0: 7c7e 48bf 7d51 993f 6a7b e7be 325e 843f
000002b0: 7be3 18bf 9baa 32bf 529e cfbf 7ecd 513e
000002c0: 955c 7c3c 6c85 dc3d 510c 3f3f 3337 90bf
000002d0: f628 95be eedc 1dbf 075a 7f3f f3cf 823f
000002e0: 57f7 d93f 84f6 3f3e 5eef e0be fcf0 bbbf
000002f0: 0357 95be bbd7 883f 69fe 89bf b407 813f
00000300: 9cc0 84be b194 093f a61b 27bf ff25 5ebf
00000310: ab9e dbbf 6be0 b3be 45de 88bf 9634 48bf
00000320: d4ac 8340 3687 4a3f 3420 3abf ca44 72be
00000330: a038 d93f a6e2 17bf 71b7 7abf 644e 953e
00000340: 9115 8f3f 93f6 40bd c4f8 5dbe 2057 02bf
00000350: 060d 1040 75fb 9bbf a536 25bd c95c df3f
00000360: fcc7 63c0 6a97 1bbf d615 c83d d425 a23f
00000370: 2e69 02bf b507 d43e 1be7 e03e edf2 b63f
00000380: 8d87 0b3f 9674 8cbe a344 01bf c505 e23c
00000390: 3ba1 6bbf 6824 14c0 8650 d0be 46d6 6b3f
000003a0: e0d0 f13f 0782 37c0 e2c1 3fbe 4556 0740
000003b0: e4d3 4e3f b365 f3be eed6 ad3f b71f 8a3f
000003c0: 7c70 203f a88d babf 042a 1f3f 84fc 02c0
000003d0: 5da0 17bf 89bb c53f affd ec3f 39de 06bf
000003e0: 1087 f2bf 2249 8e3e b488 203e cf8b 053f
000003f0: d515 a1bf d3fa 44be 01f1 c9bf f62a 97bd
0.00037558758 0.023111591 0.038947273 0.014011564 -0.19187905 -0.114401 0.027083326 0.0066223857
0.010017127 -0.121420205 0.1914101 -0.0028498482 0.36746478 -0.028754588 -0.015358234 0.121099606
-0.13622466 -0.8188229 0.095983475 -0.46958685 -0.0051271864 0.22387283 0.054098744 0.011999423
0.010483951 4.8132068e-05 0.04625672 -1.614245 -0.09400274 -0.0015484816 0.0674104 -0.039430004
0.8474128 0.14708096 -0.8037892 1.5873734 -0.17566085 -1.5986763 -0.4433623 1.292537
-0.5287888 0.6859007 -1.2919117 -0.7317607 0.33493698 -0.026803121 -0.64441466 0.76918066
1.0429767 0.083674744 1.0754331 -1.2689387 0.9438733 -1.1647398 -0.2734499 -0.13493845
-0.42416015 0.1097311 -0.10592932 -1.6973999 0.95919496 1.4628114 -0.49088493 1.0846084
0.6263252 0.40100643 0.5359162 0.111633725 1.8624141 -0.41614443 -0.22625755 1.2124656
-0.902084 1.8513281 1.748416 0.29990137 1.6869168 0.3084859 -0.48766273 1.1099633
1.3993177 0.7927842 1.5370092 -0.99926937 0.065009005 0.41037968 0.04275603 -0.61324066
0.7697297 0.34091458 -1.2584264 -0.7268742 -0.43278116 0.13558324 0.9585027 -0.57100946
1.2730894 0.52393323 0.42439613 0.5665174 -0.66410965 1.8046641 -0.58205986 0.991578
1.4314768 1.2214682 1.0735723 -1.1690311 0.35187012 0.89474636 0.7248241 0.55437905
0.50473183 -1.0496051 -0.04986365 -0.8615887 0.2978261 0.80003977 0.04104162 -0.37109473
-0.5961228 -0.35611084 1.6675229 -0.37385383 0.20592734 0.026559725 -1.6132414 -0.06509363
-0.09486784 -0.27402616 -0.40275696 1.2954525 0.20592006 -0.07830732 -0.98635525 -0.33389893
-0.6029645 -0.2736465 1.4203631 0.29773924 -1.1410974 0.8533367 0.9235225 -0.46101296
-1.9934703 0.01193179 -1.0669123 -1.0526054 -1.1336861 0.622664 -0.4701133 -0.52685434
0.5690563 -0.8346193 0.43470663 -1.0818955 1.0392796 0.49081075 0.59230655 -0.64458436
0.35806865 -0.5102151 0.5890546 1.3020015 -0.89242566 0.115394674 -1.32091 0.17024103
-0.78318 1.1977993 -0.45211345 1.0341246 -0.5972211 -0.69791573 -1.622019 0.20488545
0.015402933 0.10767636 0.7462817 -1.1266845 -0.29132813 -0.61665237 0.99746746 1.0219711
1.7028607 0.18746382 -0.43932623 -1.4682918 -0.29167947 1.0690836 -1.0780765 1.0080476
-0.259282 0.5374251 -0.65276563 -0.8677673 -1.7157797 -0.35132155 -1.0692831 -0.7820524
4.114847 0.79112566 -0.7270539 -0.23659053 1.6970406 -0.59330213 -0.9793616 0.2916137
1.1178457 -0.04711015 -0.21676928 -0.5091419 2.250795 -1.2186114 -0.040335316 1.7450191
-3.559081 -0.60777915 0.0976979 1.2667794 -0.5094174 0.4141213 0.4392632 1.4292885
0.5450371 -0.27432698 -0.50495356 0.027590642 -0.92042893 -2.314722 -0.40686435 0.9212383
1.8891869 -2.8673112 -0.18726304 2.1146405 0.8079207 -0.47538528 1.3581216 1.0790929
0.6267164 -1.457448 0.62173486 -2.0466623 -0.5922907 1.5447856 1.8514918 -0.52682835
-1.8947468 0.2779017 0.15677148 0.52166456 -1.2584788 -0.19236307 -1.5776674 -0.07381241

gru.weight_ih_l0 f4 [384, 32]
00000000: e463 74be 4939 303d ff9c 953e d6fa 9ebe
00000010: b299 c9be e64f 9dbe 8e96 b03e 6cd9 f7be
00000020: f16a 65bf bf1a cfbe b62e 833e 3c00 1f3f
00000030: e52f 183e b443 12be 4788 0ebe da2b 803e
00000040: 2d6d 85bf c79e a5be fa65 173f 21b5 b4bd
00000050: 25d0 51be 8dd9 403f ecf5 f9be 44e0 643f
00000060: de2f 3a3e b6d6 4cbb feee 553f b87c 9cbf
00000070: 5571 89bd efc4 2e3f c862 72bd d28c 803d
00000080: e93a f8bd 1b41 58be 1bbc a9be 722c 1fbe
00000090: 5db3 253f d92c 11bf 608c 5abd 9b5c 143e
000000a0: 0996 023f e5d0 aebe d353 99bd cde2 e93e
000000b0: ebb7 95be d4f0 f43d bc5b 3abe e40e de3d
000000c0: 5004 0c3e d07d aa3d b733 c5be 7896 1abf
000000d0: e1a9 81be 9a50 b03d efb4 cb3e 213d 82be
000000e0: 9dca cd3d 4f24 963e b7d5 d33e f79d e1be
000000f0: 886e 61bc eff6 9a3e 5770 ac3e 32f6 14be
00000100: 9428 cfbe b521 a2bf e978 34be ec10 35bf
00000110: 6cbd 83bf 9212 d53e eb20 5cbf 186e e43d
00000120: f570 c9bf 251a febe e075 2e3f de53 503e
00000130: cd7c 4fbf 4b98 583f 18f2 c83e 3683 9bbe
00000140: 1b06 123f dc0b dcbe e48a 8bbf f6b4 d73e
00000150: 0b36 293f 535f 333c 5c34 31bf 198c 8ebf
00000160: 072c 573e d686 f9be 6691 783f bed8 143f
00000170: 7aba 6b3f 64a1 d13d 0617 0bbf da29 b83e
00000180: 538c 83bd 6280 163d faa6 d6be fac4 9e3e
00000190: f073 e8be 5247 afbe 8582 8b3e 08b6 42be
000001a0: 06e0 cbbe 918f adbe f2cf a33d 83e6 9bbd
000001b0: cdfe f5bd b0fb edbd f38f 6ebd 5974 97be
000001c0: b997 dcbd d183 5fbe ce11 b73e 98f1 39be
000001d0: 9df6 91bc 24dd 8b3e 3440 08be 9708 093f
000001e0: 9472 f63e 9b4f fb3e 82c5 5a3e 4197 cdbe
000001f0: eecd e23d 022c 423d 7f7f b9be 10d5 e03d
00000200: 6f94 2d3f c716 f43e 5738 8abd c62c 98bb
00000210: 5b79 8ebf 45bf 043f ab66 153f d08d 303d
00000220: 7663 033e 93a4 c4bf 6b4b dd3c c202 97be
00000230: b800 b8bd 55e1 923e 5fa2 063f 87f3 9a3e
00000240: 138a 0cbf a27a b5bf 167c 673f 48c1 0ebf
00000250: 1515 b43d bcb0 583f 745a 4dbe b535 06bf
00000260: 5721 93be d2d9 1f3d 8596 a7be ead1 90bf
00000270: 73c4 8a3e e198 8d3e e303 2fbf 91d1 a63e
00000280: bacc 69bd 14ce c1be ed2c 283e 4ff0 25bf
00000290: 5666 5abf cec5 8bbe b93f 7a3b f91b 18bf
000002a0: cb88 06bf 3626 5fbe 674f f93e 83ef a0bf
000002b0: 19aa 153f d915 9a3e 949c 88be 80b8 c03e
000002c0: ceb7 61bf 34b3 abbf cdc3 32be e121 81bf
000002d0: b2a6 fe3e 1788 693d 514b 0c3f 1553 b8bf
000002e0: 50bc a4be e9b1 4e3e b20f b0bd 1e4e a5bf
000002f0: 9ebc cbbe e725 22bf 79db db3e 3c06 3cbe
00000300: de6c 01be 17d7 50be 9a81 e83d 6c1a 2e3f
00000310: e96e ea3b 0364 26bf 548a 483f 597d a13e
00000320: 25c8 7e3d ea7a bd3c 42d6 50be e467 c33e
00000330: 0d48 9abe 46d4 debe 681c bb3e d225 3fbe
00000340: 7625 c0bd 1b27 1a3e 1e04 d83c fee3 42bc
00000350: 8ef5 6dbf 9583 56bd e0db 333f 72d1 a6be
00000360: e33b 3c3e 9303 1e3e e732 a33e 4737 f83e
00000370: f67f 16bf e81c 0d3f fcf3 a23e 5d62 e83e
00000380: fed8 f3bd 1f01 92bf 08a6 51bf 05f2 3a3d
00000390: 7332 9e3f 36ef 94bf c92c f9be b210 e7bd
000003a0: b940 60be 9556 bc3f e81c 503f 9b6e 0d3f
000003b0: 2d52 5f3f d8e8 3b3f 7462 35bf f533 efbd
000003c0: 56ab 7a3f c172 a63f 0eaa 97bf 176c ef3e
000003d0: 1e9f 19be 4fff 32bf 1106 d73e 3c17 d03e
000003e0: 14b0 c93e 226c d7be 2592 7a3f c3ed 333f
000003f0: 191a bf3e 2830 bb3e a284 843e c2d5 77bf
-0.2386623 0.04302338 0.2922134 -0.31050748 -0.39375073 -0.3072502 0.34489864 -0.48408067
-0.89616305 -0.40450093 0.25621575 0.6210973 0.1486202 -0.14283639 -0.13919173 0.25033456
-1.0423943 -0.323477 0.5913998 -0.0882361 -0.20489557 0.75331956 -0.48820436 0.894047
0.18182322 -0.0031255907 0.835678 -1.2225561 -0.067110695 0.68269247 -0.059176236 0.06276859
-0.12120611 -0.21118586 -0.33151326 -0.15544298 0.6472681 -0.5670906 -0.05335653 0.14488451
0.51010185 -0.3414375 -0.07486691 0.45680848 -0.2924188 0.11959997 -0.18199056 0.10842684
0.1367352 0.08324778 -0.38516018 -0.6038585 -0.2532492 0.086091235 0.3978648 -0.25437263
0.10048411 0.29324576 0.4137399 -0.4406583 -0.013759263 0.3026652 0.33679458 -0.14547041
-0.40460646 -1.2666537 -0.17624249 -0.70728946 -1.0292182 0.4161573 -0.8598773 0.11153811
-1.5737597 -0.49629322 0.6814861 0.20344493 -0.81049806 0.8460738 0.39247203 -0.30373544
0.57040566 -0.42977798 -1.0901761 0.4213025 0.6609809 0.01094802 -0.6922052 -1.1136504
0.21012889 -0.48735684 0.9709686 0.5814322 0.92081416 0.10235861 -0.54332006 0.3596943
-0.06423249 0.03674353 -0.41924268 0.31009656 -0.45400953 -0.342341 0.27248016 -0.19014752
-0.39819354 -0.33898595 0.07998647 -0.07612326 -0.1201149 -0.11620271 -0.05824275 -0.29580954
-0.10771126 -0.21827628 0.3575577 -0.18158567 -0.01781779 0.27317154 -0.13305742 0.5352873
0.4813429 0.49084172 0.21364406 -0.4015446 0.11074434 0.04740525 -0.36230084 0.109781384
0.67804617 0.47673628 -0.06749027 -0.0046440093 -1.1130785 0.51854354 0.58359784 0.043103993
0.1283091 -1.5362724 0.027013501 -0.29494292 -0.08984512 0.2868754 0.5259151 0.30263922
-0.54898185 -1.417805 0.90423715 -0.55763674 0.087930836 0.84644675 -0.20054036 -0.524257
-0.28736374 0.03902609 -0.32732025 -1.1314061 0.27103004 0.276557 -0.68365306 0.3258176
-0.057080008 -0.37852538 0.16423388 -0.64819807 -0.853124 -0.2729935 0.0038184954 -0.5941768
-0.5255248 -0.2179192 0.48693392 -1.2573093 0.58462673 0.30094793 -0.2668196 0.37640762
-0.8817109 -1.3414063 -0.17457505 -1.0088464 0.49736553 0.05701455 0.54802424 -1.4400355
-0.3217492 0.20185055 -0.08596744 -1.2914464 -0.3979234 -0.63339084 0.42940882 -0.18361753
-0.12639186 -0.2039455 0.113528445 0.68009067 0.007154335 -0.64996356 0.7833607 0.31540945
0.06220259 0.023129899 -0.20394233 0.381652 -0.30133095 -0.43521327 0.3654511 -0.18666771
-0.09382145 0.1505398 0.02636915 -0.011895178 -0.9295281 -0.05237158 0.7025738 -0.3258167
0.1838222 0.15431051 0.31874773 0.48479673 -0.58789 0.5512223 0.3182677 0.45387545
-0.11906622 -1.1406592 -0.8189397 0.045640964 1.2359146 -1.1635501 -0.4866698 -0.11282481
-0.2189969 1.4713923 0.8129411 0.55246896 0.87234765 0.73402166 -0.7085335 -0.11679832
0.9791769 1.300377 -1.1848772 0.46762154 -0.15002105 -0.6992082 0.41996816 0.40642726
0.3939215 -0.42074686 0.9787925 0.7028467 0.37324598 0.36560178 0.2588244 -0.96810544

gru.weight_hh_l0 f4 [384, 128]
00000000: 4006 acbf 5d00 e7bd 2511 cf3e 2ee7 703c
00000010: fc93 383d 81ca 053e 4617 273c 0314 babd
00000020: b057 edbd 2c47 95be 80e3 043e cef5 ba3e
00000030: 3ee8 a33e e8e1 ddbd c151 983d cd21 823e
00000040: 2767 ecbc 3b97 09c0 77f8 e03d 528a edbd
00000050: fc49 13bd d4f6 77bc 158b 52be 9b2a 6dbe
00000060: c5c8 c4be ce77 513d 68a6 6dbe 0f8f 71be
00000070: fa4c d93d ee75 2cbf d38a 81bd 0ae8 efbe
00000080: 6e31 ff3c 46c6 25be 2ca3 cabd 3538 42be
00000090: b225 01bf 404d 5c3d 2a18 7fbf effc cbbd
000000a0: d7b9 c6bd dd5e 08c0 abe7 9039 edac d23d
000000b0: baf7 03bf 9d5e 81be 6e37 4f3e 72f2 62be
000000c0: 468f a6bd 7631 8f3e fa0f 1a3f 07a0 d43e
000000d0: 3f09 843d 98ba b13d 90de 403e 8869 36be
000000e0: 98a9 c73e 7ba7 6bbf ba4a a63e d0d7 2b3f
000000f0: e7f9 f4bd eeba 87be d1fa cdbe 123b 9bbe
00000100: da12 1cbe 4017 d7bd cb91 b8bd b1bc 343e
00000110: b1cb cfbe 41b6 6fbf 1eac ba3d 7038 85bd
00000120: f099 6a3e 8b62 b1be 0891 af3d 3a1c 003e
00000130: 60e4 7d3d 1598 e7bd b44b 8a3f 5f5b b9bd
00000140: ac66 253d b47b 72bc 008d 7fbe f069 c0bd
00000150: ba42 323f 950f 8cbf c6de 18bc 1b92 053e
00000160: aad3 71be 01a8 69be 5e96 083e 7b1c 733d
00000170: bbf9 69bf 446d 9bbd d8b6 17be a07c bfbd
00000180: 1071 4abd 16be 3fbe ae96 e7bd f231 063c
00000190: 13ed b33e 4592 d1be 1dcb ea3c 710d 9a3f
000001a0: 16fa 883d e1f7 8abb 0425 4d3e ac45 d93d
000001b0: 8b11 10bf 8f48 c83e c776 9d3d 9d78 4cbf
000001c0: c44a fa3d cb6b c73e c811 66bf af86 e53c
000001d0: 8bd3 9c3d a12e 2cbe eb6a 2e3f c5ec 1abe
000001e0: ce10 113d 1151 1abe 1fc7 bbbe 1812 313e
000001f0: bb36 733e d493 54be 7cf3 9fbe e827 1c3e
00000200: 3d4e ab3e 867b 10bf 433c cb3d c919 ca3e
00000210: 9320 bbbd 1c06 09bf 8340 e9be c1ef fcbd
00000220: c411 143f 6a69 923e f96e 5f3e 05aa 98be
00000230: c0d3 533e 7843 c93d 7809 623d a9d9 c23d
00000240: bcc1 353e 5ac6 51bd a776 a2bd 2246 85bf
00000250: d62d 343f 4988 493e 341c 353f 4bf4 523d
00000260: 7ab2 35bf 69d9 1a3e da91 be3e 63a9 51be
00000270: 608d f0bd 4146 ed3e 6463 ab3e 2842 8a3f
00000280: f3a5 ad3e 2078 62bf b22b 213e 8a5d 87be
00000290: af2f a4be 71bf a5bd a084 e23e 39df b7be
000002a0: 9f3a 963f 6450 903e 1d32 a7be 6b76 b73e
000002b0: cb65 2fbf 34de ca3d 4930 c8bd 697d 843f
000002c0: 451b 5a3f 4d3b 63bf 4c66 b43e 70a6 cebe
000002d0: fde3 e53d 55b4 383d 024a 023f 0532 cabc
000002e0: 474e 5b3e efe1 d23d 7cda 8fbd ffb4 bc3c
000002f0: b911 4dbe da51 283e 10e5 eebc 4868 0ebc
00000300: 373e 0bbd 88ea 5c3d ddc6 cdbd 67ee 833e
00000310: 43b5 89be 0ba9 e9bd ab6c 723e 48b6 90bd
00000320: 3a18 9ebe 6cbb 8dbe 22a0 0e3f e109 07bf
00000330: 5d2b 593e e065 dcbd c814 3d3e cd24 183e
00000340: 6944 a7bd cd5c 273e a6f6 23be b415 333e
00000350: 934d 5cbd 4b0b 0b3f 16b8 a53e 7d59 26bf
00000360: faaa 7b3f fb22 0b3e 73c3 153f ab07 9c3d
00000370: bcf8 943e 453e b3be 6c5d 543e ba1a 66be
00000380: 60a6 76be deb0 de3d c8ad 153e 4506 fb3e
00000390: ed93 11bd 29f9 ce3e eb08 443d df2f fe3d
000003a0: 4e2c 783e d893 80be 2689 9bbf d582 783e
000003b0: c613 0ebe 70a5 5abe 101e 9a3e e91c 5dbf
000003c0: da46 fabe 9366 023f 3af6 f83e 422e a63d
000003d0: c263 4bbe 2315 3b3e 84e7 6ebf a9f2 8a3d
000003e0: a86d f73e 4c5e 15bf cd04 a7be a342 48be
000003f0: 8f85 323f 866a 9a3e c205 1ebe fc78 773f
-1.3439407 -0.11279366 0.40442768 0.014703555 0.045063004 0.1306553 0.01019842 -0.09085848
-0.11588991 -0.29155862 0.1297741 0.3651566 0.32013124 -0.10834104 0.07437468 0.25416413
-0.02885778 -2.1498554 0.10984891 -0.11598648 -0.03595923 -0.015134532 -0.20560868 -0.23160784
-0.38434425 0.051139645 -0.2320801 -0.23589729 0.10610385 -0.67367446 -0.06325307 -0.4685672
0.0311515 -0.16188917 -0.09894404 -0.18966754 -0.50448143 0.05378461 -0.99646246 -0.09960353
-0.09703415 -2.13079 0.00027638426 0.10286889 -0.51549876 -0.25267497 0.20235988 -0.22162798
-0.08132796 0.27967423 0.6018063 0.4152834 0.06447076 0.08678168 0.18834901 -0.17813694
0.38996577 -0.9205243 0.32478887 0.6712618 -0.119617276 -0.26509804 -0.4023042 -0.30318505
-0.15241566 -0.105024815 -0.09012183 0.17650105 -0.40585092 -0.9363747 0.0911486 -0.06504905
0.22910285 -0.34645495 0.085725844 0.12510768 0.061985373 -0.11308304 1.0804353 -0.09050631
0.04038112 -0.014800001 -0.24956131 -0.09395206 0.69633067 -1.0942255 -0.009330457 0.13044016
-0.236159 -0.22817995 0.1333861 0.059353333 -0.91396683 -0.075892 -0.14815843 -0.09349942
-0.04942423 -0.18724856 -0.11308037 0.008190619 0.3514181 -0.40931907 0.028661305 1.2035352
0.06688325 -0.0042409752 0.20033652 0.10608992 -0.5627677 0.39117858 0.076886706 -0.7987154
0.12221292 0.38949427 -0.8987088 0.028018324 0.07657536 -0.16814663 0.68131894 -0.15129383
0.035416417 -0.15069987 -0.36675355 0.17292058 0.23751347 -0.20759517 -0.3124045 0.15249598
0.3345813 -0.5643848 0.099236034 0.39472798 -0.091370724 -0.5352495 -0.4555703 -0.12350417
0.5783961 0.2859605 0.21819676 -0.29817215 0.20686245 0.09827322 0.05518481 0.09514172
0.17749685 -0.051214553 -0.079327874 -1.0412028 0.7038244 0.19680895 0.7074616 0.051502507
-0.7097546 0.15121998 0.3722065 -0.20474772 -0.11745715 0.46342662 0.33474267 1.0801439
0.33915672 -0.88464546 0.15739325 -0.26438552 -0.3206763 -0.08093155 0.4424181 -0.35912493
1.173664 0.28186333 -0.3265542 0.35832533 -0.685147 0.09905663 -0.09774835 1.0350772
0.8519786 -0.8876236 0.35234296 -0.40361357 0.11225126 0.045093853 0.50894177 -0.024682054
0.21416579 0.10297 -0.070240945 0.023035524 -0.20026292 0.16437474 -0.02916196 -0.008691855
-0.03399488 0.053934604 -0.10047696 0.25767824 -0.26896104 -0.114091955 0.23674266 -0.070660174
-0.30877858 -0.27682054 0.55713093 -0.5274945 0.21207948 -0.107616186 0.18464959 0.14857788
-0.08167345 0.16343994 -0.16012058 0.17488748 -0.053784918 0.54314107 0.3236701 -0.649803
0.98307765 0.13587563 0.58501357 0.0761865 0.2909602 -0.35008445 0.20738763 -0.22471133
-0.24086905 0.108735785 0.14617074 0.4902822 -0.035541464 0.4042447 0.047860067 0.124114744
0.24235651 -0.25112796 -1.2151229 0.24268658 -0.1387473 -0.21352172 0.3010106 -0.8637224
-0.4888218 0.50937766 0.48625356 0.08114292 -0.19862273 0.18269782 -0.93322015 0.06784565
0.4832585 -0.5834701 -0.3262085 -0.1955667 0.69735044 0.30159396 -0.15431884 0.9666898

gru.bias_ih_l0 f4 [384]
00000000: 7057 2dbf 5cd3 cd3f bab7 9ebe 68e1 a5be
00000010: 511c 2c3f 30ec fbbe 6785 dabd 5bba 083f
00000020: 44f4 6c3d bc41 84bd bda7 9e3f 738e dc3d
00000030: ec35 0fbf 46f2 32bf e3d1 903f 86cb ebbd
00000040: f5b0 4abf 9e5a 23bf 86b7 e1be d28a 613f
00000050: 0ba2 1f40 3661 1b3f 802f 023f d15f 3d3f
00000060: 6a23 17bf 2e60 3abe a25a 10bf 996b 50be
00000070: ffe9 b6bd 8f61 f13d f064 bbbe 4d4e f13f
00000080: 385c 3cbe c099 dd3d e09d d5bd e971 89bd
00000090: 333b 48bf 9ab2 89bf a5bf bf3f b50e bc3f
000000a0: d062 603f 856d 0240 f7c7 7cbe 86a6 95be
000000b0: 4eb9 f3be b44a e1bd 74b0 d1be 0c36 e83d
000000c0: f146 39be ec9f cdbe 4320 d6be 316d bfbe
000000d0: bc71 95bc 0437 72bf 3bf6 57be 0489 c6be
000000e0: f4fb d63e 0c61 9bbe 5326 3d3e 3955 33bf
000000f0: 904f d2be ea0d 3dbe 84ac cbbe 60f6 c1bc
00000100: 66ff b9be 3f1b cbbe 4f3c e7be 2baa 07bf
00000110: 17b0 103f 0aa5 d5be efde e5be 3af2 91be
00000120: 5936 2fbe a258 16bf 5e29 2f3f 5361 50be
00000130: 882c 673c 7951 91be 46de 03bf b6d0 b3be
00000140: 447e 46be c430 1cbf 2b36 9abe 3b25 25bf
00000150: 5e99 14bf 350c fb3e 0b81 163d 1410 f4be
00000160: 2657 2d3f c0fb e2bd b971 393e 4880 36bf
00000170: 7bbe 813f a186 42bf 3af3 f3bd 06f4 3dbe
00000180: 6f66 8dbe e1bc acbe ea89 4d3f ea51 2cbf
00000190: b51f 76bf d42f d7be 7e69 43be d2d8 b7be
000001a0: 0a0e c6be 6df1 15bf 1e2c 283d 6d88 ebbe
000001b0: 10c1 efbe e304 83be 6c2d 29be 290c 0c3f
000001c0: e9b8 e23d b9da 5bbf 2621 62be 4ca9 28bf
000001d0: e8bc a03e 7fb9 26be 6956 353f 696b 35be
000001e0: 3b69 16bf 730c 383e 4c9b 6f3f 7b13 9ebe
000001f0: eed8 7d3d 8411 483e 3171 b7be feeb 403f
00000200: 0ea8 c6bd 56d6 793f bb54 573f 17fd 5d3f
00000210: 00f6 c03e 6594 5b3f f0d0 793f 2104 223f
00000220: 4643 6e3e 991a c93e 95a3 193f 4de2 883d
00000230: a89a 61be f816 ef3d 4aa3 1c3f a41c 503e
00000240: e833 813e 7166 943f 85c1 0b3f f867 023f
00000250: 7212 35bf b80a 2c3f fd13 833e 7fb9 063f
00000260: 2c7d 863f 009e fd3e 734b 293f dc27 833e
00000270: 2170 c93e c1b1 333f e0ed e83e 418d 963e
00000280: 0814 c83e 8197 4f3f 9d5a 1d3f 3dd5 d93d
00000290: 5a28 5b3d f129 b83e b85f 303e 91d6 cf3e
000002a0: 6057 f83d 77a5 133f b9e8 bb3e 652e ccbd
000002b0: b4e1 d43f 751b 8ebd 1a49 aa3e 99a3 d23e
000002c0: 28d5 793d f31d 923f 0a3e db3c adb7 3e3f
000002d0: b972 9b3e 071e a13e c513 d33f c23a 833e
000002e0: a99a dfbd 6a04 bb3f 05dc 8abd 7272 fb3e
000002f0: 6b9a bf3e 3e38 003f bc68 453e d5d1 be3c
00000300: 3a9f fc3e 7bdd 2c3f 1d8b 453f 5776 933d
00000310: 5e0e 5d3e 723f 723f 04a8 8f3e 8230 db3d
00000320: 87e9 693f 2e2f 503c f32e 083f bb98 263f
00000330: 92a2 143f be10 f83d a70d d5bc 3c16 5f3d
00000340: 5d17 983f fd0a 243d 2590 8e3e ffc4 483e
00000350: 8d4d fc3d bc4e 1b3e daf5 5f3f 708d 003e
00000360: 2d83 5e3f c6b8 febd 07ca 043f f34c 143f
00000370: 50d3 223f ca51 933f 45ee 8a3f fa03 923e
00000380: 1c77 603f 77e5 003f e81a 773f b49f b83f
00000390: 8243 a43d d68e 8e3f 9bb1 9b3f c801 8d3f
000003a0: 9b2f f63e 5b13 613e 5ce3 6b3f 0f1a a73f
000003b0: 88dd 863e 540e c03e f6d4 883e da02 be3e
000003c0: e117 6f3d 00da e53d f451 ae3e c2af 193f
000003d0: 1d0e 4d3f 453f e93e dd64 8d3d f9b7 dd3e
000003e0: 711c 0fbe d024 803e 44f1 063f 777f 263f
000003f0: 7bae b13f f3d7 003f 8a21 513f 1171 ae3f
-0.67711544 1.6080127 -0.30999547 -0.32398534 0.6723071 -0.49203634 -0.10669976 0.53409356
0.057850137 -0.0645785 1.239494 0.107693575 -0.55941653 -0.6990093 1.1314052 -0.115134284
-0.79176265 -0.63810146 -0.4408533 0.8810245 2.4942653 0.6069521 0.5085373 0.7397433
-0.5903841 -0.18200752 -0.56388295 -0.20353545 -0.0893135 0.11786186 -0.36600447 1.885202
-0.18394554 0.10820341 -0.10430503 -0.0671118 -0.7821533 -1.075763 1.498036 1.4691988
0.87650776 2.0379345 -0.24685656 -0.2922861 -0.47602314 -0.110005766 -0.40954936 0.113384336
-0.18093468 -0.40161073 -0.4182149 -0.37387994 -0.01824271 -0.946152 -0.21090023 -0.3877641
0.419891 -0.30347478 0.18471651 -0.70051914 -0.41076326 -0.18462339 -0.39780056 -0.023677051
-0.36327666 -0.39669225 -0.451632 -0.5299403 0.5651869 -0.41727477 -0.44896647 -0.28505117
-0.17110576 -0.5872899 0.68422496 -0.20349626 0.014109738 -0.2838247 -0.5151104 -0.3512017
-0.19384104 -0.6101191 -0.30119452 -0.64509934 -0.5804652 0.4903275 0.03674416 -0.47668517
0.677111 -0.11083174 0.18109788 -0.7128949 1.0136255 -0.7598668 -0.11911626 -0.18550119
-0.27617213 -0.33737853 0.80288565 -0.6731249 -0.9614213 -0.42028677 -0.19083211 -0.35907608
-0.38682586 -0.5857151 0.0410577 -0.46002522 -0.46826982 -0.25589666 -0.16521233 0.54706055
0.11070425 -0.8588062 -0.22082958 -0.65883327 0.31394124 -0.16281699 0.70834976 -0.17716755
-0.5875432 0.17973499 0.9359634 -0.30874237 0.06197446 0.19537932 -0.35828546 0.75360096
-0.09700023 0.97592676 0.84113663 0.8671431 0.37687683 0.8577331 0.9758444 0.6328755
0.2326785 0.39278105 0.6001523 0.066837884 -0.22031653 0.11674303 0.6118666 0.20323426
0.25234914 1.1593763 0.5459216 0.50939894 -0.7073127 0.67203856 0.25601187 0.52626795
1.050695 0.49534607 0.6613075 0.25616348 0.3934336 0.70193106 0.45493984 0.29404643
0.39077783 0.8109055 0.6146639 0.10636375 0.05350528 0.359695 0.17224014 0.4059339
0.121260405 0.57674354 0.3670099 -0.099697866 1.6631379 -0.06938831 0.33258897 0.4114044
0.060994297 1.141539 0.026762981 0.74499017 0.30360964 0.31468222 1.6490408 0.25630766
-0.10918171 1.4610722 -0.06780247 0.49110752 0.374225 0.5008582 0.19278234 0.023293415
0.4934023 0.6752545 0.77165395 0.07200306 0.21587512 0.9462806 0.28057873 0.107026115
0.9137196 0.012706561 0.5319664 0.650768 0.5806056 0.12112568 -0.026007487 0.054464564
1.188213 0.04004954 0.2784435 0.19606398 0.12319479 0.15166754 0.87484515 0.12553954
0.8691891 -0.124375865 0.5187077 0.57929915 0.6360369 1.1509335 1.0853964 0.2851866
0.87681746 0.50350136 0.9652543 1.4423738 0.080206886 1.113734 1.2163576 1.1016169
0.48083195 0.2198004 0.921438 1.3054827 0.2634089 0.37510931 0.26724976 0.3711155
0.058372382 0.11223221 0.340469 0.6003381 0.8009966 0.45556083 0.06904004 0.43304422
-0.13975693 0.25028086 0.5271189 0.65038246 1.3881372 0.5032951 0.816918 1.3628255

gru.bias_hh_l0 f4 [384]
00000000: 3137 1cbf ec69 c93f 395f c3be 59dd 91be
00000010: 5729 423f 837b cbbe e90b 7bbe bfc6 ef3e
00000020: e230 8bbd 68c3 9bbd a304 a73f 2843 553e
00000030: 53ff eabe 56db 45bf b6fa 993f a0d1 57bd
00000040: 0854 54bf e78e 38bf 18bd edbe ca4b 803f
00000050: c215 1a40 b2bd 263f 2f99 123f a6e6 223f
00000060: 33e9 1dbf c222 6fbe bba6 d9be 332f a6bd
00000070: f640 10be 5ca2 d63d cd1e c6be 0e73 f93f
00000080: 059c 29be 7da0 283d ddeb b2bd fdb1 a5bd
00000090: e9da 61bf f282 92bf 2079 d03f 084b b83f
000000a0: f71c 5a3f 7f04 0a40 11c3 40be 03a3 cfbe
000000b0: 7796 20bf 879e aabd a8b2 cfbe 60a9 303e
000000c0: c65d 69be fe71 f8be 5466 00bf 1d81 b7be
000000d0: 68b2 fe3d 47de 78bf 6302 8abe d965 b3be
000000e0: 0879 d53e 518a 9ebe 1c57 103e f487 49bf
000000f0: 0c28 b3be 4d31 1abe d944 adbe 1b82 26be
00000100: 9c5d c5be 91f3 cfbe 290d dcbe 1ac3 04bf
00000110: 5a1e 1c3f 4897 b3be 7ab8 ebbe d79e a0be
00000120: 9389 c1bd c1cf 3cbf b58c 243f 7a84 9dbe
00000130: 43b3 d33d a6f7 a1be 6b2d d8be 898a e3be
00000140: aa07 88be 85e6 04bf b961 c8be 0373 17bf
00000150: ea77 27bf fd16 d23e 1887 a1bc 1430 0fbf
00000160: a706 2b3f b14c 0cbd 1a13 2f3e ee20 4dbf
00000170: 6f63 8b3f dbab 4abf ab28 7dbe 067a 73be
00000180: bcd9 0cbe 53fc c9be c238 5f3f e373 1abf
00000190: 5d23 7fbf 00b7 c2be 109f 0ebe e13f ffbe
000001a0: 452f 08bf fc88 13bf 6ad7 483d 0065 c0be
000001b0: 4e27 b9be 8e22 6abe 1df0 07be 582e 133f
000001c0: cc4e f63d 2db8 60bf a679 54be 7909 32bf
000001d0: fa58 da3e 73a2 a7bd fdd1 4d3f 958e f0bd
000001e0: 6d96 14bf 19b9 943e d210 713f 9115 8dbe
000001f0: c2ec 423d 8fc5 0b3e fa85 a2be 5ea2 413f
00000200: c0cf 19bd 75a4 613f 4be1 6c3f b63d 613f
00000210: 50b1 cb3e 813e 4d3f d89b 563f 1ff1 283f
00000220: 5ac3 293e 3b38 ab3e c477 1f3f 0741 a0bd
00000230: 591d 3fbe d3bf 293e 5c3e 2d3f 24a1 813e
00000240: 3632 453e 244a 8c3f 0c04 df3e 7adc 163f
00000250: db81 3bbf bd82 303f de28 dd3d ce3a 033f
00000260: ba0b 873f d188 c63e 1c0e 0e3f e62b cd3e
00000270: 3a4e 043f a572 4e3f 20d0 dd3e c635 593e
00000280: ad5a 983e e4da 5a3f 6ef7 183f ff7c 3f3e
00000290: 1a05 573c eaa2 bd3e fe29 403e d5c4 0e3f
000002a0: 4312 f13d 6df5 1f3f 3d55 6c3e c367 6fbe
000002b0: 0e96 c73f 599f f0bd 8244 df3e c5dd c73e
000002c0: 60d1 5b3d f0a5 903f 1914 b0bc 8e39 3c3f
000002d0: 82ac 833e ec59 9a3e e83f d73f 0828 5f3e
000002e0: 7e67 30be 1915 ca3f 8828 3fbd f499 113f
000002f0: 1ec4 cf3e 9888 d23e 523f 863e 4985 e13c
00000300: c2ef 1e3f 2d59 093f a45f 3b3f 9770 58bd
00000310: b819 2d3e aca4 893f f680 993e b520 3b3e
00000320: af6b 6d3f aed3 403d 14c0 0b3f 71be 2f3f
00000330: 5904 ee3e 77bb 923e 3ecd a73b 3929 463d
00000340: 97fd a03f c707 9f3d b688 6f3e 005e cd3d
00000350: 868a 053e 5ccd 3b3e 44dd 3f3f ae99 343e
00000360: 4f3e 5c3f 46f8 c2bd fe33 0d3f 07f8 063f
00000370: 7f51 2d3f 894d 8a3f 9c8d 8b3f 4658 c13e
00000380: 2ff5 4d3f 2482 0a3f b0b0 743f aca0 ac3f
00000390: 6d42 a63d a2fe 7a3f efd2 923f c8c7 853f
000003a0: de5d fc3e 8ffd 4b3e 7a7c 813f 6bfa a13f
000003b0: 2299 203e 8e7a ff3e 09cf 573e 0fd7 983e
000003c0: 8b3c 0d3e d7b9 8c3d 6c7a 743e a91f 173f
000003d0: fe86 503f df7a a43e b935 c03d efc7 d03e
000003e0: a27e a8bd cd9d 533e 9f56 183f dbe5 393f
000003f0: c772 b63f f4d4 033f 4933 453f f87b af3f
-0.61021715 1.573545 -0.38158587 -0.28489187 0.7584433 -0.3974267 -0.24516262 0.4683132
-0.06796433 -0.0760563 1.304829 0.208264 -0.45897922 -0.77287805 1.2029636 -0.05269015
-0.8294072 -0.7209305 -0.4643333 1.0023129 2.407578 0.651332 0.5726499 0.6363319
-0.6168396 -0.23353103 -0.42510018 -0.08114471 -0.1408728 0.10480186 -0.38695374 1.9488237
-0.16563423 0.04116868 -0.087363936 -0.08090589 -0.88224655 -1.1446211 1.6286964 1.4397898
0.85200447 2.1565244 -0.18824412 -0.40554056 -0.6272959 -0.08331018 -0.4056599 0.17252111
-0.22789678 -0.4852447 -0.5015614 -0.35840693 0.12436372 -0.9721417 -0.26954946 -0.3503864
0.41693902 -0.30964902 0.1409573 -0.78723073 -0.3499149 -0.1505787 -0.3384159 -0.16260569
-0.3854798 -0.40615514 -0.4297879 -0.518602 0.6098381 -0.35076356 -0.46039182 -0.31371185
-0.09450068 -0.7375451 0.642772 -0.30765134 0.10336926 -0.31634253 -0.4222215 -0.4444163
-0.26568347 -0.51914245 -0.39137056 -0.5915987 -0.6541735 0.41033164 -0.019717738 -0.55932736
0.66807026 -0.034252826 0.1709713 -0.8012837 1.088972 -0.7916848 -0.24722545 -0.23777017
-0.13754934 -0.3945032 0.8719598 -0.6033308 -0.99663335 -0.38030243 -0.13927865 -0.49853423
-0.5319713 -0.57630897 0.04903356 -0.37577057 -0.361628 -0.22864744 -0.1327519 0.5749259
0.12026748 -0.8778103 -0.2074953 -0.69545704 0.4264601 -0.081852816 0.8039854 -0.11745945
-0.5804203 0.29047468 0.9416629 -0.27555516 0.04758907 0.13649581 -0.3174284 0.7563838
-0.03755164 0.88141567 0.9253127 0.8798479 0.39783716 0.801735 0.8383155 0.6599292
0.16578427 0.33441338 0.6229212 -0.07824903 -0.18663539 0.16577081 0.6767328 0.25318253
0.19257435 1.0960126 0.43557775 0.5893017 -0.7324502 0.6894949 0.107988104 0.51261604
1.0550454 0.38776258 0.5549028 0.40072554 0.51681864 0.80643684 0.4332285 0.21211919
0.2975668 0.8549025 0.5975255 0.18700026 0.013123775 0.37038356 0.18766019 0.5576909
0.11771061 0.62483865 0.23079391 -0.23379426 1.5592668 -0.11749143 0.43606955 0.39036384
0.053666472 1.130064 -0.021493958 0.7352532 0.2571755 0.3014673 1.6816378 0.21792614
-0.17226979 1.5787688 -0.046669513 0.5687554 0.40579313 0.41119838 0.26220185 0.027529376
0.6208459 0.53651696 0.7319281 -0.05284175 0.16904342 1.0753379 0.29981202 0.18274195
0.9274244 0.047076873 0.5458996 0.68649966 0.46487692 0.2865865 0.0051209023 0.048379157
1.257739 0.07765155 0.23391995 0.10027695 0.13041124 0.18340057 0.74947 0.17636749
0.86032575 -0.09520011 0.5515746 0.5272221 0.6770248 1.0804912 1.0902591 0.3776266
0.80452245 0.5410483 0.95582104 1.3486533 0.081181385 0.9804479 1.1470622 1.0451593
0.49290365 0.19920944 1.0116112 1.2654546 0.15683416 0.4989819 0.21075071 0.29851577
0.13792627 0.06871384 0.23874825 0.59032685 0.8145598 0.32124993 0.09385247 0.40777537
-0.08227278 0.20665665 0.59507173 0.72616357 1.4253777 0.51496816 0.7703138 1.3709707
