models/lstmencoder.model (torch, 349623 bytes, 5 tensors)

embedding.weight f4 [128, 32]
0	0xbf833e97	-1.0253476
1	0xbf3823ae	-0.7192944
2	0x3f97cc6a	1.1859257
3	0x3f90d41a	1.1314728
4	0xc026492b	-2.5982158
5	0xbf05de3b	-0.5229222
6	0xbf7e1557	-0.9925131
7	0xbeefd691	-0.4684339
8	0xbf27370b	-0.65318364
9	0xbf72dc3c	-0.948673
10	0xbdad7ad4	-0.08470693
11	0x3d6b83d9	0.057498787
12	0x3ed22e06	0.41050738
13	0xbf44bb67	-0.76848453
14	0x3e6cdf99	0.2313217
15	0xbda96b74	-0.08272448
16	0x3f76edd1	0.9645663
17	0xbee34571	-0.44388917
18	0x3f18b150	0.5964556
19	0x3e089f4d	0.13342018
20	0x3ec8c91a	0.39215928
21	0x3faf6684	1.370316
22	0x3ea86557	0.32889816
23	0xbd12967b	-0.03578804
24	0x3f1c182b	0.6097438
25	0x3e9feaa8	0.31233716
26	0xbe5dda54	-0.21665317
27	0x3fde1d2c	1.7352653
28	0x3f6136d8	0.8797431
29	0x3e3df68f	0.18551086
30	0x3f80a559	1.005046
31	0xbfb3df5f	-1.4052542
32	0x3f4530d3	0.77027625
33	0xbea5bde0	-0.32371426
34	0xbe19de6f	-0.15026258
35	0xbe108710	-0.14114022
36	0xbf569318	-0.838182
37	0x3f5d21a7	0.86379474
38	0xbecb4048	-0.3969748
39	0xc023c461	-2.558861
40	0x3e42f393	0.19038229
41	0x3f739d47	0.9516186
42	0xbec127d3	-0.37725696
43	0x3ec0d6ab	0.3766378
44	0xc038d8cb	-2.888232
45	0xbf18ff47	-0.5976452
46	0x3ee59d22	0.44846445
47	0xbfa0f245	-1.2573935
48	0x3f345b81	0.70452124
49	0xbfac2d06	-1.345124
50	0x3f34f9c1	0.70693594
51	0xbf44b87c	-0.76844
52	0x3f0b994e	0.545308
53	0xbf035a79	-0.51309925
54	0x3fcbc710	1.5920124
55	0x3f9dd29e	1.23299
56	0x3df338b0	0.11876047
57	0x3fa7cff8	1.3110342
58	0xbf57c8ba	-0.8429066
59	0x3f931310	1.1490192
60	0x3f8ba74d	1.0910431
61	0x3fa5a25f	1.2940177
62	0xbedebe63	-0.4350463
63	0x3e49567b	0.19661896
64	0xbfcfc03e	-1.6230543
65	0x3ea3e6f5	0.32012144
66	0x3f2ed429	0.6829248
67	0x3f4f18ff	0.80897516
68	0x3f173da6	0.59078443
69	0xbc0ca962	-0.008585306
70	0xbf503987	-0.8133778
71	0xbd9eb02d	-0.077484466
72	0x3f5e1d38	0.86763334
73	0xbf804db8	-1.0023718
74	0xbe49bb0a	-0.19700256
75	0x3ecc5959	0.39911917
76	0x3f8dfc3a	1.1092598
77	0xbf7d74a8	-0.9900613
78	0x3f5d6a89	0.86490685
79	0xbee59f4c	-0.44848096
80	0x3fc42913	1.5325035
81	0xbe3d9cf1	-0.185169
82	0x3e6018e4	0.21884495
83	0x3f3aac5b	0.72919244
84	0xbfb21ed6	-1.391566
85	0xbeb10977	-0.34577534
86	0xbd998e1a	-0.07497807
87	0xbea6466f	-0.32475612
88	0x3e6013bc	0.21882528
89	0x3f5d6fd4	0.8649876
90	0x3f5b8027	0.8574242
91	0xbf021896	-0.50818765
92	0xbfa3906f	-1.2778453
93	0x3e6eb4c3	0.23311143
94	0xbf54b386	-0.8308643
95	0xbf55c9ee	-0.83511245
96	0xbf5efe6d	-0.8710697
97	0xbfef83da	-1.8712113
98	0x3fb51bd9	1.4149123
99	0xbd9af766	-0.07566719
100	0xbdc124b8	-0.09430832
101	0x3faa9783	1.3327488
102	0x3e260613	0.16213255
103	0xbfd86784	-1.690659
104	0xbfd3cbdd	-1.6546589
105	0x3d91b023	0.071136735
106	0xbdd59f01	-0.10430718
107	0x3ff44520	1.9083595
108	0xbe97fdce	-0.29685825
109	0xbe9fcbe0	-0.31210232
110	0xbfd52250	-1.6651096
111	0x3cb65e8e	0.022261884
112	0xbf42a4ae	-0.7603253
113	0x3f807822	1.0036662
114	0x3fc21a8e	1.5164354
115	0xbdd09d88	-0.10186297
116	0xbe091b74	-0.13389379
117	0x3eb4c9b0	0.35310125
118	0xbfc4b659	-1.5368148
119	0xbdbe227d	-0.09283922
120	0xbf4f661a	-0.8101517
121	0x3f39f64c	0.72641444
122	0xbf246e97	-0.64231247
123	0xbf55c336	-0.83500993
124	0x3ead859a	0.33890992
125	0x3fc3aa1e	1.5286291
126	0x3ff95b7e	1.9481046
127	0x3f1758b0	0.591197
128	0x3f050a1b	0.51968545
129	0x3faafb0e	1.3357866
130	0x3e016fbf	0.12640284
131	0x3fa6f1dc	1.304256
132	0x3fa5e6cd	1.296106
133	0x3f010902	0.5040437
134	0xbdce5727	-0.10075217
135	0x3f636f44	0.8884165
136	0x3f651a97	0.894937
137	0xbebc1fbd	-0.36742964
138	0xbe43ae82	-0.19109538
139	0x3eea3b03	0.45748147
140	0x3f5eeb25	0.8707755
141	0xbeac14df	-0.33609673
142	0xbf67a0fe	-0.9048003
143	0x3f612bc0	0.8795738
144	0xbf99ea6b	-1.2024664
145	0x3f3ff94b	0.74989766
146	0xbcb3a67e	-0.021929976
147	0xbf6306a6	-0.8868202
148	0x3fac9eb2	1.348593
149	0xbe36906b	-0.17828529
150	0x3e423f8c	0.18969554
151	0x3f51e2e8	0.81986856
152	0x3f8b50b0	1.0883999
153	0xbebd3f2f	-0.36962268
154	0x3f96d465	1.1783568
155	0x3f3f0178	0.74611616
156	0xbf22ac86	-0.635445
157	0xbfc3bcec	-1.5292029
158	0x3eb584f5	0.35453
159	0xbebc3766	-0.36761016
160	0x3fc566c8	1.5421991
161	0xbfca1821	-1.5788614
162	0xbffdd26a	-1.9829838
163	0xc0300da6	-2.750833
164	0xbd35a9c5	-0.044351358
165	0x3f654d0d	0.89570695
166	0x3f6ecd8f	0.9328241
167	0x3d20ed04	0.039288536
168	0xbefba7ce	-0.49151462
169	0x3e53bbe5	0.20677145
170	0x3e0c8683	0.13723187
171	0x3e9be3c3	0.30447206
172	0xbf03c11d	-0.5146654
173	0xbede5234	-0.4342209
174	0xbfa1931e	-1.2623022
175	0xbf89d9e9	-1.0769626
176	0x402e656f	2.724941
177	0xbf35ab5a	-0.70964587
178	0x4008c3c9	2.1369498
179	0x3f035ca0	0.5131321
180	0x3f8f7ad6	1.1209362
181	0x3f20c652	0.6280261
182	0x3c93dda8	0.01805003
183	0x3e9e6267	0.3093445
184	0xbe86391c	-0.26215446
185	0xbd02cacb	-0.03193168
186	0x3f2b3016	0.6687025
187	0x3ef7064d	0.48246995
188	0x3f79667d	0.9742201
189	0xbf2b5c3a	-0.669376
190	0xbfae0f88	-1.359849
191	0x3e2a832f	0.16651605
192	0xbee6ea15	-0.45100465
193	0x3f81b76f	1.0134104
194	0xbebbaf2d	-0.36657086
195	0x3fb34161	1.4004327
196	0xbf4d80ae	-0.80274475
197	0x3e1a46c7	0.15066062
198	0x3dd5bb33	0.10436096
199	0x3fb778b1	1.4333707
200	0xbdd33287	-0.10312372
201	0x3f8acf69	1.0844547
202	0xbf8dafff	-1.1069335
203	0xbda99992	-0.08281244
204	0xbec32d6f	-0.381206
205	0x3d2b2068	0.041778952
206	0xbf462f3b	-0.7741582
207	0xbec37c8e	-0.38180965
208	0x3f5640eb	0.83692807
209	0xbef8b21c	-0.48573387
210	0x3cc4d232	0.02402601
211	0x3ff3079b	1.8986696
212	0xbf4953ce	-0.786435
213	0x3fc1076c	1.508039
214	0x3f0b02b3	0.54300994
215	0x3e149835	0.14511187
216	0xbeb5d651	-0.35515073
217	0xc0042922	-2.0650105
218	0x3f21d032	0.63208306
219	0xbe351e6d	-0.17687388
220	0xbfc55919	-1.5417815
221	0x3f193521	0.59846693
222	0x3f3210c2	0.6955682
223	0x3f5848de	0.84486187
224	0x3f81a1d5	1.0127512
225	0xbf8f19cf	-1.1179751
226	0x3fa00362	1.2501032
227	0x3e04c722	0.12966588
228	0x3f74063d	0.9532202
229	0x3ff9a05e	1.9502065
230	0xbef19a1c	-0.4718789
231	0xbed3832d	-0.41311017
232	0xbde5a8ec	-0.1121386
233	0x3de1d60e	0.11027156
234	0xc006573c	-2.0990744
235	0x3f4d1dcc	0.8012359
236	0xbfd64b45	-1.674172
237	0xbcdaa7a7	-0.026691271
238	0xbf235865	-0.63806754
239	0x3fa0d77a	1.2565758
240	0xbe93924a	-0.28822547
241	0xbf8b21b1	-1.0869657
242	0x3f41c4e8	0.7569108
243	0x3ebd21b3	0.36939773
244	0x3f809c83	1.0047764
245	0xbdd11808	-0.10209662
246	0x3edc8d4f	0.4307656
247	0xbfc3ad52	-1.5287268
248	0xbe4bb9cc	-0.19895095
249	0xbf8e40c1	-1.1113511
250	0x3f458d4c	0.77168727
251	0x3f69925d	0.9123896
252	0xbf388ae3	-0.72086924
253	0xbd8d518b	-0.06900319
254	0xbd98ee1c	-0.07467291
255	0x3f79656a	0.9742037

lstm.weight_ih_l0 f4 [512, 32]
0	0x3e518ca4	0.20463806
1	0x3f001255	0.5002797
2	0x3f0c3d03	0.54780596
3	0x3f4c537d	0.79814893
4	0x3e0f4ca7	0.13994084
5	0xbfaf7c97	-1.3709897
6	0xbef5a924	-0.47980607
7	0xbe8e18e3	-0.27753362
8	0xbf6d2135	-0.92628795
9	0x3e563338	0.20917976
10	0xbd134f44	-0.035964265
11	0xbebe9bb2	-0.3722816
12	0x3f1bef2f	0.6091184
13	0x3e894190	0.26807833
14	0x3eb3bf68	0.3510697
15	0x3ec678bb	0.38763985
16	0xbed4ba34	-0.41548312
17	0xbf01aee4	-0.50657487
18	0xbe948a5d	-0.29011813
19	0x3e0f76d7	0.14010178
20	0x3d585cb2	0.052822776
21	0xbf90d75c	-1.1315722
22	0x3e735233	0.23761825
23	0x3ca094b5	0.019602159
24	0x3f20eb22	0.62858784
25	0x3f501909	0.812882
26	0x3dc35d7a	0.095393136
27	0xbf415291	-0.7551661
28	0xbf76cac3	-0.9640314
29	0x3e78278b	0.24233834
30	0x3ea85f08	0.32885003
31	0xbedba617	-0.42900154
32	0xbe850ec5	-0.2598783
33	0x3e293d80	0.16527367
34	0xbe601c00	-0.21885681
35	0xbe5db6f8	-0.21651828
36	0xbeb8a078	-0.36059928
37	0xbe52b105	-0.2057534
38	0xbebd553d	-0.36979094
39	0xbdb985f4	-0.09058753
40	0xbde62731	-0.11237944
41	0xbe8658ea	-0.2623971
42	0xbeae7f13	-0.34081325
43	0xbf0e26c1	-0.55527884
44	0xbe436827	-0.190827
45	0x3d8e9672	0.06962289
46	0xbe6c3c49	-0.23069872
47	0x3e4ccdbf	0.20000361
48	0xbe7143a1	-0.23560955
49	0xbe8e38a5	-0.2777759
50	0xbe2dbb5f	-0.16966008
51	0x3db8fb5e	0.090323195
52	0xbc7c75d5	-0.015408953
53	0xbe9b0654	-0.30278265
54	0xbdf3be73	-0.1190156
55	0xbc8fb485	-0.017542133
56	0x3c330959	0.010927522
57	0x3e367314	0.17817336
58	0xbe6d897f	-0.23196982
59	0xbec8b22a	-0.39198428
60	0xbe2d4e92	-0.16924503
61	0xbee3b8d1	-0.4447694
62	0x3cd0a42d	0.02546891
63	0x3e3ef23e	0.18647096
64	0x3f108382	0.56450665
65	0x3f066043	0.52490634
66	0xbf3a2946	-0.7271923
67	0xbf2fa29c	-0.686075
68	0x3f46f578	0.77718306
69	0x3ec261ca	0.37965232
70	0x3f01cf2e	0.50706756
71	0x3eb86100	0.36011505
72	0x3ef7344c	0.48282087
73	0x3f3189c7	0.69350857
74	0x3d2c60d2	0.042084523
75	0xbe179af2	-0.148052
76	0xbeccd2a5	-0.4000446
77	0x3f0674de	0.52522075
78	0xbe3896b5	-0.1802624
79	0x3eac609c	0.33667457
80	0xbf021bdd	-0.50823766
81	0x3ecdf76c	0.4022783
82	0xbf07208e	-0.5278405
83	0x3dbaad49	0.09115083
84	0xbe63809d	-0.22217031
85	0xbf673908	-0.903214
86	0xbe54db5e	-0.20786807
87	0x3df160ef	0.11786067
88	0xbf1bcc2c	-0.60858417
89	0xbeeb5dc7	-0.45969984
90	0x3e551fef	0.20812963
91	0xbf4ff5fe	-0.8123473
92	0xbedaf6ec	-0.4276651
93	0xbebae115	-0.3649985
94	0xbf1faa8b	-0.623696
95	0x3f278935	0.65443736
96	0xbf5067ae	-0.814082
97	0xbf3161d6	-0.6928991
98	0xbe63dcb8	-0.22252166
99	0x3d3b82fa	0.045779206
100	0x3e521dd0	0.20519185
101	0xbe76efdd	-0.24114938
102	0x3f40b8b9	0.75281864
103	0xbf1ce5fc	-0.6128843
104	0x3f334b51	0.700368
105	0xbde1327b	-0.109959565
106	0xbf123918	-0.5711837
107	0x3f8f79f1	1.1209089
108	0x3f4e1b5b	0.8051049
109	0x3e2306f8	0.15920627
110	0xbf63a86f	-0.88928884
111	0x3fb0f220	1.3823891
112	0xbf4e43e0	-0.8057232
113	0xbf78de07	-0.97213787
114	0x3f0f66db	0.5601632
115	0xbf9a27b9	-1.2043372
116	0xbf702baf	-0.93816656
117	0xbd1c1f6d	-0.038115907
118	0xbfc284fe	-1.5196836
119	0xbf34dbdd	-0.70647985
120	0xbeac6651	-0.3367181
121	0x3f819034	1.0122132
122	0xbf6d7494	-0.9275601
123	0xbdc18470	-0.094490886
124	0xbfcdba1f	-1.6072425
125	0x3ea49e41	0.32151988
126	0x3e3e654f	0.18593334
127	0x3f170e31	0.5900603
128	0x3efc67f0	0.49298048
129	0xbdc78458	-0.097420394
130	0x3f2494d7	0.6428961
131	0xbf730b45	-0.9493907
132	0x3c466b1f	0.012110501
133	0xbf8c7635	-1.0973574
134	0x3f76fac6	0.964764
135	0xbe296a8a	-0.16544548
136	0xbf54a598	-0.83065176
137	0x3ee82cc0	0.45346642
138	0xbf833fb8	-1.025382
139	0xbee08e87	-0.4385874
140	0xbfb6da45	-1.428536
141	0xbe587a64	-0.21140438
142	0xbdc4aa83	-0.09602835
143	0xbd870020	-0.06591821
144	0x3ee0844c	0.43850935
145	0xbeb018ab	-0.3439382
146	0x3fa212eb	1.2662023
147	0xbda26d26	-0.07930975
148	0xbf75af34	-0.95970464
149	0x3f443ee7	0.7665848
150	0x3ecda3aa	0.40163928
151	0x3f0ea94a	0.55727065
152	0xbf182f53	-0.5944721
153	0x3f13bd87	0.5771107
154	0x3fbcf3a7	1.4761857
155	0x3f9e37da	1.2360795
156	0xbf4f3a5a	-0.8094841
157	0xbf62d11f	-0.88600343
158	0xbfcc40d1	-1.595728
159	0xbf37cc99	-0.71796566
160	0xbe1d68cc	-0.15372008
161	0x3f6b3047	0.9187054
162	0xbf5b1107	-0.85572857
163	0xbfbe18d0	-1.4851322
164	0xbf3e8598	-0.744226
165	0x3ea75622	0.32682902
166	0xbe63839c	-0.22218174
167	0x3f245ae0	0.64201164
168	0x3e2995e6	0.16561088
169	0x3ec73eb8	0.38915038
170	0xbd5ecf84	-0.05439712
171	0x3d42d921	0.04757035
172	0xbee420d4	-0.44556296
173	0xbf44a389	-0.76812035
174	0xbe3372d1	-0.17524268
175	0xbf82ae0d	-1.0209366
176	0x3d1097db	0.03530107
177	0xbe5e3e25	-0.21703394
178	0xbe1436d2	-0.14474037
179	0xbe412ef5	-0.18865569
180	0xbeabedab	-0.33579764
181	0x3e4a2f31	0.19744565
182	0x3f3a0a60	0.7267208
183	0xbde59c75	-0.112114824
184	0xbfa4c1c9	-1.2871639
185	0x3f4894db	0.78352135
186	0x3e20b5d0	0.15694356
187	0xbe98ff9d	-0.29882517
188	0xbdc4b681	-0.09605122
189	0xbf56a36a	-0.838431
190	0x3ec08edf	0.37609002
191	0x3f520034	0.8203156
192	0xbf25082b	-0.6446559
193	0xbe9fb643	-0.31193742
194	0xbf226481	-0.63434607
195	0x3efe0545	0.49613395
196	0x3d80c69b	0.06287881
197	0xbb6deef5	-0.003630576
198	0xbf020e2d	-0.5080288
199	0xbd235187	-0.039872672
200	0x3fbd7d63	1.480389
201	0xbfcc5129	-1.5962268
202	0x3f22175f	0.6331691
203	0x3f924fe5	1.1430632
204	0x3eab9d36	0.3351838
205	0x3f609464	0.87726426
206	0xbd774071	-0.06036419
207	0x3ea065dc	0.31327713
208	0xbf4cdcb5	-0.8002427
209	0x3f4385b0	0.76375866
210	0xc01c7c13	-2.445073
211	0x3f3752f6	0.71610963
212	0x3fccf5d9	1.6012527
213	0x3e23622e	0.15955421
214	0x3e7b42db	0.24537222
215	0x3e96a408	0.2942202
216	0xbefdd7d2	-0.4957872
217	0xbf984476	-1.1895893
218	0xbf2fa733	-0.686145
219	0xbfa8eda1	-1.3197519
220	0x3f23bf37	0.63963646
221	0x3f876f08	1.0580759
222	0x3f888b9b	1.0667604
223	0x3fd152e4	1.6353421
224	0x3f33b0d2	0.7019168
225	0x3eec1599	0.46110228
226	0xbf89a3d8	-1.0753126
227	0x3f092fbe	0.53588474
228	0xbf827b26	-1.0193832
229	0x3e298749	0.16555513
230	0x3f9af740	1.2106705
231	0xbef0d3b6	-0.47036523
232	0xbeaa2a60	-0.33235455
233	0x3f7a0024	0.97656465
234	0x3e34cfcc	0.17657393
235	0x3f865052	1.0493262
236	0x3fc8d97b	1.569137
237	0xbf5896c0	-0.84605026
238	0x3f03759a	0.5135132
239	0xc0032523	-2.0491416
240	0xbf711a87	-0.941811
241	0x3e5416cc	0.20711821
242	0xbe5455d2	-0.20735863
243	0x3f07467b	0.5284192
244	0xbe77e18d	-0.24207135
245	0x3f4027e0	0.75060844
246	0x3f1bc092	0.60840714
247	0x3ee72aa9	0.45149735
248	0xbf976e22	-1.1830485
249	0xbeb7db5e	-0.3590955
250	0x3fd013ed	1.6256081
251	0xbef08019	-0.4697273
252	0x3fb53ede	1.415981
253	0xbf34dee3	-0.706526
254	0x3e7ee204	0.24890906
255	0x402dc848	2.7153492

lstm.weight_hh_l0 f4 [512, 128]
0	0xbf95cf1e	-1.1703832
1	0x3e717486	0.23579606
2	0xbec72b27	-0.3890011
3	0x3ed3286d	0.4124178
4	0xbe8412c0	-0.25795555
5	0x3d7c38d7	0.061577644
6	0x3e398a76	0.18119225
7	0xbff71d24	-1.9305768
8	0x3d09d3d0	0.033649266
9	0xbf0aa79c	-0.54162
10	0xbe8215c9	-0.25407246
11	0xbf6c2468	-0.9224305
12	0xbee33af2	-0.4438091
13	0xbd7b3864	-0.061333075
14	0x3d322fdd	0.043502677
15	0xbc8e3cca	-0.01736297
16	0xbf1b7d25	-0.6073783
17	0xbecb952f	-0.39762256
18	0xbf78e49a	-0.9722382
19	0xbeb4bf9a	-0.3530243
20	0xbe8b5ded	-0.27220097
21	0x3e42a290	0.19007325
22	0xbde63c76	-0.11242001
23	0x3f4fd3ae	0.8118237
24	0x3eb21aa5	0.34785953
25	0xbf144b6b	-0.5792758
26	0x3f25adac	0.6471813
27	0x3f25e110	0.64796543
28	0x3e31da2e	0.17368385
29	0xbeb5c4ee	-0.35501808
30	0x3dc6da11	0.097095616
31	0x3dc1b029	0.09457428
32	0xbf980741	-1.1877214
33	0x3db9c700	0.09071159
34	0xbda5c62b	-0.08094438
35	0xbdf4d98f	-0.119555585
36	0x3f2c5d1c	0.67329574
37	0xbd90b9d3	-0.07066693
38	0xbc8f00ed	-0.017456496
39	0xbca32874	-0.01991675
40	0x3d1ae8f4	0.037819818
41	0x3ed833bf	0.4222698
42	0x3e2cdeb7	0.16881834
43	0xbed0c589	-0.40775707
44	0x3dab676e	0.08369337
45	0xbe740e2b	-0.2383353
46	0xbe6335ce	-0.22188494
47	0xbf3e70cf	-0.7439088
48	0xbfc8b40b	-1.5679945
49	0x3d40b69e	0.047049157
50	0x3e829e17	0.25511238
51	0xbea4fabd	-0.32222548
52	0xbd852ee9	-0.06503088
53	0x3f84ae4f	1.0365695
54	0x3f56beb6	0.8388475
55	0xbda275fb	-0.07932659
56	0xbf160b58	-0.5861106
57	0xbea936be	-0.33049577
58	0xbed4f4ca	-0.4159301
59	0x3f47678d	0.7789238
60	0x3d8ad980	0.06779766
61	0xbe87bf93	-0.26513347
62	0x3ec575ad	0.38566342
63	0x3dc1de83	0.09466269
64	0xbdde11b0	-0.108432174
65	0xbe3c02c5	-0.18360431
66	0x3e4909d7	0.1963266
67	0x3ecc1c78	0.3986547
68	0xbf20b6e7	-0.62779087
69	0x3ede58e5	0.43427196
70	0xbf19dbf2	-0.60101235
71	0x3e80adee	0.25132698
72	0xbc3ba507	-0.01145292
73	0xbf379277	-0.7170786
74	0xbf78cdde	-0.9718913
75	0xbd83aa8d	-0.06429014
76	0x3eabb5c7	0.33537123
77	0x3db16cd7	0.08663338
78	0xbe5478fb	-0.20749275
79	0x3e603db3	0.21898536
80	0xbfbf9b29	-1.4969226
81	0xbf6254ff	-0.88410944
82	0x3c89721e	0.016778048
83	0xbf2b95c9	-0.6702543
84	0x3b3be86d	0.0028672472
85	0x3da30b33	0.079611205
86	0x3e913eb5	0.28368154
87	0xbefaea92	-0.49007088
88	0x3f13d667	0.57749027
89	0xbe613f68	-0.21996844
90	0x3f0d7722	0.5525991
91	0x3f46f6f1	0.7772055
92	0xbf6ac934	-0.9171326
93	0xbe96bf9e	-0.29443067
94	0xbd9f71f2	-0.07785405
95	0xbed0120c	-0.4063877
96	0x3e90623d	0.2819995
97	0x3fb04ff4	1.37744
98	0xbeff1b7d	-0.4982566
99	0xbce17378	-0.02752088
100	0xbf771506	-0.96516454
101	0xbf17ac26	-0.5924705
102	0xbee4d640	-0.4469471
103	0xbf57583d	-0.84119016
104	0xbf227922	-0.63466084
105	0xbebaa735	-0.36455694
106	0x3ea936d7	0.33049652
107	0xbd2951b7	-0.041337695
108	0xbdee2779	-0.116286226
109	0x3f1a1ca6	0.60199964
110	0xbf521f1e	-0.8207873
111	0xbe9442f0	-0.2895732
112	0xbe8b3f53	-0.2719675
113	0x3f2ccc1f	0.67498964
114	0xbe4fde07	-0.2029954
115	0xbe53253e	-0.20619676
116	0x3f28a282	0.6587297
117	0xbd9b11c4	-0.07571748
118	0xbdf1af07	-0.11800962
119	0xbf177421	-0.59161574
120	0x3e5ea639	0.21743096
121	0xbe955fdc	-0.29174697
122	0xbe04e6e7	-0.12978707
123	0xbe86b9fe	-0.26313776
124	0xbf101969	-0.5628877
125	0xbf244ea2	-0.64182484
126	0xbeb3519d	-0.35023203
127	0xbe5461c5	-0.20740421
128	0x3e88bc92	0.26706368
129	0x3f51d327	0.8196282
130	0xbebcefe7	-0.3690178
131	0xbd90d2bb	-0.07071444
132	0xbe048613	-0.1294177
133	0xbebf3b73	-0.37350044
134	0x3db9da04	0.09074786
135	0xbfa06de9	-1.2533542
136	0x3eaa0b55	0.3321177
137	0xbf24c2dd	-0.6435984
138	0xbed7a2da	-0.42116433
139	0xbf3b1800	-0.73083496
140	0xbec7eee7	-0.39049456
141	0xbeb3ea7b	-0.35139832
142	0xbd983f81	-0.074339874
143	0xbe44093f	-0.19144152
144	0x3ea8a3bb	0.32937416
145	0xbf31a51f	-0.6939258
146	0xbe8553da	-0.26040536
147	0xbdba0a74	-0.09084025
148	0xbd481a8a	-0.048853435
149	0x3d483492	0.04887826
150	0xbf26e3b4	-0.651912
151	0x3e3230c0	0.17401409
152	0x3f1a0809	0.6016851
153	0xbd9be181	-0.07611371
154	0x3e0bde8c	0.13659114
155	0x3f673cb4	0.90327
156	0x3edeb3e4	0.4349662
157	0xbeb0842b	-0.34475836
158	0x3ed6b8f0	0.4193797
159	0xbde2c7e4	-0.11073282
160	0x3e55978f	0.20858596
161	0xbf28aead	-0.65891534
162	0xbea13220	-0.31483555
163	0xbf342d53	-0.7038166
164	0xbf279651	-0.6546374
165	0x3d92ed83	0.07174208
166	0xbed0b64f	-0.4076409
167	0x3e75cbdc	0.24003547
168	0xbe973b49	-0.29537418
169	0xbb639f52	-0.0034732413
170	0xbe6a7ae3	-0.2289844
171	0x3df6d1e3	0.120517515
172	0x3e336777	0.17519937
173	0x3e43c01c	0.19116253
174	0xbec417ff	-0.38299558
175	0x3e628f1f	0.22124909
176	0xbf443c16	-0.76654184
177	0xbecb03dc	-0.39651382
178	0x3eee627e	0.4655952
179	0xbf0cc513	-0.5498821
180	0xbd1c3873	-0.03813977
181	0x3ef36bb9	0.47543123
182	0x3f35b026	0.70971906
183	0xbed18777	-0.40923664
184	0x3dbd6a79	0.09248824
185	0x3ddfbd95	0.10924832
186	0x400d18c3	2.2046363
187	0xbfba9eb0	-1.4579678
188	0xbe6dc8af	-0.23221086
189	0x3f78b230	0.9714689
190	0x3ec273e4	0.37979043
191	0x3e91f40f	0.28506514
192	0x3e8bc99e	0.2730226
193	0x3e4cbbd7	0.1999353
194	0xbf2af36f	-0.667777
195	0xbe91e885	-0.2849771
196	0xbeaafc92	-0.3339582
197	0x3d2dcfd2	0.04243452
198	0x3f3e4823	0.7432882
199	0xbeae3a6b	-0.34028944
200	0x3f75160c	0.95736766
201	0xbec0af27	-0.3763363
202	0x3eb8c65b	0.36088833
203	0xbef0209a	-0.46899873
204	0x3f2b9b03	0.67033404
205	0x3f32d752	0.698598
206	0x3f0f24e3	0.5591566
207	0x3bb358ef	0.005473248
208	0x3d0135d9	0.031545494
209	0xbe198ffc	-0.14996332
210	0xbd74c175	-0.059754808
211	0xbcae073d	-0.021243686
212	0xbf47ddb6	-0.7807268
213	0xbeabb5c6	-0.3353712
214	0xbe93a8d0	-0.2883973
215	0xbe78833d	-0.24268813
216	0xbe951d15	-0.2912375
217	0x3ef58c31	0.4795852
218	0x3e882d94	0.26597273
219	0xbe253bb3	-0.16136055
220	0x3e7b5e63	0.24547724
221	0xbeb84be9	-0.35995415
222	0xbef1073f	-0.4707584
223	0x3edefc63	0.4355193
224	0x3b185207	0.0023242251
225	0x3fa564f9	1.292144
226	0xbec8bd61	-0.39206985
227	0xbe4bbd1b	-0.19896357
228	0xbf614aa5	-0.88004524
229	0x3dc1860b	0.09449395
230	0xbf59e859	-0.8512016
231	0xbe4666c2	-0.19375136
232	0xbfbc8604	-1.4728398
233	0x3ee68321	0.45021918
234	0x3de8c07f	0.11364841
235	0x3e4ea08b	0.2017843
236	0xbd2c712c	-0.042100117
237	0xbe8d3c5a	-0.27585107
238	0x3ea5e77f	0.3240318
239	0x3e7126c6	0.23549947
240	0x3e77cd10	0.24199319
241	0xbe16ac07	-0.1471406
242	0xbefae495	-0.4900252
243	0x3ba7a7ee	0.0051164543
244	0x3ee58168	0.44825292
245	0xbea79a12	-0.32734734
246	0xbe9f1b19	-0.3107536
247	0xc02b1470	-2.6731224
248	0x3f020171	0.5078345
249	0x3d62b855	0.055351574
250	0xbe314f4b	-0.17315404
251	0xbf7d637b	-0.9897992
252	0x3e0c28ab	0.13687389
253	0xbe08408d	-0.13305874
254	0xbe047f5f	-0.12939213
255	0xbe553902	-0.20822528

lstm.bias_ih_l0 f4 [512]
0	0xbe882605	-0.26591507
1	0x3fa7f9b4	1.3123078
2	0xbf181975	-0.59413844
3	0xbf3db22f	-0.7410001
4	0x3f4f9858	0.81091833
5	0x3c0cf1c5	0.008602564
6	0xbf47f0a6	-0.78101575
7	0xbf90d29b	-1.1314272
8	0xbfe94bb5	-1.8226229
9	0x3f14d93a	0.5814396
10	0xbefa1e24	-0.4885112
11	0xbe8fbb65	-0.28072658
12	0xbe49c28d	-0.19703121
13	0xbea77135	-0.32703558
14	0x3f48a5a0	0.78377724
15	0xbec1ac64	-0.37826836
16	0xbdcaa99a	-0.0989563
17	0xbdb472c7	-0.088109545
18	0xbe3253b3	-0.17414741
19	0x3ef735c8	0.4828322
20	0xbee9cbc3	-0.4566327
21	0xbfe96234	-1.8233094
22	0x3f14c714	0.5811627
23	0xbd93b837	-0.072128706
24	0xbf71a731	-0.9439574
25	0x3e422b47	0.18961821
26	0xbe7f4a57	-0.24930702
27	0x3fa6f32b	1.3042959
28	0x3f80992c	1.0046744
29	0x3e774a41	0.2414942
30	0x3d83bedd	0.06432889
31	0xbe95ec5d	-0.29281893
32	0xbe93878a	-0.28814346
33	0xbdd89bea	-0.10576613
34	0xbda782dd	-0.08179257
35	0x3dbafd65	0.091303624
36	0xbf770c80	-0.9650345
37	0x3f7fe576	0.99959505
38	0xbe3eea1d	-0.18643995
39	0x3f3632e8	0.71171427
40	0x3f49edae	0.78878295
41	0xbed11de2	-0.4084311
42	0xbe182a2f	-0.14859842
43	0xbf00bf4c	-0.50291896
44	0x3f3001a9	0.68752533
45	0x3e0678e5	0.13132055
46	0x3b43f887	0.0029902773
47	0x3dd863e8	0.105659306
48	0xbf550659	-0.8321281
49	0x3f3fbc01	0.74896246
50	0xbf0ad443	-0.54230136
51	0x3ea9ae85	0.3314096
52	0xbe32cdcd	-0.1746132
53	0xbf06953e	-0.52571476
54	0xbe2e74c4	-0.1703673
55	0x3de9de65	0.114193715
56	0xbf262493	-0.6489956
57	0xbe1d7cfd	-0.1537971
58	0xbf6e1e5f	-0.9301509
59	0xbf647581	-0.89241797
60	0x3e31c8f4	0.17361814
61	0xbf248595	-0.6426633
62	0xbe088c23	-0.13334708
63	0xbe230f7d	-0.15923877
64	0xbea66693	-0.32500133
65	0x3e93e6c2	0.28886992
66	0xbf1d5988	-0.6146474
67	0xbf4d763c	-0.80258536
68	0xbe7f41fa	-0.24927512
69	0xbf9a5fb6	-1.2060459
70	0xbf525419	-0.8215957
71	0xbe60b6c8	-0.21944726
72	0x3e7cf2a5	0.24701937
73	0xbeab8035	-0.33496252
74	0xbe3027c3	-0.17202668
75	0x3f2f6a88	0.6852193
76	0xbf565036	-0.8371614
77	0xbf02c200	-0.5107727
78	0x3e8633b8	0.26211333
79	0x3e8830dd	0.2659978
80	0xbe88f8d7	-0.2675235
81	0xbf1438b3	-0.57899016
82	0xbea4d205	-0.32191482
83	0x3ec7ef7a	0.39049894
84	0xbdb0017a	-0.08594032
85	0xbd870226	-0.06592207
86	0x3cab99cf	0.020947365
87	0x3e0bc76a	0.13650289
88	0xbeff903b	-0.49914727
89	0xbefe55c1	-0.496748
90	0xbf262542	-0.649006
91	0xbf99bde9	-1.2011081
92	0xbe9fe08a	-0.31225997
93	0x3e01890f	0.1264994
94	0x3f141397	0.5784239
95	0xbcacfc9a	-0.021116544
96	0xbebcd88d	-0.36883965
97	0x3eca264d	0.39482346
98	0xbfa71843	-1.3054279
99	0xbf0400c3	-0.5156366
100	0xbdeac9fc	-0.11464307
101	0xbe940e7b	-0.28917298
102	0x3d81cf9e	0.06338428
103	0xbf08f3bd	-0.53496915
104	0xbf70e278	-0.94095564
105	0xbdb48868	-0.0881508
106	0xbf262cc4	-0.64912057
107	0xbe965736	-0.29363412
108	0x3f2ee039	0.68310887
109	0xbda6415c	-0.08117935
110	0xbea2cfdd	-0.31799212
111	0x3fa7a3df	1.3096884
112	0x3e872d16	0.26401585
113	0xbee49886	-0.44647616
114	0x3c998349	0.01873936
115	0x3f0f887e	0.56067646
116	0xbe6d931e	-0.23200652
117	0x3f5965d8	0.84921026
118	0x3f6f8457	0.9356131
119	0x3d93f366	0.07224159
120	0xbd86cf47	-0.06582504
121	0xbee85524	-0.45377457
122	0x3f1aac93	0.6041958
123	0xbeb4ad6a	-0.35288554
124	0xbf3284b4	-0.6973374
125	0xbee6c3d5	-0.45071283
126	0x3dcf89e7	0.10133725
127	0xbf005b79	-0.50139576
128	0x3de205c9	0.1103626
129	0x3f4c5ec4	0.798321
130	0x3e52b841	0.205781
131	0x3d5a77a9	0.053336773
132	0x3eccfc66	0.40036315
133	0xbeb0fc9b	-0.34567723
134	0xbd876032	-0.06610145
135	0x3d9de292	0.077092305
136	0xbc903ce9	-0.01760717
137	0x3ed1e027	0.40991327
138	0x3eeb5aa7	0.459676
139	0x3e01aa17	0.1266254
140	0x3eb0a4d2	0.34500748
141	0x3e76369e	0.24044272
142	0x3edd9b83	0.4328271
143	0x3dd1f939	0.102526136
144	0xbbaa26bc	-0.005192606
145	0x3ed20941	0.41022685
146	0x3e426863	0.18985133
147	0x3ebdf407	0.3710024
148	0x3e29714f	0.1654713
149	0x3d33e661	0.04392088
150	0x3e739b51	0.23789717
151	0xbdfb347e	-0.122658715
152	0x3dd11ec9	0.1021095
153	0x3ee3bb7b	0.44478974
154	0xbe0bf0e6	-0.13666114
155	0x3f12b59a	0.5730835
156	0x3d9bdb6a	0.07610209
157	0x3ef2702f	0.47351214
158	0xbe14017e	-0.14453694
159	0x3e936c60	0.2879362
160	0x3e3839a4	0.17990738
161	0xbee0e069	-0.4392121
162	0xbe0d64b9	-0.13807954
163	0xbd5801cc	-0.05273609
164	0x3e51c390	0.20484757
165	0x3dc09cb5	0.094048895
166	0x3ef4ceb8	0.47813964
167	0x3ec4dd89	0.38450268
168	0xbc8c7349	-0.017144816
169	0xbe0c1d32	-0.13683012
170	0x3de2309e	0.11044429
171	0xbe9447a3	-0.28960904
172	0x3eb4e258	0.35328937
173	0x3b822cd5	0.0039726296
174	0x3f0c57e3	0.54821604
175	0x3d9cf693	0.07664218
176	0x3c66bed0	0.014083579
177	0x3dae7e6c	0.08520207
178	0xbe4f0838	-0.20217979
179	0x3e603023	0.21893363
180	0xbe7867bc	-0.24258322
181	0xbe823748	-0.254328
182	0x3e377115	0.17914231
183	0x3e5f3442	0.21797279
184	0xbeb516fb	-0.35369095
185	0x3ee2dd63	0.4430953
186	0x3e067d0a	0.13133636
187	0xbe9ef636	-0.3104722
188	0x3f29a369	0.6626497
189	0x3e047b15	0.12937577
190	0xbdb8f44b	-0.0903097
191	0xbc20d76a	-0.009816984
192	0xbecd5c03	-0.40109262
193	0x3e7ffc86	0.24998674
194	0x3ea07a39	0.31343248
195	0x3e12efc2	0.14349273
196	0xbe800a0c	-0.25007665
197	0x3e44e01e	0.19226119
198	0xbee295d5	-0.44254938
199	0xbe45734d	-0.19282265
200	0x3eb20c83	0.3477517
201	0x3eada759	0.3391674
202	0x3f0170ba	0.5056263
203	0x3ecfaba3	0.40560636
204	0xbe5d3621	-0.2160268
205	0x3dd9d357	0.10636013
206	0x3dd2a80d	0.102859594
207	0x3e463121	0.19354679
208	0x3c196786	0.009363061
209	0x3e2d8e4d	0.16948815
210	0xbe1c5c58	-0.15269601
211	0x3e57f3e5	0.21089132
212	0x3bc805dd	0.0061042146
213	0x3ee6c51e	0.45072263
214	0x3e7d52d4	0.24738628
215	0xbe22915f	-0.15875767
216	0x3e2fd082	0.17169383
217	0x3eb29d32	0.34885556
218	0x3e4cf69a	0.20015946
219	0xbdff5d8b	-0.12469014
220	0xbe8f83b4	-0.2803017
221	0x3e54b8d4	0.20773631
222	0x3e5f9c8e	0.21837065
223	0x3ec84cde	0.39121145
224	0xbd9562fd	-0.07294271
225	0x3db5c312	0.08875097
226	0x3dc91414	0.09818283
227	0xbed81c38	-0.4220903
228	0x3eded276	0.43519944
229	0xbea189ce	-0.3155045
230	0x3d071c5b	0.032986026
231	0x3edfa5b6	0.43681115
232	0x3dde37d5	0.10850493
233	0xbe6933d7	-0.22773682
234	0x3eeaca28	0.45857358
235	0x3ec6448c	0.38724172
236	0x3bf14352	0.0073627615
237	0xbf0ecb40	-0.55778885
238	0x3eec0f5e	0.46105474
239	0x3f0b242f	0.54352087
240	0xbea8d5d2	-0.32975632
241	0x3ebc745a	0.3680752
242	0xbdbca350	-0.09210837
243	0xbdfaeb0b	-0.12251862
244	0x3e04b370	0.12959075
245	0x3f31be6a	0.69431174
246	0x3f2b6a0d	0.66958696
247	0x3efaacc1	0.48959926
248	0x3e6dd105	0.23224266
249	0x3edab4a4	0.42715943
250	0x3f0d9fff	0.5532226
251	0x3f48330f	0.7820291
252	0x3d42a3db	0.047519546
253	0xbdb42a2c	-0.08797106
254	0x3e7ab134	0.2448166
255	0xbb4062e5	-0.002935582

lstm.bias_hh_l0 f4 [512]
0	0xbe9aa961	-0.3020735
1	0x3f9fd375	1.2486407
2	0xbefa1c60	-0.48849773
3	0xbf25cb32	-0.64763176
4	0x3f42d2e4	0.76103044
5	0xbd0e8418	-0.034793943
6	0xbf5b7d9c	-0.8573854
7	0xbf7baff4	-0.9831536
8	0xbfe6d22b	-1.8032888
9	0x3ee46482	0.4460793
10	0xbf06aa05	-0.5260318
11	0xbe96e25b	-0.2946957
12	0xbe43c7e9	-0.19119228
13	0xbe9eed7f	-0.3104057
14	0x3f49d387	0.7883839
15	0xbe94b24b	-0.29042277
16	0xbe26d51e	-0.16292235
17	0xbbca8131	-0.0061799516
18	0xbe33fafc	-0.17576212
19	0x3ed70098	0.4199264
20	0xbead56e9	-0.3385537
21	0xbfebe58f	-1.8429431
22	0x3f1f7d99	0.6230102
23	0xbda97492	-0.08274187
24	0xbf6a5492	-0.91535294
25	0x3e947c98	0.29001307
26	0xbebbba0a	-0.36665374
27	0x3fab9de9	1.3407565
28	0x3f6f2044	0.9340861
29	0x3e36fe7d	0.17870517
30	0x3e3af10b	0.18256013
31	0xbe60db30	-0.21958613
32	0xbe09b179	-0.13446607
33	0xbdc724a4	-0.097237855
34	0xbdc5a6f9	-0.09650988
35	0xbd48ff8d	-0.049071837
36	0xbf886f3f	-1.065895
37	0x3f6f743d	0.9353674
38	0xbe13ca28	-0.14432585
39	0x3f22e6dd	0.6363352
40	0x3f418e8f	0.7560815
41	0xbeaa48f8	-0.33258796
42	0xbe8ec1db	-0.27882275
43	0xbeeb4b7d	-0.4595603
44	0x3f425f2d	0.75926477
45	0x3e493b36	0.19651493
46	0xbd060448	-0.032718927
47	0xbc1d2ae7	-0.009592748
48	0xbf67201b	-0.90283364
49	0x3f616a26	0.88052595
50	0xbee95378	-0.45571494
51	0x3e8f1069	0.27942207
52	0xbe8946e5	-0.268119
53	0xbf1e37e4	-0.6180403
54	0xbdbf0778	-0.093275964
55	0x3d1cceb7	0.038283076
56	0xbf0b0fa0	-0.54320717
57	0xbd9d2a5e	-0.076740965
58	0xbf54be31	-0.8310271
59	0xbf5aa86b	-0.85413235
60	0x3e9f11ea	0.31068355
61	0xbf2312b5	-0.6370042
62	0xbdab783d	-0.08372543
63	0xbcbc1c54	-0.022962727
64	0xbed45ecb	-0.4147857
65	0x3e11e15d	0.14246126
66	0xbf14665e	-0.579687
67	0xbf5c9994	-0.8617184
68	0xbe90f17d	-0.2830924
69	0xbfa0f8a2	-1.2575877
70	0xbf3ddf75	-0.74169093
71	0xbe681106	-0.22662744
72	0x3e4a3546	0.19746885
73	0xbeb6c714	-0.3569876
74	0xbe58a638	-0.21157157
75	0x3f34531b	0.7043931
76	0xbf654a0a	-0.895661
77	0xbed48d23	-0.4151393
78	0x3e6f3e26	0.23363551
79	0x3ea1e562	0.31620318
80	0xbe88a7c5	-0.26690498
81	0xbee36c46	-0.44418544
82	0xbebf16c7	-0.37322065
83	0x3ed26bbd	0.41097823
84	0xbdf5c28a	-0.11999996
85	0x3d262905	0.040566463
86	0xbd373acf	-0.04473382
87	0x3dc8d787	0.098067336
88	0xbf02e377	-0.51128334
89	0xbedd4b1e	-0.43221372
90	0xbf11c2ac	-0.5693767
91	0xbf9d6523	-1.229649
92	0xbe8cd011	-0.27502492
93	0x3dfef53a	0.12449117
94	0x3f1a2429	0.60211426
95	0xbd3e6c46	-0.046489976
96	0xbe8e2169	-0.27759865
97	0x3ec944db	0.39310345
98	0xbfaee519	-1.3663665
99	0xbef63db5	-0.48093954
100	0xbe20ac1c	-0.15690655
101	0xbe8fc6a5	-0.2808124
102	0x3d86383f	0.06553697
103	0xbece7e52	-0.4033075
104	0xbf5e6e64	-0.8688719
105	0xbdf09e00	-0.11748886
106	0xbf1ded67	-0.6169037
107	0xbe91edb3	-0.28501663
108	0x3f3c5817	0.73571914
109	0x3d3b50ae	0.04573124
110	0xbe88f161	-0.26746657
111	0x3fa6952a	1.3014271
112	0x3e8f1fcd	0.2795395
113	0xbf0650a5	-0.52466804
114	0x3d99340e	0.07480632
115	0x3ee7bb59	0.45260122
116	0xbe57a10d	-0.2105753
117	0x3f52a37c	0.8228071
118	0x3f6a0a02	0.9142152
119	0x3d8fa291	0.07013429
120	0xbddd857b	-0.10816475
121	0xbf01b470	-0.5066595
122	0x3f30c475	0.6904977
123	0xbec5e96c	-0.3865465
124	0xbf2c501a	-0.67309725
125	0xbebe0f0e	-0.3712086
126	0x3de681fc	0.11255261
127	0xbf04f939	-0.51942784
128	0x3d8d55c3	0.069011234
129	0x3f253af3	0.64543074
130	0x3e5597d6	0.20858702
131	0x3e43826c	0.19092721
132	0x3ed89c5c	0.42306793
133	0xbe721614	-0.23641235
134	0x3cb0ff63	0.021606153
135	0x3dbb716e	0.09152494
136	0xbce270ec	-0.027641736
137	0x3ec2465b	0.37944302
138	0x3ee15e6b	0.44017348
139	0x3e232563	0.1593223
140	0x3eec1420	0.46109104
141	0x3e8371f1	0.25672868
142	0x3ed476a3	0.41496763
143	0x3e6b3830	0.22970653
144	0xbd3cfda2	-0.04614032
145	0x3eb8fc23	0.36129865
146	0x3e4d302f	0.20037912
147	0x3eda7fb0	0.42675543
148	0x3e0edb8b	0.13950936
149	0xbbcf105c	-0.006319089
150	0x3e94ea10	0.29084826
151	0xbd154689	-0.03644422
152	0x3e47855b	0.19484465
153	0x3ef32ace	0.47493595
154	0xbe173dc8	-0.14769661
155	0x3ef1edc6	0.4725172
156	0x3de5063a	0.11182828
157	0x3ed6c49b	0.41946873
158	0xbd9006ea	-0.07032569
159	0x3ea63a22	0.32466227
160	0x3e5a891a	0.21341363
161	0xbf0738b5	-0.52820903
162	0xbdb59e65	-0.08868102
163	0x3d02f8b2	0.031975456
164	0x3e7dd5c1	0.24788572
165	0x3e43f098	0.19134748
166	0x3f0b1e7f	0.5434341
167	0x3ea1abb8	0.31576324
168	0xbddcf230	-0.10788381
169	0xbe3266b1	-0.17421986
170	0x3dafe797	0.08589094
171	0xbe484295	-0.19556649
172	0x3ec51138	0.384897
173	0x3e234c31	0.15947033
174	0x3ed1db93	0.40987834
175	0x3d9abbd7	0.07555359
176	0xbbd54655	-0.0065086284
177	0x3e1d8653	0.15383272
178	0xbe4c56a2	-0.19954923
179	0x3e58d7fc	0.21176142
180	0xbe69c3ab	-0.22828548
181	0xbed3bb2f	-0.41353747
182	0x3e9e8a8e	0.30965084
183	0x3d9f66a6	0.077832505
184	0xbe82ee3a	-0.25572377
185	0x3ef8f00f	0.4862065
186	0x3e518bb6	0.20463452
187	0xbe80c475	-0.25149885
188	0x3f329c08	0.69769335
189	0x3de0c818	0.10975665
190	0xbd68c927	-0.05683246
191	0xbdd7afe1	-0.10531593
192	0xbedc23da	-0.42996103
193	0x3ea40944	0.3203832
194	0x3eacf373	0.33779487
195	0x3e310308	0.17286313
196	0xbe6fbbbe	-0.23411462
197	0x3e815b75	0.2526509
198	0xbedbaddb	-0.4290608
199	0xbe2ec9ec	-0.17069215
200	0x3eb2aff8	0.34899879
201	0x3ed3d0df	0.41370293
202	0x3ed1f920	0.4101038
203	0x3ea609f5	0.32429472
204	0xbe3ea66c	-0.18618172
205	0x3dcdd400	0.100502014
206	0x3e1a247a	0.15052977
207	0x3e52207c	0.20520204
208	0x3d12d517	0.03584775
209	0x3e87d911	0.26532796
210	0xbda465f9	-0.08027262
211	0x3eaa458f	0.33256194
212	0x3c562f95	0.013072868
213	0x3ef8948f	0.4855084
214	0x3e0bc636	0.1364983
215	0xbe4a561b	-0.19759409
216	0x3e8f6254	0.28004706
217	0x3eab005e	0.33398718
218	0x3e4a43f4	0.19752485
219	0xbdbeb850	-0.093124986
220	0xbe8a3063	-0.2699004
221	0x3e40ea67	0.18839417
222	0x3e823932	0.25434262
223	0x3ebd026a	0.36915904
224	0x37bf8a3a	2.2833341e-05
225	0x3e024e92	0.12725285
226	0x3df34202	0.11877824
227	0xbeaf7436	-0.3426835
228	0x3eb734e5	0.35782543
229	0xbe6f24cd	-0.23353882
230	0x3cdcd034	0.026954748
231	0x3ef06302	0.46950537
232	0x3e1c4f19	0.15264548
233	0xbe816da3	-0.2527896
234	0x3ef68958	0.4815166
235	0x3ecb4a0c	0.3970493
236	0xbdc40679	-0.09571547
237	0xbf1c3551	-0.61018854
238	0x3ee838d8	0.45355868
239	0x3f0239c2	0.5086938
240	0xbe7b2f24	-0.24529701
241	0x3ec35a85	0.38154998
242	0xbe22624e	-0.15857813
243	0x3b04d90c	0.0020270972
244	0x3e318e59	0.17339458
245	0x3f302877	0.68811744
246	0x3f3b09a3	0.7306158
247	0x3f06f451	0.5271655
248	0x3e9d7d5f	0.30759713
249	0x3ee7f1d0	0.45301676
250	0x3f12074e	0.57042396
251	0x3f277297	0.65409225
252	0x3c2b91ff	0.01047182
253	0xbd886676	-0.06660168
254	0x3e047cf0	0.12938285
255	0xbcbe9ec9	-0.023269074
