models/lstmencoder.model (torch, 288183 bytes, 5 tensors)

embedding.weight f4 [128, 8]
0.12130971 -0.72348005 0.7868721 1.5366609 1.1975045 1.0743194 -2.558279 0.5801519
0.25301433 0.21675271 0.26779166 -2.328003 0.7185 0.3258769 -0.2989779 0.66831523
-0.6977038 -0.4364995 1.7206585 -0.007987133 -1.840577 1.0544431 -1.7082952 -0.5931309
0.8235396 -1.6706623 -1.0863057 -1.3517934 -0.08283429 -0.86738694 1.1409862 0.87337565
-0.070463896 1.6195297 0.5855776 0.48899028 2.0168164 0.38711035 0.507649 0.54217666
-0.8716719 0.027366597 0.72415715 -0.032522317 -0.18158434 -0.96474844 0.36532232 -0.28544983
-0.6378994 -0.80664384 -0.4780594 -0.5045183 2.0653517 0.53721637 -1.6489433 0.668731
0.10986697 0.94921863 -1.2068865 -1.5447702 -2.1219997 0.36361393 0.3835594 1.3531392
0.6530021 -0.50153196 -0.43636298 1.4030226 -1.7019329 0.9604568 -0.9234836 -1.6735399
-1.0220348 -0.8779776 -0.6574142 0.91206956 -1.0259627 1.4337854 1.9100623 0.5729385
0.8948706 -0.53521717 -0.7149384 0.20836526 0.33763388 -0.77431273 -1.0491452 -0.20568974
-0.5447642 0.6827361 0.13256335 -0.36996153 -0.33624774 -0.34753993 -1.5968566 -0.06064784
-1.4634297 0.661928 0.69948655 0.28225777 -0.57805914 -1.1121249 -0.3908196 0.57554
0.50869226 0.097582825 1.1072907 -0.16737837 -0.025964178 0.050415255 -1.0347197 -0.12578976
-0.25556442 1.9582887 0.5276617 1.0935658 1.0813569 -0.4118919 0.47609025 -0.6514938
0.35295802 0.024008086 2.0382414 2.023174 0.49325192 0.53997225 -1.1984422 -1.751303
0.6078853 -0.9858827 0.9186676 -0.11151963 -0.22849211 1.385981 0.43221876 1.4206411
0.67190427 0.57110363 1.1729584 0.06004198 -1.1124741 -1.1803207 -0.5183412 -0.019952273
-0.7274207 0.53344023 -1.1493181 2.1957588 -0.7812073 -0.15719438 0.36753672 -1.8739995
0.20733283 0.01194887 -0.51443547 0.006103328 1.3276365 1.5637081 -1.0621119 -0.68021554
-0.23894846 1.6305207 -0.62035745 0.5851351 0.16769916 0.5595427 0.16361494 -0.4674066
1.8584534 0.06377323 0.87804186 0.4273385 0.2143398 -2.033447 1.4513985 -0.5722319
0.18811448 -2.7507305 1.1540416 -1.3028438 -0.99789196 -0.5494695 0.72876847 0.24158677
0.919171 1.7864125 0.20002678 0.39750865 -1.5618395 -0.504709 -0.25221455 -0.90084475
1.1192272 -1.3514045 -1.7267582 -0.40844977 0.44630852 -1.4077909 1.1361709 -0.46901214
-1.5789866 1.1170233 0.7233023 0.12529737 -1.2635062 -0.6565494 -0.27920902 -0.9594599
-0.0007112104 -0.53946435 0.18694553 -0.6744561 0.24028298 -0.4471635 0.50931036 -2.008854
-0.1932385 -1.0178088 0.4639701 0.5179532 -0.6542809 -2.4687676 0.23221757 -0.5257177
-0.35359585 0.5400691 -0.17118824 -0.6915689 -0.49388012 -2.007062 -0.41520905 1.3929652
-0.29273155 -1.6702722 -1.1829672 0.3809785 -1.3447278 -0.63455176 0.875826 -0.17206675
0.9343139 0.14222056 -1.0368088 0.32866108 -2.0033782 -0.41661763 0.3420602 1.1753187
-1.8862789 -0.7363585 0.7234195 -1.0768962 -0.15078597 -0.39841872 0.9635135 -0.17539048
00000000: 3a71 f83d fd35 39bf 7370 493f 4eb1 c43f
00000010: d447 993f 4c83 893f d8ba 23c0 d684 143f
00000020: 188b 813e 6cf4 5d3e fd1b 893e 00fe 14c0
00000030: 9eef 373f 56d9 a63e a213 99be b516 2b3f
00000040: b79c 32bf dd7c dfbe 8a3e dc3f 77dc 02bc
00000050: 0798 ebbf fef7 863f 6ba9 dabf 6dd7 17bf
00000060: 7ed3 523f 43d8 d5bf 110c 8bbf 9107 adbf
00000070: 06a5 a9bd 120d 5ebf d60b 923f 8c95 5f3f
00000080: 604f 90bd c04c cf3f 6ae8 153f ef5c fa3e
00000090: 8513 0140 5433 c63e 49f5 013f 17cc 0a3f
000000a0: e425 5fbf ea2f e03c 5d62 393f 1f36 05bd
000000b0: 3ff1 39be c1f9 76bf 870b bb3e 7b26 92be
000000c0: 604d 23bf 3680 4ebf 34c4 f4be 1c28 01bf
000000d0: b92e 0440 0387 093f 9310 d3bf f431 2b3f
000000e0: ef01 e13d feff 723f 427b 9abf 08bb c5bf
000000f0: d8ce 07c0 9b2b ba3e e661 c43e aa33 ad3f
00000100: 252b 273f 6664 00bf f86a dfbe 3f96 b33f
00000110: f0d8 d9bf 7fe0 753f 6c69 6cbf 8e36 d6bf
00000120: 09d2 82bf 24c3 60bf 4c4c 28bf 647d 693f
00000130: bf52 83bf 4886 b73f ec7c f43f 19ac 123f
00000140: 3d16 653f fe03 09bf 3406 37bf b45d 553e
00000150: 59de ac3e 5c39 46bf 644a 86bf 55a0 52be
00000160: ab75 0bbf cbc7 2e3f b0be 073e 996b bdbe
00000170: aa28 acbe c1f0 b1be cc65 ccbf df69 78bd
00000180: aa51 bbbf 1d74 293f 8d11 333f 1784 903e
00000190: affb 13bf 1c5a 8ebf 8219 c8be 9756 133f
000001a0: a839 023f 81d9 c73d b4bb 8d3f 3c65 2bbe
000001b0: d4b2 d4bc 3a80 4e3d b271 84bf 08cf 00be
000001c0: 57d9 82be 34a9 fa3f d614 073f f7f9 8b3f
000001d0: e769 8a3f 7fe3 d2be 1ac2 f33e 4cc8 26bf
000001e0: eab6 b43e 9bac c43c 8c72 0240 af7b 0140
000001f0: 848b fc3e 9f3b 0a3f 8e66 99bf b22a e0bf
00000200: 5f9e 1b3f cf62 7cbf cd2d 6b3f 6764 e4bd
00000210: d6f9 69be d367 b13f c74b dd3e 91d7 b53f
00000220: eb01 2c3f d933 123f 8023 963f 94ee 753d
00000230: 8d65 8ebf c014 97bf 02b2 04bf f372 a3bc
00000240: 3e38 3abf 8a8f 083f db1c 93bf 5087 0c40
00000250: 34fd 47bf 90f7 20be c62d bc3e 37df efbf
00000260: 0f4f 543e 31c5 433c 0bb2 03bf 6dfe c73b
00000270: feef a93f 9627 c83f 48f3 87bf 9b22 2ebf
00000280: e8ae 74be e7b4 d03f bfcf 1ebf 6acb 153f
00000290: 54b9 2b3e 313e 0f3f ad8a 273e eb4f efbe
000002a0: cde1 ed3f 8a9b 823d 5ac7 603f 1dcc da3e
000002b0: e47b 5b3e ff23 02c0 6dc7 b93f ca7d 12bf
000002c0: 15a1 403e f80b 30c0 a3b7 933f 96c3 a6bf
000002d0: d975 7fbf 08aa 0cbf 9290 3a3f 8662 773e
000002e0: ca4e 6b3f 2aa9 e43f d2d3 4c3e 4186 cb3e
000002f0: 5bea c7bf 9c34 01bf 4422 81be c39d 66bf
00000300: d642 8f3f d3fa acbf 6a06 ddbf 5420 d1be
00000310: 8d82 e43e 7e32 b4bf 0c6e 913f 5c22 f0be
00000320: 3c1c cabf 9ffa 8e3f 572a 393f f44d 003e
00000330: 92ba a1bf 9f13 28bf 7cf4 8ebe 2a9f 75bf
00000340: 8670 3aba 561a 0abf a66e 3f3e 28a9 2cbf
00000350: be0c 763e 9df2 e4be 2a62 023f 1091 00c0
00000360: 50e0 45be 8f47 82bf 7d8d ed3e 9598 043f
00000370: f47e 27bf 4a00 1ec0 71ca 6d3e 6f95 06bf
00000380: 840a b5be f841 0a3f f84b 2fbe a90a 31bf
00000390: dbdd fcbe b473 00c0 4896 d4be af4c b23f
000003a0: e9e0 95be 7bcb d5bf 786b 97bf 9d0f c33e
000003b0: 0a20 acbf fc71 22bf 2236 603f 4432 30be
000003c0: 322f 6f3f 44a2 113e 27b6 84bf 4446 a83e
000003d0: 5937 00c0 e84e d5be 8422 af3e d870 963f
000003e0: 9671 f1bf fe81 3cbf 0532 393f bcd7 89bf
000003f0: a367 1abe 8afd cbbe d2a8 763f 9099 33be

lstm.weight_ih_l0 f4 [512, 8]
-0.17196713 -0.022264652 -0.10686863 0.18627149 0.035315108 -0.08483918 -0.09213984 0.19714326
-0.5755203 -0.09457863 -0.36626324 0.09125564 -0.38499388 -0.3614662 -0.5586417 0.28557953
-0.12859432 0.2518539 -0.13937587 -0.29967284 -0.124977455 0.33560407 0.022046467 -0.34972322
-0.52469796 0.15974917 0.06697995 0.40553164 -1.233003 0.28811386 0.8767415 0.28269798
0.014228611 0.13096435 -0.0063282168 -0.16334216 0.04846574 0.0074156295 0.009938593 -0.007966674
1.004293 0.35197324 -1.1440523 0.20371613 -0.3801394 -0.026088139 0.51643926 -0.10668343
-0.783422 0.36427104 -0.3554769 0.22602819 -0.036852658 -1.129661 0.38063574 -0.44017392
0.19374219 0.14961122 -0.41113278 -0.1784829 -0.2678605 -0.06326785 0.3017171 -0.1391534
0.1957468 -0.24481097 -0.029470697 -0.09360676 0.1859547 -0.15116018 -0.047443993 -0.0030148735
-1.230081 0.378824 -0.7890294 1.3575445 0.27399722 -1.6147624 0.52397484 -1.4719881
0.043353908 -0.17925169 0.083614565 -0.01251745 -0.012324369 0.069551356 -0.098043226 0.07015778
-0.056381125 -0.1111609 -0.061645895 -0.061724104 -0.03934836 -0.23822755 0.06838994 -0.043555576
-0.011992213 0.1275714 0.2771071 0.13027161 0.24929358 0.0698847 -0.32919428 0.1788007
-0.40374142 0.26434767 -0.15913324 0.23007756 0.8551217 -0.017747544 0.35979015 0.26465702
-0.039261967 0.005301666 -0.22942694 -0.1758098 0.3100525 0.23315468 -0.11145809 -0.20554113
0.011324982 -0.26234764 0.12514192 0.3031103 -0.28706896 -0.2220715 0.11088417 0.38481104
0.2318722 0.008071597 -0.35988876 0.057700723 -0.048729848 0.04306589 0.06832023 0.078690894
-0.631326 -0.7687541 -0.80885094 -0.07001757 0.263195 -0.0018075258 -0.08521648 0.32971343
-0.3786345 0.044691578 0.20646498 -0.099399656 -0.07313063 -0.21577796 0.001201105 0.12541173
-0.28726652 -0.19564904 0.41023865 0.043794114 0.14076963 0.3400538 -0.13113013 0.015671212
0.12593046 -0.02570342 -0.22737579 -0.065327235 0.018438501 -0.06740843 0.22750162 -0.015472814
-0.2622732 0.09375612 -0.27560672 -0.03630411 -0.18806565 -0.085820794 -0.3120282 0.032242615
-0.062387343 -0.10421924 -0.12928997 -0.19738911 -0.1142487 -0.084218964 0.16828682 0.152533
-0.057624456 -0.7584115 -0.26090002 0.03145165 -0.54195726 -0.45892605 -0.5826485 -0.094160095
0.014064598 -0.0034134015 0.03822521 -0.026097802 0.096057564 0.018410567 -0.022325914 0.07917201
-0.16747372 0.15168443 -0.124042094 -0.11061655 -0.17561603 0.024315434 -0.17507239 -0.24451146
0.39413342 -0.06451581 -0.40308145 -0.009971544 -0.30065307 0.31495297 -0.023488268 -0.14141212
0.07245621 -0.003695116 0.05765601 -0.09807289 0.22907245 0.11801651 -0.070907354 0.08775733
0.19998388 -0.7460204 0.5922241 0.95834345 0.983687 0.9845824 -1.2020901 0.49960387
-0.061717972 0.013307786 -0.12272176 0.030119995 -0.06330144 -0.20723219 -0.11116845 0.023381464
-2.6482965e-05 0.11734356 -0.14111 -0.04772702 -0.2513019 -0.004754307 0.18230477 -0.09308183
0.62285113 0.74460673 0.53780985 0.10917157 0.1172764 0.04121187 -0.09837838 0.60037994
00000000: 2718 30be 5c64 b6bc f1dd dabd f4bd 3e3e
00000010: 93a6 103d 2ac0 adbd d0b3 bcbd ecdf 493e
00000020: 4c55 13bf 71b2 c1bd db86 bbbe 3de4 ba3d
00000030: eb1d c5be 1912 b9be 2403 0fbf 7b37 923e
00000040: 3bae 03be fff2 803e 8cb8 0ebe b86e 99be
00000050: 2ef4 ffbd 4cd4 ab3e cb9a b43c ec0e b3be
00000060: 9b52 06bf 4995 233e c92c 893d d8a1 cf3e
00000070: 0bd3 9dbf a983 933e 2272 603f cabd 903e
00000080: 1f1f 693c 851b 063e ee5c cfbb 2b43 27be
00000090: 0384 463d cffe f23b 7bd5 223c a786 02bc
000000a0: ac8c 803f d635 b43e 4e70 92bf f69a 503e
000000b0: a2a1 c2be cbb6 d5bc 5d35 043f d87c dabd
000000c0: 588e 48bf bc81 ba3e 1101 b6be ef73 673e
000000d0: d0f2 16bd bb98 90bf b0e2 c23e 7a5e e1be
000000e0: 5a64 463e af33 193e ff7f d2be 39c4 36be
000000f0: 0325 89be 9392 81bd aa7a 9a3e 3b7e 0ebe
00000100: d971 483e baaf 7abe 886c f1bc e7b4 bfbd
00000110: e96a 3e3e bcc9 1abe a254 42bd 2f95 45bb
00000120: 4b73 9dbf 38f5 c13e d5fd 49bf 05c4 ad3f
00000130: 5d49 8c3e 89b0 cebf 3723 063f 1b6a bcbf
00000140: de93 313d c18d 37be 1d3e ab3d fe15 4dbc
00000150: 26ec 49bc f170 8e3d e3ca c8bd e2ae 8f3d
00000160: e5ef 66bd 53a8 e3bd 6880 7cbd 6ad2 7cbd
00000170: bf2b 21bd ecf1 73be 0610 8c3d 5567 32bd
00000180: fd7a 44bc 14a2 023e fbe0 8d3e ec65 053e
00000190: d146 7f3e b61f 8f3d 278c a8be 8817 373e
000001a0: 32b7 cebe 9458 873e d3f3 22be 7499 6b3e
000001b0: 41e9 5a3f 4c63 91bc 6a36 b83e 2081 873e
000001c0: 28d1 20bd 99b9 ad3b e5ee 6abe 7c07 34be
000001d0: 34bf 9e3e 1ac0 6e3e 2444 e4bd 6079 52be
000001e0: 6b8c 393c 6e52 86be 3425 003e 4631 9b3e
000001f0: b4fa 92be b666 63be 3d17 e33d f405 c53e
00000200: e86f 6d3e bb3e 043c 5743 b8be 9857 6c3d
00000210: f398 47bd dc65 303d 7aeb 8b3d b128 a13d
00000220: 959e 21bf 12cd 44bf db10 4fbf 5f65 8fbd
00000230: 7fc1 863e 80ea ecba fa85 aebd 33d0 a83e
00000240: 62dc c1be 840e 373d 8e6b 533e 0c92 cbbd
00000250: 83c5 95bd e6f4 5cbe 656e 9d3a ef6b 003e
00000260: 9914 93be 3958 48be cd0a d23e 7561 333d
00000270: ea25 103e 881b ae3e fa46 06be ea60 803c
00000280: eaf3 003e fb8f d2bc 33d5 68be 49ca 85bd
00000290: 570c 973c 6e0d 8abd 2ff6 683e b081 7dbc
000002a0: ac48 86be 3503 c03d 531c 8dbe 9eb3 14bd
000002b0: 4894 40be d0c2 afbd 29c2 9fbe d510 043d
000002c0: df89 7fbd e670 d5bd 9764 04be 5f20 4abe
000002d0: 39fb e9bd fe7a acbd 6153 2c3e 9c31 1c3e
000002e0: 9f07 6cbd 4227 42bf b094 85be 72d3 003d
000002f0: b6bd 0abf 5bf8 eabe 7428 15bf 02d7 c0bd
00000300: 336f 663c 60b3 5fbb 0a92 1c3d 0fcb d5bc
00000310: d4b9 c43d c2d1 963c d6e4 b6bc ef24 a23d
00000320: 3b7e 2bbe 2a53 1b3e c809 febd ee8a e2bd
00000330: b0d4 33be 2931 c73c 2d46 33be 3661 7abe
00000340: dbcb c93e dd20 84bd b160 cebe b05f 23bc
00000350: 33ef 99be 8441 a13e 786a c0bc 57ce 10be
00000360: ec63 943d c229 72bb b528 6c3d 70da c8bd
00000370: f891 6a3e a4b2 f13d e037 91bd 1dba b33d
00000380: 93c8 4c3e 31fb 3ebf 009c 173f ff55 753f
00000390: e9d2 7b3f 980d 7c3f 17de 99bf 14cc ff3e
000003a0: fccb 7cbd e608 5a3c 8c55 fbbd 35be f63c
000003b0: 2fa4 81bd ad34 54be 49ac e3bd 7c8a bf3c
000003c0: bc27 deb7 d251 f03d 247f 10be 687d 43bd
000003d0: a5aa 80be 05ca 9bbb 1aae 3a3e b0a1 bebd
000003e0: 2c73 1f3f 8c9e 3e3f e8ad 093f 5895 df3d
000003f0: 9c2e f03d c7cd 283d 9b7a c9bd 80b2 193f

lstm.weight_hh_l0 f4 [512, 128]
0.34423733 -0.63307375 0.23969999 0.08772653 -0.15337765 -0.46204633 0.18502007 0.23733148
-0.056164257 0.2099169 -0.007896156 0.2008288 0.035030343 -0.30541325 0.12344108 -0.060331438
-0.16297586 -0.036331233 0.102916576 0.35604817 -0.696339 -0.30771184 0.11126509 0.13724068
-0.19457646 -0.426504 -0.4750916 0.3315533 0.07427501 0.6748314 -0.1786313 0.2961215
-0.26830748 0.09997624 -0.18680952 -0.64828473 0.41187587 0.5263145 -0.16908647 0.085887745
-0.7331781 0.09720157 0.03238754 -0.5084339 0.38622463 0.052148268 -0.38503185 0.013778707
0.08521948 0.062250555 -0.45919672 -0.49164733 -0.78003013 -0.05814835 0.20909044 1.0119526
-0.5293683 0.045882165 -0.36494318 -0.1404376 -0.23255032 0.4974507 0.4733929 0.060981993
0.24950063 -0.06683331 -0.37295356 0.10308479 0.19451214 0.22914991 0.08847346 -0.58017033
-0.018014604 0.07732784 0.40394276 -0.6167417 0.101417266 0.38592905 0.4452037 -0.14068928
0.37285143 -0.13396995 -1.5873084 0.98118514 -0.9841462 0.13892713 -0.5829223 -0.17629258
0.24513954 -0.34361348 -0.60291314 -0.02159114 0.20518562 -0.23290214 -0.4882841 -0.14374128
-0.083754055 0.5466065 -0.25171003 -0.3329749 0.20967697 -0.3132387 0.121938206 0.6225858
-0.28640243 0.6268226 0.472696 -0.14792395 0.22159158 -0.37593728 -0.083916254 -0.15772547
0.019742783 -0.6069222 0.038380586 0.25588638 -0.21051848 -0.27627137 -0.0104229 0.5301087
-0.44696233 0.02452741 0.08302178 -0.4145937 0.15684682 -1.0523894 0.61422396 -0.39530125
-0.6240748 0.3031855 -0.1694105 0.38709733 0.1723674 -0.31449988 0.935882 1.2509774
0.34072804 -0.014912675 -0.1802486 1.1191728 -0.62039375 -0.28754014 0.20402491 0.81838536
0.677036 -0.2125256 -0.3694706 0.1754141 -0.3081902 0.2447892 -1.1157658 -0.068021305
-0.22750796 0.6114412 -0.5197896 0.6377523 -0.19044206 -0.67004275 -0.37048286 0.015066918
-0.3694325 -0.7467099 0.9570229 0.14939222 -0.24342132 0.19118372 -1.0391238 -0.45254374
-1.1465385 0.002023508 -0.33423838 -0.0744003 -0.35426593 0.8378663 0.35401508 -0.28072083
-0.52311647 -2.0767 0.94609284 -0.0006546381 -0.036080822 0.20291817 -1.2172982 0.29629907
0.08774874 -0.15355512 -0.28080732 -0.1462066 -0.75211895 -0.002881128 -0.18820873 -0.7333772
1.234546 0.043038808 1.0174115 1.646797 -0.3043987 0.3952868 -0.7510585 0.89377046
-0.5699898 0.18650801 -0.59470433 0.83355063 0.25854543 -0.48395658 -0.17612804 1.226937
-0.43859833 0.16283481 -0.2168264 -0.9089768 0.23375015 0.25556594 -0.052523937 1.1737832
0.46768242 -0.19269758 -0.5959973 -0.24790502 0.46412605 0.11905501 -0.0021066796 0.58136266
-0.33732343 -0.45664954 -1.2161021 0.8071422 -0.15114596 0.20516993 -0.15346524 0.19648564
-0.7479279 -0.65956724 -0.054606523 0.3853766 0.7966334 -1.0113237 0.7806006 0.89403725
-0.77203953 -0.7106298 0.030724887 0.93867856 0.20497881 0.61307913 -0.10005073 -0.97416973
0.2539318 0.14094552 0.14582214 0.12824816 0.62575585 -0.109776884 -0.38315114 -0.31975627
00000000: e03f b03e 1f11 22bf ea73 753e f8a9 b33d
00000010: 080f 1dbe 5691 ecbe e775 3d3e 0607 733e
00000020: 7e0c 66bd 75f4 563e e15e 01bc 11a6 4d3e
00000030: fa7b 0f3d 205f 9cbe adce fc3d 191e 77bd
00000040: 25e3 26be 0fd0 14bd edc5 d23d f24b b63e
00000050: 4643 32bf 688c 9dbe f4de e33d d288 0c3e
00000060: 0d3f 47be bb5e dabe 353f f3be 5bc1 a93e
00000070: 7f1d 983d c0c1 2c3f 20eb 36be 3d9d 973e
00000080: 995f 89be 58c0 cc3d ff4a 3fbe fdf5 25bf
00000090: 65e1 d23e 8cbc 063f 0125 2dbe eae5 af3d
000000a0: 8fb1 3bbf 9e11 c73d cca8 043d b928 02bf
000000b0: 3cbf c53e 6c99 553d e522 c5be 16c0 613c
000000c0: 8d87 ae3d 70fa 7e3d d51b ebbe 33b9 fbbe
000000d0: 0eb0 47bf f72c 6ebd ce1b 563e aa87 813f
000000e0: ae84 07bf f0ee 3b3d d5d9 babe e0ce 0fbe
000000f0: ac21 6ebe dcb1 fe3e 8e60 f23e 41c8 793d
00000100: 187d 7f3e e7df 88bd c5f3 bebe 1e1e d33d
00000110: 312e 473e 46a6 6a3e 9331 b53d 0b86 14bf
00000120: 5d93 93bc 0f5e 9e3d 96d1 ce3e c9e2 1dbf
00000130: dbb3 cf3d 7e98 c53e bdf1 e33e da10 10be
00000140: 62e6 be3e 6b2f 09be ec2c cbbf f32e 7b3f
00000150: 01f1 7bbf ea42 0e3e 653a 15bf 0b86 34be
00000160: dc05 7b3e 1bee afbe 8458 1abf e7df b0bc
00000170: 2e1c 523e e67d 6ebe 6000 fabe ea30 13be
00000180: 3f87 abbd 67ee 0b3f 23e0 80be b07b aabe
00000190: 8fb5 563e d360 a0be bdba f93d c861 1f3f
000001a0: 57a3 92be 7277 203f 3605 f23e 6079 17be
000001b0: e7e8 623e da7a c0be 49dc abbd c982 21be
000001c0: 9ebb a13c 415f 1bbf f634 1d3d 8a03 833e
000001d0: 2892 57be 7173 8dbe d0c4 2abc 34b5 073f
000001e0: 3fd8 e4be b5ed c83c 5307 aa3d a045 d4be
000001f0: 749c 203e b2b4 86bf c83d 1d3f ed64 cabe
00000200: 5ec3 1fbf 213b 9b3e f279 2dbe 9f31 c63e
00000210: 1481 303e 2106 a1be f695 6f3f 0720 a03f
00000220: e873 ae3e 4b54 74bc 1793 38be 0e41 8f3f
00000230: 20d2 1ebf 7638 93be e8eb 503e b481 513f
00000240: 3b52 2d3f 50a0 59be 402b bdbe c19f 333e
00000250: 1bcb 9dbe 05aa 7a3e 6ad1 8ebf c14e 8bbd
00000260: d9f7 68be 6987 1c3f ee10 05bf bc43 233f
00000270: 3e03 43be ec87 2bbf eeaf bdbe 3cdb 763c
00000280: 4226 bdbe 6128 3fbf 74ff 743f 46fa 183e
00000290: 7043 79be aac5 433e 0202 85bf d0b3 e7be
000002a0: c6c1 92bf d59c 043b 4b21 abbe 2f5f 98bd
000002b0: 5862 b5be 687e 563f 7741 b53e a4ba 8fbe
000002c0: f6ea 05bf a7e8 04c0 2433 723f 059c 2bba
000002d0: 7cc9 13bd c8c9 4f3e 6dd0 9bbf 83b4 973e
000002e0: 9db5 b33d 8e3d 1dbe fac5 8fbe 2fb7 15be
000002f0: de8a 40bf 4fd1 3cbb cab9 40be 9cbe 3bbf
00000300: 9a05 9e3f 7649 303d 8a3a 823f 3eca d23f
00000310: 25da 9bbe 0863 ca3e 5f45 40bf 24ce 643f
00000320: daea 11bf f5fb 3e3e 8b3e 18bf 9363 553f
00000330: 1160 843e 28c9 f7be e95a 34be 460c 9d3f
00000340: f68f e0be 2bbe 263e bd07 5ebe b4b2 68bf
00000350: 335c 6f3e 8ad9 823e 5723 57bd 873e 963f
00000360: 1274 ef3e 8452 45be 4793 18bf d0da 7dbe
00000370: eea1 ed3e 1dd3 f33d 3810 0abb 2fd4 143f
00000380: a8b5 acbe f8cd e9be 3ca9 9bbf dfa0 4e3f
00000390: 02c6 1abe 1118 523e fe25 1dbe 8833 493e
000003a0: 3478 3fbf 66d9 28bf 17ab 5fbd 1550 c53e
000003b0: 2bf0 4b3f 0e73 81bf 71d5 473f a0df 643f
000003c0: 62a4 45bf d6eb 35bf c2b2 fb3c 3d4d 703f
000003d0: f7e5 513e c1f2 1c3f 66e7 ccbd 3063 79bf
000003e0: 5903 823e 0654 103e 6652 153e 7c53 033e
000003f0: 8931 203f b4d2 e0bd 632c c4be 18b7 a3be

lstm.bias_ih_l0 f4 [512]
-0.19202814 0.2345636 0.20384903 -0.19979845 -0.37560302 -0.15124817 -0.5080523 -0.16635376
-0.4616262 -0.30791086 -0.4375028 -0.4567992 -0.28580403 -0.5458604 -0.44382617 -0.65430236
0.06595321 -0.14299507 -0.11101012 -0.05000916 -0.15030594 -0.48704657 -0.2161004 -0.27665702
0.54373175 0.10314619 -0.25584897 -0.22280344 -0.9999853 -0.38304666 -0.57377964 -0.24917492
-0.34957907 -0.13403948 -0.13074325 0.114700235 -0.03457043 -0.014439372 -0.20262475 0.429261
-0.008237156 -0.23451997 0.124746576 -0.17029195 -0.15311377 0.10582379 -0.11018014 -0.23448741
-0.24134561 -0.15465121 0.542127 -0.19201516 -0.24595751 -0.09330646 -0.2537421 -0.31879857
-0.21646665 -0.4347747 -0.28253624 0.01556677 -0.07690942 0.041520104 -0.31857646 0.32323667
-0.17611507 -0.28662777 0.13721234 0.13894361 -0.30323607 -0.13224243 -0.39880824 0.09171711
-0.1120898 -0.23405714 -0.33605707 -0.44270822 -0.018566858 -0.14218043 -0.3793546 -0.030607734
-0.022773705 0.32995144 -0.050227117 -0.12064663 -0.59828764 -0.4091919 0.035740416 -0.33862045
-0.2787453 -0.07647662 -0.479754 0.078639165 -0.20764662 -0.4259626 -0.23263615 -0.45701104
-0.44248536 0.26959714 0.09397236 -0.6131047 0.082418986 0.35435838 -0.13338922 -0.1150918
-0.4186401 0.046778634 0.042771023 -0.48209316 -0.02455492 -0.009315874 0.52047175 -0.31256193
0.16577093 -0.46610302 -0.013910724 -0.27432632 -0.43480274 -0.07932494 -0.4230125 -0.020549959
-0.08830422 0.17422721 -0.27410164 -0.180471 0.07460677 -0.6101195 -0.334493 -0.024628941
0.34030953 0.4367685 -0.080204904 -0.017185729 0.5996308 0.061081287 -0.5453996 0.13069293
0.35899362 -0.10562397 0.6970138 0.40787953 -0.06526265 0.5367305 0.3325505 0.705006
0.26108655 -0.0020591288 0.48271784 0.16163899 0.1940467 0.6885558 0.084444605 0.48072782
0.7588007 0.08422615 0.09334184 0.19456011 0.28597745 0.46278176 0.3891406 -0.3659263
0.20349333 0.40319526 0.31552854 -0.0061624297 -0.45016122 -0.36590382 0.4507951 0.32870093
0.4744832 -0.18456505 -0.1870405 -0.6093626 -0.08477605 0.34602657 0.011024853 0.25685802
0.03603981 -0.19233367 -0.22596954 0.035890374 -0.13403377 -0.010431621 -0.278605 0.11823279
0.33804768 -0.10307549 -0.029326325 -0.16896555 0.6554111 0.059418105 0.10006982 0.14823778
0.014310507 0.06130133 0.79347384 0.28962225 0.5493633 0.38758442 -0.0029806702 -0.23860468
0.9036578 -0.09977362 0.389468 0.48670506 0.49107635 -0.09501296 -0.74853647 0.6780907
0.6744747 0.223565 -0.36508557 0.44928724 0.15142682 -0.0051146084 0.5781039 0.36337718
0.11975288 -0.10547941 0.4146744 0.34827024 0.17885633 -0.08676002 -0.013389133 -0.40722743
0.28651026 0.06242114 0.17888351 0.6119001 -0.19990334 -0.012350665 -0.3129017 0.12733953
0.20583902 0.15512337 0.61592346 0.24444966 0.1460527 0.60089684 0.48878348 0.56873673
0.1532095 -0.5707094 0.3619354 0.38465378 0.5290035 -0.2214259 0.083753675 0.106965296
-0.1029352 -0.22196847 0.049249757 0.04032155 0.25659648 0.17545643 0.70044094 0.06598745
00000000: 06a3 44be 7131 703e cdbd 503e f797 4cbe
00000010: 0a4f c0be cde0 1abe b70f 02bf a458 2abe
00000020: 455a ecbe 7ea6 9dbe 5e00 e0be 96e1 e9be
00000030: e854 92be 82bd 0bbf 2f3d e3be 5c80 27bf
00000040: 7a12 873d 4d6d 12be 4659 e3bd 68d6 4cbd
00000050: cde9 19be 2b5e f9be 6c49 5dbe fda5 8dbe
00000060: 0132 0b3f 4f3e d33d a3fe 82be 9626 64be
00000070: 09ff 7fbf b11e c4be 39e3 12bf b627 7fbe
00000080: 07fc b2be a541 09be 8fe1 05be f5e7 ea3d
00000090: b999 0dbd 1e93 6cbc dd7c 4fbe 19c8 db3e
000000a0: 23f5 06bc 0126 70be 227b ff3d 0361 2ebe
000000b0: dbc9 1cbe 25ba d83d 20a6 e1bd 781d 70be
000000c0: 4e23 77be e35c 1ebe d6c8 0a3f 9f9f 44be
000000d0: 49dc 7bbe 7517 bfbd 7cea 81be 9139 a3be
000000e0: 6fa9 5dbe ca9a debe 97a8 90be c40b 7f3c
000000f0: b082 9dbd fc10 2a3d 741c a3be 477f a53e
00000100: 8257 34be e0c0 92be 6481 0c3e 3c47 0e3e
00000110: c241 9bbe 8f6a 07be 9830 ccbe 2ed6 bb3d
00000120: 568f e5bd adac 6fbe ac0f acbe a7aa e2be
00000130: 8619 98bc bf97 11be c43a c2be 12bd fabc
00000140: ec8f babc 65ef a83e f3ba 4dbd 9515 f7bd
00000150: 6129 19bf 9a81 d1be 8b64 123d a95f adbe
00000160: b4b7 8ebe c69f 9cbd 51a2 f5be 920d a13d
00000170: 51a1 54be c517 dabe 2c38 6ebe 5afd e9be
00000180: 718d e2be a308 8a3e 9574 c03d 6ef4 1cbf
00000190: 49cb a83d 766e b53e 2f97 08be 40b5 ebbd
000001a0: ff57 d6be f49a 3f3d ab30 2f3d ead4 f6be
000001b0: 6627 c9bc 9ca1 18bc a33d 053f 1e08 a0be
000001c0: dbbf 293e 0ea5 eebe cee9 63bc 8074 8cbe
000001d0: 779e debe 1d75 a2bd 1895 d8be 6358 a8bc
000001e0: d8d8 b4bd 9e68 323e 0d57 8cbe 64cd 38be
000001f0: 6fcb 983d cb30 1cbf ab42 abbe a2c2 c9bc
00000200: 0d3d ae3e 1fa0 df3e 7842 a4bd 16c9 8cbc
00000210: 6781 193f 5f30 7a3d 4f9f 0bbf 5ed4 053e
00000220: 03ce b73e 6151 d8bd 7f6f 323f 96d5 d03e
00000230: 6da8 85bd 2c67 093f 0f44 aa3e 467b 343f
00000240: 23ad 853e 73f2 06bb cb26 f73e b184 253e
00000250: 2eb4 463e 3145 303f 4bf1 ac3d f521 f63e
00000260: c340 423f c27e ac3d 022a bf3d c43a 473e
00000270: a36b 923e bbf1 ec3e 703d c73e b15a bbbe
00000280: 8e60 503e 9c6f ce3e f58c a13e 35ee c9bb
00000290: 887b e6be bf57 bbbe 9ece e63e 7d4b a83e
000002a0: 76ef f23e 9ffe 3cbe 8b87 3fbe 30ff 1bbf
000002b0: 119f adbd 652a b13e 96a1 343c e582 833e
000002c0: 7b9e 133d 1ef3 44be 8f64 67be c901 133d
000002d0: 2640 09be 64e9 2abc 51a5 8ebe 0824 f23d
000002e0: 9614 ad3e 3e19 d3bd c33d f0bc 4e05 2dbe
000002f0: 06c9 273f 6660 733d 68f1 cc3d a5cb 173e
00000300: 9e76 6a3c 1a17 7b3d 1a21 4b3f 5e49 943e
00000310: 13a3 0c3f 7771 c63e 5957 43bb c954 74be
00000320: 1e56 673f 1d56 ccbd 5a68 c73e 6831 f93e
00000330: 5c6e fb3e 2896 c2bd 16a0 3fbf 5a97 2d3f
00000340: 60aa 2c3f 39ee 643e 7fec babe fa08 e63e
00000350: a20f 1b3e 7298 a7bb 9efe 133f 930c ba3e
00000360: ff40 f53d 9705 d8bd 3450 d43e 7a50 b23e
00000370: 1d26 373e 3daf b1bd 185e 5bbc 1d80 d0be
00000380: 79b1 923e 4fad 7f3d 3d2d 373e 7ca5 1c3f
00000390: 76b3 4cbe 725a 4abc a734 a0be 4b65 023e
000003a0: 77c7 523e a9d8 1e3e 29ad 1d3f 0351 7a3e
000003b0: d78e 153e 60d4 193f d441 fa3e bb98 113f
000003c0: f3e2 1c3e 031a 12bf 994f b93e 57f1 c43e
000003d0: c66c 073f 79bd 62be 0c87 ab3d 9f10 db3d
000003e0: b1cf d2bd b44b 63be 1dba 493d 3628 253d
000003f0: 9d60 833e daaa 333e 1950 333f 6e24 873d

lstm.bias_hh_l0 f4 [512]
-0.16335896 0.11647538 0.19609033 -0.15469538 -0.41312438 0.008375636 -0.61806613 -0.15776928
-0.33732855 -0.22807036 -0.441155 -0.36197302 -0.40878302 -0.53557324 -0.5573173 -0.6518956
0.08105293 -0.13992655 -0.12472628 0.03669534 -0.08970337 -0.5539384 -0.17452918 -0.29521322
0.54103446 0.16397034 -0.3543805 -0.22314307 -1.0365726 -0.37258843 -0.5457627 -0.1888684
-0.31088242 -0.09629256 -0.16819297 0.08303549 0.0672323 0.062231984 -0.14232977 0.34156165
-0.0511786 -0.3217766 0.09819347 -0.21326184 -0.12319955 0.11486976 -0.08155257 -0.36517814
-0.2377624 -0.27877796 0.4553626 -0.15471588 -0.31812298 -0.01672047 -0.39356145 -0.35192943
-0.20226091 -0.50639576 -0.28262445 0.0061781863 -0.11953358 0.08569677 -0.1871661 0.46600348
-0.26824668 -0.256516 0.15490745 0.050448302 -0.42781338 -0.038021903 -0.23399524 0.09314081
0.0049934266 -0.18450564 -0.3875002 -0.39994088 -0.0871707 -0.080572985 -0.24473283 -0.06424697
-0.07358775 0.36644918 -0.11464194 -0.20869254 -0.47859737 -0.33032417 -0.055755235 -0.42790064
-0.15350682 -0.123836845 -0.51997644 0.17302401 -0.19902277 -0.48667073 -0.24574056 -0.4512556
-0.32287252 0.22809139 0.06791682 -0.629031 0.017207831 0.43518415 -0.19485596 -0.23383307
-0.36312082 -0.053928394 -0.038002018 -0.45576036 0.008422562 -0.09620389 0.5141199 -0.3907037
0.16104315 -0.45204633 -0.13661751 -0.13842975 -0.39528018 -0.07965232 -0.41899934 -0.08806392
-0.21301907 0.21081345 -0.35339603 -0.09650004 0.04371029 -0.59236 -0.3186185 -0.13605389
0.22148602 0.48225024 0.016309628 0.08711606 0.63876534 0.16096789 -0.46615592 0.092444256
0.3743781 -0.16880167 0.70755047 0.4278101 -0.027662188 0.49706802 0.3012623 0.6663773
0.18669668 -0.0105714705 0.47326142 0.30766684 0.15805899 0.66236687 -0.0037644065 0.43317285
0.7558228 0.15290849 0.11051323 0.11844918 0.27682677 0.49769783 0.30392602 -0.2974644
0.17318346 0.42704996 0.31627026 0.04865089 -0.5308435 -0.35917667 0.51378536 0.29760793
0.47909614 -0.22904655 -0.24054167 -0.48593664 0.024653148 0.4768617 -0.049299758 0.2641355
0.084378034 -0.14531642 -0.2436492 0.051059388 -0.21103136 0.097030684 -0.32621852 0.14545141
0.32635224 -0.12271136 -0.05235721 -0.05041736 0.6836379 -0.0552766 0.091119684 0.19196439
0.083407424 -0.016348002 0.7425591 0.31306314 0.5588682 0.24797235 0.06433321 -0.25098968
0.80032605 -0.1376351 0.36823907 0.45544934 0.5248711 -0.08336147 -0.8129771 0.66794133
0.5865835 0.2067321 -0.31846958 0.31014407 0.13365807 0.10352022 0.6088684 0.3617528
0.058298074 -0.22476307 0.3089784 0.23272863 0.13733207 -0.04146241 -0.008036703 -0.38462687
0.18796661 0.08230238 0.19484273 0.5421904 -0.09363169 -0.035317007 -0.2569568 -0.01886548
0.03426137 0.14128757 0.6402134 0.1560728 0.022188215 0.49143097 0.42099246 0.47485286
0.09002892 -0.61996657 0.2795189 0.2975809 0.44626698 -0.24769542 0.13443945 0.11940757
-0.12142404 -0.25514004 0.04869461 -0.029696098 0.32816938 0.12246374 0.82619596 0.08904643
00000000: 9247 27be a58a ee3d e7cb 483e 7768 1ebe
00000010: 0a85 d3be f739 093c 9539 1ebf 458e 21be
00000020: 54b6 acbe 478b 69be 11df e1be 8754 b9be
00000030: 024c d1be 541b 09bf 59ac 0ebf a1e2 26bf
00000040: 14ff a53d e848 0fbe 7e70 ffbd da4d 163d
00000050: 67b6 b7bd e8ce 0dbf c7b7 32be 3026 97be
00000060: 3c81 0a3f d7e7 273e 5c71 b5be 9e7f 64be
00000070: 69ae 84bf e9c3 bebe 1bb7 0bbf b866 41be
00000080: fb2b 9fbe 0935 c5bd c73a 2cbe 830e aa3d
00000090: 17b1 893d f7e6 7e3d e5be 11be 2be1 ae3e
000000a0: a7a0 51bd e7bf a4be a819 c93d 5061 5abe
000000b0: 0c50 fcbd d640 eb3d 0905 a7bd a1f8 babe
000000c0: fd77 73be fcbb 8ebe 4925 e93e d76d 1ebe
000000d0: 04e1 a2be 5ef9 88bc e380 c9be 1830 b4be
000000e0: 7c1d 4fbe 27a3 01bf 27b4 90be 6272 ca3b
000000f0: 06ce f4bd ca81 af3d 78a8 3fbe 0298 ee3e
00000100: a157 89be 1156 83be 0fa0 1e3e e1a2 4e3d
00000110: 5b0a dbbe dbbc 1bbd 739c 6fbe 9cc0 be3d
00000120: e69f a33b 0cef 3cbe 6d66 c6be 0dc5 ccbe
00000130: 8d86 b2bd 7303 a5bd 3e9b 7abe ea93 83bd
00000140: 2db5 96bd 3a9f bb3e 65c9 eabd 7fb3 55be
00000150: b70a f5be 4020 a9be 9a5f 64bd cb15 dbbe
00000160: e430 1dbe 2c9e fdbd 2d1d 05bf 352d 313e
00000170: a0cc 4bbe e82c f9be 6aa3 7bbe f90a e7be
00000180: 8c4f a5be ca90 693e f917 8b3d 2d08 21bf
00000190: 70f7 8c3c 75d0 de3e 5288 47be f071 6fbe
000001a0: f9ea b9be 05e4 5cbd 01a8 1bbd 6c59 e9be
000001b0: c9fe 093c 8c06 c5bd 5d9d 033f 510a c8be
000001c0: 7fe8 243e 9e72 e7be 76e5 0bbe 87c0 0dbe
000001d0: 2a62 cabe c120 a3bd 1587 d6be db5a b4bd
000001e0: ac21 5abe 7bdf 573e 53f0 b4be d0a1 c5bd
000001f0: 9009 333d e8a4 17bf f721 a3be b651 0bbe
00000200: 3bcd 623e 81e9 f63e c59b 853c e869 b23d
00000210: 2086 233f c4d4 243e fdab eebe 6a53 bd3d
00000220: 7cae bf3e 58da 2cbe 0722 353f ed09 db3e
00000230: d09b e2bc b37f fe3e 0d3f 9a3e b497 2a3f
00000240: 6a2d 3f3e f633 2dbc 524f f23e 8286 9d3e
00000250: 37da 213e e090 293f 43b4 76bb d5c8 dd3e
00000260: 9a7d 413f 0b94 1c3e c354 e23d 7c95 f23d
00000270: 3dbc 8d3e 40d2 fe3e 319c 9b3e 414d 98be
00000280: 0157 313e 4ba6 da3e 2dee a13e 2846 473d
00000290: 5ce5 07bf 01e6 b7be 7087 033f 1160 983e
000002a0: 174c f53e 2e8b 6abe 8e50 76be b0cc f8be
000002b0: 66f5 c93c 3727 f43e 8bee 49bd c53c 873e
000002c0: 64ce ac3d d4cd 14be 2d7f 79be a623 513d
000002d0: 9b18 58be 06b8 c63d 1d06 a7be 37f1 143e
000002e0: a417 a73e 1850 fbbd 8474 56bd 6f82 4ebd
000002f0: e502 2f3f b769 62bd f59c ba3d 5092 443e
00000300: 83d1 aa3d 3fec 85bc 5a18 3e3f d049 a03e
00000310: fd11 0f3f 77ec 7d3e 21c1 833d b881 80be
00000320: 2be2 4c3f 37f0 0cbe d589 bc3e a830 e93e
00000330: f45d 063f 6bb9 aabd 441f 50bf 34fe 2a3f
00000340: 562a 163f 94b1 533e 720e a3be 34cb 9e3e
00000350: a9dd 083e 6902 d43d cdde 1b3f aa37 b93e
00000360: f6c9 6e3d 4a28 66be 6b32 9e3e 6a50 6e3e
00000370: c7a0 0c3e 7dd4 29bd 60ac 03bc d0ed c4be
00000380: 527a 403e 268e a83d da84 473e fdcc 0a3f
00000390: f9c1 bfbd 91a8 10bd d78f 83be c78b 9abc
000003a0: a655 0c3d b0ad 103e 06e5 233f 8cd1 1f3e
000003b0: 0fc4 b53c d79c fb3e 538c d73e ea1f f33e
000003c0: 1561 b83d 21b6 1ebf 1a1d 8f3e 865c 983e
000003d0: 1b7d e43e dea3 7dbe 7faa 093e f58b f43d
000003e0: 2bad f8bd b7a1 82be 0074 473d 3b45 f3bc
000003f0: d105 a83e 45ce fa3d 9481 533f fa5d b63d
