models/lstm.model (torch, 883645 bytes, 11 tensors)

embedding.weight f4 [128, 8]
00000000: 7115 7c3f 56b3 b03f c774 193f e1e2 653f
00000010: bb6f e43f 6db0 d3be f52f 983f cc8c 8ebf
00000020: d6f9 0d3f 820f 7f3f 9133 e83e 4907 0a3f
00000030: 032a 7dbe cc4e 913f 073d d83f 4ad8 1c3f
00000040: d1f4 e0bf c0c6 243f f937 353f 8380 dc3f
00000050: 0be3 813e 8610 96bf 59db 44bf d87b 1ebe
00000060: a84b 853f 01db 45bf 351f b03d 5375 d8be
00000070: a0c9 303e 7564 c13d 3606 cbbe ad2c fcbd
00000080: 8fa8 d7be 9a1a ac3e 7b21 2e3f 0f87 b8be
00000090: 7a26 b73f 660a d7bc bdcf 28be d737 383e
000000a0: 65ef 14bf 366d 563f fb3e 99bf c14c f43e
000000b0: f77b 9abf 478e 833e dc96 b33f 931e 0840
000000c0: 7a55 6d3f 868f b2be 7208 d8bd fc55 03bf
000000d0: a5b7 2440 268a 8a3f 7a4d c43e 70d2 633f
000000e0: ce92 9fbe 81a3 f03d ead6 ec3e e017 e1be
000000f0: 058f 31bf c2bd f33f 2cae ccbe e7b0 68bf
00000100: 55c1 90bf 14db b53d 0c86 06bf 90ec 583f
00000110: 7935 403f 6857 2dbe 7d83 c93f 23c2 89be
00000120: f016 7b3e 9037 2fbf 7580 f23d e97d a9be
00000130: cf2f b93e 72c5 54bf f1ab d43f 685c 5ebe
00000140: 5c02 a4bf 8fa6 3b3f 3e76 ecbd 082e 03bf
00000150: 2f6c b5bc 663c 5ebf b61f 91be ae22 653e
00000160: d67d 2b3f 9794 3a3f ff38 143d 31bc 9b3f
00000170: 0a15 debe 50b2 db3e 8b0c 91be adb8 f43e
00000180: e43b 09c0 85c9 8f3f 08f7 3bbe 6cc9 20bf
00000190: 2528 a53f d4a1 853f 867c 0dbf 2f6f 80bd
000001a0: a60e 7bbe 76bb e3bf 1c15 aa3f 5ae6 4b3f
000001b0: 35c3 0840 a2f6 843f a6e3 403f 39eb a0bf
000001c0: 0ba1 2cbf d324 b83e 2122 2dbe ec2c c1bf
000001d0: ee05 3840 94d0 77bf ddfd d63c 8464 0640
000001e0: e06f 66bf b1c5 6dbf dad2 11bf 40ae 80bf
000001f0: 765b 343f e0d3 b4bf 89ce 0fc0 24cd 9abd
00000200: 5c8c 713f 02e0 26bf 8990 f5bf 52a9 0b3f
00000210: 8674 853d 0c42 c2be 782c 18bf 8561 8b3e
00000220: 5b63 843f aacf b2be 6bb7 3bbe a78c b13f
00000230: 8645 80bf 3020 0ec0 845f b5bf 282a 52be
00000240: a40a c03f 8216 c9be 3784 063f 30f6 193e
00000250: 2ca4 793e 44cc 2fbe a60e afbe 104c 84be
00000260: 2efd 6f3f f513 08c0 7fe9 d13e 3db6 903f
00000270: 2937 b53f 4a2b 3b3f 3c58 5a3e 6ac2 c0be
00000280: bf00 9fbf 43f7 cf3f 573b a8bf 592f c03f
00000290: f49a e5bf f0bb 6cbf a7b1 4c3f 4d71 ee3f
000002a0: 8cb4 e7bf 34dd adbf c440 c33e 3701 b7be
000002b0: bdce 74bf f8c0 ebbf 4dd3 ef3f 9453 1dbd
000002c0: 0a1f 66bf 1d7c d33f 6516 77bf 66b7 e0bd
000002d0: 7f60 6fbf a3cd cfbe 5af1 05be 2aa1 5740
000002e0: 0e48 ee3e 2925 003e f3af 9f3d 861b 0b40
000002f0: 8606 23bf f8f6 a6bf eafa 1abf 9b60 81be
00000300: 211c a73d 05c3 a7bf d883 13bf 28db 413f
00000310: 84af 2ebf 725e 0240 377c b03f 8153 733f
00000320: b9ea d73f eaa0 d33d 390d dfbe d7c6 6a3d
00000330: 7cb7 ca3e c8db 28c0 4c31 61bf 34a8 51bf
00000340: e075 d73f ac5a 07bf a153 dbbe 526f 11be
00000350: cdf5 b4bf e3a9 9d3f f63b 88bf 1594 8f3f
00000360: e9d2 3d3e 7d8d b13e 515b 16c0 8275 723f
00000370: 0254 c73f 8708 b93e 351c e4be 13c4 8b3e
00000380: 93d8 b4bf d6ac 06c0 d5f0 bbbe db45 8cbf
00000390: fd9e 89be 33a1 dcbf fc3a a5be 0f1e d6be
000003a0: 7860 15c0 e2e2 05be 75de 91bf c5a6 c2be
000003b0: 7a33 ca3f 7769 563e 4106 0f3f a613 0f3f
000003c0: 3011 f73f 2368 5f3f 608b 9cbf f7be fc3e
000003d0: a905 f1bf 9a7d 003f e5f2 df3f f28f d53f
000003e0: 9822 2fbf b3b7 4e3e efd6 923e c712 02c0
000003f0: 7c94 953f a22b ae3f 588b 473f 490a c43e
0.98470217 1.3804729 0.59943813 0.89799315 1.7846597 -0.4134554 1.1889635 -1.1136718
0.55459344 0.9963304 0.45351842 0.53917366 -0.24723057 1.1352172 1.6893624 0.6126753
-1.7574712 0.6436577 0.7078853 1.7226719 0.25368533 -1.1723793 -0.768972 -0.1547693
1.0413713 -0.772873 0.08599702 -0.4227701 0.17264414 0.09442989 -0.39653176 -0.12313209
-0.42120788 0.33614045 0.6801984 -0.36040542 1.4308617 -0.026250076 -0.16485496 0.17990051
-0.5817779 0.8376039 -1.1972345 0.4771481 -1.2069081 0.25694486 1.4030414 2.126866
0.9270855 -0.34875125 -0.10548486 -0.51303077 2.5737088 1.082341 0.3834036 0.8899298
-0.3116669 0.11749936 0.46257716 -0.43963528 -0.69358855 1.9042284 -0.39976633 -0.9089493
-1.1309 0.088796765 -0.5254829 0.84735966 0.7508159 -0.16927874 1.5743252 -0.26905927
0.24520469 -0.68444157 0.118409075 -0.33103874 0.36169288 -0.8311378 1.6614972 -0.21714938
-1.281322 0.73301023 -0.115459904 -0.51242113 -0.022146313 -0.8681091 -0.28344506 0.2237651
0.66988885 0.7288298 0.03618717 1.2166806 -0.43375427 0.4290948 -0.28329882 0.47797146
-2.1442804 1.1233374 -0.18355954 -0.62807345 1.2902876 1.0440011 -0.5526813 -0.062712066
-0.24517307 -1.7791584 1.3287692 0.79648364 2.1369145 1.0387766 0.75347364 -1.2571784
-0.6743323 0.35965595 -0.1690755 -1.5091834 2.875362 -0.9680264 0.026244098 2.099885
-0.9001446 -0.9287978 -0.5696236 -1.0053177 0.7045206 -1.4127159 -2.246981 -0.07558659
0.94354796 -0.6518556 -1.9184734 0.5455524 0.06516366 -0.37941015 -0.59442854 0.2722284
1.0342821 -0.3492406 -0.18331687 1.3871049 -1.0021217 -2.2207146 -1.4169774 -0.20523894
1.5003247 -0.39274985 0.52545494 0.1503532 0.24379033 -0.17167765 -0.34190863 -0.2583928
0.93745697 -2.126218 0.40998456 1.1305615 1.4157459 0.7311293 0.21322721 -0.37648326
-1.2422103 1.6247333 -1.3143109 1.5014449 -1.7937913 -0.9247427 0.79958576 1.8628327
-1.8101974 -1.3583131 0.3813535 -0.35743114 -0.9562796 -1.8418264 1.8736359 -0.038409784
-0.8989111 1.6522251 -0.96518546 -0.109724805 -0.93506616 -0.40586576 -0.1308035 3.3692117
0.46539348 0.12514175 0.077972315 2.173555 -0.6368183 -1.3044119 -0.60539114 -0.25269017
0.08159662 -1.310639 -0.5762305 0.7572503 -0.68236566 2.0370145 1.3787907 0.9504929
1.6868507 0.10333426 -0.43564776 0.057318535 0.39593112 -2.6384144 -0.87965846 -0.8189728
1.6832848 -0.5287273 -0.4283724 -0.14202622 -1.4137512 1.231747 -1.0643299 1.1217066
0.18537487 0.3467826 -2.3493235 0.9471055 1.5572512 0.36139318 -0.4455277 0.2729803
-1.4128593 -2.104299 -0.36707178 -1.0958818 -0.2687911 -1.7236694 -0.32271564 -0.41819808
-2.334013 -0.1307483 -1.1396013 -0.3801786 1.5796959 0.20938669 0.5586892 0.55889356
1.930212 0.87268275 -1.2230034 0.49364445 -1.8829852 0.5019165 1.7496 1.6684554
-0.6841216 0.20187263 0.28679606 -2.032396 1.1685939 1.3607066 0.77946997 0.38289097

lstm.weight_ih_l0 f4 [512, 8]
00000000: e378 38bd a82b c9bd baeb 293e fe43 b33e
00000010: ff63 efbc 3532 083e 802f a73e ae89 fc3d
00000020: b506 c03e 6014 8cbd c54b d1bc c38d 513e
00000030: 613e a1be 2dc8 dcbe 18ad 853e 8df3 6dbd
00000040: 965e 68be 311d 42bd dd09 71bf 7aaf 723e
00000050: cac5 42be 38b3 4e3f 49f8 8ebe 5616 893e
00000060: 2e94 013f a9e1 763d 7254 863f c82d 453e
00000070: a67b 5e3f f76f 3cbf 1a54 a33d 371c a53e
00000080: 30a1 033e 9fcc cebd 787c 933d 82a8 85bd
00000090: 1acd dabd ac36 91bd 027d afbd 5247 2f3d
000000a0: 6642 a53e 14d7 583e 0d66 7dbe dca7 413e
000000b0: d135 c83d 835a 973c c44e 99bd 9682 ed3d
000000c0: 2f19 2e3d 4ee9 44be 7c55 8e3d a6e1 393e
000000d0: f401 81bd 08db 313d 2f20 ffbd 40ad 04bd
000000e0: 1262 bcbe 8985 31bf 282a 203f 05f4 bc3e
000000f0: c50e 013e 33a6 d53e 5eb6 0cbf 55e2 68be
00000100: 1e77 c9bc 28a1 20bd 3c5c 6fba 7bf1 8cbd
00000110: 4277 b2bd 951d b53b 5026 68bd 8865 34bb
00000120: 916a 253e 3126 67be a430 4bbe 4e44 0ebb
00000130: b187 223e 3e8a 76be 1431 fa3d c67a fdbd
00000140: 70de 753e 98a0 5a3f c312 b83e 70f8 5b3d
00000150: 673f 4c3e a49e a1be e66a 1e3f 004f c9bd
00000160: 8493 a1bc 366b 0c3e 4c6c d63b cb5a 73be
00000170: 589a d5be 1bdd 1d3f 18cc 0bbf 1278 4dbf
00000180: 353b 063f e667 83be 5b27 bebd b60b 37bf
00000190: ac9f e63e 32dd 94bc 15bc 09be cf53 90be
000001a0: aef7 d0be 7b61 e0bd ab9a 5e3e a796 d43d
000001b0: 964f 9fbd 6567 793e 7bd7 383e 9832 2c3d
000001c0: 1df1 07be 78ad c43e 7034 05bf f9d5 723f
000001d0: e856 29bd 812b debe e602 b83e d3d1 123c
000001e0: 3775 073e ea22 9b3d 424b ef3d 2294 fa3d
000001f0: 7445 583e edb4 9b3a 54cc 3a3e 5240 5ebe
00000200: 39dd 38be ee01 70bf 2de0 3e3f 0a61 18bf
00000210: 5823 1dbf e6c3 63bd 24d9 ddbf 10b4 0cbf
00000220: b6d5 11bf b8b2 4a3e f293 d7bd 3778 47bc
00000230: bbd4 de3e 769d b2be 4a8e 94be 5b91 e73c
00000240: 8a4a 253e 05a0 d03e 5f7f 3ebe b043 1ebf
00000250: 366f 52be 98ee b23e 396b 46be b7a1 34bf
00000260: dde7 70bf 7bb6 d9be e3ca 9e3d 7f67 98bd
00000270: ca19 06bd ad0d f7be e8c1 1cbf 8789 c23e
00000280: 99d2 393f d134 f0bc 4163 6b3e f7ec 4a3f
00000290: 4d75 cc3e ce91 7d3d 5aef 3f3b ba32 47be
000002a0: 567f 033f f15a 87bb 7afd 183f 18ac 4cbe
000002b0: 5f12 b8bf 5d68 e73e 755e b7be 319e 9c3f
000002c0: 6773 34be 8c78 623e 1ec3 f03d aa93 8bbd
000002d0: f7c9 8cbf e635 943f e11c dcbd 3c1b 0c3e
000002e0: b9e9 12bd a155 1fbe b1c6 87bd 61d7 fb3b
000002f0: ec72 57be 819a 713e 8545 e4bc ab39 b23d
00000300: ae0d 01be 6dba 0fbd 41e8 ca3c d45a 493d
00000310: 89a3 6dbd a5ca 4b3e 124a 2aba a942 f63b
00000320: e3df f13c 449b 09bd cc80 813e 908d ac3e
00000330: 0698 113e 71cf b4be e9ab d13e db89 91bd
00000340: 1e5f 6fbe c07e 00be 84a4 c3bd c04a 23be
00000350: 296e 94be c0e8 103e 2c8a 5fbe edb5 763e
00000360: 0d6f 4ebe 7a19 543c 77a2 efbc 114e 21be
00000370: 8964 923e 7248 693e 0ede 243f 704f 97bc
00000380: dc9b 023e 12b2 033d 930d eebd 8a37 03bd
00000390: cc2a 8b3d 0488 0abe 6c15 4c3e a635 ecbd
000003a0: b92e 2ebe 1b76 b9bd 2e38 eebc 9aca aabd
000003b0: 64f3 27be 5ef9 353d c9b3 7abd 1310 c63d
000003c0: f160 1dbf e439 313e 6533 bc3e 8990 16bf
000003d0: 84d1 08bf 0b96 39bf 23ba 0c3e 7ae2 d13d
000003e0: b11f 54bf 4124 203f b040 6b3f f054 aebe
000003f0: 64fb 05bf 5e70 3bbe ed0c 5b3f 4303 2fbf
-0.04503716 -0.0982278 0.16593829 0.3501281 -0.029222487 0.13300402 0.32653427 0.12330948
0.37505117 -0.06839824 -0.025548825 0.20464234 -0.31492904 -0.43121472 0.26108623 -0.058093596
-0.22692332 -0.04739112 -0.94155675 0.23699751 -0.19020763 0.80742216 -0.27923802 0.26774853
0.5061673 0.0602738 1.0494521 0.19255745 0.8690742 -0.73608345 0.079750255 0.3224809
0.12854457 -0.10097622 0.07201475 -0.06526281 -0.10683651 -0.07090506 -0.08568765 0.042792626
0.3227722 0.21175796 -0.2474596 0.1891169 0.0977589 0.018475777 -0.074857265 0.11597173
0.042504486 -0.19229624 0.069498986 0.18152484 -0.06299201 0.043421775 -0.124573104 -0.032391787
-0.36793572 -0.69344383 0.62564325 0.36904922 0.1260329 0.41728362 -0.5496577 -0.22742589
-0.024592932 -0.03921619 -0.00091308705 -0.06881996 -0.08714153 0.005527208 -0.056677163 -0.0027526338
0.16153933 -0.22573163 -0.19842774 -0.0021708193 0.15872075 -0.24076173 0.12216392 -0.12376933
0.24010634 0.85401297 0.35951814 0.053703725 0.19946061 -0.31566346 0.61881864 -0.09829521
-0.019723661 0.13712773 0.0065436717 -0.23765104 -0.41719317 0.61665505 -0.546083 -0.8026134
0.5243409 -0.25665206 -0.0928485 -0.71502244 0.45043695 -0.01817188 -0.13450654 -0.2818894
-0.40813965 -0.10956093 0.21738689 0.10380297 -0.07778852 0.24355848 0.1805095 0.042040437
-0.13275571 0.38413596 -0.5203314 0.94857746 -0.041342646 -0.43392566 0.3593971 0.008961159
0.13228308 0.07575019 0.11684276 0.12235285 0.21120244 0.0011879482 0.18242007 -0.21704224
-0.1805314 -0.93752944 0.74560815 -0.5952307 -0.61382055 -0.055606745 -1.7331891 -0.54962254
-0.5696672 0.19794738 -0.10526265 -0.012174658 0.43521675 -0.34885758 -0.29014808 0.028267553
0.16141716 0.40747085 -0.18603276 -0.6182203 -0.20550236 0.34947658 -0.1937684 -0.7055926
-0.94103795 -0.42522034 0.07753541 -0.07441615 -0.032739438 -0.4825262 -0.6123338 0.3799555
0.7258697 -0.02932206 0.22987081 0.7926783 0.39933243 0.06190663 0.0029286952 -0.19452944
0.51366174 -0.004130714 0.59761775 -0.19987524 -1.4380606 0.4519681 -0.35814252 1.2235776
-0.17622148 0.22116297 0.11755966 -0.06815274 -1.0999135 1.1578948 -0.10747696 0.13682264
-0.035867427 -0.15560009 -0.06629694 0.0076855873 -0.21039933 0.23594095 -0.02786518 0.087024055
-0.12602875 -0.0350899 0.02476895 0.049158886 -0.058017287 0.19901522 -0.00064960227 0.0075152707
0.029525703 -0.03359534 0.25293577 0.33701754 0.14218149 -0.35314515 0.4095147 -0.07106372
-0.23376128 -0.12548351 -0.09552863 -0.15946484 -0.28990296 0.14151287 -0.21830052 0.24092837
-0.2015955 0.012945527 -0.029252274 -0.15752436 0.28592327 0.22781542 0.6440133 -0.018470496
0.12754768 0.032152243 -0.11623683 -0.032035388 0.06795272 -0.13528448 0.19930047 -0.1153367
-0.17010011 -0.0905573 -0.029079523 -0.083394244 -0.1640144 0.04442727 -0.061206613 0.09671035
-0.61476046 0.1730724 0.3675796 -0.58814293 -0.53444695 -0.7249457 0.1374288 0.10248275
-0.8286086 0.6255532 0.9189558 -0.34049177 -0.52336717 -0.18304583 0.855666 -0.6836435

lstm.weight_hh_l0 f4 [512, 128]
00000000: 486a d8bf 84c4 97be 3659 de3e ecbc e2be
00000010: 1f34 8c3f 23f3 fe3d 1df0 cf3b 4adc 56be
00000020: b14b 473f ba31 803d df1d ac3c 1e31 f33e
00000030: 39fe 8c3d c7d3 52be fe93 43be e72b 6abe
00000040: bc30 cc3d fd90 013c e510 113f 9972 133f
00000050: a166 ddbe c00c 763e 8765 0a3e 28c6 643e
00000060: 27b1 ac3e 8108 3a3f 4247 47bf 867e 093f
00000070: 179e ddbe ab84 3c3f ecca c7be 77f4 183e
00000080: a72f ffbd a1a3 c23e 2eb5 a0be 36c6 84bd
00000090: ea3d 62bd fb75 eb3e 9dfd 1e3c ace3 17bf
000000a0: 79b4 f43e f4c3 793d 3b49 97bc 927b 7f3e
000000b0: 3aab 563e 000a 153f cba7 be3e 73e1 9d3e
000000c0: 3708 ab3d 1124 1a3f 4c7f 98bd e6ea 04bf
000000d0: 4fb0 033e b37a 123f 54d6 433f 4b0f 0abf
000000e0: eef2 66be 9480 f73d 2eb5 17be 1da9 e9bd
000000f0: 22df 37be 16e2 9bbe af57 023f 04ba d8be
00000100: 44e5 ad3d ee88 cfbf 7ebe 533f 4a38 6bbc
00000110: 405e 683e 6e07 e03e d88d 87be f144 5a3f
00000120: ce50 883f 03f0 d03e d472 9bbe 3ff6 fb3e
00000130: 43bd c33c c50c 9bbe eeff 9abe 342d ef3e
00000140: e478 133f 8ba4 20be bed6 bb3f 4ede dabe
00000150: 6e71 103f 613f 58be aeaf 653f 0aab d83e
00000160: 838d 093f 4365 44bd 5762 d3bd a484 6dbd
00000170: de07 03bf a915 063f d1db 37bd 7619 ef3d
00000180: 7250 c33d 6a0e 10bf 8c88 29bd 4d6b 03bf
00000190: d3ea 79bd 3656 ea3d a73a b23b 7325 843e
000001a0: 2655 ca3e 26bb 78be 8218 573f ebc6 90be
000001b0: 80da a8be 65e6 0cbf 0e5f 29be cf53 56bd
000001c0: 5d1b e8bd 72f6 e53e 5a56 fd3e 46d4 5dbf
000001d0: 93b5 63be d36b 293f 7aa2 833e 609c 40be
000001e0: 6d73 f6bd 8fed a1be 80d1 ac3e 3bd2 2e3c
000001f0: 6410 08bf 090e f13e afab 1abe 128e f8be
00000200: 6690 82be 753a b83e 072c 12bd 036f 8dbe
00000210: ed94 2cbc 6ac8 1ebe 5b9e 7ebe 674b ae3d
00000220: 59b2 52be ea81 58be 1f22 963e 2155 4bbe
00000230: 3957 73be ff10 8a3d ba81 033f fb3c f7be
00000240: 7319 bdbe 0c9e 54be d62a e2be 484e f9be
00000250: 5303 0ebf 09cf 7e3c bfe2 6dbe ffef e23e
00000260: 3834 07bd bf34 c63c a5a4 83be cd9a b9be
00000270: 008c bc3e 39f7 8abf fc09 803e 2a50 5cbe
00000280: 211f 083e 6940 4cbe de99 91be 07c4 063e
00000290: 46bc 57be 935c 043e c1e8 6bbc 1af2 a73e
000002a0: 310b a63e a3ef 16bf 2cdb 013f e8ff 5dbe
000002b0: 21e0 113f 2225 d63e 5b6c 73be 0734 303f
000002c0: 7a8b 0c3e ba88 303e ed0c 8b3e 3b14 d1be
000002d0: 127d 25bf 5446 07be 696d f1bd 2020 e9bd
000002e0: ae60 0bbf 8118 663d 7173 49bc 629c 84bd
000002f0: dfb9 f03b 0f2e db3d 191f b73d b80d 953e
00000300: e85c 843e 7c28 853d 5e5f 5d3d ea27 053f
00000310: 9168 8cbe ee63 393e 1aa0 f73c 1eea d13e
00000320: 5ac8 6a3e 3210 953d 6cd3 433d f4e9 0fbf
00000330: 3c77 a3bd ece7 c8bc 0c6f 8b3e ec6f b83e
00000340: f0e9 823c ffda 03bf eb42 ec3e 6900 74bd
00000350: ed44 d5be 6608 d8be 407d f63c ddc6 94be
00000360: e284 7bbd e6d5 5b3e 2baa 3b3f 5852 d53d
00000370: a54c 54bf bc95 9abd aa77 0abf ab08 773e
00000380: 9124 053f c2dd 0b3e 48bf a43e 69da 9bbe
00000390: 75fb 803e 37dc d83e 71e9 943d 46ed ae3e
000003a0: 46d0 8bbe e05b 7b3e b741 bc3e 3735 3cbf
000003b0: 45e8 203e 756a e3bd 3462 e13d 84b2 733f
000003c0: 87fa 323f dee5 b4bc d28b a63e 1628 aabe
000003d0: bd71 12bd 85b9 6d3e 5899 c5bd 2b80 533e
000003e0: 0736 e3be 1b87 d83e cf1a fdbd 206c 7abc
000003f0: b482 0fbe 70ad 583e eb4b 333e 7ada 29be
-1.6907434 -0.29642117 0.43427438 -0.4428476 1.0953406 0.124487184 0.0063457624 -0.20982471
0.7784987 0.062594846 0.021010337 0.4749841 0.068844266 -0.20588599 -0.19099423 -0.2286831
0.09970233 0.007908103 0.56666404 0.5759674 -0.43242362 0.24028301 0.13515292 0.22341216
0.33728907 0.72669226 -0.77843106 0.53708684 -0.43284675 0.73639935 -0.39022005 0.14937006
-0.12460261 0.38015464 -0.3138823 -0.06483118 -0.055234827 0.4598845 0.009704021 -0.59331775
0.4779394 0.06097789 -0.018467536 0.24949482 0.20963755 0.58218384 0.3723739 0.30836067
0.08351176 0.6021128 -0.07446155 -0.51920927 0.12860225 0.57218474 0.76498914 -0.53929585
-0.22553608 0.12085071 -0.14815208 -0.11409209 -0.17956212 -0.30445927 0.50915045 -0.4232942
0.084909946 -1.6213663 0.82712543 -0.014356682 0.22692204 0.43755668 -0.26475406 0.85261446
1.064966 0.40808114 -0.30361044 0.49211308 0.023893958 -0.3028318 -0.30273384 0.46714175
0.5760634 -0.15687768 1.4674909 -0.4274773 0.5642308 -0.21117927 0.8972119 0.42317992
0.53731555 -0.047948133 -0.10321491 -0.057987824 -0.5118388 0.523768 -0.044887368 0.11674778
0.09536828 -0.56271994 -0.041389987 -0.51335603 -0.06101496 0.11442225 0.005439121 0.2580982
0.39518088 -0.24290141 0.8402177 -0.28276762 -0.32979202 -0.55039054 -0.16540167 -0.05232602
-0.11333344 0.44914585 0.49479944 -0.8665203 -0.22237234 0.6618015 0.25709897 -0.18809652
-0.120337345 -0.31626555 0.33753586 0.01067024 -0.5315001 0.4708102 -0.15104555 -0.4854589
-0.25500792 0.359821 -0.03568652 -0.27623758 -0.010533554 -0.1550614 -0.24865095 0.085104756
-0.20575847 -0.21143308 0.29322907 -0.19856693 -0.23763742 0.06741523 0.5136982 -0.48288712
-0.3693348 -0.20763415 -0.44173306 -0.48692536 -0.5547382 0.015552291 -0.23231028 0.44323727
-0.033008784 0.024195073 -0.2571155 -0.36250916 0.36825562 -1.0856696 0.25007617 -0.21514955
0.13293125 -0.19946446 -0.28437704 0.13160716 -0.21067914 0.1292594 -0.014398755 0.32801896
0.32430413 -0.58959407 0.50725055 -0.21679652 0.5698262 0.41825205 -0.23771803 0.6882939
0.13725081 0.17239657 0.271583 -0.40835747 -0.6464397 -0.13210422 -0.117884465 -0.113830805
-0.54444396 0.056175712 -0.01229559 -0.0647514 0.0073463763 0.10702144 0.08941478 0.2911203
0.25852132 0.065018624 0.054046027 0.5201403 -0.27423528 0.18104526 0.03022771 0.4099893
0.2292799 0.0727848 0.04780905 -0.5621636 -0.079817265 -0.024524651 0.2723316 0.3602289
0.01598069 -0.51506037 0.46144804 -0.059570704 -0.4165415 -0.42193907 0.03008902 -0.2905797
-0.061406024 0.21468315 0.7330653 0.104160964 -0.8292945 -0.07548091 -0.5408884 0.241244
0.5200892 0.13658813 0.32177186 -0.3044007 0.25191846 0.4235551 0.07271088 0.341654
-0.27307338 0.24546766 0.36768886 -0.735187 0.15713604 -0.111042894 0.11005059 0.9519427
0.69913524 -0.022082265 0.3252855 -0.33233708 -0.035753 0.23215301 -0.096483886 0.20654361
-0.44377157 0.42290577 -0.12358629 -0.015284568 -0.14014703 0.21159911 0.17509429 -0.16587248

lstm.bias_ih_l0 f4 [512]
00000000: d2cf 87be 4041 4a3f 0bf8 893e 3119 853f
00000010: 7311 373f d31a dfbc e64f 7b3e 435c a83e
00000020: 7912 39bf 0817 933e d4c1 7a3f 6833 5f3f
00000030: bdb1 7d3f 2ebc 0e3e 4e59 1f3f 43e3 a83c
00000040: 6ff8 df3e dd15 2d3f 5aae b93e 1055 013f
00000050: c7af 3b3f 61e7 b23e 7323 093f 7024 ca3e
00000060: b000 8a3e f2b4 9dbe e04b 8cbe bda6 a7be
00000070: 2378 3bbf b55e 29bf 6bef 26be 9082 183f
00000080: f2eb 823e 4146 d5be dce4 f5bd 8d05 f33e
00000090: a698 1c3f 26ec 483d 82f1 fb3d 79f1 f5bd
000000a0: 9e21 693d d2de 2a3e bcc2 0d3f 3938 d5be
000000b0: 8025 893e 992d 873f 1b68 cc3e c5fd be3d
000000c0: cca9 223f f032 9dbb 4cf6 633f 500c 253f
000000d0: 0314 6a3d 6e99 443f d6d4 dc3d 62ea edbe
000000e0: 6e25 18bd 606a 3d3f 0dae ca3d 63a6 683f
000000f0: acd5 5bbe 779c 853e 6373 113f c285 be3e
00000100: 4e5b f23e e504 ccbe 8a32 28bf 7bd5 c23e
00000110: e388 a33f f770 293f e456 943e 383e 2bbd
00000120: ee39 da3e 99bc 873f 8e15 8c3f 12dc 54be
00000130: 46f7 2c3f b9b7 45bd 7d80 013e 2b6a aa3f
00000140: 40b6 6c3f 5e54 9c3c 46e0 bbbd b839 e43e
00000150: a178 6e3f 5db2 0dbe b5a5 4ebf dec3 303f
00000160: c7fe 96be dc04 0a3f 07c8 1cbf f74d 5d3f
00000170: 70ef 0cbe 4271 00bc 356c f23e f00f 143e
00000180: 3eca e63e 6e46 a73e 5fb3 c93e b6e2 6cbf
00000190: 1cb8 043f ed54 093f 32d0 ae3e ca08 153f
000001a0: b536 723f 64e2 113f d3f0 ea3e 049e 5cbe
000001b0: 7bca 803f fbf3 143f 3f19 493f 205f 6bbe
000001c0: 2c07 943e 1f75 a23e 9832 eb3e ba5f c13d
000001d0: c317 25bf 5cb8 64be 1f4d 4f3f ae35 dd3e
000001e0: 075a 013f 313a 08bf 1b0f 91be 118f 0b3f
000001f0: 73d6 a63e f1c8 61bd e4a1 05be 5451 083f
00000200: 80e4 22bf 4e9f 6cbf 2f82 dbbe a71a 36bf
00000210: a0c0 09bf 7e1f 06bf 5fe8 12bf 20fb 26bf
00000220: 7ebc 853e 6942 54bf 9e4c 47bf d34d f3be
00000230: 6b49 c4be 0dde 0cbf 06bb e4bd 0e69 93bd
00000240: 5bfc d4be ceb1 1bbf 9c1f ecbe d589 1ebf
00000250: e29f 1abf 1998 0fbf 9bed 87be 25a8 6fbd
00000260: bf60 acbe 055a c3be 5440 143f 0a58 61be
00000270: 76e5 163f 8133 1b3f 304f cebe fd35 52bf
00000280: f457 27bf f898 8bbd a161 933e 2133 1dbf
00000290: 9ef7 1d3e d7cc 10bf d6ce 04bf 559c c6bd
000002a0: d151 c7be b7d8 1fbf f702 23bf d7a6 063f
000002b0: b042 8bbe 1b19 943e dfca 3abf 0c8a 5dbe
000002c0: 4833 a6be 6375 17bf 6693 fdbe 8eb5 37bf
000002d0: 8df4 d8be 7e48 21bf a53a 1fbf a572 913e
000002e0: 33ab 20be 6a60 9dbe dd1a d3bd 8f33 26bf
000002f0: daa7 c7be 2df5 c4be 01bd 45bf 6c8a 51bf
00000300: 2897 0fbf 1d9a 2d3f a7b7 003f 0887 2fbf
00000310: d08a d4be d691 b3be d574 eebe 8fce 05bf
00000320: 1472 e9be 0bba 42bf 9a6b 3fbf f28f 40bd
00000330: c585 04bf 2952 933e 1dda d03e 5416 0ebf
00000340: cc19 aabe 4df7 1cbf 67aa 29bf 43c2 5bbe
00000350: 7c76 bbbe a931 aebe 18eb 373f be72 38bf
00000360: 0f01 b23e a7fb 9abe 3c89 013e bd0b 17bf
00000370: 7132 85be 817e 333e e803 823e a231 e6be
00000380: bd12 e4be 69cb 93be e472 b3be fcdb 153f
00000390: 19d8 e0be 42f2 c03d 8d9f 2bbf 8d72 023d
000003a0: 4650 09bf f24b 29bf 5e7a 37bf d787 85be
000003b0: fedc 06bf 3783 f2be 869a 01bf 860e a93e
000003c0: b701 21bf 4194 10bf cbab 24bf 59d7 14bf
000003d0: 40c8 1c3f 89a2 08bf 55ec 05bf 4697 62bf
000003e0: 5c25 c9be 07bf f43e 1782 6ebe cc85 0ebf
000003f0: 50be 07be 3694 66be 0b7e 6f3e d52c 9dbe
-0.26525742 0.79005814 0.26947054 1.0398313 0.71511 -0.02723447 0.24542198 0.3288289
-0.7229381 0.2872851 0.9795201 0.87187815 0.9909933 0.13938972 0.62245643 0.02061618
0.43744227 0.67611486 0.36265832 0.5052042 0.7331509 0.34942153 0.53569716 0.39480925
0.2695365 -0.30802113 -0.27401638 -0.327444 -0.7323019 -0.66160136 -0.16302268 0.5957422
0.25570637 -0.41655162 -0.12006542 0.47465172 0.61170423 0.049053334 0.12301923 -0.12008948
0.056916825 0.16686562 0.55375266 -0.41644457 0.26786423 1.056079 0.39923176 0.093257464
0.6354034 -0.004797332 0.89047694 0.6447191 0.05714799 0.76796615 0.10782783 -0.46467882
-0.03714507 0.7399044 0.09896479 0.90878886 -0.21468228 0.26095936 0.5681669 0.37211424
0.47335285 -0.39847484 -0.65702116 0.38053498 1.277615 0.66187996 0.28972542 -0.041807383
0.42622322 1.060443 1.0944078 -0.20787075 0.6756481 -0.048270915 0.1264667 1.331365
0.9246559 0.019083198 -0.09173636 0.44575286 0.93152815 -0.13837571 -0.807216 0.6904887
-0.29491255 0.53913665 -0.6124272 0.8644709 -0.13763213 -0.007839503 0.4734818 0.14459205
0.45076174 0.3267092 0.39394662 -0.92533433 0.5184343 0.5364521 0.34143215 0.58216536
0.94614726 0.5698607 0.4588686 -0.21544653 1.0061792 0.58184785 0.7855415 -0.22985506
0.28911722 0.3172998 0.45937037 0.094420865 -0.6448938 -0.22335953 0.8097705 0.43205017
0.50527996 -0.53213793 -0.28331837 0.54515177 0.32585487 -0.055123273 -0.13050038 0.53249097
-0.63629913 -0.9243058 -0.4287276 -0.7113442 -0.5380955 -0.52391803 -0.5738582 -0.65226936
0.2612037 -0.82913834 -0.77851284 -0.47520313 -0.38337263 -0.5502632 -0.111684844 -0.07197772
-0.41598782 -0.60818183 -0.46117866 -0.61929065 -0.6040021 -0.5609146 -0.26548466 -0.058509964
-0.3366756 -0.38154617 0.57910657 -0.2200624 0.5894388 0.60625464 -0.4029479 -0.8211363
-0.6536858 -0.06816286 0.28785422 -0.6140614 0.1542649 -0.5656256 -0.51878107 -0.09697787
-0.38929608 -0.62440056 -0.636764 0.5259833 -0.27199316 0.28925404 -0.72965807 -0.21634692
-0.32461 -0.5916349 -0.4952652 -0.71761405 -0.42374077 -0.6300124 -0.6219886 0.2840778
-0.15690307 -0.3073762 -0.10307858 -0.6492242 -0.38995248 -0.38468304 -0.7724152 -0.8185184
-0.5609002 0.67813283 0.5028023 -0.68565416 -0.41512156 -0.35072201 -0.4657351 -0.5226831
-0.45594847 -0.7606513 -0.7477356 -0.047012277 -0.51766616 0.2877362 0.40791407 -0.5550282
-0.33222806 -0.6131485 -0.6627564 -0.21460824 -0.36613834 -0.34022263 0.718431 -0.7205008
0.34766433 -0.3027012 0.12650007 -0.59002286 -0.26015046 0.17528726 0.25393605 -0.44959742
-0.44545546 -0.28866127 -0.35048592 0.58538795 -0.4391487 0.09421207 -0.6704033 0.031847525
-0.5363811 -0.6613151 -0.7167109 -0.260802 -0.5268096 -0.47365734 -0.5062641 0.33018893
-0.6289324 -0.5647622 -0.64324635 -0.58141094 0.6124306 -0.5337301 -0.5231374 -0.88512075
-0.39286315 0.47801992 -0.23291813 -0.5567291 -0.13256192 -0.22517475 0.23387925 -0.30698267

lstm.bias_hh_l0 f4 [512]
00000000: c076 66be 4058 653f 2b65 9e3e 4089 823f
00000010: d2c9 1e3f 02cf d43a b75f 813e 36ae 4d3e
00000020: c283 34bf e514 c73e 5b47 5c3f ef64 6e3f
00000030: 6cea 813f bb55 0e3e ce3a 323f a69e 10bd
00000040: 5793 003f 6178 263f ac32 ab3e b120 fd3e
00000050: 02eb 2e3f e8f0 fb3e 3463 fd3e 2748 c13e
00000060: 8f05 c23e 194c 88be 7124 68be accd b6be
00000070: 94bb 24bf fd7b 25bf d66b 09be c129 093f
00000080: c523 9c3e 708e f1be 498f 40bd ea98 fb3e
00000090: a831 1a3f 309f c63d 9c11 b33d b173 4bbe
000000a0: 0287 0abd 6306 123e 7a8f 0f3f 7a7c bdbe
000000b0: 0b19 ad3e 0420 843f 99d9 f73e 8eab cd3d
000000c0: 1086 263f 28a4 ce3d 9a2d 573f 9951 223f
000000d0: fd74 833d ce07 513f a4e8 e13d 4524 a2be
000000e0: 0aad 4cbd 47ac 383f 3651 e03d a861 7e3f
000000f0: ea03 08be 254d 893e 9555 0b3f b912 603e
00000100: 20f5 073f 05a7 c4be 0d96 30bf 1e53 763e
00000110: fc7d 943f 722f 373f e183 6d3e 3fe0 8d3c
00000120: bc76 0b3f ed7d 803f 1f61 913f 988d a6be
00000130: e856 2b3f 1453 12be 36ee 863c 803e b13f
00000140: 119b 6b3f a433 303c ce86 3fbe eee1 f83e
00000150: 3150 7d3f a0ac 38be f649 3bbf adbb 3c3f
00000160: c6b6 8ebe 133e 133f 6329 3cbf a2d8 5f3f
00000170: 3425 1abe 07d2 1abd 3558 f23e 90c3 1a3e
00000180: 7dce ca3e 9c6c 8d3e 19b3 093f 8fe9 6dbf
00000190: c239 db3e 55ec d03e 7c8e b83e f8f3 183f
000001a0: c6dd 603f a773 0a3f 1206 df3e 00db 13be
000001b0: f3f1 623f f25e 153f e3cb 583f abfb c3bd
000001c0: 2cb3 573e 79a4 b13e c3f4 d43e 1193 d23d
000001d0: a424 34bf be2a 73be 2db1 5d3f d1f9 013f
000001e0: 5ee5 fb3e baac 04bf 8622 88be 4f06 d93e
000001f0: dbba 693e 6515 98bc 2ee4 6bbd 6626 e33e
00000200: 2d96 14bf 32fc 69bf 6401 f9be a1b3 35bf
00000210: 7733 ebbe 144f 03bf 191b 20bf 7088 0abf
00000220: 8786 8d3e df9f 51bf d39e 2abf 3210 0bbf
00000230: 0065 bebe 6f70 0fbf 0640 13be 4583 663d
00000240: b348 f5be f19e 14bf 57d6 19bf 3492 12bf
00000250: 059f 07bf 293c f8be 5691 06be 7ad1 55bc
00000260: d70b 95be 5335 92be 7270 0c3f b0b9 58be
00000270: 2e82 0e3f ae3d 243f 220e b1be e173 71bf
00000280: f994 29bf cb95 35be 2165 953e 9eb3 18bf
00000290: b7d7 ef3c 182b 2bbf f5bb edbe 8de4 43be
000002a0: fc04 07bf 8267 07bf a578 3abf 9d74 1b3f
000002b0: ba9e 73be 1b56 5f3e 8e06 4fbf 6125 30be
000002c0: bf84 87be 0800 2cbf 28a3 28bf 6115 32bf
000002d0: 9c65 cabe 3a80 09bf a7c2 04bf 0c59 b93e
000002e0: cc42 d7bd 1e52 a1be 31eb 18be 1411 39bf
000002f0: 0b26 0abf ab64 01bf 6510 52bf 097e 5dbf
00000300: b7c2 01bf f6aa 273f 72cb e33e c92e 24bf
00000310: fed1 fdbe 4ad0 a4be 1c73 dbbe 01e4 f8be
00000320: 710b f5be 8566 44bf aa7c 4bbf 98ba 27be
00000330: 3df3 03bf 6980 223e 1118 cf3e 8cfe 14bf
00000340: a341 96be 7e80 24bf b8bc 23bf 9510 39be
00000350: 38f5 9cbe fd0d 5dbe 1b44 183f 4903 35bf
00000360: 81c3 7c3e 2072 99be 9c9f 7e3e 0514 21bf
00000370: a78d e1bd e5a5 1a3e c5e5 033e f74a 02bf
00000380: bcac a7be 62ae bbbe 8d76 70be 7ad0 053f
00000390: 193b bbbe 91ff 5e3e f417 1bbf bcef 373e
000003a0: 1d0c 17bf 501f 10bf 1d03 1abf 0db5 87be
000003b0: 9646 2ebf c955 c1be 64b6 01bf d5ad dc3e
000003c0: 005d 3cbf 62c4 25bf 1018 34bf 53aa febe
000003d0: e0c5 163f 84c4 16bf 02f3 15bf 7b49 63bf
000003e0: 34ce c3be 5317 ff3e 977d 52be 0448 28bf
000003f0: c2ba 61be a9c8 22be ce85 843e 6a9e 7cbe
-0.22506237 0.89587784 0.3093656 1.0198135 0.62026703 0.001623601 0.25268337 0.20085987
-0.70513546 0.3888313 0.8604638 0.9312276 1.0149665 0.13899891 0.6962098 -0.03530755
0.5022482 0.65027434 0.33437097 0.49439004 0.68327343 0.49207234 0.49489748 0.3775036
0.37894866 -0.26620558 -0.22670151 -0.3570379 -0.6434872 -0.64642316 -0.13420042 0.53579336
0.3049604 -0.47178984 -0.047011647 0.49140102 0.6023202 0.09698331 0.08743593 -0.19868352
-0.03382016 0.14260249 0.560783 -0.3700903 0.3380817 1.032227 0.484082 0.10042487
0.65048313 0.10089904 0.8405396 0.6340576 0.06418798 0.81652534 0.11030701 -0.31668296
-0.04996971 0.72137874 0.1095299 0.9936776 -0.13282743 0.2681667 0.5442746 0.21882142
0.53108406 -0.38408676 -0.6897896 0.24055144 1.1600947 0.7155677 0.23194839 0.017318843
0.5447805 1.003843 1.1357764 -0.32529902 0.66929483 -0.14289504 0.01647101 1.3847198
0.9203349 0.0107545 -0.18703768 0.4860987 0.9895049 -0.18034601 -0.7315973 0.7372387
-0.2787382 0.5751659 -0.7350065 0.8743993 -0.15053254 -0.037797954 0.47332922 0.15113664
0.39610663 0.27621925 0.53788906 -0.9293451 0.42817503 0.40805307 0.36046207 0.59747267
0.878384 0.5408272 0.4355932 -0.1443901 0.88650435 0.58348 0.84686106 -0.09569486
0.21064442 0.34695795 0.41592988 0.10281957 -0.7036841 -0.23746774 0.86598474 0.50771815
0.4919843 -0.5182606 -0.2658884 0.42387626 0.22825186 -0.01856489 -0.057590656 0.44365233
-0.5804165 -0.91400445 -0.48633873 -0.70977217 -0.45937702 -0.5129254 -0.6254135 -0.5411444
0.276417 -0.8188457 -0.66648597 -0.5432159 -0.37186432 -0.56030935 -0.14379892 0.056277532
-0.47907028 -0.58055025 -0.6009268 -0.5725434 -0.5297702 -0.484834 -0.13141379 -0.013050431
-0.29110596 -0.28556308 0.5485908 -0.21164584 0.5566739 0.64156616 -0.34581095 -0.9431744
-0.6624294 -0.17732923 0.29178718 -0.59649074 0.029277666 -0.6686263 -0.46432462 -0.19130154
-0.5274198 -0.52892315 -0.7284034 0.6072481 -0.23791018 0.2181019 -0.80869377 -0.17201759
-0.26468465 -0.6718755 -0.65873957 -0.6956387 -0.39530647 -0.53711283 -0.51859516 0.3620075
-0.10510787 -0.31507963 -0.14933468 -0.72291684 -0.539643 -0.5054423 -0.82056266 -0.8652044
-0.50687736 0.6549524 0.44491154 -0.6413389 -0.49574274 -0.32190162 -0.4286126 -0.48611453
-0.47860292 -0.7671893 -0.794871 -0.16379774 -0.5154303 0.15869297 0.4044805 -0.5820091
-0.29346952 -0.64258564 -0.63959837 -0.18072732 -0.30655837 -0.21587367 0.5947892 -0.7070814
0.24683954 -0.29969883 0.24865574 -0.6292117 -0.11013346 0.15102346 0.12880619 -0.5089564
-0.32748973 -0.3665648 -0.23482724 0.52271235 -0.36568525 0.21777178 -0.60583425 0.17962545
-0.5900286 -0.5629778 -0.60161 -0.26505318 -0.68076456 -0.3776076 -0.5066893 0.43101373
-0.73579407 -0.6475278 -0.70349216 -0.49739322 0.58895683 -0.5889361 -0.58573925 -0.88784
-0.38243258 0.49822482 -0.20555721 -0.6573489 -0.22043899 -0.15896858 0.25883335 -0.24669805

lstm.weight_ih_l1 f4 [512, 128]
00000000: 1a52 cabd 65c1 21bf 3525 d4be 412b 04bf
00000010: a330 f83c 945f 09be 8417 70be 08fc 113f
00000020: b435 a7be 869a 57be d2a6 eb3e c0a5 533e
00000030: 5dd1 16be 3ac5 013e 11d3 edbd fc98 8dbe
00000040: 8355 fa3d a826 373e d6c6 92be a02f 97bc
00000050: 92c8 d63d a39e 483e 1c3e 11be ac91 8c3e
00000060: eab7 febd eb4a 4e3d 9a39 56be a9d1 a93f
00000070: 401c 803e e0e7 b4bd bd76 26be 0ab9 b9be
00000080: 16f0 0fbf 8ea5 bb3d 69b7 a63e 5faf a23e
00000090: 622f ddbc 2fb8 6cbc 1a9b 4a3d fa52 223f
000000a0: 40c7 26bf d918 adbe d7b8 9dbe a159 b6bd
000000b0: 57ba acbd 1653 e83e 698f ad3e 8f26 0dbe
000000c0: 3155 48bf 489d 55bf 447e 56bd 371a ddbe
000000d0: e1b6 b53e 2376 293f 4184 413e c40b 00bd
000000e0: 3da0 7d3e ea1d 09bf 8bbb abbe 1257 6c3d
000000f0: a5db 10be 298e 04bf a89f ad3e 24da 75be
00000100: 4068 ad3e 1077 7ebd f030 283e ca65 a5be
00000110: 62de d3be 27d8 69bc 4409 bcbe a280 1ebe
00000120: 8c55 9e3e dd8e 97be d0ed b0bd 3d93 8a3d
00000130: e2af 3abf 20ef 12bf 09e8 7f3e 8377 653e
00000140: 6521 59be 05c5 d3be b585 a23c 0ea6 31be
00000150: 9927 09bf 8721 923e ecc2 06bf 3ca4 493c
00000160: 7a09 113f 8590 2bbf 0f2f c13e f30b c1bd
00000170: 796b bdbe 41e6 033f 36f7 91be 5244 82be
00000180: ff40 c53d 5529 5c3d 17d1 39be 1b21 0ebf
00000190: 2380 913e 8358 99bd c121 553e ae47 b2bd
000001a0: e84e 513f 0b56 2b3f 83f4 b0be c3b6 03bf
000001b0: 5186 0e3f 0cd3 81be a24e fa3e 4ce2 af3e
000001c0: 6199 1c3f c468 94bf da03 903d 1f5a 3e3e
000001d0: a55b 7b3f 3b04 223e 527a f33d 48ca 9bbd
000001e0: 413b 19bf 63c8 0e3b 2d66 a23e 7103 7d3d
000001f0: 2550 8c3e d441 bd3d 2d82 8abe 511a e33d
00000200: 0d62 ffbe 6c74 abbe 48a7 92bf e557 063f
00000210: 7b5b f0be ebdd f23e 949c 6ebe 239a e1be
00000220: 84dc 4fbe 4a88 523f 9325 89bf c70f 403e
00000230: 0347 083c 08d9 d3be baa6 fabe 551b dabe
00000240: 5860 983e 74fb a33d 875f fdbe 198d 87be
00000250: e0e6 1f3d a2d2 aebf 8d96 723e 3eaa 233e
00000260: 5249 a0bd 084e 0bbf 0982 1a3e 9cf6 9c3e
00000270: b77d e83e 8afa e8be 1d54 a63e a13f f73e
00000280: 7a0e 5c3e f2c5 1fbe 4c3d 7fbe 09a9 f9be
00000290: dc1d 2abf 6c92 bd3e 3117 5a3f f587 cb3e
000002a0: 592b 0dbd c911 19be cbf2 3bbf 83ab e2be
000002b0: ffa9 a63d 6db4 e73e 3222 dcbe ee9a f8be
000002c0: 83d9 0abe 7f50 15bd efb7 95be b34c 15be
000002d0: 534b bfbe 25a9 7b3f b287 babd 2069 3bbe
000002e0: 4771 353d 33c5 d7be 711b f13e 8afa 5b3d
000002f0: c373 013f d418 75bf d208 81be e4ff d6be
00000300: 95ac dabe efe5 16bf b9c9 2cbe 5eda d93e
00000310: 97ec 243f ccbb ccbd 68c8 ddbe ab84 583f
00000320: 6394 e5be 87b0 2fbe e958 c7be 201e 403e
00000330: a21c 99bf be81 9dbe 302d 123f 17ad 183f
00000340: a71f e0be b1b5 50be dd88 97be 817f 0b3f
00000350: 435c 14bf fd71 0ebe 2edb 0bbf e53c b33e
00000360: c282 7c3d 7c07 a63e dca7 423e 121f 603b
00000370: 1057 0abf aee1 aa3e eebf d6be 189f 00be
00000380: 8bb9 843e 51fc 413e 5c6a 3cbe c97f 83be
00000390: 858d 493f 6a73 013e 9040 c9be a4d8 49bf
000003a0: 6091 ad3e f463 67bf 0ba0 0fbf c9fc 39bf
000003b0: e8a9 c3bf dd61 2e3f 806b efbd e009 63be
000003c0: a9f9 1f3f 0b11 a5be 5d4d 2a3f e713 a93e
000003d0: 85a2 a33e c5e4 b5be 9235 123f 63aa 66be
000003e0: 075f 19c0 9c4b 9ebd 770c 22bf 57ba f33e
000003f0: 44b4 e0be 8dff 09bc 3308 743e 6bcf 7bbf
-0.09878941 -0.6318572 -0.41434637 -0.516285 0.03029663 -0.13415366 -0.2344647 0.57025194
-0.3265816 -0.2105504 0.4602571 0.20668697 -0.14728303 0.12672892 -0.11612523 -0.2765578
0.12223341 0.1788584 -0.28667325 -0.018455327 0.104874745 0.19591765 -0.14183849 0.2745489
-0.124374226 0.050364416 -0.20920411 1.3267108 0.25021553 -0.08833289 -0.16256233 -0.36273986
-0.5622572 0.091624364 0.32561806 0.31774423 -0.027000133 -0.01444821 0.049464323 0.6340786
-0.6514778 -0.3380802 -0.30805084 -0.08903814 -0.08433979 0.4537589 0.33898476 -0.1378424
-0.7825499 -0.8344312 -0.05236651 -0.43184063 0.35491088 0.6619589 0.18898107 -0.03126122
0.24768157 -0.5356127 -0.3354152 0.057700224 -0.14146288 -0.5177942 0.3391087 -0.24008995
0.338686 -0.062125266 0.16424918 -0.3230422 -0.41380602 -0.014272726 -0.3672582 -0.15478757
0.30924642 -0.29601184 -0.08639109 0.06766365 -0.72924626 -0.57396126 0.24990858 0.22408871
-0.21204145 -0.4136125 0.019839147 -0.17348501 -0.53576046 0.28541204 -0.5264118 0.012307223
0.56655085 -0.67017394 0.37731215 -0.09426107 -0.36996058 0.51523215 -0.2850892 -0.2544275
0.09631538 0.053750355 -0.18146168 -0.55519265 0.28418073 -0.074875854 0.20813657 -0.08705078
0.81761026 0.66928166 -0.34561548 -0.5145075 0.556737 -0.25356328 0.48888117 0.34352338
0.6117154 -1.1594472 0.070319846 0.18589066 0.98186713 0.15821926 0.11888565 -0.076069415
-0.5985604 0.002178692 0.3171858 0.06177086 0.27404895 0.09241071 -0.2705244 0.11089004
-0.49879494 -0.3348726 -1.14573 0.52477866 -0.46944794 0.47434935 -0.23301917 -0.4406291
-0.20298964 0.8223921 -1.0714592 0.18756019 0.008317712 -0.4137652 -0.48955327 -0.42598978
0.29761004 0.08006945 -0.49486944 -0.26474836 0.03903854 -1.365803 0.23690243 0.15982911
-0.07826485 -0.5441594 0.15088667 0.30656898 0.45408413 -0.45503646 0.32486048 0.48290733
0.21489897 -0.15602854 -0.24925727 -0.48761776 -0.6645181 0.37025774 0.8519164 0.39752164
-0.034465168 -0.14948191 -0.7341735 -0.44271478 0.08137893 0.4525484 -0.4299484 -0.48555702
-0.13559537 -0.03645372 -0.29241893 -0.1458004 -0.37362155 0.9830497 -0.09107913 -0.18301821
0.044297483 -0.4214264 0.4709125 0.05370573 0.50567263 -0.9574101 -0.25202042 -0.41992104
-0.42709795 -0.589446 -0.16873826 0.42549413 0.6442351 -0.09996757 -0.4331696 0.84577435
-0.44839773 -0.17157184 -0.3893502 0.18761492 -1.1961863 -0.30763048 0.571002 0.59639114
-0.4377415 -0.2038181 -0.29596606 0.5449143 -0.5795328 -0.1391067 -0.54631317 0.35007396
0.061648138 0.32427585 0.19009346 0.0034198207 -0.54039097 0.33375305 -0.41943306 -0.1256069
0.25922808 0.18943907 -0.18399948 -0.2568343 0.78731567 0.12641683 -0.3930707 -0.7884619
0.33899975 -0.9038689 -0.5610358 -0.72651345 -1.5286226 0.6811808 -0.11690426 -0.22171736
0.62490326 -0.32239565 0.66524297 0.33022997 0.3195993 -0.355261 0.5711299 -0.22525935
-2.396425 -0.07729265 -0.6330027 0.47603104 -0.43887532 -0.008422744 0.23831253 -0.9836337

lstm.weight_hh_l1 f4 [512, 128]
00000000: 9207 8e3e 7125 6f3d ce9b ecbe 6790 ebbe
00000010: 0359 e7bd 8c6b c6bb 3814 473d 0525 ea3d
00000020: 09c4 95be ef8d 9ebd 1e86 1e3e 0a27 263e
00000030: 7459 f23d a368 37be dd19 063e 8d8c a83e
00000040: 367d cebe 9a7f 593e f0f6 353e 7cd8 15be
00000050: 5553 e5bd 4de5 b4be a8c8 193f d4b3 873e
00000060: 88d4 943d 72e5 d73d 1bfa ad3e 4b57 683e
00000070: a833 e03d 78b4 1d3f d4e4 4b3e c3ec 53be
00000080: c17e f2bd 77ec d5bc 521b 56be 3dc9 81be
00000090: 8da9 263e 689e 72bc 7aa7 46bc 0136 73be
000000a0: 98d5 82be 4465 e5bd 5788 993d 294d 18be
000000b0: e579 ab3d ba9c aabc 0477 22bd cf45 55be
000000c0: 2a30 cfbe 8fed 843c 2df8 fb3d 2864 88bc
000000d0: 0299 073e 9d73 8d3d 145e 7b3d ed0c a43d
000000e0: 248f 7cbe 1aae 203d 07e2 803e 2b4e 40bd
000000f0: 72ad d63e fbd2 8bbe 3108 3fbf 562d ffbe
00000100: 1ce7 17bd dc21 38be f36f 8dbd 3278 2f3e
00000110: 000f 9bbd 3536 fc3d 7b81 8f3e 0a51 97be
00000120: 5e26 31be 3917 b0bd f3db 713e 7792 03be
00000130: af01 5fbe 3433 ee3e cee0 6bbd d053 bfbd
00000140: 6833 b5be f96b 5fbe 8983 073e 2d69 453e
00000150: db9f 04bf 264e 73be a259 983e 4a4a 8fbe
00000160: dd65 bb3e 3adc 6d3e 5fdf c1bc 32f7 b43d
00000170: 1741 45be 73dd 193d 91c6 f7bd fcb0 1c3e
00000180: e9dd 813d 89df b93e 8fbd 433e bd78 56be
00000190: d4c1 973e dd07 d5bd 3c15 123f ede0 c1bd
000001a0: 4ade b13e 4814 6d3d 18b3 07be 27c6 7e3e
000001b0: 1c52 033e d1e2 11be a67a d73d 3ad9 f43d
000001c0: 24c9 783d 2364 47be e16f 683e bea1 933e
000001d0: df2e b2be 013b 163c 36ea 21be c2ef 333e
000001e0: 4417 f1be 1b29 a9be 1fa3 b23e b830 02be
000001f0: c509 c13d ca4e 9a3e 1220 613e 43d0 86be
00000200: 53d6 c4be d020 98be 7bc5 5e3f 769a e63e
00000210: 1e8e f3bd 3597 903e 77ed 30be 266f b4bd
00000220: 78e7 a1bc aee4 9abe f9aa 0ebd 00a1 133f
00000230: d01b acbd e042 423e 223b 203f b7f2 bc3d
00000240: 121c c4be 0ee2 c43e e0b1 06bf fa79 bb3e
00000250: 7f49 653e a568 b1bc eeb9 babe 3cab 19bf
00000260: f4df b63e 4334 1f3f 303b 94bd e01b 27bf
00000270: 0694 273f b70b 583e 7725 a83e 7b5e 9a3e
00000280: aba2 b03e aade bf3e ef87 ac3e 91f0 ec3d
00000290: b9b1 7bbd 3bca b4be be04 103e fb85 b73c
000002a0: b662 1f3e 3951 443f c3da 90be a55c debc
000002b0: 472e 943e 5345 c8be a403 dabe c9f0 09bd
000002c0: 969c 263e a156 f6bd a5e3 903d a08c f9be
000002d0: d263 b13e 458b c4be 8160 48bf be78 e63e
000002e0: 8f12 e53d c496 73be 439f 123d cbde 003f
000002f0: d84f 66bd 786c 98bd ea36 b7bd 579a 8abe
00000300: 1440 313e e62c b73e 9ea4 1cbf 76f8 983e
00000310: 2cbf d6be 62aa cd3d d0a0 15bf dfe6 d6bd
00000320: bd82 4cbe b350 b2be 8e73 aebe dd34 d4be
00000330: f725 b93e bc6e aa3e 6c60 d8bd b09e 2abe
00000340: 8894 4ebf 18c2 e1be 8b4d 013f 1857 1dbf
00000350: e327 413e d8b8 62bf 2383 573f 63e4 ccbe
00000360: 47ea 4abe 0fa4 bfbe 753c d2bc fef9 6abd
00000370: 5800 963e ae19 57bf c44e 1cbe 36d4 21be
00000380: 4676 c03e 47e7 c53e daae f63d 43e3 f8be
00000390: 3b9d 0e3e 51c1 67be edb3 d63c 170a 603e
000003a0: 35d4 20bf fa8b 9bbe 8a9f 593e 5bbf 093e
000003b0: 8873 d0be 8e78 01be e142 703f ee65 8e3e
000003c0: 8965 f2bd e40f d23c edbd a63d a5d7 7dbe
000003d0: 3ad2 193c dde7 313f 40cf 183f 8e8a 3c3f
000003e0: 7432 d8bd 5e77 a9be f298 003d 7a4c b43e
000003f0: 0eae eebd 735c f4bd cff0 ee3d b6f2 c53f
0.2774015 0.058385316 -0.4621262 -0.46008608 -0.112962745 -0.006055301 0.048603266 0.11432842
-0.29251125 -0.077419154 0.15480849 0.1622583 0.11833468 -0.1791101 0.13095804 0.32919732
-0.40329903 0.21240082 0.1776998 -0.14633363 -0.11197535 -0.35331193 0.600718 0.26504385
0.072670996 0.1054181 0.33979878 0.2268955 0.10947353 0.616035 0.1991151 -0.20695786
-0.11840583 -0.026113732 -0.2090886 -0.25348845 0.16275616 -0.014808275 -0.01212489 -0.2375107
-0.25553584 -0.112009555 0.07496708 -0.14873184 0.08372859 -0.020826686 -0.039664283 -0.20827411
-0.40466434 0.016226558 0.12303195 -0.01664932 0.13241962 0.06906817 0.061369017 0.08010278
-0.24663979 0.039228536 0.25172445 -0.046949547 0.41929203 -0.27309403 -0.74621874 -0.49839276
-0.037085637 -0.17981666 -0.06906118 0.17135695 -0.075712204 0.12315027 0.28028473 -0.29554015
-0.17299792 -0.08598179 0.2361906 -0.1284884 -0.21777986 0.4652344 -0.057587437 -0.09342158
-0.35390782 -0.21818532 0.1323377 0.19278403 -0.5180642 -0.2376028 0.29755884 -0.27986366
0.36601153 0.23228541 -0.023666082 0.08836211 -0.19263111 0.037564706 -0.120984204 0.15301889
0.06341154 0.36303356 0.1911528 -0.20944495 0.29640067 -0.104018904 0.5706365 -0.09466729
0.34739906 0.05788067 -0.13251913 0.24880277 0.12824291 -0.1424668 0.1052144 0.11955495
0.060738698 -0.19471793 0.22698928 0.28834337 -0.34801385 0.009169341 -0.15812 0.17571929
-0.47088063 -0.33039173 0.34890077 -0.12713897 0.094256915 0.30138236 0.2198489 -0.26330766
-0.38444766 -0.29712534 0.8702008 0.4503972 -0.11892341 0.28240362 -0.17278086 -0.088102624
-0.019763693 -0.30252594 -0.03483102 0.5766754 -0.08403742 0.18970823 0.6259023 0.09225982
-0.38302666 0.38453716 -0.52615166 0.36616498 0.22391318 -0.021656344 -0.36469978 -0.6002691
0.35717738 0.6218912 -0.072378516 -0.6527691 0.6546024 0.21098219 0.32841083 0.30150208
0.34499106 0.37474567 0.3369746 0.11569322 -0.061448786 -0.3531054 0.14064309 0.022402754
0.15564999 0.76686436 -0.28291902 -0.027143786 0.28941557 -0.3911539 -0.42580903 -0.033676896
0.1627067 -0.12028242 0.0707467 -0.487401 0.3464647 -0.38387504 -0.78272253 0.45013994
0.111851804 -0.23787981 0.035796415 0.50339955 -0.05622849 -0.07442564 -0.08946021 -0.27070877
0.173096 0.35776442 -0.61188686 0.2987706 -0.41942728 0.100422636 -0.58448505 -0.10493254
-0.19971748 -0.34827194 -0.34072536 -0.4144658 0.36161777 0.3328761 -0.10565266 -0.16662097
-0.8069539 -0.44093394 0.50508946 -0.6146102 0.18862872 -0.885633 0.84184474 -0.40017995
-0.19815932 -0.37429854 -0.025663594 -0.057367317 0.29297137 -0.8402356 -0.15264422 -0.15803608
0.37590235 0.38653013 0.12045069 -0.48610887 0.13927166 -0.22632338 0.026208842 0.21878849
-0.628238 -0.3038023 0.21252266 0.13451903 -0.40713143 -0.12643644 0.9385205 0.2781214
-0.118357725 0.025642343 0.08141694 -0.24789293 0.009388501 0.6949442 0.5969124 0.7364892
-0.10556498 -0.33098882 0.03139586 0.35214597 -0.11654292 -0.11931696 0.11667024 1.5464694

lstm.bias_ih_l1 f4 [512]
00000000: ae88 1f3e 8545 c23e 32ea 223e 165d 973e
00000010: 6d1b 373e 1f95 dd3e 16a1 d83e 9c83 85bd
00000020: 5d52 6b3e 6def b03e 6d20 fa3e ca8c 0c3f
00000030: 0dc7 98bd a48f 053f 60de 5d3e c9d1 a83e
00000040: d510 813e 668c 683e 5acc c33e ef1e 203f
00000050: c511 013f 57bf 713e 0a82 5b3e 2168 403e
00000060: d243 ba3e 422c 093f 125d e53e 97f1 88be
00000070: 2767 82be 760a b53d 82e8 e43c 5cc9 f43e
00000080: dff2 793e 071a cc3e 0c1e 353f 80df f93d
00000090: 4825 933e 9abc b43e 1b42 de3d 5c75 453e
000000a0: 9c3d 803e 89c2 ed3d 5c61 30be 8b4c 393e
000000b0: 005f 2a3d de11 073e 103b 02bb 8a32 e4bd
000000c0: c70a 203e e2b5 a6bc 9cf5 fb3e ce4e 0ebe
000000d0: 323f c93e 81cc 7bbd ca1d c83e b31c 003f
000000e0: c14a c93e 06ed d3bc 420c b73e 7461 f63e
000000f0: 0ab5 183f f7d4 8d3e 6708 edbc df6f 293f
00000100: b6a5 41bd 07ce 933d efec 973c 14d0 963e
00000110: 7003 e13e 3c92 073d ef6c cb3e 42b4 113e
00000120: e51e 7c3e 4881 8e3d 5eab 253e 2f98 0f3e
00000130: 8ac6 7e3e 145f 7c3e 2424 c23d 1289 e93e
00000140: 6d4f cfbe a8eb 1a3e f2e1 c53e ec7d b43d
00000150: eb04 2b3b 22f0 053f 86d1 9dbe a9d3 1d3d
00000160: 050e 27bd ca99 cc3d dd68 0a3e 36bb 6d3e
00000170: 8a22 b23d 4825 a63e 4fce e73e 8931 d03d
00000180: c4d4 a63d 8e5f 953e 80e9 af3e 5cf9 1f3d
00000190: a5b3 153f c38b 83bd 4d68 223f d933 b93e
000001a0: 2952 343e a505 713d f6de b63e c88a 153f
000001b0: 135e c73e 3574 a53d 9bd5 3fbe e4df 0b3f
000001c0: b64b c53e 2283 bd3e 7398 fd3e 3aa6 703d
000001d0: fb73 843d 03a8 443e 644b 8a3e ae2f 063e
000001e0: 7b2d 343e 94d7 d53e 77fc bb3d 795f 2c3e
000001f0: cea9 e43e 195e 993d 52dd 9f3c 9539 f33d
00000200: 033b 62bd 4814 09bd 0185 5e3e 14d0 63be
00000210: eaac c4bd 597c d5be a3c5 99be 70fb 593d
00000220: ffd0 543d 9bdf 53bd 4f91 73bd f2fe a1be
00000230: 4151 d03d 32cb 5fbd a115 0dbb fe66 1bbe
00000240: 5e22 c4be cd9d 39be 1cb1 d1be dd43 88be
00000250: dbfe a2be d0bb ff3d 06d4 0b3d 8b31 bfbd
00000260: 91d8 0f3e e112 c7be b8f3 9c3c 8e7b 113e
00000270: bae3 983e 2ae3 46be a6cd 6c3d 9175 acbe
00000280: 8c01 b0bd ac86 43be c10f 1f3d 58d5 1ebe
00000290: 3d5c 0e3e 98dd 9abe ae38 0dbe 441b 593e
000002a0: 420a 0d3e afd1 c93d e376 203d 2e96 b1bd
000002b0: 23d1 2b3e 369a 19be 78a1 7abd 4dfb ec3d
000002c0: c0b4 e73d 81b6 0f3e 120a aebe eca9 1e3e
000002d0: ccc4 46be 1020 18bd 4dc3 75be f740 04be
000002e0: 6d76 dabd 36de 30bc 35d3 c9bc 537a e8bd
000002f0: b326 11be d705 40be 62ac 4b3e 8f1a 02be
00000300: 83c6 95bd f008 8c3d 07c1 c8bc 0b17 61bb
00000310: 70ab 3dbe eecb 9cbd 666d 59be 4888 e13d
00000320: 509a 04be 7578 afbe f753 8bbe aad0 60be
00000330: 9e4b 84be e111 27be 626d 683d c814 253e
00000340: 5db4 093e a606 e6bd 2ec3 5c3d dc4f ccbd
00000350: 93ef 26bc 72aa d1be 6ae4 493e 6694 2cbc
00000360: e70a 2a3d 5c02 373e 8849 86bd fb59 d1bc
00000370: 4d75 6a3e ff6e 6cbe b23b 1bbd 90e7 503e
00000380: f0a6 87be c548 4bbe 4309 88bd d134 91be
00000390: 8c65 a5be 9cf0 09be 5c21 87be 8a19 25be
000003a0: 79cd 923d ae76 7fbd ee0e 69bd 8259 3dbe
000003b0: f47a a4be d1dd 04be 409e 943e 196b 17be
000003c0: f6c6 0fbd 458c d2bd 8563 42be d4c4 2bbe
000003d0: 203f 983e 08c5 7c3d af70 073c e4df 913d
000003e0: b1df f3bc 5bf6 ddbd 5ecc 843e 6d4f 7bbe
000003f0: cbe9 3cbd ca80 4a3e 4561 423d e975 9f3c
0.15579483 0.37943664 0.15909651 0.29563206 0.17881556 0.43277833 0.423104 -0.06519243
0.22980638 0.34557667 0.48852864 0.5490233 -0.07459841 0.52172303 0.2166686 0.32972553
0.25208154 0.22709808 0.38241845 0.625472 0.5041774 0.23608147 0.21436325 0.18789722
0.36379868 0.5358316 0.4479757 -0.26746818 -0.25469324 0.08839886 0.0279429 0.47809875
0.24409054 0.39863607 0.7074897 0.12200832 0.2873938 0.35300142 0.10852452 0.1928305
0.25047004 0.1160937 -0.1722464 0.18095605 0.041594505 0.1319041 -0.001987163 -0.11142452
0.15629111 -0.0203504 0.49210823 -0.13897249 0.39306027 -0.061474327 0.39085227 0.5004379
0.39314845 -0.025869858 0.3575154 0.48121226 0.59651244 0.27701542 -0.02893467 0.66186327
-0.047277175 0.07217031 0.018545596 0.29455626 0.43947935 0.033098444 0.39731547 0.14228919
0.2462116 0.06958252 0.16178653 0.14022897 0.24880424 0.24645644 0.094795495 0.4561239
-0.40490285 0.15128958 0.38648945 0.0881308 0.002609546 0.5231954 -0.30823916 0.038531933
-0.040784854 0.099902704 0.13516565 0.23215947 0.08697994 0.32450318 0.45274588 0.10165698
0.081460506 0.29174465 0.34357834 0.039056167 0.5847724 -0.06423142 0.634404 0.3617237
0.17609467 0.058843274 0.3571698 0.5841489 0.3893896 0.08078805 -0.18733828 0.54638505
0.38534325 0.3701411 0.49530372 0.058752276 0.06467434 0.19204716 0.27010643 0.13104126
0.17595474 0.41766036 0.09179013 0.16833295 0.446608 0.07488651 0.019514713 0.11876217
-0.05523206 -0.033466607 0.21730424 -0.22247344 -0.09603293 -0.41696432 -0.30033597 0.053218305
0.051957127 -0.05172692 -0.05946475 -0.3163982 0.10171748 -0.05463714 -0.0021527784 -0.15176007
-0.3830747 -0.18126602 -0.40955436 -0.26614276 -0.31835064 0.12486994 0.03413775 -0.093356214
0.14047457 -0.3888159 0.019159183 0.14207289 0.29861242 -0.19422594 0.05781331 -0.33683446
-0.08594045 -0.19094342 0.038833383 -0.15511072 0.13902374 -0.30247188 -0.13791153 0.21201807
0.13773444 0.09854447 0.03917588 -0.086712226 0.16778998 -0.15000233 -0.061189145 0.11571369
0.11313772 0.14034463 -0.33992058 0.15494508 -0.1941101 -0.037139952 -0.24000283 -0.12915407
-0.10667119 -0.010795167 -0.024636844 -0.113514565 -0.14174919 -0.18752228 0.19889978 -0.12705444
-0.07313254 0.06837642 -0.024506105 -0.003434601 -0.1852243 -0.07656084 -0.21233138 0.11012322
-0.1294949 -0.3427159 -0.27212498 -0.21954599 -0.2583894 -0.16315414 0.05674494 0.16121209
0.1344771 -0.11231737 0.053897075 -0.099761695 -0.010188955 -0.40950352 0.1971604 -0.010533428
0.041514304 0.17871994 -0.06556994 -0.025555601 0.22896309 -0.23089217 -0.037898727 0.20400834
-0.2649455 -0.19851978 -0.066423915 -0.28360608 -0.32304037 -0.13470691 -0.2639264 -0.16123024
0.07168097 -0.06236904 -0.056899004 -0.18491176 -0.32125056 -0.12975241 0.29026985 -0.14786948
-0.035101853 -0.102806605 -0.18983276 -0.16774303 0.2973566 0.06171134 0.008266612 0.07122782
-0.02976975 -0.10838004 0.2593717 -0.24542017 -0.0461214 0.19775692 0.047456045 0.019465404
