models/notelstm.model (torch, 416319 bytes, 7 tensors)

embedding.weight f4 [128, 32]
000000 40 d4 b0 bf 8e 49 f0 bf ab 71 53 3f dc c8 88 be
       -1.3814774 -1.8772447 0.8259532 -0.26715744
000010 64 45 f9 be 06 40 9b be ea 18 57 bd 4d 6b a6 be
       -0.48685753 -0.30322284 -0.052513994 -0.3250374
000020 59 0d 94 3f 1f 23 33 3f 96 83 b2 3e eb 82 e8 3e
       1.1566573 0.69975466 0.34866017 0.45412382
000030 67 8c 88 bd 80 ba 96 3e fa 0b 02 40 ac d2 5b bf
       -0.066674046 0.29439163 2.031981 -0.85868335
000040 0f 43 a5 3f c7 6c c1 bf 7e b7 46 bf c2 ac b1 bf
       1.291109 -1.5111321 -0.77623737 -1.3880847
000050 ca 9e 23 3f 00 d3 f7 bd 77 c8 a8 3f 56 56 9d be
       0.6391417 -0.12100792 1.3186177 -0.30729932
000060 d5 19 d3 bf 68 ed 7c be 89 4a 5b 3f 66 2f c8 3f
       -1.6492258 -0.24699938 0.85660607 1.5639465
000070 f5 88 48 bf 81 ed 8a 3f ea 30 b7 3f 43 92 c6 3f
       -0.7833398 1.085373 1.4311802 1.5513386
000080 3d 6a 19 bf b4 69 f7 be ba 0a 58 3f 7f 53 6a bd
       -0.5992773 -0.48322833 0.8439137 -0.057208534
000090 92 e0 d8 bf 0f 04 05 3f d5 d6 c0 bf 56 8f 90 bf
       -1.6943533 0.5195932 -1.5065562 -1.1293743
0000a0 04 3b 06 c0 aa 6e 11 bf 51 00 eb bf b1 22 79 bf
       -2.097352 -0.56809485 -1.8359472 -0.9731856
0000b0 3b 46 d7 3f 3e 86 08 3f 17 c7 18 3f a8 1e 7a bf
       1.6818308 0.5332984 0.59678787 -0.9770303
0000c0 c8 4d 99 3d 0c 69 ef 3f 98 1e da be ae 92 f1 3f
       0.07485539 1.8703933 -0.42601466 1.8872888
0000d0 38 f4 95 bf a5 a2 b2 3f b5 ed 6f 3f f8 d0 45 bf
       -1.1715155 1.3955885 0.9372209 -0.77271986
0000e0 a1 19 7a bf 6f cc 77 3e 0b 4f 2a be 41 33 33 3f
       -0.97695357 0.24199079 -0.16631715 0.7000008
0000f0 17 a5 1d bf db 6e 30 3f 78 2a 11 be 25 bb 8a bf
       -0.6158003 0.6891915 -0.14176357 -1.0838362
000100 68 62 93 3f 80 51 be be 4e 5b 89 3e 9c f2 a5 3d
       1.1514406 -0.37171555 0.26827472 0.08102915
000110 37 4b fb 3d 91 1c a8 3f 90 35 88 be f4 ea e8 bf
       0.122702055 1.3133718 -0.26603365 -1.8196702
000120 e1 63 34 be 64 a7 7b bf 9b 44 19 bf 4a b9 92 be
       -0.17616226 -0.9830229 -0.5987031 -0.2865699
000130 62 c7 9b bf 3a 12 61 3f b9 ea cc bf ad fa 37 40
       -1.2170222 0.87918437 -1.6009132 2.874675
000140 9d fb cc be 29 7a 25 3f 43 81 80 bf 54 6a 01 c0
       -0.40035716 0.64639527 -1.0039448 -2.0221148
000150 62 c4 91 bf bf cb a6 bd 1f e8 7a bf 59 3a 46 3d
       -1.1388056 -0.0814433 -0.9801044 0.04839549
000160 ae 5c f5 3e f6 39 16 bd 1f 4e f3 3d 97 86 98 bf
       0.4792227 -0.03667637 0.11880135 -1.1916074
000170 dd 78 af 3e fa c5 8b be 70 0b 54 be 93 59 f9 be
       0.342719 -0.27299482 -0.20707488 -0.48701152
000180 60 75 e6 bf cc 0c 6d 3d a8 f4 40 bd ec 24 c7 3f
       -1.800457 0.057873532 -0.047108322 1.5558143
000190 b5 5b 3f bf 37 a1 48 bf bb 7d 0c 3f 0d 60 30 bf
       -0.7474931 -0.78370994 0.5487935 -0.6889656
0001a0 35 43 82 3f d2 05 69 bf 4d da 9f bf d7 27 2e 3e
       1.017676 -0.91024506 -1.2488495 0.17007385
0001b0 32 68 a0 bf c5 3c 75 be d0 54 94 bf 62 35 ab 3f
       -1.2531798 -0.23948963 -1.1588383 1.3375666
0001c0 d5 b6 92 3e 53 ba 1c 3f a7 a8 b1 3e fb 45 9a be
       0.28655115 0.6122181 0.34698984 -0.30131516
0001d0 9f 20 d6 3f 14 f2 73 3f ef ce 97 3f 49 af 24 bf
       1.6728705 0.95291257 1.1860026 -0.64329964
0001e0 23 03 1b bf cf 54 7f bf 16 79 51 3f a0 5d 92 be
       -0.6055166 -0.9973878 0.8182539 -0.28587055
0001f0 b2 de 27 c0 75 74 03 bf 5e 08 19 3e ed bb 40 3f
       -2.6229672 -0.51349574 0.14944598 0.7528675
000200 6e 1b 0b bf 4e 8c f9 be 75 98 b5 be 76 7a 5d be
       -0.5433873 -0.48739856 -0.35467878 -0.21628746
000210 ae f3 87 3f 58 59 18 3f 36 b0 bd 3f 28 55 5f 3e
       1.062124 0.5951133 1.48194 0.21809828
000220 6b ba 1f bf 8f c2 3f 3f e1 ae 24 3f fc e7 b5 3e
       -0.62393826 0.7490625 0.64329344 0.35528553
000230 b8 cf a9 3d dc da b7 be 23 f0 43 3e 34 35 8e bf
       0.08291572 -0.35909164 0.19134574 -1.1109986
000240 64 cf 9a 3f 08 d6 e0 bd 59 85 6f 3f 94 08 f0 3e
       1.209454 -0.10978323 0.9356285 0.46881545
000250 74 e7 e8 bd 39 c9 bf bf 74 48 a6 bf 58 5d 08 c0
       -0.11372271 -1.4983283 -1.2990861 -2.1306973
000260 de 90 73 bf 25 05 90 3e c1 17 f0 3e eb 6b 9a bf
       -0.95142925 0.28128925 0.46893123 -1.2064184
000270 a2 cd aa 3e da 78 ed 3d 2c 75 b6 3e a8 f4 8d 3e
       0.3336001 0.11595316 0.3563627 0.2772572
000280 19 71 a0 bf 88 6a 1f c0 6f 1e db 3f c0 b8 5b be
       -1.2534515 -2.4908772 1.7118663 -0.21457195
000290 5e 3f ab 3c 57 af 58 be 9c 1d 21 bf 6c fa ae be
       0.02090424 -0.21160637 -0.62935805 -0.34175432
0002a0 ac 7f 0e bf b3 46 4f 3c fb 76 90 3f f6 86 8a be
       -0.5566356 0.012651133 1.128631 -0.27056092
0002b0 a1 6c 98 be 94 8c 98 bf be 83 20 3e 89 66 27 3f
       -0.29770377 -1.1917901 0.15675256 0.6539083
0002c0 3f 1e de be 7e cc 6a bf 1e 4b c5 bf 38 9d db 3f
       -0.4338245 -0.9171828 -1.5413549 1.7157354
0002d0 aa ca bc be cf b6 19 3e b2 8f a8 bf 66 16 db be
       -0.3687337 0.15011142 -1.3168852 -0.42790526
0002e0 e6 bd ce bf ef eb 83 3e 74 09 2d 3e 54 9c 6e 3d
       -1.6151702 0.2576594 0.16898137 0.058254555
0002f0 38 a1 e8 bf 43 2b 25 be 56 be 17 bf 16 d1 c1 3e
       -1.81742 -0.16129784 -0.59274805 0.37854832
000300 d3 54 69 bf 1d 32 3c 3f b8 57 5e 3f 0c f1 1b 40
       -0.91145056 0.73513967 0.868526 2.4365873
000310 97 17 97 3f 83 c2 19 bf 70 b4 94 3f 4b 7c 35 3f
       1.1804074 -0.60062426 1.1617565 0.7089278
000320 d7 cc d3 bf 05 45 09 3f cb 68 f5 3f 8a e0 a6 bd
       -1.6546887 0.5362094 1.9172605 -0.08148296
000330 64 60 a1 bf 0f 3a 1b 3f 91 70 42 3f 8a 68 6b 3e
       -1.2607541 0.60635465 0.7595301 0.22989097
000340 27 2c aa 3d 71 78 f0 be 33 55 25 40 0f da d1 3f
       0.08309203 -0.4696689 2.5833251 1.6394671
000350 e9 e5 26 c0 f2 d5 9a 3f 01 ba f4 be 45 a3 c6 3e
       -2.6077826 1.2096541 -0.4779816 0.3879644
000360 47 3b 88 bf a5 3e 61 bf ca 5b 49 bf de 73 24 3f
       -1.064309 -0.8798621 -0.78655684 0.642393
000370 20 89 57 bf ac 25 d5 bf a7 df 02 3f 60 80 45 3c
       -0.8419361 -1.6652122 0.51122516 0.012054533
000380 58 df 1a 3f 90 ee 8a 3e 1c 13 de 3f 43 4c 16 40
       0.60497046 0.27135134 1.7349582 2.3484046
000390 0d 00 08 3f e8 2a e1 be 15 08 5f 3e 25 47 4f bf
       0.5312508 -0.43978047 0.21780427 -0.8096793
0003a0 2e 27 0e 3f 79 d6 0a bf 93 3b 2c bf ea cd 16 3f
       0.55528533 -0.5423351 -0.67278403 0.5890795
0003b0 2e ca 0f be e4 18 11 bf 47 1e b3 be 6a 77 25 bf
       -0.14041969 -0.56678605 -0.34984037 -0.64635336
0003c0 b0 ca 09 3f 45 68 25 3f 89 23 a5 bc ae 92 17 3d
       0.538249 0.6461223 -0.020158546 0.03700512
0003d0 a6 8b 82 3f c3 81 c2 bf 41 a4 e0 3f 2a 63 26 bf
       1.0198867 -1.519585 1.7550126 -0.6499506
0003e0 27 68 4b 3f b9 41 74 3f a6 78 1e be ce 87 3d 3c
       0.794558 0.95412785 -0.15475711 0.011568023
0003f0 ec fa 5b bf f5 95 12 40 69 97 08 3f 96 24 25 3f
       -0.8592975 2.2904027 0.53356034 0.6450895

lstm.weight_ih_l0 f4 [512, 32]
000000 a2 fe 4a be 3b bf b1 be fc 5a 7e bd 37 31 4e bd
       -0.19823697 -0.3471621 -0.06209849 -0.050339904
000010 59 6c 5a bb 84 8b 83 be 1d a0 98 bd 1c c7 d5 bd
       -0.003332874 -0.2569238 -0.07452414 -0.10438368
000020 0f a8 06 be 03 10 52 3d 1b 93 aa 3c b6 d0 dd 3d
       -0.13150047 0.0512848 0.020822098 0.10830824
000030 b8 3e ae be 0b 82 66 bd df 7e 2c 3d a1 f6 61 bc
       -0.34032226 -0.056276362 0.04211318 -0.013791711
000040 83 b2 bc 3d 7a 08 c6 3d 2d a0 bc bd e9 c1 1e be
       0.09213736 0.096695855 -0.092102386 -0.15503658
000050 11 96 74 3e 28 f7 21 be a5 1f 25 3e 18 3a 11 be
       0.23885371 -0.15816939 0.16125353 -0.14182317
000060 ba 02 bc bd 75 f5 9d be dc cb 8c 3d 7e bb 44 be
       -0.091802076 -0.3085133 0.068748206 -0.19212148
000070 97 9d 5c 3d 0d e9 fd bd 51 45 7f 3d 8a 7c f3 3d
       0.053861227 -0.123979665 0.062321965 0.11888988
000080 09 ba 1d bd 2f 5a 24 3c 00 63 8b bd 43 05 10 be
       -0.038507495 0.010031267 -0.06805992 -0.14064507
000090 6a f4 d5 bd b6 44 19 be 0d 24 54 3e 9d f0 80 be
       -0.10447009 -0.14967617 0.20716877 -0.25183573
0000a0 80 cd 2d 3e e5 cb 4c bd fd a3 a2 3e 06 ea 90 3e
       0.16972923 -0.049999136 0.31765738 0.28303546
0000b0 a9 d7 b0 be 65 64 95 be 23 09 59 3e 71 8d 61 bd
       -0.34539536 -0.29178157 0.21194892 -0.05506653
0000c0 79 a5 af 3d 08 40 67 bc 06 5e 8a bd bb 2f 8f 3d
       0.08576483 -0.014114387 -0.06756215 0.06991526
0000d0 70 b2 07 3e 22 38 7d be e4 d3 dc 3d 38 26 b5 be
       0.13251662 -0.24728444 0.107826024 -0.3538072
0000e0 13 3c 88 be a1 65 0a be cc 05 7f 3d 8e c7 2c 3e
       -0.26608333 -0.13515331 0.062261388 0.16872999
0000f0 72 a4 08 be 2a a0 6f be bf 3e 38 3e 71 22 a6 3e
       -0.13343981 -0.23400941 0.17992686 0.32448152
000100 07 ea 8f bd 42 dd dd bd 98 db 97 bd 45 6d b7 3c
       -0.07027059 -0.10833217 -0.07414931 0.022390971
000110 b4 02 53 3d 2c ea 1e 3e 71 9f 8d 3e e1 88 86 be
       0.05151625 0.15519017 0.27660707 -0.26276305
000120 1d bb 3c bd c9 08 f4 bd 0f 64 3b 3d 5f 02 27 3e
       -0.046076883 -0.11915738 0.04574972 0.16309498
000130 cb fd a2 be e5 89 1e bd 97 73 2d 3d 5e 26 81 be
       -0.31834254 -0.038705725 0.042346563 -0.25224584
000140 99 85 71 3d 05 69 5e 3d 29 07 57 be a5 e3 97 be
       0.0589653 0.054299373 -0.20998825 -0.29665866
000150 68 42 24 3e 0a 26 b3 be 14 77 2a 3e 02 b9 87 3d
       0.16040957 -0.3498996 0.16646987 0.06627084
000160 8a df 98 bd a3 49 6a bd c8 0d 10 3c f2 7a f6 3b
       -0.07464512 -0.05719913 0.008792348 0.0075219804
000170 bf 45 68 be 87 08 e5 3d 90 80 db 3d 7d 3a 9d 3e
       -0.22682856 0.11183267 0.10717881 0.30708686
000180 d9 af 01 3d 5d 4c e7 bb cd ee 06 be 54 08 84 bc
       0.031661842 -0.0070586638 -0.13177033 -0.016117252
000190 4c cb ba bd 9f 7c 9e 3d d8 13 2e 3e a1 39 a9 be
       -0.09120807 0.07738613 0.16999757 -0.3305178
0001a0 c7 37 ec 3d 62 95 35 be 09 de 20 3e 39 c4 81 3e
       0.11534076 -0.17732766 0.157097 0.25345019
0001b0 3e 59 77 be d2 7c 20 be a9 97 9e 3d 8e 8a 89 bc
       -0.24155137 -0.15672615 0.07743771 -0.0167897
0001c0 32 b0 89 bd 1a 65 dd 3d b0 c6 1e 3d f3 f1 50 3c
       -0.0672306 0.10810299 0.038763702 0.012752998
0001d0 4c 29 80 3c dd 74 26 be 76 99 69 be 03 56 38 be
       0.015644692 -0.16255517 -0.22812447 -0.18001561
0001e0 61 ea 23 bc df 43 65 be 17 39 12 be fd 1a 18 be
       -0.010004611 -0.22389172 -0.1427959 -0.14854045
0001f0 34 d0 c4 bd f8 e0 8e bd eb 9c ce bb a3 40 36 3d
       -0.09610024 -0.06976503 -0.006305327 0.044495236
000200 6f 59 14 bd 39 51 ab be 2b c7 67 3d d1 38 bb 3d
       -0.036218103 -0.33460405 0.056586426 0.09141696
000210 8d c3 a7 bc 00 5d 64 be ee d1 39 bd 7d 14 09 bf
       -0.020478988 -0.22301102 -0.04536622 -0.5354689
000220 d6 06 eb bc 67 05 80 be 93 2c 61 3d dc da 79 3d
       -0.028689783 -0.25004122 0.05497415 0.060999736
000230 65 28 ad be ec cb 76 be 8c 6a 8f 3e 3b 4e e9 bc
       -0.3381988 -0.24101228 0.28010976 -0.028479686
000240 a9 ad 2e 3e be e8 18 be 12 f8 d9 3c d6 3f 87 3d
       0.17058434 -0.14932534 0.026607547 0.066039726
000250 b5 89 43 bd d6 b6 d7 be 86 86 a6 3c fe 83 75 be
       -0.04773875 -0.4213168 0.020327818 -0.23976132
000260 86 56 ad bd ca 00 23 3e fd 13 a6 3e 93 9a 0d 3e
       -0.08463769 0.1591827 0.32437125 0.13828497
000270 35 38 89 3d 56 33 7c bd 96 b3 58 3e 39 12 94 3e
       0.06700174 -0.061572395 0.21162257 0.28920153
000280 3b d1 4d 3e 01 0e 92 bd 2c 0a 98 be 86 de ac 3b
       0.20099346 -0.07131577 -0.2969526 0.0052755503
000290 bd d8 86 bd 11 fa a7 be 70 81 93 3e d5 d2 53 be
       -0.06584308 -0.32807973 0.2880969 -0.20685895
0002a0 58 43 ac 3e 0b b0 56 be fe 96 c0 3d 94 fd 84 3d
       0.3364513 -0.20965593 0.094037995 0.06493679
0002b0 19 69 56 be 26 ad 4a be 88 ea 46 3e 45 05 da bd
       -0.20938529 -0.19792613 0.19425404 -0.10645536
0002c0 32 30 4d 3d 7c 2d 7d bd 54 3c 70 3e fd 0f c7 be
       0.05009479 -0.061810955 0.23460513 -0.38879386
0002d0 10 78 1f be 7d ea 92 be 5c bb 7f bd f2 d8 52 be
       -0.15573144 -0.28694525 -0.06243454 -0.2059057
0002e0 83 22 f1 bd a4 a0 c6 3e ba ed 23 3e 69 e0 8a 3e
       -0.11774161 0.38794434 0.16008654 0.27124336
0002f0 07 d9 07 bd 48 a7 71 3e d1 e8 87 3d 1b 8f bc 3e
       -0.033165958 0.23598969 0.06636203 0.3682793
000300 dd 07 56 3e 6c 43 97 3d 3e cf 9f bd 2e 93 ad 3d
       0.20901437 0.073859066 -0.078032 0.08475338
000310 74 b5 26 3e fe f1 0d 3e fd f4 c8 3d 72 84 76 be
       0.16280156 0.13861844 0.09812353 -0.24073961
000320 43 11 23 be ec e1 fe 3d d0 ca 67 be 5b de ad bc
       -0.15924554 0.12445435 -0.2263596 -0.021224191
000330 64 9f d0 bd c8 78 3f 3e 82 62 fd bd 80 a7 f8 bd
       -0.10186651 0.18698418 -0.123723045 -0.12141323
000340 40 65 9f be ab 36 23 3e 75 9d cf 3b 55 d4 29 bd
       -0.31131935 0.15938823 0.006335909 -0.04146226
000350 a3 24 1e be cc 5e 42 bc 09 93 46 bc 5c ba be be
       -0.15443663 -0.011863422 -0.012120017 -0.37251556
000360 3d 9d fb 3d 1a 9f 4a 3b 30 fa 87 bd 3b b9 8a be
       0.1228585 0.0030917586 -0.06639516 -0.27094445
000370 24 0e e4 bd 79 89 ac bd a1 70 14 bd 92 53 ea 3d
       -0.111355096 -0.08424658 -0.036240224 0.11441721
000380 01 27 a2 3d 8d 82 84 3c c1 a2 e7 3d c8 08 03 3e
       0.07917596 0.016175533 0.1131034 0.12796319
000390 ce 1a 48 be 62 f8 6c bc 33 bc 38 be b4 90 e0 be
       -0.19541475 -0.014463516 -0.18040542 -0.438604
0003a0 32 6f ba 3d 46 ee 80 bd 49 92 48 be 87 cd 1a bd
       0.0910324 -0.06295447 -0.19587053 -0.037793662
0003b0 9d 4a 2c be 42 93 75 be a3 c1 27 3d 74 7f cc bd
       -0.16825338 -0.23981956 0.04095615 -0.09985247
0003c0 65 f4 ab bd bf e3 1b 3e e3 15 67 be 02 5c 33 bd
       -0.08396224 0.15223597 -0.22566943 -0.043788917
0003d0 a5 2e a3 bd 75 11 10 be ba 9e 46 bd 86 9e 00 be
       -0.07967881 -0.1406916 -0.048491217 -0.12560472
0003e0 90 33 5a 3d b9 5b 2d bd 64 2d 4d 3d a3 24 02 3e
       0.05327183 -0.0423238 0.050092116 0.12709288
0003f0 40 8a c2 bc d7 de b4 3d f2 91 7d 3e 0c 9c 32 3d
       -0.023747563 0.08831566 0.24762705 0.04360585

lstm.weight_hh_l0 f4 [512, 128]
000000 0e ae 1c be 81 db ab bd fe 00 e6 3d cf e0 11 be
       -0.15300772 -0.083914764 0.11230658 -0.14245914
000010 df 46 86 3e 8a 1b 25 3d d2 8d a2 bd b7 36 85 bc
       0.26225945 0.040309466 -0.07937206 -0.016261442
000020 39 87 06 3d 54 38 a2 3d 9a 26 15 3e 92 7a 00 3e
       0.032843802 0.079209 0.14565507 0.12546757
000030 b5 5a 6f 3d ae 63 5a bd d0 b1 98 3d 3e 14 11 be
       0.058436114 -0.05331772 0.0745579 -0.14167878
000040 80 9c 53 3d 46 92 58 3d d5 f9 8c 3d 17 02 2d 3d
       0.051662922 0.052873872 0.06883589 0.04223832
000050 28 4a 04 bd 98 1b 0d be 8d 02 4c be 70 b9 d8 3d
       -0.032297283 -0.13780057 -0.19922848 0.105822444
000060 6b a6 01 be b1 74 e4 bd c7 c4 d1 3d 96 39 80 bc
       -0.1266114 -0.111550696 0.102426104 -0.01565246
000070 94 0a 91 be d8 f9 89 3c a1 6b e3 3d 6e c0 67 be
       -0.28328383 0.016842768 0.11104513 -0.22632
000080 33 ae 87 be 1a af 6a bd a5 e9 8a 3d 4c 24 3c be
       -0.2650009 -0.057295896 0.067828454 -0.18373221
000090 6a 8f 48 be 5a 26 30 3d a0 61 81 bd 9c 57 b6 bd
       -0.19585958 0.043005325 -0.063174486 -0.08903429
0000a0 96 76 21 be 27 61 08 3d 06 b1 2b be d3 d3 e0 3d
       -0.15767893 0.033295777 -0.16766748 0.10977902
0000b0 55 08 91 ba 4e 1f 0b be 00 c4 ec 3d a1 d4 e6 bd
       -0.0011065105 -0.1358616 0.115608215 -0.112710245
0000c0 48 7d b0 bd 46 24 c0 be 43 84 3d be 39 40 52 3d
       -0.086176455 -0.37527674 -0.18507485 0.05133078
0000d0 16 d0 a8 bc a4 ca 1a 3d 90 23 c9 bd 1c 49 a4 bd
       -0.020607036 0.03779091 -0.09821236 -0.08021757
0000e0 18 d2 5f 3d 5b 62 8d bd d8 e8 1f 3e bd 67 b3 3d
       0.05464372 -0.069035254 0.15616167 0.08760021
0000f0 5a d8 d8 bd 33 51 94 be 91 ad 8c be d3 74 e7 bd
       -0.10588141 -0.289682 -0.2747617 -0.11301579
000100 be ec 93 3d d1 5f 06 be f1 9f ad bd 64 a9 de 3b
       0.07222889 -0.13122489 -0.08477772 0.0067950953
000110 f5 84 14 3d 78 0e fa bd 66 f0 15 be 83 78 4b be
       0.03625961 -0.12209791 -0.14642486 -0.1987019
000120 b6 e2 38 3e a5 10 c8 3d 9c 23 84 bd 76 be c3 3d
       0.18055233 0.097688 -0.064521044 0.09557812
000130 09 bf 68 be 1b c2 df 3d 39 7b ff bd f8 b0 ac be
       -0.22729124 0.109256946 -0.12474675 -0.33728766
000140 70 a7 fc 3c e8 09 0d 3e 0e 97 8e bd db ef 12 3b
       0.03084156 0.1377331 -0.06962405 0.0022420797
000150 ec 40 25 3e ec 8f e1 bd ff df ca 3d 16 27 a3 bd
       0.16138047 -0.11013779 0.09906005 -0.079664394
000160 c6 a8 2f bd a0 15 67 be 8d 65 1c be ed 1d 5e 3d
       -0.042885564 -0.22566843 -0.15273114 0.05422776
000170 7c 62 95 be 41 44 01 be ef 05 4e be 92 8e 92 3c
       -0.291767 -0.12623693 -0.20119451 0.017890248
000180 c0 e4 39 be bd 45 d9 3d 5d da 5b be fe 67 02 be
       -0.18153667 0.10609005 -0.21470018 -0.12734982
000190 9b 0e fe bd 78 c5 db bd fb 42 01 3e 77 b9 cb 3e
       -0.124051295 -0.107310236 0.12623207 0.39789936
0001a0 fc f3 12 3d 8e 12 12 be 82 83 e5 3d cf 16 26 3d
       0.035877213 -0.1426489 0.11206724 0.040549096
0001b0 88 07 c5 3e 1f 85 2b 3d c5 0b 62 3e 1d df 9e bd
       0.38482308 0.041875 0.22074802 -0.07757399
0001c0 97 62 e6 bd a2 8e b0 bd e9 f0 e0 be 2a 64 35 3e
       -0.11249273 -0.08620955 -0.439338 0.17713991
0001d0 6e c2 be 3d 05 b5 e7 bd 92 24 e9 3c 2d 5b 12 be
       0.09314428 -0.113138236 0.02845982 -0.14292593
0001e0 94 b5 ac bd 85 e5 0b bd 69 c5 90 bd a9 55 2b 3e
       -0.08433071 -0.034154434 -0.07068903 0.16731896
0001f0 6f f1 bf bd f2 b1 6e be 04 d1 51 3d da 4f d8 bc
       -0.09372222 -0.23310068 0.051224723 -0.026405264
000200 df 0a db 3c b2 7c 21 be 98 24 d2 bc 44 35 1e be
       0.026738582 -0.15770224 -0.025652215 -0.15450007
000210 6d 98 2a 3e 35 b6 6f bc 7c 5b 7e 3d 42 e6 26 3e
       0.16659708 -0.014630844 0.062098965 0.16298774
000220 09 c3 15 3d 84 cd 52 bd 4f 22 15 be 37 ab 0c bc
       0.036562953 -0.051465526 -0.14563869 -0.008585743
000230 e7 a1 ad 3c b2 19 2f bd 97 7c 7c 3c 44 3b 13 be
       0.021195365 -0.042749114 0.015410564 -0.14378077
000240 91 cf 83 3e 87 27 62 be 35 f7 68 3c f5 9f ec bc
       0.25744298 -0.22085391 0.014219095 -0.028884867
000250 19 45 30 3d 3c d5 b3 bd c3 12 87 bd 06 70 9e bc
       0.043034647 -0.087809056 -0.065953754 -0.019340526
000260 7a dd 97 bd 47 37 fd bd ed 35 e5 3c 50 28 01 3e
       -0.0741529 -0.12364059 0.027979815 0.12613034
000270 25 dd 3b be a0 a8 a6 3d f9 d7 06 3e 47 d3 b0 3d
       -0.18346079 0.081376314 0.13168325 0.08634048
000280 62 73 8d bd 6e 30 2e be 1b 35 eb 3d dc 46 78 3d
       -0.06906773 -0.17010662 0.114847384 0.06061445
000290 1e 70 11 bc ea ab d9 3d d7 fa 75 be e8 3d a7 bd
       -0.0088768285 0.10628493 -0.24021469 -0.081661046
0002a0 ff f8 d6 3c db 37 ed bd 5e be 7c 3c bf 3b 6c 3d
       0.026241777 -0.11582919 0.015426246 0.057674166
0002b0 c7 20 27 bd 78 11 13 be b5 5c ea bb d8 3b 2a bd
       -0.040802743 -0.14362133 -0.007152165 -0.041560978
0002c0 85 a9 47 be 5a cc 3b be 50 45 a4 bd 46 ca 21 3d
       -0.1949826 -0.18339673 -0.08021033 0.039499544
0002d0 e2 d1 1f bc bd a6 e3 bd fb 83 8c bd a1 6d 97 3d
       -0.00975463 -0.11115787 -0.06861111 0.07393957
0002e0 fb 1f 00 be d4 33 4f bd c4 db ae 3d c0 f2 10 3e
       -0.125122 -0.050586537 0.08538011 0.14155102
0002f0 6e 04 22 be c9 f1 e0 bd b4 1d 18 be 7a 11 1d be
       -0.15822002 -0.10983617 -0.14855081 -0.15338698
000300 90 4b 1b 3c e8 c6 98 bd 90 31 ea bd 71 95 b7 3b
       0.009478465 -0.07459813 -0.114352345 0.0056025316
000310 4d 83 b9 bd 10 26 5e be fc 8c 51 bd e4 40 f6 3d
       -0.09058247 -0.21694207 -0.051159844 0.12024096
000320 10 62 33 3e 33 25 f6 3d d6 34 a2 bd f3 80 09 3e
       0.17517877 0.12018814 -0.07920234 0.13428096
000330 11 d9 cc bc dd f3 79 3c d2 4d 18 be a0 d8 87 be
       -0.02500585 0.015255895 -0.14873436 -0.2653246
000340 c7 2e fd 3a 0c c4 17 3e 76 a0 da bd 96 a9 15 3d
       0.0019316309 0.1482088 -0.10675137 0.036538683
000350 85 3e 22 3e 7c bd 24 3d af 2c 94 3d 17 0b 93 bd
       0.15844162 0.04021977 0.07235085 -0.071798496
000360 cb 1c 66 bd 95 f1 d1 bd 42 c1 7b be 35 1b ba 3d
       -0.056179803 -0.10251156 -0.24585441 0.090872206
000370 14 9f 3f be 7c a7 ea 3c 1f eb b8 bc 54 16 96 3d
       -0.18713027 0.028644316 -0.022573052 0.073284775
000380 a1 ce d1 bd d8 f6 1f 3e 17 78 ba 3c 19 a6 9a bc
       -0.102444895 0.15621507 0.022762341 -0.01887803
000390 84 9e c7 bc be df d3 bc 64 b8 09 3d c7 45 1e 3e
       -0.024367578 -0.025863525 0.033623114 0.15456305
0003a0 cc 42 ac bd 6e 9b cb bd c4 dc 24 3e cc 03 55 3d
       -0.08411178 -0.09941755 0.1609984 0.052005574
0003b0 ed 90 da 3c b7 94 29 be 20 6e 19 3c de db e6 bd
       0.026680434 -0.16560636 0.009364635 -0.11272405
0003c0 90 5e 59 bd 63 48 bc bd cd 78 6c 3d 28 ed cf 3d
       -0.053068697 -0.09193494 0.057732392 0.10152656
0003d0 fb 86 7a 3d 5b 98 c3 3c dd d6 0d be 1b dc 80 be
       0.061163884 0.02387636 -0.13851495 -0.25167927
0003e0 fa 0e 2d 3b 58 fe 07 bd 00 49 fa bd 89 86 a4 3c
       0.0026406632 -0.033201545 -0.12220955 0.020083683
0003f0 d0 1f 63 bd 27 6e 1a 3d 37 4f 17 3e 62 8c ab bc
       -0.05545026 0.037702706 0.14776312 -0.020940963

lstm.bias_ih_l0 f4 [512]
000000 bf f2 0a 3f 7e 48 ee 3e 99 b7 28 3f 21 eb 0d 3f
       0.5427665 0.46539682 0.6590515 0.55436903
000010 f7 0e ed 3e 4e 22 cf 3e 90 a0 ba 3d b9 9d 58 3e
       0.4630048 0.4045586 0.09112656 0.21153916
000020 69 3a df 3e 1a 14 bc 3e 16 63 eb 3d 47 24 22 3e
       0.4359925 0.36734086 0.114935085 0.15834151
000030 b5 71 f6 3e d3 31 89 3e 9f 25 c3 3e 3c fd a8 3e
       0.48133627 0.26795825 0.3811464 0.33005702
000040 aa 19 c3 3e e6 8e ff 3e 22 00 9c 3e 1c 50 bf 3d
       0.38105518 0.4991371 0.3046885 0.093414515
000050 c2 b4 dd 3e 1b d9 99 3e 98 c5 b9 3e e5 4d d0 3d
       0.4330197 0.3004845 0.36283565 0.10171107
000060 47 d3 9d 3e 9a f1 80 3e 74 33 e6 3d e6 33 d7 3e
       0.30825254 0.25184327 0.11240283 0.42031783
000070 e5 ba f3 3e da c2 e6 3e 0c 9c a6 3e dc 06 98 3e
       0.47603527 0.45070535 0.3254093 0.29692733
000080 13 fe b5 3e 49 ab cb 3e 4f fa b5 3e 9b 53 e6 3e
       0.35545406 0.39779118 0.35542533 0.4498566
000090 da 38 04 3f 2f 9f d9 3e 4f f5 f1 3e a2 da b1 3e
       0.5164925 0.4250426 0.47257468 0.34737116
0000a0 3f 35 ad 3e c1 0a 28 3e fe 5d b9 3e 22 77 cd 3e
       0.33829686 0.16410352 0.36204523 0.40129954
0000b0 07 f9 c3 3e 10 a6 b5 3e 8e 87 e7 3e ba 0a 42 3e
       0.3827593 0.35478258 0.45220608 0.18949404
0000c0 f1 2d 37 3e 9f 27 c2 3e cb 03 91 3e ac b9 cb 3e
       0.17888619 0.37920853 0.28323206 0.39790094
0000d0 ee 75 4b 3e bc 96 a8 3e 22 5c 2f 3e 64 a3 99 3e
       0.19869205 0.329275 0.1712499 0.3000747
0000e0 ac 48 d4 3e 8d 43 8c 3e 3a 69 45 3e 1c d0 5f 3e
       0.41461694 0.27395287 0.19278422 0.21856731
0000f0 e4 6c 98 3e b8 64 3e 3e 1b 9f cc 3e 02 2f 07 3f
       0.29770577 0.18593109 0.39965138 0.52806103
000100 92 af ed 3e 6d 4b 70 3e ca 3e 02 3f 50 1c db 3e
       0.46423012 0.23466273 0.5087706 0.42795038
000110 c9 ba b9 3e 99 d6 cd 3e 9f de a3 3e ef cd ab 3e
       0.36275318 0.40202788 0.32005784 0.33555552
000120 4c ef 8b 3e 6a e1 44 3e 81 15 96 3e b3 48 ae 3e
       0.27331007 0.19226614 0.2931328 0.3403984
000130 d3 b9 18 3e 53 60 59 3e 35 05 e2 3d 74 bf 6b 3e
       0.14914636 0.21228151 0.110361494 0.23022252
000140 48 55 9d 3e 7a 4c 84 3e b2 13 0d 3f e2 45 a8 3e
       0.30729127 0.25839597 0.5510818 0.32865816
000150 ce 3d 7d 3e 11 30 32 3e 0c 94 c7 3e 73 3e 60 3e
       0.24730608 0.17401148 0.38980138 0.21898822
000160 93 ed e5 3d 64 dc bf 3e 08 84 37 3e b1 ac 9b 3e
       0.11226954 0.37472832 0.1792146 0.3040519
000170 61 74 c0 3e c9 a4 e2 3e 10 8f 9e 3e b7 3c 77 3d
       0.3758879 0.44266346 0.30968523 0.060360637
000180 96 f4 91 3d 6a b0 ee 3e 80 ce 43 3d c0 4d 3d 3d
       0.07126729 0.46618968 0.047804356 0.046216726
000190 95 17 08 3f 84 13 1e 3e 1d 4b ee 3e e3 7c 9e 3e
       0.53160983 0.15437132 0.46541682 0.30954656
0001a0 f1 b2 9b 3e e2 da ee 3e a6 c0 a2 3e 11 d9 e0 3e
       0.3040996 0.4665137 0.31787604 0.4391561
0001b0 3c 05 cf 3e 67 25 ae 3e c5 df 70 3e 30 fa ff 3e
       0.4043368 0.3401291 0.23522861 0.49995565
0001c0 14 a3 9a 3e cd 2f 6c 3e 1d 4e ae 3e a6 98 0f 3e
       0.30202544 0.2306511 0.3404397 0.14023075
0001d0 20 a6 88 3e f3 b2 c5 3e 5e 6a 85 3e eb 06 e4 3e
       0.26689243 0.3861309 0.26057714 0.44536528
0001e0 73 c3 d6 3e bb 67 d3 3e 88 65 a6 3e 69 11 c1 3e
       0.4194599 0.41290078 0.32499337 0.37708595
0001f0 ec 49 a2 3e b3 3a 3c 3e a5 04 8f 3e 29 d6 06 3f
       0.31697023 0.18381767 0.2793323 0.5267053
000200 5d 31 ad 3c 50 5c 66 bd 29 f0 b4 3d 82 1f 72 3b
       0.021141702 -0.05624038 0.088348694 0.003694505
000210 f4 86 9e 3d ea 50 0c be 84 ed 1a bc a0 ee d9 bb
       0.07740584 -0.13702741 -0.009456042 -0.006650761
000220 3e f8 9f bc 89 07 d5 3c 8b ce 96 bd 6a 58 a6 3d
       -0.01952755 0.02600457 -0.07363614 0.081223324
000230 fd 21 0d 3e 89 e0 75 3d 49 b3 6b 3b 08 a7 47 bc
       0.13782497 0.060028587 0.0035965017 -0.012185819
000240 e9 28 8e bd 62 20 d5 3a c7 24 c2 3d 63 57 e9 3d
       -0.06941397 0.0016260261 0.09479671 0.11393621
000250 23 53 32 3d b5 31 d5 3c fd a6 ea 3d 66 41 b6 3d
       0.043536317 0.026024679 0.11457632 0.088991925
000260 3a dc 06 be a1 a5 23 3c 68 6d 9a 3c 26 19 42 3c
       -0.13169947 0.0099882195 0.018850997 0.011846816
000270 22 71 c2 3d 3b d3 11 bd 19 bf 11 3d cf c3 2b 3d
       0.094942346 -0.035601836 0.035582636 0.041934785
000280 ef f7 21 3d 4b a5 80 bd d8 2f 3a bd f2 13 5f bd
       0.03954309 -0.06281527 -0.045455784 -0.05446238
000290 d4 ee cd bd 13 c4 eb bc b4 70 43 bd 26 50 30 bc
       -0.100553185 -0.028780019 -0.047714904 -0.010761296
0002a0 80 2e ba 3d be 50 e0 3b 07 43 0d bd 2d 76 eb 3d
       0.090909004 0.0068455627 -0.03448775 0.114971496
0002b0 a8 37 43 3e 21 ee fb bd 73 33 49 3c 76 50 cb 3d
       0.190642 -0.12301279 0.012280333 0.09927456
0002c0 51 e0 21 3d 64 c4 db 3c a2 d0 8f 3d d0 ca 02 be
       0.039520565 0.026827045 0.070222154 -0.1277268
0002d0 4a 69 89 3d f1 8b ab 3d 24 94 1c bd 4c ca 7d 3d
       0.067095354 0.08376301 -0.038227215 0.061960503
0002e0 70 a7 a2 bd 76 ce 07 3d 63 68 e4 3d 67 d3 df bc
       -0.079420924 0.03315588 0.11152723 -0.027322484
0002f0 fe 66 0c 3d b3 98 22 bc 1b f4 3d bd 77 f4 89 bd
       0.03427791 -0.009924102 -0.046375375 -0.06736081
000300 93 8c 2e 3d f0 b0 42 3d bb 9d 94 ba 5d 66 ae bc
       0.04261453 0.047532022 -0.0011338511 -0.021289045
000310 79 64 f9 3d b2 da 5d bd f9 09 c7 3c 06 51 d2 3d
       0.12177367 -0.054163642 0.024296748 0.1026936
000320 9d ed c5 3d 0c e7 2b 3e 61 75 65 3d 88 b8 a1 3a
       0.09664462 0.16787356 0.056020144 0.001233832
000330 9d e6 c7 3d 90 a5 90 bd 6c 7d 0a 3d 20 63 80 3d
       0.09760783 -0.070628285 0.033811018 0.062689066
000340 6f 02 81 3d 21 08 7a 3d 25 30 2d bd 96 94 e1 bc
       0.06299292 0.06104291 -0.042282242 -0.027536672
000350 5c 47 69 3d af 71 05 3e ed 3c a4 bd d6 d1 c5 3d
       0.05695282 0.13031648 -0.08019433 0.09659164
000360 91 48 c6 3c 11 51 49 3d a0 57 bd bc 96 17 03 bd
       0.024204524 0.049149577 -0.023113072 -0.032004915
000370 3e 99 4e bd f2 68 eb bd 81 37 47 3e 38 16 43 3e
       -0.050439112 -0.11494626 0.19454767 0.19051445
000380 cf 79 c4 bd e8 2b b8 3d 52 53 a0 3e d4 73 07 3e
       -0.09593546 0.089927495 0.31313568 0.13227779
000390 98 9a 30 3e 68 66 8d 3c 21 eb ed 3d d2 48 f1 3c
       0.17246473 0.017260745 0.11617113 0.029453669
0003a0 bd 6f 80 ba 27 78 9f 3d a3 dd e5 bc a9 31 d7 3c
       -0.0009798926 0.07786589 -0.028059786 0.026268797
0003b0 5c 17 89 3d 44 51 b0 3b 00 4c 26 bd 51 e6 bb bc
       0.066939086 0.0053807814 -0.040599823 -0.022936972
0003c0 af 40 8a 3c f5 4e cd 3d 91 ee 1b 3d 47 c5 13 3e
       0.016876547 0.100248255 0.03806931 0.14430724
0003d0 37 99 34 bd 87 d2 01 bc 94 5d 02 3d 0f b5 a1 bd
       -0.04409143 -0.007923729 0.031827524 -0.07895862
0003e0 f4 74 af 3c 8e 34 78 3d dc dc 51 bb 12 02 bd 3d
       0.021418072 0.060596995 -0.0032022512 0.092289105
0003f0 6d e5 27 bd 5a 1b dc 3c 0d 67 9c bd 1f 2e 95 ba
       -0.04099028 0.026868511 -0.07636843 -0.0011381543

lstm.bias_hh_l0 f4 [512]
000000 c8 1d 21 3f 17 3d 16 3f 11 1d 0f 3f 80 cf ff 3e
       0.6293607 0.58686966 0.55903727 0.49962997
000010 d1 ce 15 3f 4d 5e 8c 3e 5f 3c 02 3e e9 f8 b0 3e
       0.585187 0.27415696 0.12718342 0.34564903
000020 5b ce cf 3e 40 3e 87 3e 93 c5 71 3e 1a c6 8b 3e
       0.40587124 0.2641468 0.23610525 0.27299577
000030 ec 4f fa 3e be 07 af 3e 16 af ce 3e bc 80 af 3e
       0.488891 0.34185594 0.40367955 0.34277904
000040 89 c2 af 3e f9 fa fa 3e f3 d6 5d 3e be 17 33 3e
       0.34328106 0.49019602 0.21664028 0.17489526
000050 04 c5 95 3e eb c1 46 3e 4f e7 ce 3e be 8a a7 3d
       0.29251873 0.19409911 0.4041085 0.0818076
000060 73 18 dd 3e 22 ce 85 3e 4a 2e 07 3e 81 7a 93 3e
       0.43182716 0.2613383 0.13201252 0.288044
000070 95 5e 01 3f f0 16 c8 3e 84 4d eb 3e 06 99 a8 3e
       0.50534946 0.3908 0.45957577 0.32929248
000080 89 6d b0 3e a2 5d c9 3e 47 03 c8 3e 5f ce 0f 3f
       0.3445857 0.3932925 0.39065 0.5617427
000090 71 3a 02 3f f1 b4 ad 3e ab 2d e8 3e ce 33 a8 3e
       0.50870425 0.3392711 0.45347342 0.32852024
0000a0 1c a3 58 3e 81 1d 48 3e b3 17 eb 3e 34 e9 9d 3e
       0.21155971 0.19542505 0.4591652 0.30841982
0000b0 27 ec c9 3e 2f 87 a6 3e f1 01 cb 3e 18 c1 a7 3e
       0.39437982 0.32525012 0.3964992 0.32764506
0000c0 86 d0 79 3e ad 3f d6 3e 29 80 56 3e fd d8 a2 3e
       0.24395952 0.41845456 0.20947327 0.31806174
0000d0 c3 f7 f5 3d f8 cb b2 3e c1 d5 47 3e 59 6e 20 3e
       0.120101474 0.3492124 0.19515134 0.15667094
0000e0 db 9f 9c 3e 48 51 9a 3e 92 d9 81 3e f4 07 65 3e
       0.3059071 0.30140138 0.25361305 0.22366315
0000f0 e7 df 92 3e f1 00 2c 3e 71 8f 9a 3e 79 66 e3 3e
       0.2868645 0.16797234 0.30187562 0.44414118
000100 bb b3 d5 3e 0e 1c 8b 3e 0b 39 12 3f d6 ab 05 3f
       0.41738686 0.27169842 0.5711829 0.52215326
000110 93 67 cc 3e 05 30 9b 3e 73 c2 c6 3e 70 4e 8b 3e
       0.3992277 0.30310073 0.38820228 0.2720828
000120 aa 58 98 3e d1 60 65 3e 66 42 92 3e f8 36 e4 3e
       0.29755145 0.22400214 0.28566283 0.44573188
000130 cb bb 50 3e 93 47 44 3e 72 51 29 3d 6a 33 63 3e
       0.20384137 0.19167928 0.041337438 0.22187582
000140 19 7c 89 3e d4 99 91 3e 0f 63 0f 3f cd fd 98 3e
       0.26852491 0.28437674 0.56010526 0.29881135
000150 5d da a4 3e 16 ca 70 3e 2e 5e 01 3f f2 29 8f 3e
       0.32197848 0.2351459 0.5053433 0.2796169
000160 c9 67 14 3e 06 2d d0 3e cb 82 37 3d 00 a5 a8 3e
       0.14492716 0.4065935 0.04480247 0.32938385
000170 df b1 b5 3e 08 cd bf 3e 4e ad a3 3e 26 bd 1d 3e
       0.35487267 0.37461114 0.31968158 0.15404186
000180 82 12 96 3d fb 0f d6 3e 5f ed ef 3d f4 83 b5 3c
       0.07327749 0.41809067 0.11715197 0.022157647
000190 c0 c5 06 3f 4f 6d 8b 3e ec e9 d0 3e 1a 03 b8 3e
       0.5264549 0.27231833 0.40803468 0.35939866
0001a0 30 30 76 3e 64 1c fb 3e 43 0d a6 3e a8 bd e5 3e
       0.2404182 0.49045098 0.32431993 0.4487126
0001b0 15 22 d9 3e f1 f5 92 3e 9d dc 53 3e 5f 8c 00 3f
       0.42408815 0.28703263 0.20689626 0.5021419
0001c0 4b 73 87 3e 44 f6 58 3e 83 a4 54 3e d4 8c ca 3d
       0.2645515 0.21187693 0.20765881 0.09890142
0001d0 dc 28 8d 3e 9e 74 db 3e f6 67 85 3e e3 32 01 3f
       0.27570236 0.4286241 0.26055878 0.5046827
0001e0 21 1f cc 3e 1b f8 97 3e 56 7d ac 3e f3 20 e7 3e
       0.398675 0.29681477 0.33689374 0.45142326
0001f0 ad 60 cc 3e 0e cf a6 3e 57 25 82 3e a4 9a 14 3f
       0.39917508 0.32579845 0.25419113 0.5804846
000200 75 e8 a7 3d 36 ef a9 bd 14 91 24 bd 23 f2 89 bd
       0.081986345 -0.08297579 -0.04017742 -0.06735637
000210 08 ae 2b 3d 86 eb 90 bd 25 d6 5a bd f5 06 b0 3c
       0.041914016 -0.070761725 -0.05342688 0.021487692
000220 6e d7 dd bb e6 c1 cb 3c e9 d4 a9 3d 7b 6b a3 3d
       -0.006770066 0.024872731 0.082925625 0.07979485
000230 f6 e6 59 3e c3 13 a9 3d 9f 7a 91 3d bf ea a1 bd
       0.21279511 0.082557224 0.07103466 -0.079061024
000240 f7 91 8c bc cb 78 ca bc fc 86 29 3e e9 2c 4e 3d
       -0.017159445 -0.024715802 0.16555399 0.0503358
000250 70 85 86 bc ea 40 c0 bd bd 67 8e 3d f5 1f 35 3d
       -0.01642105 -0.093873814 0.0695338 0.04421993
000260 2c 81 d7 bd 8e a6 12 bd c1 84 59 3d da f0 81 3d
       -0.105226845 -0.03580337 0.05310512 0.06344767
000270 60 31 4b 3d b1 73 45 3b 6b 24 25 3d 61 d0 ad 3d
       0.049607635 0.0030128772 0.040317934 0.08487011
000280 fb 10 de 3d 6f 1d 92 bd 84 50 28 bc e3 37 4e 3d
       0.108430825 -0.0713452 -0.010273103 0.050346266
000290 2d 77 c0 bc 1c 8e 7a 3c cf 05 68 bd ec 36 98 3d
       -0.023494327 0.015292671 -0.056646165 0.074323505
0002a0 66 c4 ac 3d de 4e 05 be e7 d2 cc bd f2 ea 11 3e
       0.084358975 -0.13018367 -0.10001164 0.14249781
0002b0 67 a7 92 3d 71 26 16 be 36 17 0c 3d c8 1a e5 3d
       0.07160836 -0.14663102 0.034201823 0.11186749
0002c0 2b 00 85 3d ae 88 a2 3d b8 e6 81 3d 9d 52 2b bd
       0.06494173 0.07936226 0.06342834 -0.041826833
0002d0 d7 0e da 3d a2 f7 aa bc 35 4e 46 bd fe 7a 2f bc
       0.10647362 -0.020870034 -0.048414428 -0.010710476
0002e0 55 77 a0 bd 97 58 2c bd 55 6d 33 3d b5 32 a9 3c
       -0.07835261 -0.042076673 0.04380544 0.020654062
0002f0 13 32 b2 3c f5 52 05 3e 1a 6f 91 3d 1c c7 c7 bd
       0.021752393 0.13019927 0.07101269 -0.09754774
000300 06 f2 09 3e 4f c2 fb 3c 4a 6a 7c bc cd a6 b5 bd
       0.13471231 0.030732302 -0.015406201 -0.08869705
000310 51 26 02 3e f7 9a 94 3d 7e 50 2e bd 52 d8 24 bd
       0.12709929 0.0725612 -0.042557232 -0.04024536
000320 a6 d9 74 3d 7e b7 67 3d 58 aa 9e 3d 80 ee 5f bd
       0.05977788 0.056571476 0.07747334 -0.05467081
000330 85 82 fc 3c 7a c6 86 bd de e7 f1 3d d0 1f 68 3d
       0.030823955 -0.06580825 0.11811803 0.056670964
000340 1d 59 78 3c c4 1d 0d 3d 40 10 d7 bd 82 ab 14 bd
       0.015157965 0.034452215 -0.10501146 -0.036296375
000350 28 f1 6a bd 50 91 5c 3c c0 f8 69 bd 34 f3 05 3e
       -0.05735889 0.01346238 -0.057121992 0.13081056
000360 e1 51 8b 3d 7c 7a 07 3e a5 be ce 3c 83 a3 6a bd
       0.068027265 0.13230318 0.02523739 -0.057284843
000370 80 68 22 3d 98 d4 b2 bd 0c 23 ce 3d bc 19 35 3e
       0.03965044 -0.08731955 0.100652784 0.17685598
000380 dc 68 b5 3b 51 84 ab bc 72 ab 80 3e 99 16 37 3e
       0.005536182 -0.020937117 0.25130802 0.17879714
000390 d5 6c 04 3e d7 1e a0 bd a7 b5 b0 3d dc ee 91 3d
       0.12932141 -0.07818382 0.086283974 0.07125637
0003a0 0b e2 f7 bd b9 f9 8f bd 74 30 1c bd 3e d5 3f bd
       -0.12103661 -0.07030053 -0.038132146 -0.046834223
0003b0 a4 f5 73 bc 0f 4e 43 3c c8 56 82 3d 2f f5 60 bd
       -0.014890108 0.011920466 0.063642085 -0.054921325
0003c0 06 57 22 bb d1 ed 28 3d fa 43 06 bd 9b 99 4c 3d
       -0.0024771108 0.041242424 -0.03277967 0.049951177
0003d0 59 17 2c 3d a7 88 85 ba e7 1f c2 bd 29 eb 0e 3c
       0.042014454 -0.001018782 -0.09478741 0.008723059
0003e0 c7 24 83 bd ea 97 0a 3b eb ea af bc 04 1c b8 3d
       -0.06403499 0.0021147677 -0.021474322 0.089897186
0003f0 1f bd 84 3c 85 85 5e bc 83 30 83 bd 96 1b b6 3d
       0.016203461 -0.013581638 -0.06405737 0.0889198

decoder.weight f4 [128, 128]
000000 a0 04 90 be 31 26 38 3d 04 bf 89 3e 74 dc 83 be
       -0.2812853 0.044958297 0.26903546 -0.2575413
000010 d7 5d 57 3e 42 3f 3a 3d d7 7f db bd 4c 90 09 3e
       0.21031891 0.045470484 -0.10717743 0.13433951
000020 aa 99 41 3e 24 71 8c 3e d4 91 23 be 6d 75 fe bd
       0.18906274 0.2743007 -0.15973598 -0.12424741
000030 28 2c cd 3d 3b 3a a1 bd a5 53 3c 3e 40 a3 24 3d
       0.10018188 -0.07872435 0.18391283 0.04019475
000040 37 1d 02 3e 48 aa a5 bd 8e 63 6a 3e de 56 28 3e
       0.12706457 -0.08089119 0.2288954 0.16439387
000050 e7 af f4 bd cb 17 aa bd c0 df 55 3d 9a 3a 84 3e
       -0.11947613 -0.083053194 0.052215338 0.2582596
000060 09 36 23 be 9b 39 a8 bb 8c ae 61 3e 31 5c cb bd
       -0.15938582 -0.00513382 0.2203924 -0.099296935
000070 a7 44 1a be 7c c1 a0 3e 93 ad f9 3d 86 a0 b0 be
       -0.15065251 0.31397617 0.1219131 -0.3449747
000080 57 3a 12 be 18 e1 65 be 8f b4 fe bd 9a d1 69 3e
       -0.14280067 -0.22449148 -0.124367826 0.22833863
000090 c6 a0 5d be 47 a7 fd 3d 60 7d e8 bd a1 d5 17 be
       -0.21643361 0.12385421 -0.113520384 -0.14827587
0000a0 e6 0e cd bd 2f 35 50 3e f4 b8 b1 bd f0 7b 7b 3e
       -0.10012607 0.20332788 -0.08677855 0.24558997
0000b0 70 78 50 3e 01 76 10 be 34 87 82 3d 0e 03 6b be
       0.20358443 -0.14107515 0.06373444 -0.22950384
0000c0 d8 97 00 be 88 e2 a3 be 6a 46 91 be 4d c8 b0 3d
       -0.12557924 -0.32008767 -0.28374034 0.08631954
0000d0 66 02 28 be c1 de 51 be d7 87 1c be d2 d5 58 be
       -0.16407165 -0.2049513 -0.15286194 -0.21175316
0000e0 fa bd d9 bd 06 67 12 be 84 49 86 3e c4 f9 51 be
       -0.10631938 -0.14297113 0.26227963 -0.20505434
0000f0 5d c6 0d be 0f 4f 27 be f4 ed 4d bd 37 73 d7 bd
       -0.13845201 -0.16338752 -0.050275758 -0.10520022
000100 5b 01 1c 3e 6b 21 5f be 23 d1 0c be e7 cc 7d 3e
       0.15234892 -0.21790092 -0.13751654 0.24785195
000110 10 b0 f7 3d b0 89 b9 bd d0 b2 27 be c8 a9 3c be
       0.12094128 -0.09059465 -0.16376805 -0.18424141
000120 9c 1d 31 3e f0 46 44 3e 9c 4b 3a be e2 1e 0b 3d
       0.17296451 0.19167686 -0.18192905 0.033965
000130 ff 9f 0e be 25 40 40 3e bc 8e 68 be 21 4b 02 be
       -0.13928221 0.18774469 -0.22710699 -0.12723972
000140 b7 5b f9 bd b6 0a a0 3d 81 63 09 be 9f ab 68 be
       -0.12175696 0.07814543 -0.13416864 -0.22721718
000150 a4 13 89 3e 92 ce 00 be e9 54 0f 3e b6 3a c4 bd
       0.26772797 -0.125788 0.13997234 -0.09581511
000160 d5 9d 81 be 1f e1 ad be ab 37 7a be 55 18 63 3e
       -0.2531573 -0.33960816 -0.24435298 0.2217725
000170 f3 b3 28 be 4c 5b cb 3d 23 73 8f be 47 2b 61 3e
       -0.16474895 0.09929523 -0.2801753 0.21989165
000180 30 f4 1b 3e 98 64 f0 3c c5 39 fc be 7d 40 61 be
       0.15229869 0.029344842 -0.49262825 -0.21997257
000190 12 a3 d7 bd c9 fb 4b be a8 92 f3 bc 1e e5 8e 3e
       -0.1052915 -0.19920267 -0.029733017 0.27909178
0001a0 b7 cc a3 bd 52 f5 10 be 7c 18 5a 3e 7d 39 7c 3e
       -0.07998031 -0.14156082 0.21298403 0.24631305
0001b0 f2 61 38 3e 5e cf 27 bd 4a 42 32 3e 24 c6 be bd
       0.18006113 -0.040969245 0.174081 -0.09315136
0001c0 7d 3a 49 be 1c db 4b be 89 8a 37 be 76 28 94 3e
       -0.19651218 -0.19907802 -0.1792394 0.2893712
0001d0 3e 7e 42 3e 2a 55 28 3e 08 c0 3a be 69 46 52 bd
       0.1899347 0.16438738 -0.18237317 -0.05133668
0001e0 91 26 1e be cc 66 38 3d 18 a2 fe bd 11 d3 75 3e
       -0.154444 0.04501991 -0.12433261 0.24006297
0001f0 f9 ab 47 be b0 ac 20 be bc d9 08 3e d1 89 e4 bd
       -0.19499196 -0.15690875 0.13364309 -0.11159099
000200 0e 17 12 3e e3 87 86 3d a7 b3 66 be f3 cb 64 3e
       0.14266607 0.06568887 -0.2252947 0.22343425
000210 9b 64 8e be 2f 1c 5c 3e 94 ad 41 3d df 7c d9 bd
       -0.2781113 0.21495126 0.047284678 -0.106195204
000220 08 7f 48 be b4 f6 14 be 95 50 81 3d a8 48 36 3e
       -0.19579709 -0.14547235 0.06314198 0.17801154
000230 40 92 40 be 06 57 a9 3d 88 8f 79 be c4 fd 37 3e
       -0.1880579 0.082685515 -0.24371159 0.17967898
000240 8d 8f 62 be 34 fb ed 3d 4e 5b 91 be e1 1a bf bd
       -0.22125073 0.11620179 -0.28389972 -0.093312986
000250 1d 74 20 be f7 64 35 3e 70 0f b6 bd f5 33 26 be
       -0.15669294 0.17714296 -0.08889663 -0.16230758
000260 1f a3 10 3e d2 17 b9 3d f9 43 09 be 79 ab cb 3c
       0.14124726 0.090377465 -0.13404836 0.024862038
000270 24 90 ff 3d f9 42 19 bf ac fd 01 be 1a 1f 73 3e
       0.124786645 -0.5986782 -0.12694424 0.23742333
000280 50 1b 11 3d b0 7c 78 3d 1d 58 38 3e 4d 9d 22 3c
       0.035426438 0.060665786 0.18002363 0.009925199
000290 c3 d8 b0 bc ef f3 e4 bd f8 95 58 3e 9d 71 dd 3d
       -0.021587735 -0.11179339 0.21150959 0.10812686
0002a0 8e 38 3d 3e 0e 73 b0 bc 77 c3 07 3e f3 32 23 be
       0.18478605 -0.021539237 0.13258158 -0.15937404
0002b0 81 91 5b bd 4e 91 cc 3d 0b 88 c3 bd eb a7 69 3e
       -0.05360556 0.09988652 -0.095474325 0.22817962
0002c0 6d 22 58 3e cf 37 39 3e 42 54 51 3e 2c 6d d4 bd
       0.21106882 0.18087696 0.20442298 -0.103723854
0002d0 3a 5b 1d 3e 87 2c c9 3d 40 46 35 3e 4f 32 22 3c
       0.15366831 0.09822946 0.1770258 0.00989969
0002e0 54 37 16 3e f1 59 3c 3e b5 62 82 be 0a 5d e4 3d
       0.14669544 0.18393685 -0.25465932 0.11150558
0002f0 4f cf 18 3e ee 18 bf 3d b1 6a 11 3e 95 f4 b5 3d
       0.14922832 0.09330927 0.14200856 0.08884541
000300 49 1e 71 be f0 6b c8 3d 4e 4e 1c 3e 54 c9 32 be
       -0.23546709 0.097862124 0.15264246 -0.17459613
000310 f6 c3 76 bd ac f3 3e 3e 46 b0 93 3d 7d db 9c 3d
       -0.060245477 0.18647641 0.07211356 0.076590516
000320 fc 95 3f bd b2 c7 87 be 3f a8 20 3e 8e a2 29 be
       -0.046773896 -0.26519543 0.15689181 -0.16565916
000330 0c d2 2f 3e c3 62 3a be e5 86 2f 3d 2f c3 9c 3e
       0.1716997 -0.18201737 0.042853255 0.30617663
000340 f1 6c 3b 3e 2c e9 12 be 82 16 76 3e 25 d5 e0 3d
       0.18303277 -0.1434676 0.24032024 0.10978154
000350 29 ef 2a be 81 08 09 bc 0e 24 52 be 46 54 5a 3e
       -0.16692795 -0.008363844 -0.20521566 0.2132121
000360 14 5b 50 3e da fa 3f 3e f2 94 6d 3e 3a 66 8d bd
       0.20347244 0.18748036 0.2320135 -0.06904264
000370 7b 3b 3c 3e 7e 13 0c be ab 91 8c 3e f3 eb fe bd
       0.18382065 -0.1367931 0.27454886 -0.124473475
000380 d2 a1 5e 3e cd cb 23 3e 65 72 88 3d 2f 12 0b 3e
       0.21741417 0.15995713 0.06662444 0.13581155
000390 cd ad 58 3e f1 65 0d 3e ea de 04 3e 2c 23 d0 bd
       0.2116005 0.13808419 0.1297566 -0.101629585
0003a0 87 cf 93 3d 1e 4f 3f 3e b5 18 df bd d1 df 34 be
       0.07217317 0.18682525 -0.10893384 -0.17663504
0003b0 12 2e 15 be 51 df be 3d 84 61 30 be 88 3c e0 3d
       -0.14568356 0.09319938 -0.172247 0.109490454
0003c0 fb 02 8f 3e 9d b7 0f 3e f2 06 cd 3d e1 11 70 be
       0.2793196 0.14034887 0.1001109 -0.2344432
0003d0 2c 4f ad bd 84 78 71 bd 92 ab e6 3d 7b 56 10 3e
       -0.084623665 -0.058952823 0.11263193 0.1409549
0003e0 7b 6f 71 3e 3d 3f 9d bc 03 62 81 3d f0 28 d3 bd
       0.23577683 -0.019195193 0.063175224 -0.103105426
0003f0 4b c4 11 3e b6 e9 11 3d 25 58 85 be 73 2f 84 3d
       0.14235036 0.035623275 -0.2604381 0.06454363

decoder.bias f4 [128]
000000 2f a5 6f 3e eb 54 47 be 79 17 44 be f7 9e 32 be
       0.23402856 -0.19465987 -0.19149579 -0.17443453
000010 b5 0b 4e be 3d db 03 bd bd 5b 1e be 93 1b f1 bd
       -0.20121653 -0.032191504 -0.15464683 -0.117728375
000020 8a 34 57 be 37 4b e5 bd 66 a6 41 bd 50 be 05 bd
       -0.21016136 -0.11195987 -0.04727783 -0.0326522
000030 cf 91 92 bd 0e d8 56 bd 84 db 45 be be ef 3d be
       -0.07156717 -0.05245214 -0.1932202 -0.18548486
000040 cb 71 14 be 54 bb f3 bd c0 98 25 be 74 8b 2a be
       -0.14496534 -0.119009644 -0.16171551 -0.1665476
000050 2b e2 9e bd a2 35 01 be 36 7f 08 be b9 31 34 be
       -0.07757982 -0.12618116 -0.13329777 -0.17597093
000060 b7 8e 8a bd 8d 6e 99 bd 87 01 eb bd 28 19 3c bd
       -0.06765502 -0.07491789 -0.11474901 -0.04592243
000070 13 98 41 be f0 0f 25 be 54 18 5c bd f5 28 d6 bd
       -0.18905668 -0.16119361 -0.05373414 -0.10457031
000080 77 10 78 bd 70 db ba bd 06 10 2e be e8 58 25 be
       -0.060562577 -0.09123886 -0.169983 -0.16147196
000090 2f b4 d9 bd d9 67 2a be c8 5c 89 bd b3 f6 e9 bd
       -0.106300704 -0.16641177 -0.0670715 -0.11424007
0000a0 33 44 81 bd d0 c4 0c be 07 88 1e be 48 0c 0f bd
       -0.06311836 -0.13746953 -0.15481578 -0.03492382
0000b0 c0 72 b7 bd 02 ce cd bd f1 4f da 3c a1 a8 bb bc
       -0.08957434 -0.100490585 0.026649447 -0.022907557
0000c0 a7 e5 ff bd 1a 30 c0 bd e8 c6 f7 3c 66 65 53 bd
       -0.124949746 -0.09384175 0.030246213 -0.051610373
0000d0 28 5f c7 bd 33 cf dc bc 5a 43 85 3d 7c 05 2b be
       -0.097349465 -0.026954269 0.06506987 -0.16701311
0000e0 4e 98 d1 bd 71 32 00 3d 32 65 81 3d 93 d6 1f bd
       -0.10234128 0.031298105 0.063181296 -0.039022993
0000f0 04 69 8f 3d de cc 6f bd 39 c5 19 3d 41 49 19 3d
       0.07002452 -0.058544986 0.0375416 0.037423376
000100 3d ab a7 3c 46 e4 80 3b f9 56 99 3b d8 0b 8f 3d
       0.020467395 0.0039334623 0.0046795574 0.06984681
000110 8b 0a b4 3c da ad 2b bd ff 89 8b 3d 3f 1e 1e 3c
       0.021977684 -0.041913845 0.0681343 0.009650766
000120 a6 7c 13 3d 4e b4 68 bd 30 6d 5e 3c bc 85 ac bb
       0.036007546 -0.056812577 0.013575837 -0.005264966
000130 a0 bb 36 3c 6a 97 83 3d 18 0e c8 3c de 0f a9 3d
       0.011153132 0.06425364 0.024420783 0.082549796
000140 bd d7 62 3c 21 b3 e8 3d 3d 81 1e bc e0 d7 88 3d
       0.013845381 0.11362291 -0.0096743675 0.066818
000150 e8 04 bd 3d e5 82 18 3d 62 e6 5b 3d 4f d9 0e be
       0.092294514 0.037234206 0.053686507 -0.13950084
000160 5b 77 e3 bd 70 67 64 bd 1d 92 27 bd 13 84 8b bd
       -0.111067496 -0.05576271 -0.04091083 -0.068123005
000170 7a 77 81 3d ec 93 99 bc cc 67 0b bc d5 06 0a be
       0.063216165 -0.018747292 -0.008508634 -0.13479169
000180 51 b2 9b bd b8 18 12 be e5 ee c4 bd 14 d6 fc bd
       -0.076023705 -0.14267242 -0.09615878 -0.1234552
000190 7c 4f ab bd 6e e7 24 be c3 67 df bd d1 a8 07 be
       -0.0836477 -0.16103908 -0.10908463 -0.13247992
0001a0 1d a7 45 be 77 44 e7 bc ad 2d ab bd 4e 03 25 be
       -0.1930203 -0.028230889 -0.08358321 -0.16114542
0001b0 27 8c 24 be ec 0c 04 be a1 72 0c bd 4b 44 0d be
       -0.16069089 -0.12895554 -0.034289006 -0.13795583
0001c0 b3 2f 03 be a0 0f 86 bd fb 4d 42 bd e9 23 b8 bd
       -0.12811165 -0.06545949 -0.04743765 -0.08991224
0001d0 59 6a 42 be 8a fd 3c bd fd 04 bf bd 6a 1f 12 be
       -0.18985881 -0.04614023 -0.09327123 -0.14269796
0001e0 80 0e c5 bd 16 a9 da bd 6d 95 ff bd 92 64 c8 bd
       -0.09621906 -0.10676782 -0.124796726 -0.09784807
0001f0 33 59 4e be 34 bc b5 bd 24 86 83 bd cf a2 f8 bd
       -0.20151214 -0.088737875 -0.0642207 -0.12140428
