models/notecnn.model (torch, 974470 bytes, 7 tensors)

embedding.weight f4 [128, 32]
1.1690838 -0.35793033 -0.38197243 1.0369825 0.8332055 -0.81531936 -0.06264174 0.21750844
-0.018414937 0.5168953 0.23020744 1.8812813 -1.3355403 0.4235078 0.6036349 0.4338565
1.5851283 -1.5071148 0.28448686 -0.8401589 -0.59027076 -0.15087348 0.9173893 -0.15573262
0.81846726 -0.4070845 1.0706896 0.4856397 -1.3094901 -0.22107655 0.6139346 -1.8552169
1.233329 0.8580796 -0.68665314 -0.6588742 -0.9933268 0.006847847 -1.1955703 -0.01131959
-0.022837618 -1.6121802 0.43272337 0.57826185 -0.12498366 -0.49666423 0.2080113 0.015962573
-0.82690567 0.036837313 -0.35016337 -0.24155235 -0.17361186 1.1322794 -2.2980902 1.4850316
0.6588285 1.7060823 -1.645092 -1.1446717 -1.0003544 0.8444112 -2.0910137 -0.9270107
-0.6495988 1.2956135 0.6813398 -0.551363 -1.5400555 -0.6002574 1.2722106 -0.508948
0.4224126 -1.2355423 0.82269514 -0.79081905 -0.5268699 -1.5059861 -0.26726845 -1.3499254
-0.4468426 -1.9751034 -1.3102612 1.4832383 -1.3966333 1.899025 -1.1465046 -0.9536801
0.6141601 -0.48836643 -1.1943226 -0.57902604 0.5737976 -0.80336654 0.47037745 0.29598433
0.98368007 -0.24797946 2.591582 0.49585438 0.05026229 -0.52941716 -1.3994217 1.1525196
-0.8229557 1.0786552 -0.54194444 0.22769949 -0.9898512 -1.6570337 1.5680207 -1.947743
-0.8003102 0.9597065 0.91427743 0.02115782 -1.0444343 0.9656022 -1.6759337 -1.5799782
-0.4398672 -1.246872 -0.7647721 -1.011968 0.95797944 -1.7704595 -0.8126799 -0.3270908
-0.48478925 0.24387017 1.165448 0.9320771 0.44908217 -0.46870312 -0.6885377 1.9992396
1.962512 0.6517812 -0.27060124 -0.32237566 -0.6408791 0.2465072 0.64321077 -0.9661181
0.7245748 0.2715899 -0.6273118 -1.1408225 0.9636325 -1.3152921 2.3980649 -0.7870559
-0.55970466 -0.2518503 -0.24857016 -1.1640244 -0.09213828 -1.4555851 0.53971684 0.97994345
0.19951648 1.9198029 1.0931524 0.29962006 -0.35804585 -0.5320184 -0.20448923 -0.20726785
-1.1980636 1.5240692 0.41290796 -0.66452813 0.7640165 1.2520278 0.31887034 -0.8023496
-0.7948637 -0.5998125 -1.7947869 -0.31390804 -0.8988017 -0.1954397 0.8253483 1.2167372
0.71834725 1.7717185 -1.0945606 -0.9999862 0.22503826 -0.17100213 -0.21631545 -0.15271696
0.27305824 0.7193798 -0.20707993 -1.2687428 0.18719159 1.0917956 0.51442623 -2.209939
1.1118034 -0.49375087 -1.536258 -1.5068519 -0.8333671 -0.23907894 0.9839637 0.49511573
-1.1241137 0.96083647 1.2554407 -1.6409719 -0.99515784 -0.3001854 -0.06808532 -1.9827342
0.7223357 -0.50080943 -0.22368632 0.49448273 -0.0344981 -1.4590886 -1.5470281 0.6860345
1.21145 0.2671889 -1.1503778 -0.41792277 0.32041726 -0.5925091 -0.35845464 1.654355
1.7110469 1.3569137 0.4556163 -1.8423616 -0.62148786 1.2553267 -0.12748943 0.054247085
-1.09876 1.9001517 -1.9548869 0.55009353 -0.28261742 0.11547548 0.91122794 -1.6086019
-0.7496123 0.8429726 1.409828 1.3619881 -0.77185315 -0.7920085 -0.2799417 0.16377713
00000000: 8aa4 953f a542 b7be e491 c3be d8bb 843f
00000010: f54c 553f c5b8 50bf 504a 80bd 88ba 5e3e
00000020: ecda 96bc 4053 043f 80bb 6b3e d3cd f03f
00000030: fcf2 aabf 04d6 d83e d187 1a3f 7022 de3e
00000040: 7ce5 ca3f 23e9 c0bf 43a8 913e a714 57bf
00000050: fc1b 17bf 947e 1abe 06da 6a3f 5f78 1fbe
00000060: 1287 513f 616d d0be 5b0c 893f c4a5 f83e
00000070: 5f9d a7bf e461 62be d12a 1d3f bf77 edbf
00000080: badd 9d3f 1bab 5b3f 80c8 2fbf fbab 28bf
00000090: aa4a 7ebf e763 e03b 7308 99bf cd75 39bc
000000a0: f515 bbbc ec5b cebf eb8d dd3e f808 143f
000000b0: 6ff7 ffbd c64a febe ea00 553e f1c3 823c
000000c0: 17b0 53bf b9e2 163d 9d48 b3be 8059 77be
000000d0: 4fc7 31be 88ee 903f e913 13c0 8415 be3f
000000e0: fca8 283f e860 da3f 6092 d2bf 9a84 92bf
000000f0: 9d0b 80bf 552b 583f 2bd3 05c0 9350 6dbf
00000100: 1b4c 26bf aad6 a53f 496c 2e3f 2026 0dbf
00000110: 8a20 c5bf 78aa 19bf ccd7 a23f 6b4a 02bf
00000120: 7746 d83e 4026 9ebf 269c 523f 1e73 4abf
00000130: f2e0 06bf 27c4 c0bf 69d7 88be 5bca acbf
00000140: 8ec8 e4be 30d0 fcbf a4b6 a7bf c1da bd3f
00000150: e1c4 b2bf 4013 f33f aac0 92bf 6124 74bf
00000160: 9939 1d3f 2a0b fabe 90df 98bf 0d3b 14bf
00000170: 66e4 123f 6ea9 4dbf 50d5 f03e 428b 973e
00000180: 75d2 7b3f 54ee 7dbe 7bdc 2540 a0e0 fd3e
00000190: d5df 4d3d e287 07bf 4020 b3bf c385 933f
000001a0: 3aad 52bf 6011 8a3f dfbc 0abf 0e2a 693e
000001b0: e366 7dbf ae19 d4bf e7b4 c83f a54f f9bf
000001c0: 21e1 4cbf 53af 753f 160e 6a3f 2a53 ad3c
000001d0: 06b0 85bf b531 773f ff84 d6bf ba3c cabf
000001e0: 4636 e1be 8099 9fbf 1bc8 43bf 2b88 81bf
000001f0: 243e 753f 6b9e e2bf ca0b 50bf 7278 a7be
00000200: 4c36 f8be 1ab9 793e 662d 953f 9b9c 6e3f
00000210: 19ee e53e dbf9 efbe 0244 30bf 15e7 ff3f
00000220: 9833 fb3f 22db 263f 3f8c 8abe 6c0e a5be
00000230: a710 24bf 626c 7c3e 76a9 243f 8453 77bf
00000240: bc7d 393f d50d 8b3e 8297 20bf 7906 92bf
00000250: 9fb0 763f 7e5b a8bf e579 1940 7f7c 49bf
00000260: ce48 0fbf 86f2 80be 2d89 7ebe c0fe 94bf
00000270: ffb2 bcbd 9d50 babf e22a 0a3f 93dd 7a3f
00000280: 0c4e 4c3e 1abc f53f 6bec 8b3f cd67 993e
00000290: c951 b7be 5c32 08bf a065 51be 063e 54be
000002a0: 265a 99bf b314 c33f ac68 d33e 841e 2abf
000002b0: 9696 433f 7242 a03f f942 a33e c966 4dbf
000002c0: 307c 4bbf 508d 19bf 94bb e5bf 8eb8 a0be
000002d0: de17 66bf 5821 48be 074a 533f 0bbe 9b3f
000002e0: 9be5 373f acc7 e23f 901a 8cbf 18ff 7fbf
000002f0: 6e70 663e 2f1b 2fbe cc81 5dbe d661 1cbe
00000300: 4ace 8b3e 4629 383f c30c 54be 2a66 a2bf
00000310: 27af 3f3e f5bf 8b3f 70b1 033f a46f 0dc0
00000320: 934f 8e3f eacc fcbe 1aa4 c4bf 86e0 c0bf
00000330: 8c57 55bf 1cd1 74be 0ce5 7b3f cf7f fd3e
00000340: f5e2 8fbf 61f9 753f 48b2 a03f 5e0b d2bf
00000350: aac2 7ebf e7b1 99be 5170 8bbd 3cca fdbf
00000360: feea 383f 0c35 00bf 070e 65be d72c fd3e
00000370: e14d 0dbd 6ac3 babf 0405 c6bf f59f 2f3f
00000380: cb10 9b3f fccc 883e 943f 93bf f9f9 d5be
00000390: bb0d a43e adae 17bf 5e87 b7be e8c1 d33f
000003a0: 9603 db3f 59af ad3f 8a46 e93e 81d2 ebbf
000003b0: d419 1fbf 8cae a03f 978c 02be 3132 5e3d
000003c0: 2ba4 8cbf 2c38 f33f bc39 fabf eed2 0c3f
000003d0: 3bb3 90be 697e ec3d 3c46 693f abe6 cdbf
000003e0: 97e6 3fbf 0dcd 573f 3e75 b43f a055 ae3f
000003f0: 2b98 45bf 12c1 4abf 8554 8fbe 31b5 273e

conv_block.0.weight f4 [32, 32, 3]
0.009584773 -0.04622033 -0.15325063 -0.25507066 0.14581533 0.02376388 -0.026958896 -0.15480697
0.08098728 0.13571467 -0.035134353 0.37532857 0.203916 -0.089343354 0.062819704 -0.07077327
0.3819399 -0.0070051723 0.06857175 -0.0802728 -0.05826499 0.15361519 0.26579216 -0.13802977
-0.22461425 -0.045822427 0.0048581846 -0.11906405 -0.20550242 0.04120744 0.041320436 0.122767955
-0.11443913 -0.11326881 0.15831569 -0.02533056 -0.10976801 -0.25145033 -0.08617663 0.4033443
-0.108018294 -0.11737338 -0.19837461 0.0021737572 -0.032529272 -0.1691676 0.18432659 -0.020156737
0.3938868 -0.06404225 -0.068891205 0.11384682 0.15222529 0.21896613 -0.020779643 -0.13477202
-0.16635163 0.17862536 0.3010033 0.045068573 -0.18687795 0.18424658 0.3225327 0.12039882
-0.15642315 0.062074777 -0.017605469 0.06612928 -0.18854733 -0.019342568 -0.16518413 0.39426166
-0.24696374 -0.19163673 0.15681393 -0.5339539 0.026919346 -0.3419661 0.3708816 -0.03924466
-0.3589489 0.6040717 -0.21888548 0.21247955 -0.18603489 -0.44644028 0.0842872 -0.07953972
-0.033581246 -0.094778515 -0.31900442 0.09183706 -0.24047174 0.6110147 -0.572165 -0.5747547
0.17692393 0.049896725 -0.111574546 -0.27051818 0.27611956 -0.020920072 -0.012575164 0.22809608
-0.024127526 0.20745282 0.25082207 -0.049572743 0.025145553 0.03768944 0.052083362 -0.08331948
-0.2925755 0.11251905 0.053991724 0.20485565 0.12068344 -0.12275631 -0.08288275 -0.13385189
-0.16973709 -0.112112924 0.1437887 0.05705266 -0.02865475 0.07486859 -0.14253752 0.18788455
0.024055356 0.15126464 0.10560419 0.202723 -0.30576187 -0.064121395 -0.21542555 -0.054297388
-0.09299568 -0.21693516 0.14172482 -0.16627349 0.31610686 0.21234505 0.04655133 0.3598943
-0.1441662 -0.055063244 -0.065029144 0.16003387 0.06935107 0.17879538 0.008553375 -0.18234281
-0.18368292 -0.0657055 0.21726303 -0.108844526 0.15948449 -0.27155453 -0.27485967 -0.095380805
-0.15629153 0.1653758 0.14306869 0.1589265 -0.15344556 -0.018751541 0.20037459 0.19061765
-0.4206087 -0.08351952 0.16195728 0.23397377 -0.3421677 -0.076969996 -0.040500544 0.23733872
-0.5711409 -0.40315592 0.49863768 0.17961398 0.22561584 -0.42156047 0.11135851 0.41924706
-0.14962351 -0.17716749 0.13682094 0.35412297 -0.214257 0.4527634 -0.7183429 0.27030584
0.35349184 0.37230736 0.08696246 0.06406183 -0.050067734 -0.11072817 0.20270228 -0.13633604
0.23307969 0.08189602 0.16115098 -0.1243599 -0.14424908 0.12943979 -0.10690242 -0.077261046
-0.25094882 0.06295004 0.22237799 -0.193797 0.048818037 -0.106984474 -0.26025635 0.1504077
0.21627866 0.22490495 -0.23685351 -0.08218679 0.041354403 0.06924982 0.18064412 -0.13302425
-0.012133541 0.17072341 0.07091249 -0.0877988 0.30479425 0.119937345 0.073055744 0.1358738
0.027732322 -0.23373532 -0.23316406 0.12797481 0.099240825 0.33893076 -0.048840795 -0.10452142
-0.17584236 0.00545336 0.197691 -0.25632375 0.04365781 -0.018850645 -0.037070476 0.090271264
-0.036896136 0.27121112 -0.0146836415 0.2239794 -0.03293023 0.27658278 -0.147884 0.23947535
00000000: 7409 1d3c 8751 3dbd bced 1cbe 9f98 82be
00000010: 9d50 153e 78ac c23c e7d8 dcbc b885 1ebe
00000020: a9dc a53d c9f8 0a3e 0ae9 0fbd 112b c03e
00000030: 5bcf 503e a6f9 b6bd 9ea7 803d 94f1 90bd
00000040: a08d c33e a58b e5bb 586f 8c3d 1166 a4bd
00000050: 45a7 6ebd 4d4d 1d3e e915 883e ad57 0dbe
00000060: 4701 66be 4cb0 3bbd 6831 9f3b dad7 f3bd
00000070: 3a6f 52be 22c9 283d 9e3f 293d c46d fb3d
00000080: 105f eabd 7af9 e7bd 821d 223e 0982 cfbc
00000090: 0dce e0bd 19be 80be 5f7d b0bd 2583 ce3e
000000a0: b238 ddbd 7461 f0bd b722 4bbe 9875 0e3b
000000b0: 6a3d 05bd 453a 2dbe 1cc0 3c3e be1f a5bc
000000c0: 88ab c93e 9528 83bd d516 8dbd 8628 e93d
000000d0: f2e0 1b3e a838 603e 123a aabc ad01 0abe
000000e0: 1558 2abe 91e9 363e 1b1d 9a3e d399 383d
000000f0: ef5c 3fbe 23ab 3c3e 0223 a53e a893 f63d
00000100: 642d 20be 1f42 7e3d 5839 90bc ca6e 873d
00000110: 8d12 41be 4e74 9ebc 0726 29be aadc c93e
00000120: 10e4 7cbe 6b3c 44be d593 203e 34b1 08bf
00000130: f685 dc3c 2e16 afbe 31e4 bd3e 02bf 20bd
00000140: 26c8 b7be 71a4 1a3f 8423 60be 3d94 593e
00000150: ee7f 3ebe d293 e4be c49e ac3d b9e5 a2bd
00000160: 7d8c 09bd 3d1b c2bd 8c54 a3be 1215 bc3d
00000170: 393e 76be 766b 1c3f 6879 12bf 2023 13bf
00000180: 8c2b 353e 8260 4c3d 3281 e4bd 5c81 8abe
00000190: 8b5f 8d3e 9260 abbc 1008 4ebc 0592 693e
000001a0: 17a7 c5bc 836e 543e c06b 803e ca0c 4bbd
000001b0: 0cfe cd3c 3e60 1a3d 5d55 553d 67a3 aabd
000001c0: 75cc 95be 6370 e63d 6d26 5d3d aec5 513e
000001d0: e128 f73d a967 fbbd 6ebe a9bd 7810 09be
000001e0: 8fcf 2dbe 769b e5bd 583d 133e 0db0 693d
000001f0: 5ebd eabc b454 993d 5bf5 11be cf64 403e
00000200: bd0f c53c 1ee5 1a3e 0247 d83d 9e96 4f3e
00000210: d28c 9cbe 1452 83bd 8498 5cbe f066 5ebd
00000220: 8574 bebd 4024 5ebe 5020 113e 9943 2abe
00000230: c2d8 a13e fb70 593e 9bac 3e3d 1144 b83e
00000240: 4ea0 13be ff89 61bd 002e 85bd ebdf 233e
00000250: ef07 8e3d 2316 373e 7423 0c3c 13b8 3abe
00000260: 6017 3cbe 9b90 86bd 337a 5e3e e1e9 debd
00000270: e74f 233e 3209 8bbe 68ba 8cbe 0357 c3bd
00000280: e30a 20be 4658 293e 9980 123e a1bd 223e
00000290: d520 1dbe d59c 99bc ff2e 4d3e 4631 433e
000002a0: 065a d7be 480c abbd 21d8 253e d296 6f3e
000002b0: 9b30 afbe 72a2 9dbd e6e3 25bd ec08 733e
000002c0: 4a36 12bf 746a cebe 704d ff3e baec 373e
000002d0: d707 673e c6d6 d7be ee0f e43d 8da7 d63e
000002e0: e836 19be 656b 35be ca1a 0c3e 9b4f b53e
000002f0: 3066 5bbe 9bd0 e73e 52e5 37bf 8765 8a3e
00000300: e2fc b43e 129f be3e 6019 b23d d932 833d
00000310: d313 4dbd 73c5 e2bd 3091 4f3e ad9b 0bbe
00000320: 71ac 6e3e 1ab9 a73d c304 253e 67b0 febd
00000330: 08b6 13be dd8b 043e a8ef dabd 0a3b 9ebd
00000340: 5d7c 80be f3eb 803d 0eb7 633e b972 46be
00000350: 6cf5 473d ad1a dbbd 5240 85be 7a04 1a3e
00000360: 2778 5d3e 7c4d 663e ba89 72be 8c51 a8bd
00000370: 3c63 293d dad2 8d3d c6fa 383e 8237 08be
00000380: c2cb 46bc 1ed2 2e3e 913a 913d dbcf b3bd
00000390: fe0d 9c3e b6a1 f53d 409e 953d 8022 0b3e
000003a0: e52e e33c 5058 6fbe 8fc2 6ebe d40b 033e
000003b0: c63e cb3d 5588 ad3e 490d 48bd 540f d6bd
000003c0: 0510 34be 19b2 b23b 826f 4a3e de3c 83be
000003d0: 88d2 323d ab6c 9abc 36d7 17bd 24e0 b83d
000003e0: 6720 17bd 2fdc 8a3e a893 70bc db5a 653e
000003f0: d9e1 06bd 429c 8d3e e76e 17be 0739 753e

conv_block.0.bias f4 [32]
-0.016017433 -0.3107306 -0.5231926 -0.36130747 -0.36073184 -0.5312507 -0.10046273 -0.294645
-0.08705684 -0.5102082 -0.27355552 -0.4495082 -0.41592064 -0.47860008 -0.35096854 -0.3078697
-0.34492227 -0.038806014 -0.42627865 -0.60989237 -0.1348914 -0.334003 -0.4473091 -0.22597104
-0.4963456 -0.3116434 -0.37262455 -0.50978446 -0.4869981 -0.41556844 -0.2699991 -0.2087195
00000000: fe36 83bc 1518 9fbe f3ef 05bf 4bfd b8be
00000010: d8b1 b8be 0c00 08bf 67bf cdbd b6db 96be
00000020: db4a b2bd 019d 02bf 780f 8cbe f025 e6be
00000030: 8df3 d4be 120b f5be 26b2 b3be 19a1 9dbe
00000040: a799 b0be 0ef3 1ebd 3241 dabe e821 1cbf
00000050: f920 0abe 7102 abbe b305 e5be f464 67be
00000060: 0321 febe b98f 9fbe a5c8 bebe 3c81 02bf
00000070: d157 f9be 63c5 d4be 523d 8abe 91ba 55be

conv_block.2.weight f4 [64, 32, 3]
-0.21003513 0.28811607 -0.12494038 0.0072429734 -0.012931582 0.24314438 -0.3061135 0.026013603
0.1771222 -0.038414724 0.14113314 -0.111752875 -0.9189721 0.07630876 0.038510762 0.034660235
0.31960315 0.15871559 -0.23057525 -0.004473524 -0.20366251 0.15845527 0.1256005 -0.03468737
0.05742386 0.094744325 0.28702235 -0.027022634 0.14751428 -0.08966227 0.019713365 -0.15080987
0.14840265 -0.1667862 -0.18847226 -0.26096198 -0.11016116 -0.29817322 -0.09917288 -0.50775915
0.33143187 -0.094320245 -0.43191588 -0.19817102 -0.048772223 0.07689272 0.081804685 -0.33136708
-0.07696026 0.3610303 -0.26824656 0.032209035 -0.32624042 0.048268452 -0.47210494 0.03637374
-0.153221 -0.05720404 -0.015667047 0.14700001 -0.14729315 0.057521828 -0.3589609 -0.38101172
-0.45550948 -0.15658537 -0.10512269 0.028340314 -0.09642546 0.2831998 0.11023871 -0.20358329
-0.020787906 -0.2100576 0.14789651 -0.19578432 -0.008431186 0.16841838 -0.36685565 -0.208277
0.103703886 -0.16227822 -0.0751816 -0.0066646067 -0.41630727 0.33785036 -0.024307955 -0.11010849
-0.10759179 0.08681403 0.35343945 0.10914599 -0.06569062 -0.115135245 -0.14370404 0.08625721
-0.09091953 -0.5919637 -0.039734326 0.066645 -0.4108613 0.23621427 -0.105208516 -0.0029912745
-0.25380155 -0.046693213 -0.022046812 -0.0035579763 0.08076138 -0.07467141 -0.28748074 0.04455851
-0.23076105 0.13508123 -0.24597643 -0.07069319 0.038010642 0.32781652 0.20406328 -0.09062452
-0.025870468 0.03995435 -0.09574061 -0.05801205 0.060011625 0.24236345 0.32222027 -0.21337429
-0.06921748 -0.071784936 -0.0030366783 -0.23706321 -0.11972398 -0.33722183 -0.40318447 -0.21432929
-0.016558921 -0.2640206 -0.109964706 -0.07786236 -0.17631671 -0.18832575 -0.18510133 -0.36716965
-0.19793618 -0.183082 -0.19594966 -0.10148637 -0.74797696 0.03339984 0.19440503 0.1304851
-0.09421935 -0.017275196 -0.19865696 0.18841554 -0.45791975 -0.07148674 -0.4874075 0.3030213
-0.18721649 0.21485072 -0.16754189 0.05197936 -0.3455332 0.034474354 -0.049585585 0.20958227
-0.036858857 0.36749998 0.20381083 -0.116732694 0.13623682 0.111693904 0.052569576 0.14775927
0.39708015 0.3945299 0.06098645 -0.39186049 0.17258628 -0.067320324 0.28449574 -0.050713804
-0.32947582 -0.4380221 0.3030856 0.12804404 -0.17013405 -0.082111895 0.05303598 -0.20225245
0.14085394 0.06507086 -0.71137935 -0.3058386 -0.101615325 0.034182183 -0.25443292 -0.49083844
0.30564934 -0.208851 -0.28729603 0.021135395 0.33734655 -0.7249668 -0.22653997 -0.05721836
0.1733814 -0.06849129 -0.019600287 -0.28975153 0.3922033 -0.09084919 -0.026874593 0.048603624
-0.4762784 0.09131997 0.18346122 -0.23567963 0.107394226 -0.37833837 -0.12696256 -0.045274563
-0.09292016 -0.043584287 -0.18123136 -0.4203726 0.02826254 0.20609543 -0.13993324 0.19572519
-0.1879357 -0.32622954 0.16135453 -0.39729533 0.21791855 0.28875378 0.010113802 0.010593788
0.26143366 -0.16393228 -0.26767352 0.07514543 -0.041008808 -0.1895953 -0.19041608 0.11865715
-0.23797533 0.123452395 -0.71792746 -0.5109118 0.20438343 0.082580835 -0.31910488 0.056357667
00000000: 7313 57be f383 933e bee0 ffbd 7756 ed3b
00000010: fcde 53bc d7fa 783e e9ba 9cbe 7b1a d53c
00000020: 865f 353e c258 1dbd 3585 103e b1de e4bd
00000030: c141 6bbf c447 9c3d 76bd 1d3d e4f7 0d3d
00000040: 06a3 a33e 5786 223e eb1b 6cbe a496 92bb
00000050: e88c 50be 1942 223e 6b9d 003e 5814 0ebd
00000060: 4835 6b3d 5009 c23d 98f4 923e 925e ddbc
00000070: fc0d 173e daa0 b7bd ec7d a13c e76d 1abe
00000080: ddf6 173e 00ca 2abe dffe 40be cf9c 85be
00000090: 2d9c e1bd 29aa 98be 271b cbbd 81fc 01bf
000000a0: 70b1 a93e f92a c1bd 1424 ddbe 58ed 4abe
000000b0: 62c5 47bd ee79 9d3d 3789 a73d f2a8 a9be
000000c0: 579d 9dbd f7d8 b83e 9d57 89be 9fed 033d
000000d0: fc08 a7be 24b5 453d bdb7 f1be a1fc 143d
000000e0: f7e5 1cbe c94e 6abd 2e58 80bc 2c87 163e
000000f0: 04d4 16be 029c 6b3d b9c9 b7be f813 c3be
00000100: 8a38 e9be ea57 20be 914a d7bd f229 e83c
00000110: b67a c5bd 90ff 903e d5c4 e13d 2378 50be
00000120: 664b aabc 5719 57be 2f72 173e af7b 48be
00000130: f522 0abc de75 2c3e 81d4 bbbe 9146 55be
00000140: b462 d43d 432c 26be d0f8 99bd c662 dabb
00000150: 3a26 d5be b9fa ac3e 7a21 c7bc 8f80 e1bd
00000160: 1659 dcbd 8ecb b13d 04f6 b43e ef87 df3d
00000170: ce88 86bd 07cc ebbd 2727 13be 9fa7 b03d
00000180: 0534 babd ef8a 17bf 76c0 22bd 2c7d 883d
00000190: 6a5c d2be 27e2 713e 9077 d7bd 4209 44bb
000001a0: 47f2 81be 6241 3fbd 849b b4bc f02c 69bb
000001b0: 3966 a53d 53ed 98bd ad30 93be fc82 363d
000001c0: a04c 6cbe bc52 0a3e 3fe1 7bbe 97c7 90bd
000001d0: 0cb1 1b3d 91d7 a73e f7f5 503e 5999 b9bd
000001e0: 4eee d3bc 2ca7 233d a713 c4bd 0b9e 6dbd
000001f0: c0ce 753d 202e 783e 0efa a43e ca7e 5abe
00000200: e5c1 8dbd fb03 93bd 0203 47bb b3c0 72be
00000210: d931 f5bd 57a8 acbe 326e cebe 2379 5bbe
00000220: 93a6 87bc b52d 87be 2d35 e1bd 4d76 9fbd
00000230: 5e8c 34be 77d8 40be 348b 3dbe a9fd bbbe
00000240: c8af 4abe d979 3bbe 07a7 48be 16d8 cfbd
00000250: 6b7b 3fbf 45ce 083d 1d12 473e e39d 053e
00000260: 13f6 c0bd b684 8dbc bb6c 4bbe 01f0 403e
00000270: 7574 eabe a467 92bd 7a8d f9be 9c25 9b3e
00000280: aeb5 3fbe d401 5c3e 1a90 2bbe 4fe8 543d
00000290: bae9 b0be fb34 0d3d 411a 4bbd bc9c 563e
000002a0: 50f9 16bd f528 bc3e c9b3 503e 8d11 efbd
000002b0: aa81 0b3e c6bf e43d 3253 573d 354e 173e
000002c0: 174e cb3e d3ff c93e eecc 793d f0a1 c8be
000002d0: 75ba 303e 3ddf 89bd 6da9 913e 47b9 4fbd
000002e0: 0eb1 a8be 6f44 e0be 092e 9b3e fa1d 033e
000002f0: 9f37 2ebe 482a a8bd 413c 593d 441b 4fbe
00000300: 043c 103e df43 853d f51c 36bf e196 9cbe
00000310: b21b d0bd 9e02 0c3d 0845 82be 2d4f fbbe
00000320: 127e 9c3e 09dd 55be 7718 93be 2324 ad3c
00000330: b0b8 ac3e 6d97 39bf 18fa 67be cd5d 6abd
00000340: e58a 313e 2945 8cbd c890 a0bc 505a 94be
00000350: dfce c83e 240f babd 1b28 dcbc 9814 473d
00000360: c3da f3be f705 bb3d 42dd 3b3e 0056 71be
00000370: 81f1 db3d 91b5 c1be 7902 02be d271 39bd
00000380: ed4c bebd 7085 32bd b794 39be 143b d7be
00000390: d886 e73c ae0a 533e a94a 0fbe 2f6c 483e
000003a0: 3772 40be 8f07 a7be 1f3a 253e 4b6a cbbe
000003b0: 0a26 5f3e 89d7 933e 5cb4 253c 9191 2d3c
000003c0: a2da 853e dddd 27be 810c 89be d9e5 993d
000003d0: daf8 27bd 4525 42be 6ffc 42be 8502 f33d
000003e0: ceaf 73be 9cd4 fc3d 18ca 37bf 1ecb 02bf
000003f0: e449 513e 2420 a93d b761 a3be 4cd7 663d

conv_block.2.bias f4 [64]
-0.0069314493 -0.055748492 0.2391349 0.028786179 0.16076106 0.01653578 0.00096547825 -0.15833639
0.04555946 0.34736317 -0.04636007 -0.25079438 -0.036416717 -0.06532543 -0.1289611 -0.070578076
0.17031904 0.04279312 0.1017695 0.100913756 -0.052070946 -0.16070934 -0.24060045 -0.041343533
0.05793428 -0.051414162 -0.1454696 -0.0831339 0.20639962 -0.061005738 -0.1731003 0.1575233
0.015156408 -0.056976434 -0.027191894 0.11331697 0.027907195 0.020705977 0.17148404 -0.15414634
0.040287893 -0.08971985 0.08821176 -0.19284807 -0.006122344 -0.17500593 -0.066426575 -0.24556738
1.8649445e-05 0.11131038 0.03830505 -0.05174493 -0.08319196 -0.019624466 -0.14903532 -0.16516264
0.12404434 0.010222821 0.15481488 0.0024722798 0.091953084 0.0731601 -0.16158411 0.0034318168
00000000: 3621 e3bb 8858 64bd c7df 743e fed0 eb3c
00000010: 8c9e 243e 0b76 873c 2618 7d3a ef22 22be
00000020: 8e9c 3a3d 96d9 b13e 0fe4 3dbd 1f68 80be
00000030: b229 15bd 57c9 85bd 610e 04be 3d8b 90bd
00000040: 1d68 2e3e d747 2f3d 876c d03d dfab ce3d
00000050: 5848 55bd fd90 24be f75f 76be d657 29bd
00000060: 7f4c 6d3d a897 52bd fcf5 14be 1b42 aabd
00000070: 6c5a 533e 27e1 79bd 3441 31be ca4d 213e
00000080: 9552 783c 1f60 69bd 89c1 debc ba12 e83d
00000090: a19d e43c 959f a93c 8399 2f3e 8ad8 1dbe
000000a0: eb04 253d 0abf b7bd 5ea8 b43d f779 45be
000000b0: f29d c8bb c134 33be a80a 88bd 0476 7bbe
000000c0: 6171 9c37 b2f6 e33d c2e5 1c3d 7ef2 53bd
000000d0: 8c60 aabd 7dc3 a0bc b79c 18be 6520 29be
000000e0: f50a fe3d 9e7d 273c cb87 1e3e f905 223b
000000f0: e651 bc3d f6d4 953d 4e76 25be 55e8 603b

decoder.weight f4 [128, 1792]
0.13557781 -0.07648219 -0.020438977 0.026900366 -0.007154451 -0.26272663 0.11871372 0.009290254
0.082244776 0.05804829 -0.08328962 0.11101119 -0.30294546 0.00826425 -0.13081025 -0.01724578
-0.24475119 -0.083757184 -0.11998618 0.0124916835 -0.18149948 0.056846578 -0.066985935 -0.09299608
0.05866024 0.12543574 0.061846986 -0.14394395 -0.05027352 0.015372565 -0.06686965 -0.1556793
-0.042244636 0.14486565 -0.076128334 -0.063068755 -0.086794265 0.09913988 -0.110667035 0.041488297
-0.09690669 0.043795526 -0.01536003 -0.05576992 0.03209979 -0.16231753 -0.03495724 0.013627481
0.010431287 -0.24715693 0.054582108 -0.01759563 0.07596354 0.081915215 -0.17583635 0.089832835
-0.0566276 -0.030013938 -0.08355003 0.05431088 0.02179483 -0.18108866 -0.2409137 -0.059343085
-0.15212508 -0.24068354 -0.08047284 0.085707165 -0.08357216 -0.16459484 -0.20692928 -0.14762981
0.036183946 0.050618395 0.1469454 -0.006941119 -0.02145019 0.029299993 0.045825094 0.09493836
-0.08746471 -0.21914965 -0.1317621 -0.16118455 0.04956397 -0.0066801403 -0.010092937 -0.11729654
-0.081850596 -0.02227749 0.018621422 -0.07388413 0.0032500685 -0.020946296 -0.18764217 -0.045592465
0.04835296 -0.022528512 0.037091114 -0.1889358 0.12177621 -0.10712759 0.09196355 -0.0065024057
-0.11186372 -0.10439199 -0.018248383 -0.17562866 -0.08337355 -0.087927155 -0.034729555 -0.03079291
-0.004614913 -0.1552654 -0.12843354 0.031973213 -0.04562197 -0.01649508 -0.046931557 0.0013231396
-0.19109228 0.038236134 0.06636853 -0.17028557 -0.09015211 -0.056603987 -0.18693678 0.04698895
0.007029002 0.013906462 0.110056534 -0.072334215 -0.09919325 -0.008362435 -0.015852839 -0.041743338
-0.084402375 0.019263575 -0.03803442 -0.04902473 0.029805683 -6.717352e-05 -0.0020228054 0.015802583
-0.054527316 0.1146072 -0.11104357 0.09533536 -0.024922729 -0.010850556 0.18189539 0.010334541
0.07205663 0.06689248 0.006029006 0.017055046 -0.11262357 0.0027662972 -0.08265624 0.031618863
0.0914101 0.1865639 0.020327842 0.07508858 -0.019596087 -0.029807746 -0.13104242 0.0060312697
0.037153076 -0.044218715 -0.5247884 -0.10935526 -0.0022191983 -0.081237994 0.12535037 0.10734659
-0.16807531 -0.19601634 0.05881941 0.0251543 0.052205957 -0.0971078 -0.27818096 -0.09951296
0.03441989 0.042458054 0.03076708 0.121698 0.10195897 -0.00828948 -0.039803248 -0.015695674
0.09105342 -0.09800128 -0.035400685 0.0466142 -0.13005692 0.047775667 -0.021107327 -0.016154286
-0.14636004 0.020349177 -0.060139228 -0.014982439 0.15034951 0.010726395 0.074142136 -0.12324816
-0.164353 0.025524117 0.000983313 0.006239422 -0.22114015 -0.06000037 -0.161786 0.048494074
0.042131055 0.07217943 -0.193081 -0.02878319 -0.07481569 -0.14733955 -0.16543603 -0.026017042
0.0004378399 -0.12494576 0.118698746 0.011508444 -0.072910845 -0.12664026 -0.067853786 -0.07529126
-0.08919999 0.18800427 -0.29481667 -0.24614377 0.10867745 -0.02502475 -0.0814254 -0.22257261
-0.1589761 -0.096499495 -0.15917403 0.06312932 -0.0641387 0.007366426 -0.124354124 0.010968409
0.022537505 0.05995729 -0.03182356 -0.09349957 -0.11508265 0.20827511 0.058959596 -0.005519157
00000000: e9d4 0a3e b2a2 9cbd a46f a7bc 285e dc3c
00000010: e36f eabb 1b84 86be 2e20 f33d 2636 183c
00000020: f36f a83d 0bc4 6d3d c093 aabd d659 e33d
00000030: ab1b 9bbe c766 073c 1ff3 05be 0647 8dbc
00000040: 0ea0 7abe e388 abbd 50bb f5bd eba9 4c3c
00000050: 00db 39be f5d7 683d ec2f 89bd bb74 bebd
00000060: b845 703d 3a72 003e 4453 7d3d 0b66 13be
00000070: 9beb 4dbd 36dd 7b3c f4f2 88bd 656a 1fbe
00000080: b608 2dbd a957 143e 2ce9 9bbd 312a 81bd
00000090: 31c1 b1bd d909 cb3d 66a5 e2bd a2ef 293d
000000a0: 0477 c6bd f062 333d a3a8 7bbc 006f 64bd
000000b0: 127b 033d 9136 26be 532f 0fbd cc45 5f3c
000000c0: fde7 2a3c b516 7dbe 7d91 5f3d b624 90bc
000000d0: c692 9b3d 2ac3 a73d 720e 34be 47fa b73d
000000e0: 58f2 67bd cadf f5bc 471c abbd 1675 5e3d
000000f0: 128b b23c 4e6f 39be 15b2 76be bc11 73bd
00000100: adc6 1bbe bf75 76be f2ce a4bd 3d87 af3d
00000110: e127 abbd 8d8b 28be 45e5 53be 452c 17be
00000120: 9e35 143d 3c55 4f3d db78 163e 5472 e3bb
00000130: 4fb8 afbc 8a06 f03c 18b3 3b3d 0b6f c23d
00000140: b320 b3bd c468 60be a5ec 06be 900d 25be
00000150: 9703 4b3d 14e5 dabb d95c 25bc 2b39 f0bd
00000160: 49a1 a7bd 487f b6bc f48b 983c 9050 97bd
00000170: 1aff 543b 9197 abbc 4525 40be 2abf 3abd
00000180: c10d 463d b78d b8bc daec 173d 6378 41be
00000190: ce65 f93d b665 dbbd 6357 bc3d 2212 d5bb
000001a0: ce18 e5bd 78cb d5bd a27d 95bc 00d8 33be
000001b0: c0bf aabd 2713 b4bd 9440 0ebd 6a41 fcbc
000001c0: b238 97bb e5fd 1ebe 1584 03be 58f6 023d
000001d0: 1ade 3abd b120 87bc 4e3b 40bd 336d ad3a
000001e0: b2ad 43be 7e9d 1c3d 39ec 873d 575f 2ebe
000001f0: aba1 b8bd 95d9 67bd 5b6c 3fbe 7c77 403d
00000200: 8b53 e63b eed7 633c 5265 e13d f623 94bd
00000210: d525 cbbd 9802 09bc d0dd 81bc 10fb 2abd
00000220: 27db acbd a5ce 9d3c fbc9 1bbd 28ce 48bd
00000230: 0c2b f43c 82df 8cb8 0b91 04bb 6b74 813c
00000240: 0958 5fbd 2eb7 ea3d d06a e3bd 2f3f c33d
00000250: c02a ccbc 88c6 31bc c942 3a3e 3552 293c
00000260: 6d92 933d edfe 883d f88e c53b 06b7 8b3c
00000270: 30a7 e6bd c44a 353b ad47 a9bd c882 013d
00000280: 3835 bb3d 9b0a 3f3e 9386 a63c 0bc8 993d
00000290: f987 a0bc 602f f4bc fc2f 06be f5a1 c53b
000002a0: d32d 183d af1e 35bd 8858 06bf a7f5 dfbd
000002b0: f86f 11bb 1b60 a6bd d95b 003e 87d8 db3d
000002c0: ef1b 2cbe 82b8 48be 9fec 703d 6410 ce3c
000002d0: ead5 553d 74e0 c6bd bc6d 8ebe 73cd cbbd
000002e0: dffb 0c3d 7fe8 2d3d 3e0b fc3c cd3c f93d
000002f0: ddcf d03d 99d0 07bc bb08 23bd 3794 80bc
00000300: 377a ba3d e5b4 c8bd 4f00 11bd 88ee 3e3d
00000310: a42d 05be 6bb0 433d 46e9 acbc fe55 84bc
00000320: 68df 15be 51b3 a63c 8d54 76bd e778 75bc
00000330: 39f5 193e c3bd 2f3c d5d7 973d 8869 fcbd
00000340: 274c 28be f417 d13c 82e2 803a 1174 cc3b
00000350: 9072 62be f3c2 75bd 3bab 25be b9a1 463d
00000360: 9d91 2c3d cfd2 933d 07b7 45be b9ca ebbc
00000370: f838 99bd 2ee0 16be 1068 29be b121 d5bc
00000380: e08d e539 90e3 ffbd 5418 f33d ea8d 3c3c
00000390: 4852 95bd fcad 01be edf6 8abd 4e32 9abd
000003a0: 7cae b6bd 3184 403e 36f2 96be 1d0d 7cbe
000003b0: 4892 de3d b400 cdbc 5cc2 a6bd 13ea 63be
000003c0: a1ca 22be 87a1 c5bd 84fe 22be f249 813d
000003d0: 275b 83bd 0f62 f13b 60ad febd d7b4 333c
000003e0: 93a0 b83c c695 753d 6c59 02bd b47c bfbd
000003f0: 74b0 ebbd 1246 553e 9e7f 713d 0bda b4bb

decoder.bias f4 [128]
0.062103856 -0.31996277 -0.32931924 -0.3371699 -0.33911395 -0.34681988 -0.321791 -0.3437829
-0.31932935 -0.34324995 -0.35178244 -0.33974308 -0.35871345 -0.34841874 -0.32477984 -0.33128515
-0.3180261 -0.35828426 -0.31797224 -0.35345787 -0.32802418 -0.34489524 -0.33318436 -0.34193894
-0.34785536 -0.3489209 -0.3232805 -0.3500394 -0.35552883 -0.35519528 -0.3237135 -0.33468732
-0.35505167 -0.32400918 -0.33392474 -0.31749365 -0.32993743 -0.3289471 -0.35476145 -0.35711935
-0.3523201 -0.33287433 -0.3574122 -0.09488164 -0.33031753 -0.34644476 -0.31794095 -0.3159971
-0.036926694 -0.15660669 0.046894185 0.087534055 0.02274841 0.0450522 -0.0432024 -0.047228523
0.0915841 0.008560388 0.0535634 0.02173919 0.018644268 0.02783862 -0.0724372 -0.036433812
-0.075546615 0.020760529 -0.068607144 -0.018501643 -0.036503084 -0.020676145 0.048116855 -0.07584992
0.062992655 -0.020173786 -0.008758813 -0.0047800797 -0.07211435 -0.04675087 0.010004195 -0.012319941
-0.055154767 -0.026543539 0.062223803 -0.06779059 0.11163247 -8.4071646e-05 0.15848151 0.22380103
0.0050057685 0.16558565 -0.074092895 0.114043705 -0.057785586 -0.10057435 0.037127372 -0.045239564
-0.037872795 -0.34815145 -0.3414026 -0.31380263 -0.32994038 -0.34853566 -0.3610632 -0.35613704
-0.34352443 -0.35101232 -0.3271222 -0.3225079 -0.31601858 -0.3296328 -0.34565786 -0.32439423
-0.3428536 -0.32037938 -0.32603782 -0.31345809 -0.3315842 -0.3518725 -0.34311473 -0.33194938
-0.32255152 -0.35933992 -0.33539456 -0.3398304 -0.3585105 -0.32988453 -0.3516072 -0.3549988
00000000: 9d60 7e3d 29d2 a3be 889c a8be 88a1 acbe
00000010: 58a0 adbe 6092 b1be cac1 a4be 5004 b0be
00000020: 237f a3be 75be afbe d41c b4be cef2 adbe
00000030: 4aa9 b7be f163 b2be 8b49 a6be 359e a9be
00000040: 51d4 a2be 0971 b7be 42cd a2be 6ef8 b4be
00000050: c9f2 a7be 1c96 b0be 2497 aabe 9f12 afbe
00000060: 191a b2be c3a5 b2be 0685 a5be 5d38 b3be
00000070: e007 b6be 28dc b5be c7bd a5be 235c abbe
00000080: 55c9 b5be 88e4 a5be 2ff8 aabe 878e a2be
00000090: 8fed a8be c16b a8be 4ba3 b5be 59d8 b6be
000000a0: 4d63 b4be 816e aabe bbfe b6be 4e51 c2bd
000000b0: 611f a9be 3561 b1be 28c9 a2be 5fca a1be
000000c0: 7240 17bd 815d 20be 1e14 403d 0e45 b33d
000000d0: e05a ba3c a888 383d 00f5 30bd b272 41bd
000000e0: 7290 bb3d df40 0c3c 4c65 5b3d 6316 b23c
000000f0: ddbb 983c d10d e43c f459 94bd 9f3b 15bd
00000100: 2fb8 9abd fc11 aa3c e781 8cbd c290 97bc
00000110: 4284 15bd 0561 a9bc 2e16 453d 3457 9bbd
00000120: 4b02 813d 7f43 a5bc 2081 0fbc 37a2 9cbb
00000130: b0b0 93bd d77d 3fbd a3e8 233c 94d9 49bc
00000140: f7e9 61bd d671 d9bc 63de 7e3d cbd5 8abd
00000150: 909f e43d 9f4f b0b8 fa48 223e 192c 653e
00000160: 6e07 a43b 498f 293e 04be 97bd bf8f e93d
00000170: 94b0 6cbd edf9 cdbd df12 183d 1f4d 39bd
00000180: 8120 1bbd e840 b2be 52cc aebe bdaa a0be
00000190: f2ed a8be 4473 b2be 47dd b8be 9857 b6be
000001a0: 6fe2 afbe e3b7 b3be 907c a7be c11f a5be
000001b0: 30cd a1be a1c5 a8be 11fa b0be 0017 a6be
000001c0: 828a afbe c408 a4be 6eee a6be 947d a0be
000001d0: 67c5 a9be a228 b4be bcac afbe 45f5 a9be
000001e0: 7925 a5be 67fb b7be d6b8 abbe 40fe adbe
000001f0: b08e b7be a0e6 a8be dc05 b4be 67c2 b5be
