models/notelstm.model (torch, 40445 bytes, 7 tensors)

embedding.weight f4 [128, 4]
0	0xbf96e060	-1.1787224
1	0x3e17c1d7	0.14820038
2	0x3f4ca00b	0.79931706
3	0x3f69cd86	0.9132923
4	0xbe0c1daa	-0.13683191
5	0x3e97005f	0.2949247
6	0x3f2efe69	0.6835695
7	0x3f80e1cd	1.0068909
8	0x3fe526c7	1.7902459
9	0x3dcd62b0	0.10028589
10	0x3d119377	0.035541024
11	0xbfb100c6	-1.3828361
12	0xbf4791ca	-0.7795683
13	0x3f26f17b	0.6521222
14	0x3ff0727c	1.8784938
15	0xbf394388	-0.7236867
16	0x3e9ef72d	0.31047955
17	0xbed5469e	-0.4165544
18	0x3f8959c2	1.0730517
19	0xbf823f8c	-1.0175643
20	0xbf07cc7d	-0.530464
21	0xbf9b4450	-1.2130222
22	0xbf1b428a	-0.60648406
23	0xc02ae570	-2.6702538
24	0xbeff667b	-0.49882874
25	0xbe8602ce	-0.26174015
26	0x3f2b4cf0	0.6691427
27	0x3f8144d2	1.0099127
28	0x3eb294d5	0.34879175
29	0xbf4380b4	-0.7636826
30	0x3fb53ff9	1.4160148
31	0xbfa5b20d	-1.2944962
32	0x3dca39a5	0.09874276
33	0xbf3c6b20	-0.7360096
34	0xbf5ecf70	-0.87035275
35	0x401504ef	2.3284261
36	0xbf32e1b2	-0.69875634
37	0xbeb93f22	-0.3618098
38	0x3e8d386c	0.2758211
39	0xbf221091	-0.6330653
40	0xbebd1da5	-0.3693668
41	0x3f7a280c	0.97717357
42	0x3f5a7ea9	0.8534952
43	0x3eafdc1d	0.3434762
44	0xbf448895	-0.7677091
45	0xc01c5e58	-2.4432583
46	0x3f40beb3	0.75290984
47	0xbfc69f6d	-1.5517403
48	0x3ea51094	0.3223921
49	0xbe28d053	-0.1648572
50	0xbeb36fb9	-0.35046175
51	0x3fa49951	1.2859288
52	0x3f860b91	1.047228
53	0x3ed2c783	0.4116784
54	0x3ee1c895	0.44098344
55	0x3d14ac7a	0.0362973
56	0xbf1704e0	-0.58991814
57	0xbf9b3f63	-1.2128719
58	0xbfaf88d1	-1.3713628
59	0xbf7a4969	-0.97768265
60	0x3f7b8b11	0.98259073
61	0x3f1f6180	0.6225815
62	0x3f1a6345	0.60307723
63	0xbf277e7f	-0.6542739
64	0xbea37188	-0.31922555
65	0xbf4e3290	-0.805459
66	0x3f82f5b8	1.0231237
67	0xbe73a1b2	-0.2379215
68	0xbfb53029	-1.4155322
69	0xbf3bcaa1	-0.7335606
70	0x3fc87862	1.5661738
71	0xbeea7e66	-0.4579956
72	0xc00026a2	-2.002358
73	0xbef0f77a	-0.4706381
74	0x3f724c82	0.9464799
75	0x3e3753e8	0.17903101
76	0x3f504a75	0.8136361
77	0x3f7aa63c	0.97909904
78	0xbe855ba0	-0.26046467
79	0xbea69171	-0.32532838
80	0x3f3f321c	0.74685836
81	0x3f244d9c	0.6418092
82	0x3fb0afbc	1.380363
83	0x3e1ae084	0.15124708
84	0x3e0ff70a	0.14059082
85	0x3edb96df	0.42888543
86	0xbf91f64a	-1.1403286
87	0xbfdba1eb	-1.7158788
88	0xbfb4aa2b	-1.4114431
89	0x3f74b435	0.95587474
90	0xbf09b741	-0.5379525
91	0xbf0f6501	-0.56013495
92	0x3e95a0c9	0.29224232
93	0x3f75ca05	0.9601138
94	0x3f92fbc5	1.1483084
95	0x3fd19de8	1.6376314
96	0xbf228d18	-0.6349654
97	0x3ed468b4	0.41486132
98	0x3f53081f	0.82434267
99	0xbf8216b3	-1.0163177
100	0xbf16f4da	-0.58967364
101	0xbf3aa1df	-0.72903246
102	0x3e573c95	0.21019204
103	0x3f39ca9e	0.72574794
104	0x3d9ccab6	0.076558515
105	0x3f105df9	0.5639339
106	0x3ff8d641	1.9440385
107	0x3f48c9f3	0.7843315
108	0xbf1f21f0	-0.6216116
109	0x3fe36cce	1.776758
110	0xbf0388ea	-0.5138079
111	0xbfb862c2	-1.4405138
112	0xc00978ca	-2.1479974
113	0x3e364363	0.17799143
114	0xbf3be053	-0.73389167
115	0xbfd2f53b	-1.6481088
116	0x3edb205a	0.4279812
117	0xbe928a40	-0.286211
118	0xbf9f01e3	-1.2422451
119	0xbdc012fa	-0.093786195
120	0x3f2c3374	0.6726601
121	0x3d28ce27	0.041212227
122	0xbced4eea	-0.028968293
123	0xbf30dafc	-0.69084144
124	0xbfa6a6e2	-1.3019679
125	0xbb83a97d	-0.0040180073
126	0xbf958135	-1.1680056
127	0x3f4a47af	0.7901563
128	0x3ec8c9b0	0.39216375
129	0xbdcbda16	-0.09953706
130	0xbf22245b	-0.63336724
131	0xbfbb3c61	-1.4627801
132	0xba2862ae	-0.0006423396
133	0x3fba43b3	1.455191
134	0x4003715f	2.0537946
135	0x3f90c948	1.1311426
136	0x3f87b5f3	1.0602401
137	0xbf0af782	-0.54283917
138	0x3f893b2b	1.0721182
139	0xbf0744a1	-0.52839094
140	0xbf30ab3f	-0.690113
141	0xbf1a8236	-0.60354936
142	0xbd2ded0c	-0.042462394
143	0xbe87445d	-0.26419345
144	0x3f630a54	0.88687634
145	0xbd24db31	-0.0402481
146	0x3eb0a537	0.3450105
147	0xbf410edf	-0.75413316
148	0xbf2b27f0	-0.66857815
149	0x3f2438d2	0.641492
150	0xbe4a8e77	-0.19780909
151	0x3e66ea48	0.22550309
152	0xc0009d31	-2.0095942
153	0xbfe59e8a	-1.7939007
154	0xbee4534a	-0.44594795
155	0x3d579543	0.05263258
156	0x3ec66acb	0.38753352
157	0xbf8cd90b	-1.1003736
158	0xbfabac2a	-1.3411915
159	0xbefcca7c	-0.49373233
160	0xbe5a60b8	-0.21325958
161	0x3dda0da2	0.106471315
162	0xbfa21775	-1.2663409
163	0xbf2f9d8e	-0.68599784
164	0x3f8fc225	1.1231123
165	0xbe4ab7a9	-0.19796623
166	0x3f5845ea	0.8448168
167	0xbf6c27b7	-0.922481
168	0xbd95ae41	-0.07308627
169	0x3f8ef95d	1.116985
170	0xbfb2e6ea	-1.3976719
171	0xbdea6885	-0.11445717
172	0x3fd35bef	1.6512431
173	0xbfc6f724	-1.5544171
174	0xbf6f226f	-0.93411916
175	0x3ee0c1c7	0.4389784
176	0xbf8d800d	-1.1054703
177	0x3fb21cdf	1.3915061
178	0xbf315603	-0.6927187
179	0x3fd6025b	1.6719469
180	0x3d3864a5	0.045017857
181	0x3f99c444	1.201302
182	0xbf02ee82	-0.51145184
183	0x3e38ff50	0.18066144
184	0x4031e135	2.7793705
185	0x3f79cffb	0.9758298
186	0x3e5c938c	0.2154066
187	0xbf4fbeec	-0.811507
188	0xbe57c7c4	-0.21072298
189	0xbfcc8118	-1.5976896
190	0xbfcc4c6b	-1.5960821
191	0x3f4e27a9	0.80529267
192	0x3fc4b45b	1.536754
193	0xbe86e6a3	-0.26347837
194	0xbee37eec	-0.4443277
195	0xc03ef225	-2.9835293
196	0x3f36bdfc	0.71383643
197	0xbf21d926	-0.6322197
198	0xbfd8f9b8	-1.6951208
199	0xbffa3d97	-1.9550046
200	0x3f130143	0.574238
201	0x3fa1ea79	1.264968
202	0x40741f51	3.8144114
203	0xc02e21f0	-2.7208214
204	0x3fd1c654	1.638865
205	0x3f9b1f9d	1.2119023
206	0x406b8ec5	3.680589
207	0x3e9b9aca	0.30391532
208	0xbf3902c7	-0.7226986
209	0x3fa4bf58	1.2870893
210	0x400242e5	2.035333
211	0x4073c635	3.8089726
212	0x403e532d	2.9738266
213	0xc00c3674	-2.1908236
214	0x3fc94897	1.5725278
215	0xc06c860d	-3.6956818
216	0xc01e8073	-2.47659
217	0xbe89061a	-0.26762468
218	0x3f48eca7	0.784861
219	0xc0881947	-4.2530856
220	0x4033d96d	2.8101456
221	0xc06a179a	-3.6576905
222	0x3ea91c6b	0.33029494
223	0x3e748545	0.23878963
224	0x406d1bc5	3.70482
225	0xbde9883f	-0.1140294
226	0xbf8139ba	-1.0095742
227	0xc013b227	-2.3077486
228	0xbe5a55c3	-0.21321778
229	0x3fe9ca0e	1.8264787
230	0x400c0e96	2.1883903
231	0xc0325258	-2.7862759
232	0x3e8fe226	0.28102225
233	0xc059f1bd	-3.4053795
234	0x407530fc	3.8311148
235	0x401bb40e	2.4328647
236	0x3fa7fc83	1.3123935
237	0xbeb74189	-0.35792187
238	0x3fbf36da	1.4938614
239	0xbfd92068	-1.6963015
240	0xbf3bbdd0	-0.73336506
241	0xc00c055a	-2.1878266
242	0xc04968ec	-3.147029
243	0x4022f96f	2.5464742
244	0x40255ca6	2.5837798
245	0xc02b0884	-2.6723948
246	0x402c169b	2.6888797
247	0xbf64053e	-0.890705
248	0x3f79151c	0.97297835
249	0xc0413823	-3.0190513
250	0xc010b3f2	-2.260983
251	0x3fda0ef6	1.7035816
252	0x3ef23a12	0.4730993
253	0xbfb56b01	-1.417328
254	0x3dfbc5d0	0.12293589
255	0x3ded0bf8	0.115745485

lstm.weight_ih_l0 f4 [128, 4]
0	0x3da1bbcb	0.07897147
1	0x3c27012a	0.010193149
2	0x3d9d055f	0.0766704
3	0xbe43fb89	-0.19138922
4	0x3daa6666	0.08320312
5	0x3e57d1d8	0.21076143
6	0xbe235801	-0.1595154
7	0xbe28cd23	-0.16484503
8	0x3f5812d4	0.8440373
9	0x3e1f11af	0.1553409
10	0x3d8d21cd	0.068912126
11	0x3f941386	1.1568458
12	0xbf5cacbf	-0.8620109
13	0x3eb36073	0.35034522
14	0x3f37843a	0.71686137
15	0xbea248d7	-0.31696197
16	0x3ccf0179	0.025269257
17	0x3f149986	0.5804676
18	0xbe8cc150	-0.27491236
19	0x3f1d482a	0.6143824
20	0x3d89dcd4	0.06731573
21	0x3eb9b99b	0.36274418
22	0x3f129d6d	0.5727146
23	0xbd32c6c8	-0.043646604
24	0x3ef00300	0.4687729
25	0x3f9f4349	1.2442409
26	0x3ed69c35	0.41916052
27	0xbfc2dd99	-1.5223876
28	0xbe69bbb9	-0.22825517
29	0x3d3edef9	0.046599362
30	0xbf4c8070	-0.7988348
31	0x3d99087b	0.07472321
32	0xbef14b3d	-0.47127715
33	0x3db768ab	0.08955511
34	0xbd88773b	-0.066633664
35	0x3e0ab749	0.1354648
36	0x3ddc8832	0.10768165
37	0x3f48e064	0.7846739
38	0x3f6ef01c	0.9333513
39	0x3d75a4d3	0.05997164
40	0x3f697afe	0.91203296
41	0xbf818179	-1.0117637
42	0xbf921197	-1.1411618
43	0xbeec849d	-0.46194926
44	0xbf123f70	-0.5712805
45	0xbe0ba658	-0.13637674
46	0x3f561c98	0.8363738
47	0xbf1fc5b8	-0.6241107
48	0x3f1f98c2	0.62342465
49	0x3f58b920	0.8465748
50	0xbe7a4590	-0.24440598
51	0x3f874c7e	1.0570219
52	0x3f29d270	0.6633673
53	0xbefcac02	-0.49349982
54	0x3e2bec9d	0.1678948
55	0xbe5b4199	-0.21411742
56	0xbe440c31	-0.19145276
57	0x3ea86aa4	0.3289386
58	0x3f6197c3	0.88122195
59	0xbf7ac455	-0.9795583
60	0x3f253076	0.6452707
61	0xbe987789	-0.29778698
62	0x3e63293b	0.22183697
63	0xbf097bac	-0.53704333
64	0x3e8b8b8f	0.27254912
65	0xbe86ee6c	-0.26353776
66	0x3d5e19ac	0.0542237
67	0xbe3e7cb7	-0.18602262
68	0xbed8e04a	-0.4235862
69	0x3e358f43	0.17730431
70	0xbd9e07f6	-0.07716362
71	0x3e2baac2	0.16764358
72	0xbf2fbe84	-0.6865008
73	0x3e5aba97	0.21360241
74	0x3f4b15dd	0.79330236
75	0x3eb599cf	0.3546891
76	0x3a45f366	0.0007551223
77	0x3eb3c100	0.35108185
78	0x3dc746f3	0.09730329
79	0x3f2f459a	0.6846558
80	0x3c73cb89	0.0148800695
81	0xbedab9f3	-0.42719993
82	0x3c4c7340	0.01247865
83	0xbea07931	-0.31342462
84	0x3ee07a0f	0.43843123
85	0xbf38ab25	-0.72136146
86	0xbe821116	-0.2540366
87	0x3f45af9c	0.77221084
88	0x3e4db552	0.200887
89	0xbf1ada4d	-0.6048935
90	0xbe60da70	-0.21958327
91	0x3e40a63f	0.18813418
92	0xc001776f	-2.0229146
93	0x3f63d282	0.88993084
94	0xbfa972a0	-1.3238106
95	0x3f6f3631	0.93442065
96	0xbde60678	-0.112317026
97	0xbdf0a78f	-0.11750709
98	0xbc3759e1	-0.011190862
99	0x3e6ad9d3	0.22934656
100	0x3e510dab	0.2041537
101	0xbfbf227d	-1.49324
102	0xbdae83d3	-0.08521237
103	0xbed05154	-0.40687048
104	0xbe000dab	-0.12505214
105	0x3e37b1be	0.17938897
106	0x3ed2c0de	0.4116277
107	0xbf4e06d6	-0.8047918
108	0xbe5a28bb	-0.213046
109	0xbe8c742c	-0.27432382
110	0x3d94a1c1	0.072574146
111	0xbd0a96bd	-0.03383516
112	0x3f067394	0.5252011
113	0xbf70bdd7	-0.9403967
114	0x3f2036d4	0.6258366
115	0xbe08d035	-0.13360675
116	0xbbb2aa44	-0.005452426
117	0xbe580621	-0.21096088
118	0x3ef3a659	0.4758785
119	0xbdba4fa6	-0.09097223
120	0xbee8fe12	-0.4550634
121	0x3f6bf84a	0.92175734
122	0x3f4e40ad	0.8056744
123	0x3f88374e	1.0641878
124	0xbde6c794	-0.11268535
125	0xbe818f3d	-0.25304595
126	0xbc0e5eac	-0.008689564
127	0x3e0d5e48	0.13805497
128	0xbe3ca164	-0.1842094
129	0x3ea7f52a	0.32804233
130	0x3eef9c29	0.46798828
131	0xbf79ff62	-0.9765531
132	0xbe115529	-0.14192642
133	0x3e8e46f1	0.277885
134	0xbf0751e0	-0.52859306
135	0x3efe608a	0.49683028
136	0xbe82021d	-0.25392237
137	0xbde69bf4	-0.112602144
138	0xbdd5dba4	-0.10442284
139	0xbef328e9	-0.4749215
140	0xbe3b21c6	-0.18274602
141	0x3dd9efec	0.106414646
142	0x3dc2c9e3	0.09511163
143	0x3dcf11dc	0.10110828
144	0x3db2d81e	0.08732627
145	0xbed58b18	-0.41707683
146	0x3e0354b9	0.12825288
147	0xbe883b11	-0.26607564
148	0xbed84ade	-0.4224462
149	0xbdea6aee	-0.114461765
150	0xbf12fe9b	-0.5741975
151	0xbc6f6f62	-0.014613958
152	0x3e5be914	0.21475631
153	0x3fcfbbac	1.6229148
154	0x3f57bc60	0.8427181
155	0xbfbc1ccc	-1.4696288
156	0xbe69f7a4	-0.22848374
157	0x3eaf9a66	0.34297484
158	0xbf571a60	-0.8402462
159	0xbb4d701d	-0.0031347342
160	0xbe0b921b	-0.13629954
161	0xbf5245ac	-0.8213756
162	0x3ea0f0b5	0.31433645
163	0xbe29e782	-0.1659222
164	0x3e7b0be7	0.24516259
165	0x3e4fb98f	0.20285629
166	0x3e4bfb02	0.1991997
167	0x3dc07c60	0.09398723
168	0xbef046a8	-0.46928906
169	0x3dfec5cf	0.12440073
170	0x3f31a8ab	0.6939799
171	0x3e927593	0.28605327
172	0x3ee2bf1b	0.44286427
173	0x3f283160	0.6570034
174	0xbde2e212	-0.11078276
175	0x3f48001e	0.7812518
176	0xbece3b46	-0.40279597
177	0xbf4d14d7	-0.80109924
178	0xbdfa340a	-0.12216957
179	0xbf3cb1f0	-0.7370901
180	0x3da6b0b2	0.08139171
181	0xbf9fc361	-1.24815
182	0xbdfef561	-0.12449146
183	0x3ecfe651	0.40605405
184	0x3ec8bd73	0.39207038
185	0xbf0f3857	-0.5594534
186	0x3f14e6ca	0.58164656
187	0x3eaa6980	0.33283615
188	0x3f035c25	0.51312476
189	0xbf32497c	-0.6964338
190	0x3e9bc899	0.3042648
191	0xbf252c27	-0.64520496
192	0x3c97d3d4	0.018533625
193	0x3f36defb	0.7143399
194	0xbf0603da	-0.52349627
195	0x3d948872	0.072525874
196	0x3f33db0d	0.7025612
197	0xbee0247e	-0.4377784
198	0x3e4c6300	0.1995964
199	0xbef41461	-0.47671798
200	0x3d9aa071	0.07550133
201	0xbda412ca	-0.08011396
202	0x3e158d86	0.14604768
203	0xbe982d13	-0.2972189
204	0x3e9f684a	0.31134254
205	0xbe35c389	-0.17750372
206	0x3f1ae19a	0.6050049
207	0x3e95cbbe	0.29257005
208	0xbe1e6ba3	-0.15470748
209	0xbe742e66	-0.23845825
210	0xbdb26dd0	-0.08712351
211	0x3e89c645	0.2690908
212	0x3e366b3f	0.17814349
213	0xbe2eaeb3	-0.1705883
214	0x3e4fa0a2	0.2027612
215	0xbd8e6e6f	-0.06954657
216	0xbf0fe090	-0.5620203
217	0x3e6e6acc	0.23282927
218	0x3c235c4a	0.009970734
219	0x3ed02e0c	0.4066013
220	0x3ddfcb4a	0.10927446
221	0xbdb58b0b	-0.08864411
222	0xbe84477a	-0.25835782
223	0xbdf6915f	-0.12039446
224	0xbebb1e18	-0.36546397
225	0x3e937557	0.2880046
226	0x3e06623b	0.1312341
227	0x3eff2b21	0.49837592
228	0xbf2a3ab2	-0.6649581
229	0x3ecfd8fd	0.40595236
230	0x3e9b327e	0.3031196
231	0xbf31b371	-0.6941443
232	0x3e87f818	0.26556468
233	0x3ebd659e	0.3699159
234	0xbe45423f	-0.19263552
235	0x3eb0b179	0.345104
236	0xbec4ef26	-0.38463706
237	0xbe0f207b	-0.13977234
238	0x3eee3754	0.46526587
239	0x3d77373d	0.060355414
240	0xbedfc5a1	-0.43705466
241	0xbdb65f69	-0.08904917
242	0xbeb7635f	-0.35818002
243	0xbe97417e	-0.29542154
244	0x3e620a5d	0.22074266
245	0xbedf56ec	-0.43621004
246	0xbe96045f	-0.2930021
247	0x3e95dada	0.29268533
248	0xbe82cbbb	-0.2554606
249	0x3e85cac7	0.2613127
250	0x3f1f36dc	0.62193084
251	0x3f1a2441	0.6021157
252	0xbf4f1183	-0.80886096
253	0x3c110d21	0.008853228
254	0x3e1a2f0a	0.15057006
255	0x3e8562e4	0.2605201

lstm.weight_hh_l0 f4 [128, 32]
0	0xbec1d6c0	-0.37859154
1	0xbe81d30b	-0.25356326
2	0x3e5053df	0.20344494
3	0x3f239269	0.6389528
4	0x3dab7423	0.08371761
5	0xbf95391b	-1.1658052
6	0xbe8e69be	-0.2781505
7	0x3eba390c	0.36371648
8	0x3e385150	0.17999768
9	0x3e72fae1	0.23728515
10	0x3e5ec583	0.21755032
11	0xbd3d4b79	-0.046214554
12	0x3ee5bc33	0.44870147
13	0x3ee3d91b	0.44501576
14	0xbd0c7102	-0.03428746
15	0x3f0aa6fe	0.5416106
16	0x3f46e5b6	0.7769426
17	0xbf7a5e61	-0.9780026
18	0xbe7e8ffb	-0.24859612
19	0xbf4217e0	-0.7581768
20	0x3ebe9c2e	0.3722853
21	0xbd2990e0	-0.04139793
22	0x3e0609ca	0.13089672
23	0xbeb88b9c	-0.36044014
24	0x3d1df872	0.038567014
25	0xbf31d678	-0.6946788
26	0xbebd5f51	-0.36986783
27	0x3dbbf561	0.09177662
28	0xbf642e7c	-0.8913343
29	0xbef06ea4	-0.46959412
30	0xbe3e00b6	-0.18554959
31	0x3eecc411	0.46243337
32	0xbef8d5d1	-0.4860063
33	0x3dfa4a88	0.12221247
34	0xbe81089f	-0.2520189
35	0x3dafe285	0.08588127
36	0xbc75b046	-0.01499564
37	0x3f143e58	0.5790763
38	0x3cc85c98	0.024458215
39	0x3d9ecde0	0.07754111
40	0x3ce72027	0.028213574
41	0xbda59ada	-0.08086176
42	0xbe701e3a	-0.2344903
43	0x3df24c0a	0.118309096
44	0xbdf1f564	-0.11814383
45	0x3d8e39e2	0.06944634
46	0x3db03e95	0.086056866
47	0xbe76d8a9	-0.24106087
48	0x3ee648c0	0.4497738
49	0xbf953855	-1.1657816
50	0xbe9b1a11	-0.30293325
51	0xbd8788ca	-0.06617887
52	0x3ec28f2b	0.37999853
53	0xbe854069	-0.26025704
54	0xbda223eb	-0.07917007
55	0xbd8724cd	-0.06598816
56	0xbd004b98	-0.03132209
57	0x3e3db92e	0.18527672
58	0x3ec172d1	0.3778291
59	0x3c11d0e7	0.008899904
60	0xbef83fcd	-0.48486176
61	0xbe7755ce	-0.24153826
62	0xbdb8f784	-0.09031585
63	0x3dd522cc	0.104070276
64	0xbaf0123e	-0.0018315983
65	0x3d9b22d9	0.07575006
66	0xbe27c4d2	-0.16383675
67	0xbd24316b	-0.04008619
68	0xbec42994	-0.38312972
69	0xbef6c3eb	-0.4819635
70	0x3ca68584	0.020327337
71	0x3cbd67e0	0.02312082
72	0xbca49f64	-0.020095535
73	0xbf7e4f4f	-0.99339765
74	0x3f12e45b	0.5737969
75	0x3f28a7db	0.6588113
76	0xbd87786c	-0.066147655
77	0x3e03cf8b	0.1287214
78	0x3e1b0ef4	0.15142423
79	0xbdbd9bd2	-0.09258236
80	0xbd8421ec	-0.064517826
81	0x3eaaef73	0.3338581
82	0x3e8cc70f	0.2749562
83	0x3e5bf6f2	0.21480921
84	0xbfa05b1c	-1.2527804
85	0xbf2e71f2	-0.68142617
86	0xbea2c4db	-0.31790814
87	0x3dab8e07	0.08376699
88	0x3eb49956	0.35273236
89	0xbee08b4d	-0.43856278
90	0xbf37a10d	-0.7173012
91	0xbe345da2	-0.17613843
92	0xbea2aa40	-0.31770515
93	0xbdd8f517	-0.10593622
94	0xbf123d05	-0.5712436
95	0xbda74d4b	-0.08169039
96	0xbe9b00b9	-0.3027399
97	0x3e3bd9c8	0.18344796
98	0x3f2ac644	0.6670878
99	0xbefbc4e0	-0.4917364
100	0xbe1ccaa6	-0.15311679
101	0xbea8dd82	-0.32981497
102	0x3e552630	0.20815349
103	0x3d8e7963	0.069567464
104	0xbdc01aeb	-0.09380134
105	0x3e37cdb6	0.17949566
106	0x3e984aa2	0.2974444
107	0x3e4b6e83	0.19866376
108	0x3e6ba75f	0.23013066
109	0xbbf72b84	-0.0075430293
110	0x3e15a21b	0.1461262
111	0xbe6bd6cb	-0.23031156
112	0x3d00061a	0.03125582
113	0x3e473415	0.19453461
114	0x3e8be939	0.27326372
115	0xbf1a17ac	-0.6019237
116	0x3efe52dc	0.49672592
117	0x3f627c99	0.8847137
118	0xbed312c5	-0.41225258
119	0x3f3a5440	0.72784805
120	0x3e1d4bad	0.153609
121	0x3ef9cd54	0.48789465
122	0x3f1e0dfb	0.6174008
123	0xbe308d6a	-0.17241445
124	0xbe3d0775	-0.18459876
125	0x3d057c10	0.03258902
126	0xbeb9aca2	-0.3626452
127	0x3d92dc20	0.07170892
128	0xbf209c68	-0.62738657
129	0xbe54d3d3	-0.2078393
130	0xbf0d9203	-0.5530092
131	0xbd9df1c9	-0.077121325
132	0xbe75c002	-0.23999026
133	0x3e4a5559	0.1975912
134	0x3e111278	0.14167202
135	0xbdea6e3b	-0.11446806
136	0xbe4c2c62	-0.19938806
137	0x3e1f6fe8	0.15570033
138	0x3cfdc9bc	0.030979984
139	0xbf4dd466	-0.8040222
140	0x3e2eda64	0.17075497
141	0x3ebbab2b	0.36654028
142	0xbd1ffefb	-0.039061528
143	0xbc9b522e	-0.018960085
144	0xbe3f0959	-0.1865591
145	0xbf4061a7	-0.75149006
146	0xbee6480a	-0.44976836
147	0x3ec84c8b	0.39120898
148	0x3d206d3a	0.039166667
149	0x3f02b79b	0.5106141
150	0xbcffdde4	-0.031233735
151	0xbdc2afe4	-0.09506205
152	0xbf229dfc	-0.63522315
153	0xbeb9cad9	-0.36287573
154	0x3ef1e282	0.47243124
155	0x3d9c2e33	0.07625999
156	0x3df61ca0	0.120171785
157	0xbf48e4c9	-0.784741
158	0x3ec31327	0.3810055
159	0x3e61b1dc	0.22040504
160	0xbec0cf2f	-0.3765807
161	0xbe9b9f65	-0.30395046
162	0xbf1b143f	-0.6057777
163	0x3d9d4366	0.07678871
164	0x3e2c2dcc	0.16814345
165	0x3e0a38ac	0.13498181
166	0xbe371989	-0.17880835
167	0x3c9de22b	0.019272884
168	0xbe4da934	-0.20084077
169	0xbe09d0e5	-0.13458593
170	0xbebe940a	-0.3722232
171	0xbe514585	-0.20436676
172	0x3dee313b	0.11630484
173	0x3e5f64d3	0.21815805
174	0x3c00dab7	0.007864646
175	0xbdc2bb5e	-0.09508394
176	0xbec27703	-0.37981424
177	0xbf2caf50	-0.67455006
178	0xbf03f204	-0.5154116
179	0x3dc93c08	0.09825903
180	0xbe81f309	-0.25380734
181	0xbf236639	-0.63827854
182	0xbd788d46	-0.060681604
183	0x3d2d4930	0.042306125
184	0xbe0a5e44	-0.13512522
185	0xbe4ed805	-0.20199592
186	0x3e4c6f1a	0.19964257
187	0x3e332622	0.17495015
188	0x3c4aecc2	0.012385549
189	0xbed8fed0	-0.42381907
190	0xbe6078e3	-0.21921115
191	0x3e60f6a3	0.21969084
192	0x3e4be5bd	0.19911857
193	0x3d95cba9	0.07314236
194	0x3ee64083	0.44971094
195	0x3e0a8937	0.13528906
196	0xbdc6f11d	-0.097139575
197	0x3ded10d7	0.115754776
198	0x3e7cffaa	0.24706903
199	0xbf527f5e	-0.82225597
200	0x3c7250cf	0.014789774
201	0xbe512e3b	-0.20427792
202	0x3d44fc5c	0.04809223
203	0x3e7ea79c	0.24868625
204	0x3dd3bde7	0.103389554
205	0xbea72485	-0.3264505
206	0xbe209a58	-0.15683877
207	0x3e6028d3	0.21890573
208	0x3e5ffb4b	0.21873204
209	0xbd838dd3	-0.06423535
210	0xbf43da2a	-0.76504767
211	0xbedf9752	-0.43670136
212	0x3ef5c265	0.47999874
213	0x3da39963	0.079882406
214	0xbdcba94d	-0.09944401
215	0x3c8d6123	0.017258232
216	0x3d9945aa	0.074839905
217	0xbc83bae7	-0.016080333
218	0xbe631a05	-0.22177894
219	0xbdd52d8d	-0.10409079
220	0x3e0f29ad	0.13980742
221	0xbe28fec6	-0.16503438
222	0x3eb9aee4	0.36266243
223	0x3eba95f0	0.36442518
224	0x3e56d6e9	0.20980419
225	0x3ea530e5	0.32263866
226	0x3f851f79	1.040023
227	0x3f36c4aa	0.71393836
228	0xbf1f9948	-0.62343264
229	0x3ece7c9f	0.40329453
230	0x3f01482c	0.5050075
231	0xbe98209a	-0.29712373
232	0xbe7ebe4f	-0.24877284
233	0x3eb45629	0.35221985
234	0xbe73f297	-0.2382301
235	0x3ea49fe8	0.3215325
236	0x3f31b572	0.6941749
237	0xbd1009bd	-0.035165537
238	0x3e08a9d4	0.13346034
239	0xbed925c0	-0.42411613
240	0xbf6870fa	-0.9079739
241	0x3f0102d9	0.5039497
242	0xbf280448	-0.6563153
243	0x3ebf0ad1	0.3731294
244	0xbf677f6b	-0.904288
245	0xbe2e2227	-0.17005216
246	0xbe00567f	-0.12532996
247	0xbf8d5ea2	-1.1044505
248	0x3ef720f6	0.48267335
249	0x3f1593f4	0.58428884
250	0xbf53cb21	-0.82731825
251	0xbed3cac1	-0.41365626
252	0x3d89c552	0.06727089
253	0x3ebc8821	0.36822608
254	0x3e0f5af6	0.13999543
255	0xbdc049d9	-0.09389085

lstm.bias_ih_l0 f4 [128]
0	0x3ea82870	0.3284335
1	0x3efcb3c8	0.49355912
2	0x3f810540	1.0079727
3	0x3fa1d9f2	1.2644637
4	0x3f16874d	0.588002
5	0x3ed10b45	0.4082891
6	0x3f42275e	0.7584132
7	0x3fc831fa	1.5640252
8	0x3fbb723c	1.4644237
9	0x3fc73034	1.5561585
10	0x3f23a524	0.6392386
11	0x3ebb5158	0.36585498
12	0x3f55a922	0.834612
13	0x3fab24f7	1.3370656
14	0x3fc17a39	1.5115424
15	0x3ec9b798	0.39397883
16	0x3fd5efb7	1.671378
17	0x3f44a69c	0.76816726
18	0x3fb3c464	1.4044309
19	0x3fae46ca	1.3615353
20	0x3fa9fef3	1.3280929
21	0x3fe690f1	1.8012983
22	0x3ee0f4bd	0.4393672
23	0x3fdd19fa	1.7273552
24	0x3e18aed1	0.14910437
25	0x3e9fc37a	0.31203824
26	0x3f9f6aac	1.2454429
27	0x3ea553d1	0.3229051
28	0x3f9874e5	1.1910673
29	0x3e863ee7	0.26219866
30	0x3fc6bea0	1.5526924
31	0x3fce6b5c	1.6126513
32	0x3dbab900	0.09117317
33	0x3e55e55a	0.20888272
34	0x3b5d5167	0.0033770443
35	0x3c278763	0.01022515
36	0x3e803c64	0.25046074
37	0x3d89324c	0.066990465
38	0x3e288479	0.16456784
39	0xbe164f08	-0.14678586
40	0xbdf5155f	-0.11966967
41	0xbdb3cd6a	-0.08779414
42	0xbdac3f88	-0.08410555
43	0x3ea732af	0.32655856
44	0x3e223337	0.1583985
45	0xbe02577a	-0.12728682
46	0x3dcc116e	0.09964262
47	0x3e0c3f68	0.13696063
48	0x3e727d0b	0.23680513
49	0x3e39a0ad	0.18127699
50	0x3e828324	0.25490677
51	0x3d467a27	0.048456337
52	0xbd878a1f	-0.066181414
53	0xbe7def05	-0.2479821
54	0x3dbc3121	0.09189058
55	0x3e38f042	0.18060401
56	0xbcd5c54c	-0.026095055
57	0x3e040d1c	0.12895626
58	0xbded077c	-0.11573693
59	0x3d10cec9	0.035353456
60	0x3e078086	0.13232622
61	0x3d95c173	0.07312288
62	0x3e7a25b5	0.24428447
63	0x3d0afcfc	0.03393267
64	0xbf0343d3	-0.51275367
65	0x3eedb2e6	0.4642555
66	0x3f20ec38	0.6286044
67	0xbf0afd6f	-0.5429296
68	0xbef0ffc2	-0.47070128
69	0x3ed3912d	0.41321698
70	0x3f19fd9d	0.6015261
71	0xbebd6c32	-0.3699661
72	0xbec099ac	-0.37617242
73	0xbe9371e0	-0.28797817
74	0x3f1c63b9	0.61089665
75	0x3e960e49	0.29307774
76	0x3e804dd0	0.25059366
77	0x3eb12d4a	0.34604865
78	0x3f6bd8da	0.92127764
79	0xbeafb9cc	-0.3432144
80	0xbee59da3	-0.4484683
81	0xbef638d5	-0.48090234
82	0xbedb5b0a	-0.42842895
83	0x3e7a5750	0.2444737
84	0x3aceddbc	0.0015782635
85	0xbdb131f3	-0.08652105
86	0xbf2cbe27	-0.6747765
87	0xbe4e8348	-0.20167267
88	0x3ece4745	0.4028875
89	0x3f238c1f	0.6388568
90	0xbe84b689	-0.25920513
91	0xbec78835	-0.38971105
92	0x3e916806	0.28399676
93	0x3ee96495	0.4558455
94	0xbe3a5c63	-0.18199305
95	0xbee903bd	-0.45510665
96	0x3f2c2450	0.6724291
97	0x3f22754e	0.6346024
98	0x3f89314a	1.0718167
99	0x3fbdf676	1.4840839
100	0x3eeacc7e	0.4585914
101	0x3f1bb2f4	0.60819936
102	0x3f885f9f	1.0654181
103	0x3fb8633a	1.4405282
104	0x3fccf892	1.6013358
105	0x3fd7eff0	1.6870098
106	0x3f919f57	1.1376752
107	0x3e8ccaeb	0.27498564
108	0x3f703897	0.9383635
109	0x3fcf832e	1.6211908
110	0x3fc69dd6	1.5516918
111	0x3e97e60a	0.29667693
112	0x3fbf579d	1.4948612
113	0x3f8f7a7d	1.1209255
114	0x401ba0a3	2.4316795
115	0x3f9170e3	1.1362575
116	0x3f9f811f	1.246128
117	0x3f942fa8	1.1577044
118	0x3f8d09e6	1.1018646
119	0x400074b1	2.0071223
120	0x3f2522d8	0.6450629
121	0x3f5e7cee	0.8690938
122	0x3fc1836b	1.511823
123	0x3e388bde	0.18022105
124	0x3fbaf35a	1.4605515
125	0x3f40075a	0.7501122
126	0x3fa98496	1.3243587
127	0x3f927705	1.1442572

lstm.bias_hh_l0 f4 [128]
0	0x3eb25859	0.3483303
1	0x3f1933bb	0.5984456
2	0x3f2eafa6	0.6823677
3	0x3f8b0840	1.0861893
4	0x3f1dacb6	0.6159166
5	0x3eba20fe	0.36353296
6	0x3f114e6d	0.56760293
7	0x3fc3ec04	1.5306401
8	0x3fc9094a	1.570596
9	0x3fbc00b9	1.468772
10	0x3ea3e10d	0.32007638
11	0x3e82c0bf	0.2553768
12	0x3f3ee2eb	0.74565
13	0x3fd0d8a9	1.631612
14	0x3fba0f6d	1.4535958
15	0x3e982d17	0.297219
16	0x3fbba811	1.4660665
17	0x3f3cc9f4	0.73745656
18	0x3fa73da1	1.3065683
19	0x3fa6c5be	1.3029096
20	0x3fa3783f	1.2771071
21	0x3ff09fc4	1.8798757
22	0x3efd477a	0.49468595
23	0x3fdcaa5c	1.723949
24	0x3e2f9a6b	0.1714875
25	0x3eb1a037	0.34692547
26	0x3f800a25	1.0003096
27	0x3e8f2cb0	0.2796378
28	0x3fb21478	1.3912497
29	0x3ea765cc	0.32694852
30	0x3fcc71a2	1.5972178
31	0x3fe07a86	1.7537391
32	0x3e577aea	0.21042982
33	0x3e07dab0	0.13267016
34	0x3ca1639b	0.019700816
35	0x3e01f276	0.12690148
36	0x3e596aa2	0.21232083
37	0xbc741ddc	-0.014899697
38	0x3e8c447b	0.27395996
39	0x3c4e92f9	0.012608283
40	0xbe4b8f60	-0.19878912
41	0xbe2e88e5	-0.17044409
42	0xbd9d78c1	-0.076890476
43	0x3ea17781	0.31536487
44	0x3e729518	0.23689687
45	0x3dfa3351	0.12216819
46	0x3eab18d5	0.33417383
47	0x3e87491a	0.2642296
48	0xbd8cc589	-0.06873614
49	0xbcdd0c69	-0.026983457
50	0x3e2c38b1	0.16818501
51	0x3dac4a46	0.08412604
52	0xbe5aae63	-0.21355586
53	0xbe7a81d7	-0.24463592
54	0x3e066095	0.1312278
55	0xbcbb3b88	-0.022855535
56	0x3c30cb0d	0.010790599
57	0x3cb6e24e	0.022324707
58	0xbe3d38f0	-0.18478751
59	0x3e0917e5	0.13388021
60	0x3dcfa340	0.10138559
61	0x3e6e628b	0.23279779
62	0x3db2c0e7	0.087281995
63	0x3e437f91	0.19091631
64	0xbe8d2879	-0.2756994
65	0x3eeca4ac	0.46219385
66	0x3ea92259	0.33034018
67	0xbea30d23	-0.3184596
68	0xbef4755b	-0.47745785
69	0x3e82737f	0.25478742
70	0x3f28146a	0.6565615
71	0xbeeb5df8	-0.4597013
72	0xbec200c0	-0.37891197
73	0xbe406e2b	-0.18792026
74	0x3f2bf769	0.6717439
75	0x3e9a1b9e	0.30099195
76	0x3ed2ee0c	0.4119724
77	0x3e3fb8a6	0.18722782
78	0x3f86388d	1.0486008
79	0xbf2915b6	-0.66048753
80	0xbee4f082	-0.44714743
81	0xbeeb6b33	-0.45980224
82	0xbed29f00	-0.41136932
83	0x3e9ac648	0.30229402
84	0x3cb7e731	0.022449108
85	0xbaf8a601	-0.0018970371
86	0xbf1a2119	-0.60206753
87	0xbdfc00c5	-0.12304834
88	0x3f06e72f	0.5269651
89	0x3f02762b	0.5096156
90	0xbeca1800	-0.39471436
91	0xbf1073a2	-0.5642644
92	0x3d593ffc	0.053039536
93	0x3ebc5ec5	0.36791053
94	0xbe8d0c3b	-0.27548394
95	0xbf2f043a	-0.68365824
96	0x3f28d515	0.6595014
97	0x3f28c1ac	0.6592052
98	0x3f8712ef	1.0552653
99	0x3fd95814	1.6980004
100	0x3f0fb4ee	0.5613545
101	0x3f44f178	0.7693095
102	0x3f92792e	1.1443231
103	0x3fb36fad	1.4018456
104	0x3fcde017	1.6084012
105	0x3fb888dd	1.4416767
106	0x3f9232fa	1.1421807
107	0x3f0b0574	0.54305196
108	0x3f3aec0e	0.7301644
109	0x3fc6ff0d	1.5546585
110	0x3fb8e6eb	1.444547
111	0x3ef162c5	0.47145668
112	0x3fbcc667	1.4748048
113	0x3f9823c1	1.1885911
114	0x400fb844	2.2456217
115	0x3f51f797	0.8201842
116	0x3f99aea4	1.2006421
117	0x3f9bc95d	1.2170826
118	0x3f735b0e	0.95060813
119	0x4003727f	2.0538633
120	0x3f0895d6	0.5335363
121	0x3f67a3f3	0.9048454
122	0x3fb21d94	1.3915277
123	0x3eb2ff31	0.3496032
124	0x3fba3f4b	1.4550565
125	0x3f2ef92f	0.68348974
126	0x3fced02f	1.6157283
127	0x3f98e8ad	1.1946007

decoder.weight f4 [128, 32]
0	0xbf87a54e	-1.0597322
1	0x3f2b04e7	0.66804355
2	0x3ed6a37b	0.419216
3	0xbed3651e	-0.41288084
4	0xbf360017	-0.7109389
5	0x3f5e7b31	0.86906725
6	0x3f385a16	0.7201246
7	0xbf23a871	-0.63928896
8	0xbf51e52a	-0.819903
9	0xbf4c642d	-0.79840356
10	0xbe973d29	-0.2953885
11	0x3e5ef051	0.21771361
12	0x3e0ba604	0.13637549
13	0x3f3b21e4	0.7309859
14	0x3f4741af	0.778346
15	0xbf49ced2	-0.7883121
16	0xbf4bd3f8	-0.79620314
17	0xbf9c599c	-1.2214847
18	0x3e22d101	0.15900041
19	0x3f537ff3	0.8261711
20	0xbf23cc94	-0.63984036
21	0x3df44795	0.11927716
22	0xbf107b6a	-0.56438315
23	0x3f4dca13	0.80386466
24	0x3f707fab	0.93944806
25	0x3ef938b1	0.48676065
26	0xbf0447c7	-0.51672024
27	0xbef33ace	-0.47505802
28	0x3f0f42ef	0.5596151
29	0xbd8b5ce0	-0.06804824
30	0xbeba7967	-0.36420748
31	0xbd9aadae	-0.07552658
32	0x3f5dac25	0.86590797
33	0xbf93ed73	-1.1556839
34	0xbf00897a	-0.5020977
35	0x3f1402ea	0.57816947
36	0x3f764b87	0.96208996
37	0xbef356d0	-0.4752717
38	0xbfa07244	-1.2534871
39	0x3f49ac35	0.7877839
40	0x3f0fe1cc	0.56203914
41	0x3f13699e	0.57583034
42	0xbe950ad4	-0.29109824
43	0xbefe44be	-0.4966182
44	0xbf105205	-0.5637515
45	0xbf83d75b	-1.0300096
46	0xbf7742aa	-0.96586096
47	0x3fb9431c	1.4473605
48	0x3f62ac1e	0.8854388
49	0x3f3aeb9f	0.7301578
50	0x3e0794e8	0.13240397
51	0xbe85d8c7	-0.2614195
52	0x3e8ad353	0.27114353
53	0x3e7c2ed4	0.24627239
54	0x3f427e32	0.7597381
55	0xbe4a77ee	-0.19772312
56	0xbf75c50b	-0.9600379
57	0xbf0f267e	-0.5591811
58	0x3ec75a78	0.3893621
59	0x3f2e00fa	0.6797024
60	0xbea08ad1	-0.3135591
61	0xbf51b267	-0.81912845
62	0x3f1c04b8	0.609447
63	0x3e8dc27c	0.27687442
64	0x3f8a065e	1.0783193
65	0xbf7c2cd0	-0.9850588
66	0xbf0fc79c	-0.56163955
67	0x3f1b61a4	0.6069586
68	0x3f5c7c06	0.86126745
69	0xbf2d82e8	-0.6777787
70	0xbf973ba2	-1.1815073
71	0x3f56a67e	0.83847797
72	0x3f2c33d2	0.6726657
73	0x3f698afc	0.912277
74	0xbe6b5078	-0.22979915
75	0xbedf2073	-0.43579444
76	0xbf084b4d	-0.532399
77	0xbf960715	-1.1720911
78	0xbf8f055e	-1.1173513
79	0x3fc8582a	1.5651906
80	0x3f86ac06	1.0521247
81	0x3f43850b	0.7637488
82	0x3e2d69f5	0.1693495
83	0xbe94eacb	-0.29085383
84	0x3ec1be24	0.37840378
85	0x3edc18b6	0.42987603
86	0x3f60aab6	0.87760484
87	0xbe630b55	-0.22172292
88	0xbf487634	-0.78305364
89	0xbf42f2e8	-0.76151896
90	0x3eebccc9	0.46054676
91	0x3f41ee70	0.7575445
92	0xbf038e46	-0.5138897
93	0xbf5e52c9	-0.8684507
94	0x3f2a6db8	0.6657367
95	0x3e5a0696	0.21291575
96	0x3f87f1ab	1.0620626
97	0xbf6ef8f9	-0.9334865
98	0xbf16ee59	-0.5895744
99	0x3f1c5e98	0.6108184
100	0x3f40dc15	0.7533582
101	0xbf073d4f	-0.52827924
102	0xbf8c207e	-1.0947416
103	0x3f80b5b0	1.0055447
104	0x3f2d555f	0.6770839
105	0x3f2c9ae9	0.67423874
106	0xbe42a802	-0.19009402
107	0xbf07e49d	-0.5308321
108	0xbee4fefa	-0.44725782
109	0xbf7c75dc	-0.9861734
110	0xbf87ea21	-1.0618325
111	0x3fb5556a	1.4166691
112	0x3f5d51a9	0.8645273
113	0x3f2a2310	0.6645975
114	0x3e869a0c	0.26289403
115	0xbe91e145	-0.2849218
116	0x3e8a44a6	0.270055
117	0x3eb1d838	0.34735274
118	0x3f6b8597	0.92000717
119	0xbe5dcd7d	-0.21660419
120	0xbf5d2ce6	-0.86396635
121	0xbf09ed5f	-0.53877825
122	0x3ebfb56e	0.37443107
123	0x3f77ad1b	0.96748513
124	0xbeab384f	-0.33441398
125	0xbf5635b3	-0.8367569
126	0x3f291a57	0.66055816
127	0x3ec31d84	0.38108456
128	0x3f8430b1	1.032736
129	0xbf825467	-1.0182008
130	0xbeef4428	-0.46731687
131	0x3f26a7c1	0.6509972
132	0x3f57f668	0.8436036
133	0xbf09918a	-0.537377
134	0xbfa0a881	-1.2551423
135	0x3f478c8c	0.7794883
136	0x3f47c646	0.78036916
137	0x3f4b29d4	0.793607
138	0xbe140632	-0.14455488
139	0xbee86f1e	-0.45397276
140	0xbf13e7bb	-0.5777547
141	0xbf8df8aa	-1.1091511
142	0xbf9bcb41	-1.2171403
143	0x3fd09506	1.6295478
144	0x3f81ae00	1.0131226
145	0x3f51c855	0.8194631
146	0x3e9d2472	0.30691868
147	0xbdd8abe2	-0.10579659
148	0x3eaf76c9	0.34270313
149	0x3ebe48fa	0.37165052
150	0x3f67f887	0.906136
151	0xbe8285e2	-0.2549277
152	0xbf43fca7	-0.7655739
153	0xbf0ed094	-0.55787015
154	0x3eb205f8	0.3477018
155	0x3f55e461	0.83551604
156	0xbef958d4	-0.48700583
157	0xbf193952	-0.5985309
158	0x3f33d91c	0.7025316
159	0x3ed6bfcf	0.41943213
160	0x3f69ffa9	0.9140573
161	0xbf87c183	-1.060593
162	0xbed3bdc6	-0.41355723
163	0x3f2aa77c	0.6666181
164	0x3f37f887	0.718636
165	0xbecdc17c	-0.4018668
166	0xbf90fac7	-1.1326531
167	0x3f55c2c4	0.83500314
168	0x3f31cc1b	0.69452065
169	0x3f19a198	0.600122
170	0xbe9057a9	-0.2819188
171	0xbec5d51d	-0.38639155
172	0xbefcbccd	-0.49362794
173	0xbf62acd3	-0.8854496
174	0xbf8c8013	-1.0976585
175	0x3fbadb0e	1.45981
176	0x3f7febf5	0.99969417
177	0x3f30a4f5	0.69001704
178	0x3e9e2212	0.3088537
179	0xbe9b7173	-0.30359992
180	0x3ec8d52c	0.39225137
181	0x3ea1fdcf	0.31638953
182	0x3f618d41	0.8810616
183	0xbe94af35	-0.29039922
184	0xbf5c97a6	-0.861689
185	0xbf313469	-0.69220597
186	0x3e9e1bfd	0.30880728
187	0x3f3db48e	0.7410363
188	0xbe8f2cc5	-0.27963844
189	0xbf3e6e0f	-0.74386686
190	0x3f094e32	0.5363494
191	0x3e9234d0	0.28555918
192	0x3f595f04	0.8491061
193	0xbf903a50	-1.1267796
194	0xbf1a69f6	-0.60317934
195	0x3f2944ae	0.6612042
196	0x3f563dfe	0.8368834
197	0xbef9f6cf	-0.48821113
198	0xbf803835	-1.0017153
199	0x3f64acf0	0.8932638
200	0x3f34b5ab	0.70589703
201	0x3f27ecb6	0.6559557
202	0xbe681bec	-0.22666901
203	0xbf06f8fe	-0.5272368
204	0xbee21bf2	-0.44161946
205	0xbf6c01d1	-0.9219027
206	0xbfa03d4a	-1.2518704
207	0x3fc35256	1.5259502
208	0x3f80f070	1.0073376
209	0x3f5070aa	0.8142191
210	0x3e55e78d	0.20889111
211	0xbe256910	-0.1615336
212	0x3eb202fa	0.34767896
213	0x3ed038c5	0.40668312
214	0x3f5042f3	0.81352156
215	0xbe65a524	-0.22426277
216	0xbf3a4fd4	-0.7277806
217	0xbf1479d0	-0.5799837
218	0x3ea38e79	0.31944636
219	0x3f720224	0.94534516
220	0xbed21252	-0.41029602
221	0xbf5af133	-0.8552429
222	0x3f1ffe20	0.6249714
223	0x3e9544a4	0.2915393
224	0x3f82f18f	1.0229968
225	0xbf79a31d	-0.97514516
226	0xbf010131	-0.5039244
227	0x3f201252	0.62527955
228	0x3f785fb7	0.9702105
229	0xbf2ea8c7	-0.68226284
230	0xbfa65ccb	-1.2997068
231	0x3f765e1e	0.9623736
232	0x3f43d00e	0.7648934
233	0x3f35646f	0.70856375
234	0xbeac1669	-0.33610848
235	0xbf116582	-0.56795514
236	0xbeec3ad1	-0.46138623
237	0xbf7ec387	-0.995171
238	0xbf9d26b8	-1.2277441
239	0x3fc4b477	1.5367573
240	0x3f68036b	0.90630215
241	0x3f469b4c	0.77580714
242	0x3e8d6078	0.27612662
243	0xbe67f33b	-0.22651379
244	0x3e96247b	0.29324707
245	0x3ebec271	0.37257722
246	0x3f528a4a	0.8224226
247	0xbe988d0e	-0.29795116
248	0xbf7f7d64	-0.99800706
249	0xbf2db8aa	-0.678599
250	0x3ec9cdde	0.39414877
251	0x3f4c9fb6	0.799312
252	0xbf0740cd	-0.52833253
253	0xbf277f26	-0.6542839
254	0x3f230de7	0.6369309
255	0x3ebda32e	0.3703856

decoder.bias f4 [128]
0	0x3ede00c0	0.43359947
1	0xbf366cfb	-0.7126004
2	0xbf472e5a	-0.778051
3	0xbf291ee5	-0.66062766
4	0xbf3aa485	-0.72907287
5	0xbf35ff2c	-0.71092486
6	0xbf39cb9a	-0.72576296
7	0xbf4bffd7	-0.79687256
8	0xbf24f9c1	-0.64443594
9	0xbf420a10	-0.75796604
10	0xbf1b1d70	-0.60591793
11	0xbf635f6b	-0.8881747
12	0xbf42620a	-0.75930846
13	0xbf3bc109	-0.73341423
14	0xbf25030c	-0.64457774
15	0xbf38557c	-0.7200544
16	0xbf4247e9	-0.75890976
17	0xbf44a7e8	-0.76818705
18	0xbf605be4	-0.87640214
19	0xbf4c744f	-0.7986497
20	0xbf1f5053	-0.6223194
21	0xbf4c57cb	-0.7982146
22	0xbf4c633f	-0.7983894
23	0xbf599fec	-0.85009646
24	0xbf2ca1ad	-0.674342
25	0xbf67c7d7	-0.90539306
26	0xbf307914	-0.6893475
27	0xbf487f2d	-0.78319055
28	0xbf0cddd0	-0.5502596
29	0xbf371941	-0.7152291
30	0xbf382262	-0.71927464
31	0xbf2125d3	-0.6294834
32	0xbf19ff57	-0.6015524
33	0xbf0c244f	-0.547429
34	0xbf4254fc	-0.75910926
35	0xbf5458b0	-0.82947826
36	0xbf2b8b81	-0.6700974
37	0xbf27f3dd	-0.6560648
38	0xbf56cfc6	-0.8391079
39	0xbf0cb48a	-0.5496298
40	0xbf3f7075	-0.7478097
41	0xbf5f29cc	-0.8717315
42	0xbd163864	-0.036674872
43	0xbe811951	-0.25214627
44	0xbe39a8fa	-0.18130866
45	0xbf4619f1	-0.77383333
46	0x3d1e642b	0.038669746
47	0xbe9d7ea0	-0.3076067
48	0xbd4a500a	-0.049392737
49	0x3ce3ae0e	0.027792957
50	0xbe171883	-0.14755444
51	0xbdcbd2fb	-0.09952351
52	0xbeadef70	-0.3397174
53	0xbd508159	-0.050904606
54	0x3e266ff5	0.16253646
55	0xbcb2924d	-0.021798277
56	0x3e3fa723	0.18716101
57	0xbdd52fe3	-0.10409524
58	0xbe9f3765	-0.3109695
59	0xbd3a6f85	-0.04551651
60	0xbe8a4c28	-0.27011228
61	0xbece9c1f	-0.40353486
62	0x3d677c01	0.056514744
63	0xbeefb394	-0.46816695
64	0xbb93131e	-0.004488363
65	0x3e0fda0a	0.14048019
66	0xbe99c0b8	-0.30029845
67	0xbdd6d2bf	-0.104894154
68	0xbe0bac1a	-0.1363987
69	0xbeae134f	-0.33999106
70	0x3ea73358	0.3265636
71	0x3dfda9b6	0.123858854
72	0x3e9b52b1	0.30336526
73	0xbe51ab4f	-0.20475505
74	0x3ee5c5ab	0.4487737
75	0x3e90d566	0.2828781
76	0x3e8f47cd	0.27984467
77	0xbee40156	-0.4453227
78	0x3dd8d473	0.105873965
79	0x3ec161a1	0.37769797
80	0x3df37358	0.118872344
81	0x3eb898fc	0.36054218
82	0x3da66f29	0.08126671
83	0x3cce9662	0.025218192
84	0x3d803125	0.062593736
85	0x3d7eca6d	0.062204767
86	0x3de2da40	0.11076784
87	0xbd426825	-0.0474626
88	0x3d0eb41d	0.03483974
89	0x3da5982c	0.08085665
90	0xbeeb221c	-0.4592446
91	0xbe0e07df	-0.1387019
92	0xbe1e7723	-0.15475135
93	0xbe13b307	-0.14423762
94	0xbdc3e53d	-0.09565208
95	0x3bf63293	0.007513353
96	0xbd4a049d	-0.049320806
97	0xbf3e5c07	-0.7435917
98	0xbdd4deed	-0.10394082
99	0xbf481d5b	-0.7816979
100	0xbf35c0bc	-0.70997214
101	0xbf44c6a6	-0.76865613
102	0xbf2310ae	-0.63697326
103	0xbf1f2eba	-0.62180674
104	0xbf439cc4	-0.7641108
105	0xbf40405d	-0.7509821
106	0xbf35c1ab	-0.7099864
107	0xbf06a6a8	-0.5259805
108	0xbf150149	-0.58205086
109	0xbf3176c5	-0.6932185
110	0xbf4f2fd2	-0.80932343
111	0xbf4ead1f	-0.8073291
112	0xbf20b164	-0.62770677
113	0xbf2b48bc	-0.6690786
114	0xbf2c7765	-0.6736968
115	0xbf6dcb0b	-0.92887944
116	0xbf1c228d	-0.6099022
117	0xbf33bae2	-0.70207036
118	0xbf0bbc6b	-0.5458438
119	0xbf69631a	-0.9116684
120	0xbf490437	-0.78522056
121	0xbf08bbb7	-0.5341143
122	0xbf46f83f	-0.77722543
123	0xbf5b6151	-0.8569537
124	0xbf001ad2	-0.50040925
125	0xbf4a22f1	-0.78959566
126	0xbf434db5	-0.76290447
127	0xbf47afcc	-0.7800262
