models/notelstm.model (torch, 416251 bytes, 7 tensors)

embedding.weight f4 [128, 32]
00000000: 348f f9b9 8e25 61bf 1b8f cb3d 2156 91bf
00000010: c882 ebbe c560 933f 7304 8dbf 37ae a3bf
00000020: 048f 97bf 1835 d3be 7b4e 73bf 4a89 b63f
00000030: 248b 8c3f 089e 833f f198 073f 7fe0 f23d
00000040: 9e04 aa3c 9dd8 c5be e90a 723f fa71 82be
00000050: 839c 903f 497b fbbc 0187 c0bf ed83 96bf
00000060: 60e9 ed3e 9f30 bf3e 3627 52bf 7c65 de3f
00000070: 356d 91bf f499 a83f 3cda cdbf 1401 d4be
00000080: 08f4 afbd 1dd2 5b3e cd7e afbf 038a 9d3f
00000090: 6e5c 453d a7bc 74bf 4dde 1ec0 7070 7f3f
000000a0: b795 f6be b841 97bf 16b3 813f 7955 a4be
000000b0: 2eed 33bf 553e 98bf 559f e6bf 9a9b 46bf
000000c0: a7f6 bc3f 42f4 ffbe 9382 2b3d 7791 c1bb
000000d0: a4f2 2ebf e7a7 af3e 0449 a53e bedc d63d
000000e0: 5451 283f f1f3 573f 3e66 183d a45c e0bd
000000f0: 833b 183f 06f5 e5bf 0a3e f9bf 7399 9ebf
00000100: 9313 513f a220 943f fff8 a23f 2afe 983e
00000110: a088 f93f adb5 b73f a17a f2be e367 f53e
00000120: 96a9 e43e ed95 88bf 3fa5 00c0 8a8f 92bf
00000130: 514d 1c3f e055 513e 2162 cabe 3bc6 bcbd
00000140: df45 b63f f06c 273f f91b 173e 9cc3 9ebc
00000150: dcbe 09bf 1e37 d6be 3602 623d d749 613e
00000160: b989 e9be d3ed d43e d93c 543f e360 043f
00000170: f723 cc3f e029 aebf c0aa 33bf 2855 a4be
00000180: 8d50 b9be 0702 a6bf da48 163f 465b 11be
00000190: b0d1 be3f 0e3f 06bf 7229 57bf a372 adbd
000001a0: 576c 3dbf 3f7e 7a3f 5b11 1f3f dc4d ee3d
000001b0: e627 a3bf 8997 13c0 ea38 4b3f 9d2a 6a3f
000001c0: f50e c0be 99fa 90bf 3799 febe b22e 503f
000001d0: 3690 0b3e eb1e 603f 4dee 353f f327 36bf
000001e0: b629 8c3f 542f 8e3f e5a1 a83e a30a 03be
000001f0: aa1b 2d3f 9c59 c43f 1d13 5a3f 4e54 383f
00000200: d09b ccbf e9de f6bf edb1 64bf 18d0 06bf
00000210: 984f bcbe a29c 533e 92e2 e0bf f4b9 09c0
00000220: 7ddb f0be 5b1f b73e ba2d 133f 22ed 5c3f
00000230: 3080 21bd 5f3f d03f edbe 99bf df76 56bf
00000240: 888e 01bf db39 293c d0a6 f43e cc57 4c3e
00000250: 69ac 943e 3076 a83f 1a7a 51be 8482 6f3f
00000260: 1234 aebe af2a d63e 18dd b2bf 8b2c 54be
00000270: 2309 69be 92d0 0a3d 9650 33bf c647 0040
00000280: 0793 4d3e 666c e2bf 1dfd bfbd a8ae 703e
00000290: 6b33 ac3f 5c15 0c3e 62b6 683f 961c 8b3f
000002a0: 32f3 fb3e cef5 64bf 9f64 52c0 9100 ecbd
000002b0: 8320 80bd ff25 85bf 958e ff3e 73f6 6b3f
000002c0: aeb2 a1be a7b4 cd3f 5764 a43f 4435 813d
000002d0: 5df0 ce3e 307a 333f 6e1f c1be ee42 b03f
000002e0: 6ea0 a4bf 3205 15be 86dd 1740 dc33 a0be
000002f0: 8ff9 953f ba9d ee3e c0e2 b13f 74b4 e4be
00000300: 978f 593f 9d62 e7bd 1a9e ae3f 724a 8ebf
00000310: 0ff4 783f 1a35 7abd 7930 33bf 1f4c 9f3f
00000320: c007 bcbf 77f7 0940 9669 963d 0d04 ef3e
00000330: 27f1 56bd 623f 2dbe 6e1f 463f d74d 94bf
00000340: 608f 90bd ab40 d6be dc0c 023f 0cac 9c3f
00000350: 36fe 9bbf b40e 96bf a6cb 6ebf 13cf 4bbf
00000360: eefe 8abc 9b69 853e 34d0 99be ed06 f23d
00000370: fe23 d03f ad66 02c0 804e 433f 17db e8be
00000380: b472 1bbf 5d20 0d3f 0c48 9e3f bb74 123f
00000390: dd5d 98bf 8c3a ca3e d3bb bfbf eae3 333d
000003a0: 2d1c 52bf 53ca 43bf 9694 a73e 7128 3a3f
000003b0: cdd0 d5be 91ac 37bf 56e1 6c3f 6eda 54bf
000003c0: 5b0d b9be 5e63 d73d df48 bc3f b4b0 57be
000003d0: 8136 5e3e fcb7 ffbf efae 13bf dbb4 933e
000003e0: 65b1 d2bf 5cfb 383f f89c 973d 3e3f 4540
000003f0: 6008 e13f d329 c83c 94a8 32bf 26a0 06c0
-0.00047599676 -0.8794793 0.099394046 -1.135441 -0.45998216 1.1513907 -1.1016983 -1.2787541
-1.184052 -0.41251445 -0.95041627 1.4260647 1.0979962 1.0282602 0.52967745 0.118592255
0.020754155 -0.38641825 0.945479 -0.25477582 1.1297764 -0.030698435 -1.50412 -1.175901
0.46467113 0.37341782 -0.8209108 1.737472 -1.1361452 1.3171983 -1.6082225 -0.41407073
-0.08591467 0.2146687 -1.3710572 1.2307743 0.04818385 -0.9560036 -2.4823182 0.9978094
-0.48161098 -1.1816931 1.0132778 -0.3209646 -0.7028378 -1.1894022 -1.8017374 -0.7758118
1.4762772 -0.4999104 0.041872572 -0.0059072333 -0.6833899 0.34307787 0.3228227 0.10491322
0.65749097 0.843566 0.03720688 -0.1095517 0.5946581 -1.79654 -1.9472058 -1.2390579
0.8167049 1.1572459 1.2732238 0.29881412 1.949482 1.4352318 -0.47359183 0.47930822
0.44660634 -1.0670754 -2.0100858 -1.1450055 0.61055475 0.20442915 -0.3952799 -0.09217497
1.4240073 0.654006 0.14756764 -0.019380383 -0.53806853 -0.41838926 0.05517789 0.22000824
-0.45612887 0.41587695 0.82905346 0.5171034 1.5948476 -1.3606529 -0.7018242 -0.3209622
-0.36194268 -1.2969369 0.5870491 -0.14194974 1.4907742 -0.52439964 -0.84047616 -0.08469131
-0.7399344 0.97848886 0.6213586 0.11635944 -1.2746551 -2.306124 0.7938372 0.9147127
-0.3751141 -1.1326476 -0.4972627 0.8132125 0.13629231 0.8754718 0.71066743 -0.7115471
1.0950229 1.1108193 0.32936016 -0.12797026 0.67620337 1.5339847 0.85185415 0.7200364
-1.598505 -1.9286777 -0.89333993 -0.52661276 -0.36779475 0.2066522 -1.7569144 -2.1519747
-0.47042456 0.3576611 0.5749165 0.86299336 -0.03942889 1.6269339 -1.2011391 -0.8377513
-0.5060811 0.010328735 0.47783518 0.19955367 0.2903779 1.3161068 -0.20456734 0.93558526
-0.34024101 0.4182944 -1.3973722 -0.20720117 -0.22757392 0.033890314 -0.7004484 2.0043807
0.20075618 -1.768933 -0.093744494 0.23504126 1.3453192 0.13680023 0.90903294 1.0868099
0.4920898 -0.8943757 -3.2873914 -0.115235455 -0.06256201 -1.040222 0.4991347 0.92172927
-0.31581634 1.6070756 1.2843121 0.06308988 0.40417758 0.7010832 -0.3771929 1.3770425
-1.2861459 -0.14552763 2.3728957 -0.31289566 1.1716784 0.4660471 1.3897324 -0.44668925
0.84984726 -0.11298106 1.3641999 -1.1116469 0.97247404 -0.061085798 -0.6999584 1.2445105
-1.4689865 2.155729 0.07344358 0.46682778 -0.052476075 -0.1691871 0.7739171 -1.1586255
-0.070585966 -0.41846213 0.5080087 1.2240005 -1.2186954 -1.1723237 -0.9327949 -0.79612845
-0.016967263 0.26057133 -0.3004166 0.11817727 1.6260984 -2.0375168 0.76291656 -0.45479652
-0.607219 0.5512751 1.2365737 0.57209367 -1.1903645 0.39497793 -1.4979194 0.043918528
-0.8207424 -0.764806 0.3273055 0.7271796 -0.41760865 -0.7174769 0.92531335 -0.831458
-0.36143002 0.10517 1.4709738 -0.210635 0.21700479 -1.9978023 -0.576888 0.2884892
-1.6460387 0.72258544 0.07402986 3.081985 1.7580681 0.024434006 -0.6978848 -2.1035247

lstm.weight_ih_l0 f4 [512, 32]
00000000: 47f4 99bd 14f6 58bd 6bf9 4fbe 0ddc b8bd
00000010: 42ea 9dbc 808d 13be dc1d b73e d403 f83d
00000020: 2fe9 36bc e17b c53e 526c c7bd e423 2ebe
00000030: 297a 84be 976f b2be 6c0e b3be 6821 773e
00000040: 494b 1cbe 3ba5 393e 6c9c 213d d729 c13e
00000050: 78c6 673d f782 603f 0030 823e c1c6 9cbd
00000060: fcb9 c3bd 78c8 e6be c287 e8bd c94c 46be
00000070: c5e0 9b3e e3de 44bd c55d 9b3c 9ea9 c2be
00000080: 995a 6b3e 6a70 28be 80be 48bf 25d7 68bd
00000090: 6c9b 1bbe 951a c23e 9250 c5bd d23d c63e
000000a0: 4b1d 96bd 5a1e 47be 6bcb 6dbd a070 293e
000000b0: df57 683e 0857 d4be 783c b93d 33a3 ee3d
000000c0: fdb4 1a3e 46a4 89bd 5532 3f3c 0734 efbd
000000d0: 23e3 3b3d bd0a 0f3f 3d2d 203e 08a6 7bbd
000000e0: 95da aebd 2bb2 153d c854 303e 6c7f aabd
000000f0: 215c 8a3e 894f 84be df03 7cbd e204 0abf
00000100: 7237 2cbe 07d2 b13d b111 b9be da47 6a3e
00000110: e45f c13e 156c ff3c eb22 6fbe 982e 4e3e
00000120: 8fc4 7f3d 7372 213e 94bd 913e 723f bbbe
00000130: 6fa0 66be 866e e83d f8de cebc 53cd 203d
00000140: 5c6b 9e3e 9d1a 953c 3f8e 84be c754 9bbd
00000150: a32a 79bd f4e9 8b3e f2ea 403d b77e 00bd
00000160: 6048 b5be 3659 5cbe cec0 923e 7e44 b9bc
00000170: 2d84 893c 67fd 693c ca08 2a3e 695b c2be
00000180: 1685 b13e 9519 923d 257a 89be af5c 32be
00000190: e662 80be 884d f53d 2df5 65bc 7eea a2bd
000001a0: 538d 0a3d a21c 82be 348f f5bd db4b 90bd
000001b0: b4f9 76bd bf9c a7be aebe 4cbe 763a 33be
000001c0: cb2f 45bb fab9 b13e 7184 20be 983c bcbd
000001d0: 7206 5c3d 992d f33d 31ff 1c3d b06a d4be
000001e0: 407b e9bd 189d 92be 5f37 bd3d 8e87 7cbd
000001f0: 4631 6ebd 5587 ffbd b780 a83d c4bd 60be
00000200: 044d 16be 2eb2 863d ba2d c43e bd9b 0cbf
00000210: 9935 073d c4b5 073d c362 9a3d 0e5b 78be
00000220: 3135 b6bd a98a 873e 01a2 a8be 9ab6 683d
00000230: 189b 1dbd b5cf a03d f424 27bd e9ec a53e
00000240: e559 babd ced2 a03d e1d8 6f3d 2c3e de3d
00000250: f91e 773e d74c 993d d1ba 953c 28cc 43be
00000260: 8b71 0e3d ddcc acbe df9e d63d 8560 243e
00000270: 69fb 303d ff70 573e 3368 3ebe dab5 e6bd
00000280: 464d a1be 841c 6e3e d899 4abe 2b6a 19be
00000290: 3555 703d 7015 69bd 4df2 173e 4e36 3abe
000002a0: 63f0 9e3d 8d19 af3e 1eb3 113e 4d20 48be
000002b0: 60b8 e8be a6c3 793e 2bcd 2dbb 1afe 233e
000002c0: 4f13 8d3c 7896 9f3e 2c93 67be e112 b2bd
000002d0: a736 40bd 4387 71bd 4fca 75bd 8f08 413e
000002e0: 78b1 56be 2884 eabe 7324 583d 0e5b 93bd
000002f0: 5df8 973d 5306 783d e952 96bc b003 94bd
00000300: 2275 c2be ea55 0ebd c1c3 8dbe 38f1 953d
00000310: 1f16 453e eacd 7c3b 7064 833e 6e3a ffbd
00000320: 42be 3a3e 7138 0a3f a0a1 a0bd 0899 4abe
00000330: cbc5 7dbe db30 17bc 92a7 71be 9e15 553e
00000340: d59e b1bd 01b2 883e e731 88bd 4c69 adbd
00000350: 025f 2a3d 5f7a 003d a5f6 303e 1ce1 a6bd
00000360: 9d88 70be 9210 e9be f07d 093e 2199 11be
00000370: 14ad ad3e 02f5 16be 5a82 b1bd f73a 1abe
00000380: ea9f 773e c528 bbbe fa6f c9bd bb6a 5abe
00000390: 2b03 6cbe 3c59 a6be 9aba 383e 6552 febd
000003a0: e11d d93c 6e83 fd3e 6f85 123d e2a7 b3bd
000003b0: 1ed0 433e 21a1 1d3e e2ad ba3d be75 0fbf
000003c0: 0a9e e8bc 573f 9dbd d96b d0bd 6462 b3bd
000003d0: 9d64 633e 1c24 1f3d fa7a 883e 4beb 793c
000003e0: bc58 d5be 9a78 6bbe 4f65 3dbe ac54 ccbe
000003f0: a892 5e3d d50c c3be 2fef 4a3c 1624 6b3e
-0.07517295 -0.052969053 -0.20309989 -0.09026346 -0.019276742 -0.14409447 0.35764968 0.12110105
-0.011163994 0.38571075 -0.09737457 -0.17005879 -0.2587445 -0.3485076 -0.3497194 0.24133837
-0.15263094 0.18129437 0.039455816 0.37727234 0.05658576 0.87699836 0.25427246 -0.07655097
-0.09556958 -0.4507482 -0.11354019 -0.19365229 0.30444923 -0.048064124 0.018965611 -0.38020033
0.22983779 -0.16449133 -0.7841568 -0.056845803 -0.15196007 0.37910905 -0.09634508 0.3871904
-0.07329806 -0.19445172 -0.058055323 0.1654687 0.2268977 -0.4147265 0.090447366 0.116522215
0.15108104 -0.06720786 0.011669715 -0.11679845 0.04587091 0.5587576 0.15642257 -0.061437637
-0.08537785 0.036546867 0.17219841 -0.08325085 0.27023414 -0.2584193 -0.06152713 -0.539137
-0.16818026 0.08682638 -0.3614631 0.22878972 0.3776847 0.031179467 -0.23353164 0.20134962
0.062443312 0.15766315 0.2846495 -0.36571842 -0.22522138 0.11349206 -0.025252804 0.039258312
0.30941284 0.018201167 -0.25889775 -0.07584529 -0.060831677 0.2732693 0.04709906 -0.031370845
-0.3540678 -0.21518406 0.28662723 -0.022615667 0.01678666 0.014281607 0.16604915 -0.37960365
0.3467185 0.07133786 -0.26851 -0.17418168 -0.25075454 0.119776785 -0.014035505 -0.07954882
0.033826184 -0.2541247 -0.119902045 -0.07045718 -0.06029673 -0.32736775 -0.19994614 -0.1750277
-0.0030088301 0.347122 -0.15675522 -0.09191245 0.053717084 0.118739314 0.038329307 -0.41487646
-0.11400461 -0.28635478 0.09239077 -0.061652713 -0.05815246 -0.124769844 0.082276754 -0.2194739
-0.14677817 0.06576954 0.38316137 -0.5492514 0.0330101 0.03313233 0.075383686 -0.24253485
-0.08896864 0.26472977 -0.329361 0.056814767 -0.038477987 0.07852117 -0.040806726 0.3240731
-0.09099177 0.07852708 0.05855644 0.10851702 0.24132909 0.07485359 0.018277558 -0.19120848
0.03477625 -0.33750048 0.10479521 0.16052444 0.043208513 0.21039198 -0.18594436 -0.11265154
-0.31504267 0.23253065 -0.19785249 -0.14981906 0.05867501 -0.05690521 0.14838524 -0.18184778
0.07760694 0.3419918 0.14228484 -0.19543572 -0.45453167 0.2439104 -0.0026519995 0.16014901
0.017221121 0.31169486 -0.22614735 -0.08695007 -0.04692712 -0.058966886 -0.06000739 0.18850921
-0.20966136 -0.45803952 0.052769136 -0.07195102 0.074204184 0.060552906 -0.018350082 -0.07227266
-0.3797999 -0.034749903 -0.2768841 0.073213995 0.1924672 0.0038574883 0.25662565 -0.124623165
0.1823664 0.5399237 -0.078433275 -0.1978494 -0.24782483 -0.009227957 -0.23599079 0.20809028
-0.08672873 0.26698306 -0.06650143 -0.084673494 0.041594513 0.031366702 0.17281587 -0.08148405
-0.23489614 -0.45520455 0.13426948 -0.1421857 0.3392111 -0.147419 -0.08667441 -0.15061556
0.24182096 -0.36554542 -0.09835811 -0.21329777 -0.23048083 -0.32489955 0.18039933 -0.12418059
0.026503505 0.49514335 0.035771783 -0.087722555 0.19122359 0.15393497 0.09115197 -0.56039035
-0.028395671 -0.07678097 -0.1017682 -0.08759001 0.2220635 0.038852796 0.26656324 0.015253852
-0.4166926 -0.22995225 -0.18495677 -0.3990835 0.05433908 -0.38095728 0.012386127 0.22962984

lstm.weight_hh_l0 f4 [512, 128]
00000000: be5f 22bc 5ec0 4bbd f516 d23b e1f3 d13d
00000010: d60a e43d d9c1 85be 7bf8 9e3e ae2f f4bd
00000020: c6c6 cb3e c1ae e53c eacd 4f3e 4c72 ff3d
00000030: 1cb4 52be 08b1 063e 5a3d 9e3c 29ce 92be
00000040: b339 10be 6e05 94be dcf2 a6bd fd2d c53b
00000050: e614 8a3d 1476 8e3d 025b 11be 34c3 d4bd
00000060: f355 103e d15f 673d 52c1 2b3e fe7c eebd
00000070: 2b15 acbd 6664 00be c719 c1bb 0f05 8e3e
00000080: c2ef 4e3e 62ae 78bd c002 063e 53e6 033e
00000090: 7e65 24be a9eb 7c3e 606e e93c f0a3 ae3e
000000a0: 1dd9 99be fa02 09be c877 47be ba68 b13c
000000b0: d76b d1be 67b9 463d ec10 61be 62ce 2dbd
000000c0: 07f2 033e 516a 1fbe 0294 113d 67c8 6c3e
000000d0: 6f75 15be 3427 a63c ccfa 093e f361 853e
000000e0: c319 5b3e 4ecb 4dbe e203 763d 7afc b23d
000000f0: 3747 863d fb5f 9a3e 97bc 29be 0626 e0bb
00000100: 060d 12be 0ab3 19be 83ab f8bd 95ba b73d
00000110: c77c a4bb be33 62be a5c4 15bd ce14 f0be
00000120: a748 413d 990b babe 9eab 06bc 381c 26bd
00000130: 7a46 b8bd 82b8 253c 30cb 06be 97b1 eb3c
00000140: cfed 963e 17e3 af3d 081a 8dbc 16d3 8b3d
00000150: 9620 48bb 977c 46bc 06bd 023e 557f 443e
00000160: a94b 5d3d 9103 843c e52d 86be ada8 1b3d
00000170: 1659 6c3d 45db 27be 8a06 533e d9a7 86be
00000180: 42a4 82be 9e70 36bc a8a4 3dbe fe95 0bbd
00000190: 793a 553e d172 d7be 4eef 1dbe f26d cabd
000001a0: ab7f 153e a99c bfbe 9866 06bc b4cd 79be
000001b0: 4726 b53d 63b1 ddbb e7b6 8a3d c9e7 e1bc
000001c0: 69a6 583e 431a 4ebc 7ee2 913d 225c ef3d
000001d0: 4eac a73d f29f e4bd e247 d6be ed77 42bd
000001e0: 6ab4 6f3e 3966 403d 8ed2 a2bd 2690 5cbe
000001f0: 4d2e 303d a4ab d43c 51e4 8e3e ecf5 51bc
00000200: 5ffb 233d a9c2 02bd a330 b7be 6b36 5cbd
00000210: 7675 0d3e 0efe 6ebd 9d18 85be ddae 96be
00000220: 6aef 04bf 7375 c93d f74b 353e cfc4 ee3e
00000230: e0ef de3d e60c c6bd 5d94 853d 0903 3f3e
00000240: b53f f03e 0827 863c f208 d83e 14f7 7c3e
00000250: fa72 69bd 23ed 293d 1e2b 433e 6244 893d
00000260: 5fe9 0ebe 420e f9bd b63c 47bc d400 98be
00000270: fd32 bfbe e10e 10bd 4913 64be 5354 9d3d
00000280: c51f 9ebe c94f 24bd 4006 1cbe caf7 1abe
00000290: 9443 df3d b3e1 f8bd a1dd 12be f0b6 f13d
000002a0: 23c2 2d3e be73 78be 40be a33e 08b0 1d3e
000002b0: df2a 693e db85 3dbd 0ffe 283e a238 c53e
000002c0: ec24 fbbd 226a 593e eb41 86be 91ac b6bd
000002d0: af78 a03e e184 4f3e 23ff c63c 54b3 93bd
000002e0: 3cf5 b0bd 2dc7 c03d e66c 983d 9bc4 8ebe
000002f0: 03a0 e1bd a1fb 8d3d 4372 f53e 1541 1a3e
00000300: 91c6 cb3d baa9 ae3d 4db5 18be 06f4 bf3d
00000310: c9fd 1cbd b905 7ebe 6624 60be aa11 443d
00000320: feb3 39be 3b4d 1fbf 532e c7bc de6a 88be
00000330: 3605 f8be 5d7c 56be 314c 22bd 62ea 013d
00000340: ada5 ccbe 46b5 28bd f8e2 3abe 4f44 0bbe
00000350: 97a7 2abe c806 babd 4e0a d7be 55d5 003d
00000360: d489 9bbd e39a 93bb 17e9 543e c832 bdbe
00000370: 1abf be3d 463e 81bd 6ae3 3abe cfb1 323f
00000380: 87af 1e3e 65f0 83be ad4a 383e 6fdf f83e
00000390: c025 febd 31ad 5bba ac6a 77be 6a45 1c3e
000003a0: f90c bbbe 1d13 c73c 21c9 38be 2695 c23d
000003b0: c6a1 a53d 3a96 7fbe cd13 763c 7746 d73d
000003c0: d314 72be fec6 a63d 8f9b 75be 9111 41bf
000003d0: 7eec 57be ba0d 37be 683e af3b 9242 a63d
000003e0: d783 b8be f791 eebe a34e 503c 7977 c7be
000003f0: 101c 96be c539 133e 7812 04be 4388 e63c
-0.009910522 -0.049744003 0.006411428 0.10251594 0.11134879 -0.26124457 0.3104895 -0.11923157
0.3980009 0.02803743 0.20293394 0.12472972 -0.20576519 0.1315347 0.019316364 -0.28672913
-0.1408451 -0.28910393 -0.081517905 0.006017445 0.06742267 0.06956115 -0.14194873 -0.103887945
0.14095287 0.056487862 0.16772965 -0.11644934 -0.08402475 -0.12538299 -0.0058929655 0.27738234
0.20208648 -0.06071318 0.13086987 0.1288083 -0.16054341 0.24699272 0.028495014 0.3410945
-0.30048457 -0.13380042 -0.19479287 0.021656383 -0.40902588 0.048516657 -0.21979111 -0.04243315
0.12885295 -0.155679 0.035541542 0.23123322 -0.14595579 0.020282365 0.13474578 0.26051292
0.21396546 -0.20097086 0.060062297 0.08739562 0.06556552 0.30151352 -0.16575848 -0.0068404702
-0.1426278 -0.15009704 -0.12142088 0.089711346 -0.0050197574 -0.2209005 -0.036564488 -0.46890873
0.047188427 -0.36336973 -0.008219628 -0.040554255 -0.08997817 0.010114791 -0.13163447 0.028771205
0.2947831 0.08588236 -0.017224327 0.06827371 -0.0030537 -0.0121146655 0.12767419 0.19189198
0.054027233 0.016114982 -0.2620689 0.03800266 0.057702146 -0.16392238 0.20607963 -0.26299933
-0.25515944 -0.0111352485 -0.18519843 -0.03407859 0.20823087 -0.42079785 -0.15423319 -0.09884252
0.14599483 -0.3742421 -0.008203171 -0.24394876 0.088451914 -0.006765531 0.06773167 -0.027576344
0.2115723 -0.0125795035 0.07123278 0.11687495 0.081871614 -0.1116332 -0.41851717 -0.04747765
0.23408666 0.046972487 -0.07950316 -0.21539363 0.043012906 0.02596075 0.27908567 -0.01281498
0.040034648 -0.031923924 -0.35779294 -0.053762835 0.13814339 -0.058347754 -0.2599534 -0.29430285
-0.51927817 0.09836855 0.1770476 0.46634528 0.10885596 -0.09670429 0.06522439 0.18653502
0.46923605 0.016376033 0.42194325 0.24703628 -0.056994416 0.041485917 0.19059417 0.06702496
-0.13956212 -0.121609226 -0.012160471 -0.29688132 -0.37343588 -0.03517044 -0.22272982 0.07682099
-0.30883613 -0.04011515 -0.15236759 -0.15133587 0.109015614 -0.12152424 -0.14342357 0.11802471
0.16968589 -0.24262902 0.31981087 0.15399182 0.2277026 -0.046270233 0.16503166 0.3851977
-0.12262902 0.21231893 -0.26222166 -0.08919633 0.31342074 0.20265533 0.02429158 -0.072119385
-0.08640525 0.0941299 0.07442646 -0.27884373 -0.11016848 0.0693276 0.47938737 0.1506389
0.09949983 0.085284665 -0.14912911 0.09372716 -0.038327966 -0.2480687 -0.21888885 0.04786841
-0.18135068 -0.6222722 -0.024314081 -0.26644033 -0.48441476 -0.20945878 -0.039623443 0.031717665
-0.3997015 -0.0411885 -0.18250644 -0.13600276 -0.16665493 -0.09083325 -0.4200005 0.03145345
-0.07594648 -0.004504548 0.20792042 -0.36952806 0.093137935 -0.06310706 -0.18250814 0.69802564
0.15496646 -0.25769344 0.17997237 0.48607966 -0.12409544 -0.00083799945 -0.24161786 0.15260854
-0.36533335 0.024301106 -0.18045475 0.09501104 0.080874965 -0.2495965 0.015019369 0.10511487
-0.23640756 0.081434235 -0.23985122 -0.7541743 -0.21086308 -0.1787633 0.0053480156 0.08118166
-0.36038086 -0.46595737 0.012714061 -0.38958338 -0.29318285 0.14377506 -0.1289767 0.028141147

lstm.bias_ih_l0 f4 [512]
00000000: 4e2f 723e 0ae5 9a3e 0a0d 093e b4e5 9d3e
00000010: 72e4 dc3e 50f4 dd3e f8ca dc3e 8fae 1b3d
00000020: 5c68 b43e 02c3 b83e 11ed 043e fdcd bd3e
00000030: c9b6 1b3e 24d5 403e aefd 4a3e e8ad 493e
00000040: 6be0 693e 595f 763e 3b95 b43e 0728 ea3e
00000050: 688b 593e ad27 dc3e 481e a33e c1f6 ef3d
00000060: 4bed b23e 9aa4 f03e 798e 033f 11e5 e23e
00000070: 215c d93e b503 843e b258 7f3e fe7a 5a3d
00000080: 1ef5 883e ff1b a93e efdd 843d 151b bf3e
00000090: b233 a73e 0e31 ab3e e1e2 55be 3629 553e
000000a0: 2e5b 653e 8c0c e63e 09de 253e 1c80 cabd
000000b0: 5075 913e d1d0 d83e 1d62 0e3f a4b0 f03d
000000c0: 2e4c c63e dca9 033e 38ee 7a3e fd1d 593e
000000d0: e68d fb3d 7e17 6d3e 5251 b33e b0bd ed3e
000000e0: fc04 9c3e 3890 3d3e 754e b93e d257 213f
000000f0: a9ec 423e 7316 723e c107 c93e a1c7 e13e
00000100: f5c1 313e 6416 783e 496a fc3d 6f1a 723e
00000110: a5d5 a13e fc84 883e 93b3 403e 9ef2 c63e
00000120: 7b58 d73e c3da bb3e cd57 763e 5cff 7a3e
00000130: 3402 ba3e 6432 2a3e e17a 563e 8579 2f3e
00000140: aa2a b23e 2414 813e 424b cd3e f744 e53e
00000150: 1c3a c63e 8016 713e f847 a93e c8b0 e63d
00000160: 830f ce3e 1c07 8a3e e2d5 943e fe81 fb3e
00000170: f13f 7f3e f66d 5f3e 95ad 053f e571 db3e
00000180: 3364 893e 4ea6 a93d 7d60 623e 4c6b bd3e
00000190: 2bef c63e 8aa7 72be a41d 533e c834 f43d
000001a0: 2fc1 c73e adfc ca3e dce8 383e 54da 0c3e
000001b0: 39b3 2b3e 41f1 853c 7f44 1abd fbdc 003f
000001c0: 6dd9 113f 957a eabd 95bf 8e3e 8a84 583e
000001d0: dcfe 0f3e 6dcc d83e f1f5 1a3f 65c9 eb3d
000001e0: 51fa 513e df38 ca3e 952c 933e e956 e83e
000001f0: 91e3 cb3e 9049 683e 7977 3c3e f5a9 ad3e
00000200: b561 783d da75 413e fb3f aa3d 642f 343d
00000210: 56fc b13d eabf fe3c 4101 f63c 826e 143e
00000220: 60b9 fe3d 2d8c 99bc 9e06 b53d 1551 babc
00000230: 6b82 233e 9c8e 5c3e 9f4a 173e 376b 973d
00000240: 194e 79bd 343d 5abe 8679 d43c a710 3dbe
00000250: 1ad3 963d cf4c a63c 8c8e 9d3d 2b09 f7bd
00000260: 8af3 7bbd 4a63 8fbc 0bba edbd 7df5 8f3d
00000270: 3e09 1dbc c8fe 9d3c a8dd 4ebc 5350 523e
00000280: a9ca 043c 615d 533c 95d6 6f3d b5e9 a03c
00000290: feac 003d 5343 6fbd 2304 b23d 6824 583c
000002a0: fc95 903d b959 bf3c 03a2 293d 5c32 ae3d
000002b0: bce8 05bc 154a a63d d573 31bb dbdc 26be
000002c0: 7077 1f3e a114 123d 5c45 bebd b081 063e
000002d0: 58d7 6a3d 9e4e ae3d 4b55 2abe 4574 b73d
000002e0: 8905 16be d879 993b 7b37 8a3d 7471 d2bd
000002f0: 34c3 013d 76fe 203e 9209 e73b 2ab9 fbbd
00000300: 349b 863d eb09 b43d e02e 963d cc49 123d
00000310: 3e16 2abe 0ad9 b03c dfe9 fc3d b303 873d
00000320: f01b dc3d 339c afbd 3d52 c8bd 17c1 03be
00000330: 08fe 70bd aefc 043e 5c4a ab3c 5298 833d
00000340: dc0f 5bbc 708a ff3c 7332 d5bc 1460 5abb
00000350: ba3f e0bd c7c2 223d d6ab 7dbd 8f46 323e
00000360: 3832 d53d 8a1e 473d 0aa9 28bd 0e7c 2abe
00000370: 679e 6f3c 6515 ffbd 063e ec3d bd50 113d
00000380: a016 963d 6ca6 2cbe 4a1e 19bd a513 b4bc
00000390: d38a c6bd a81b 663e e3b5 33be 4f96 993c
000003a0: e3c6 1f3e 534c 393d d225 52bb d96d 5d3d
000003b0: 33fd 243d e9d6 253d e33e c3bc e203 0a3c
000003c0: 3db9 4f3e e557 b53d 47f2 44bc 1126 463c
000003d0: d866 c43d 3d81 cabd 3efd 22bd 57ee 983d
000003e0: 878d ddbb cb47 ef3c babd c6bb 10da 71bd
000003f0: 4730 c83c bc96 013e f54b ffbc 1ca6 5dbd
0.23650858 0.30252868 0.1338388 0.30839312 0.4314304 0.43350458 0.43123603 0.03800827
0.3523587 0.3608628 0.12981059 0.3707122 0.15206446 0.18831307 0.19823334 0.19695246
0.22839515 0.2405981 0.35270104 0.45733663 0.21244586 0.4299902 0.3185904 0.117169864
0.34946665 0.4700058 0.5138927 0.4431539 0.424531 0.25784078 0.24936178 0.05333995
0.2674951 0.33029172 0.06487643 0.3732535 0.32656628 0.33435863 -0.20887329 0.20816502
0.22398064 0.44931448 0.16197981 -0.09887716 0.28409815 0.42346814 0.5561846 0.117524415
0.38729995 0.12857765 0.24504936 0.21202846 0.12282924 0.23153493 0.3502298 0.46433783
0.30472553 0.18512046 0.3619267 0.6302463 0.19035591 0.23641376 0.39263728 0.44097617
0.17359145 0.24227291 0.1232496 0.23642896 0.3160831 0.2666396 0.18818502 0.38856977
0.42059693 0.3669034 0.24056931 0.24511474 0.36329806 0.16620785 0.20945312 0.171362
0.34798175 0.2521068 0.4009648 0.44779179 0.3871621 0.2354374 0.3306272 0.11264187
0.4024621 0.2695855 0.2906943 0.49122614 0.24926735 0.2181929 0.5221799 0.42860332
0.26834258 0.08283673 0.2210712 0.36995924 0.38854346 -0.23696724 0.20616776 0.1192413
0.39014575 0.396459 0.18057579 0.1375516 0.16767587 0.01635039 -0.03766298 0.5033719
0.5697239 -0.11449162 0.2788054 0.2114431 0.14062065 0.42343464 0.60531527 0.11513022
0.20505644 0.39496514 0.2874495 0.45378807 0.39822057 0.22684312 0.1840495 0.3391873
0.060640056 0.18892613 0.083129846 0.043990508 0.086907074 0.031097371 0.030029895 0.1449528
0.12437701 -0.018743599 0.08839153 -0.022743741 0.1596772 0.21538776 0.1477456 0.073934965
-0.060865495 -0.2131241 0.025936853 -0.18463384 0.07364483 0.020300297 0.07693204 -0.120622955
-0.061511554 -0.0175034 -0.116077505 0.07029245 -0.009584723 0.019286528 -0.012626089 0.20538454
0.008104959 0.012900681 0.05855425 0.01964269 0.03141498 -0.058413815 0.08692195 0.013192274
0.07059857 0.023358213 0.041414272 0.08505699 -0.008173164 0.08119599 -0.0027077098 -0.16295187
0.15572906 0.035664205 -0.09290573 0.1313541 0.057334274 0.08511089 -0.16634099 0.089577235
-0.14650549 0.0046837144 0.06748863 -0.10275546 0.0316803 0.15722069 0.0070507014 -0.122911766
0.065725714 0.08790954 0.073331594 0.03571491 -0.16610047 0.021587867 0.12349295 0.065925024
0.10747516 -0.085747145 -0.09781311 -0.12866627 -0.058836013 0.12987015 0.02090948 0.06425537
-0.01337048 0.031193942 -0.026025033 -0.0033321427 -0.10949655 0.039736535 -0.061931454 0.17409728
0.10409969 0.04861311 -0.041176833 -0.16648886 0.014625168 -0.124552526 0.115352675 0.03547739
0.07328534 -0.1686036 -0.0373824 -0.021982023 -0.09694447 0.22471488 -0.17549853 0.01874843
0.15603213 0.045238804 -0.0032066 0.054059837 0.040280532 0.040488157 -0.023833698 0.008423777
0.20285507 0.08854655 -0.012020654 0.012094037 0.095899284 -0.098879315 -0.03979229 0.07467335
-0.006761256 0.029209038 -0.0060650976 -0.05904585 0.024437083 0.12655157 -0.031164149 -0.054113492

lstm.bias_hh_l0 f4 [512]
00000000: c261 a13e f944 973e 12f8 3e3e f615 6f3e
00000010: 8601 c73e b904 033f 9035 f33e f749 df3d
00000020: 7966 883e f748 b73e 9b1e 283d 58f3 b33e
00000030: 9598 bf3d e63d 5e3e bdf1 893e 52a4 833e
00000040: 6dd8 593e fd93 813e 5037 d23e 910c c13e
00000050: 35f1 903e c199 ae3e ac67 cd3e 15bb 553e
00000060: 76e4 7d3e cf3e cf3e 707d ea3e edc6 9e3e
00000070: 3749 bd3e 2048 9c3e 69ea 8b3e 78be 34bd
00000080: 08f6 5e3e 50aa 633e 7a24 4b3d b1ef fa3e
00000090: 79e2 813e d32a c13e f1a5 25be 964f 7e3e
000000a0: 9523 183e 9b84 c03e e603 0f3e 31d8 06be
000000b0: 24a2 1b3e 98d2 e23e f94b 1a3f f527 e43d
000000c0: 65e8 ca3e 7ff5 8a3e 7c92 8d3e 4693 663e
000000d0: 53f3 4c3e 69bc 473e d7bb c63e a34b c03e
000000e0: 7a48 723e a83e 7f3e 45e2 563e a215 113f
000000f0: 818c 9d3e f4b2 f23d 68b0 b13e 47c1 903e
00000100: 8a96 ff3d 3b35 9b3e ee6d e23d 62de bc3e
00000110: a528 9a3e 1cb6 263e b22d 993d 154e c03e
00000120: 40ea de3e 29e9 de3e a17e 5a3e eec2 b83e
00000130: 7331 973e be5a a13e 1a44 903e f507 fa3d
00000140: 93ff b23e 0cef 4f3e 06ad ea3e c934 a93e
00000150: 2288 c73e f857 af3e 4602 ab3e 4e16 bd3d
00000160: fa6d 8a3e c265 b33e 2a64 953e f6a1 c93e
00000170: e814 7e3e 78a7 873e d3ae f43e c782 af3e
00000180: af64 123e 14c8 353d 7e4b 993e 9bc5 893e
00000190: 1fb8 fd3e 0880 5bbe d974 513e 5c6c bd3d
000001a0: a29a 953e ef7a d93e 118f 243e a988 343e
000001b0: bda5 4f3e bbaa 1dbb 1e48 2ebc d3c7 e73e
000001c0: a63b d33e 1482 63bd 8531 a03e ef63 9c3e
000001d0: d6cb fa3d 3bec f23e 8fc2 183f 7d3f 013e
000001e0: 9055 4f3e f4b5 c63e 1464 653e 3cd9 e93e
000001f0: 7100 ca3e 3e4c 883e 380f 573e 2558 583e
00000200: 3c62 163e 20f0 eb3d 96bf f63c 0285 263e
00000210: cb66 f93d f249 dabd b2c1 a8bd a6b1 1b3e
00000220: 0360 55bc 2df1 223b 0c60 8d3d 8a04 9abd
00000230: 7aee 463c 6a51 233e a185 ef3d 5e2e fcbc
00000240: 9d0c 29bd 8da4 c1bd e280 b8bd 0a73 24be
00000250: 00d3 5f3c 61f5 a5bd 769a 91bc 215b e3bd
00000260: f4f0 8ebc 5f5f 96bd a91f aabd d6f4 2e3d
00000270: 6ee7 debd afde c337 5163 26be 7f6f 543e
00000280: 18c2 9bbd 8d9e e83d 8019 863d 4dc9 383d
00000290: 6687 5cbd 8c6b 26be a0d4 9e3d f36a 493d
000002a0: 2eec 283e 0a62 c23d a7ea e63d a050 273e
000002b0: bf24 053e 96dc 0d3e ccb7 a8bc c38c 0ebe
000002c0: ffd7 1e3e 9ea0 91bd 3dc6 1e3d 507f 4c3d
000002d0: 5408 053e a8a4 dd3d 3fea f5bc 40ef 203e
000002e0: 340b 163b ee98 0d3e 29fd 1dbc 15d9 24bd
000002f0: 8223 913d 332e ad3d cac6 c1bc ba85 e5bd
00000300: 97cf b73d 3385 d93d 3d38 17bc c921 00be
00000310: 1e3e 65be fda1 99bd 4e6f 043e 1765 d73d
00000320: 684c fa3d 1ee2 31bd 2de2 43bd fafc 42bd
00000330: f82b f4bc 499f 5c3d 8566 2a3d d644 253e
00000340: e635 f5bb 1b9b 1d3e d0c8 42be 9b7b fa3d
00000350: 2479 253d 57a7 e43c 0d60 1f3d 9b1e e83d
00000360: 72d1 f23d dac5 983d 7d1e d6bc 4b47 ccbd
00000370: 757b 423d 51b9 25bc 3235 0a3e 9544 4cbc
00000380: 3fc3 d33d a77a a0bd dee6 99ba 28ab ddbd
00000390: 6c63 10be d1c4 953d adaf e1bd 9c9b a1bd
000003a0: ea41 0f3d 934b 94bd 5dac f93c fd4f 0d3d
000003b0: 5773 1d3d ef47 be3d bdf5 1fbe 38ac 713d
000003c0: 4af1 063e 59bc 2d3e fd8b 96bd 77be c43c
000003d0: 73c5 1abd 5419 22be 7d87 bbbc 95d6 4d3d
000003e0: fa71 a83c b7ec bcbd 2ec9 083e 4824 84bd
000003f0: b0a9 a53b 137c 0d3b 37a5 62bd be93 c2bd
0.31519896 0.2954481 0.18649319 0.23348221 0.3886835 0.5117908 0.47501802 0.109027795
0.2664068 0.35797855 0.041044813 0.35146594 0.093552746 0.217033 0.26942244 0.25711304
0.21273966 0.2530822 0.41057825 0.377049 0.28309026 0.3410168 0.40118158 0.20872147
0.24794182 0.40477607 0.45798826 0.31011143 0.3696992 0.30523777 0.27327278 -0.044126958
0.21773541 0.22232938 0.049595334 0.49010995 0.25368097 0.37727985 -0.16176583 0.24835047
0.14857323 0.3760117 0.13966331 -0.13168408 0.1519857 0.44301295 0.60272175 0.11140434
0.39630428 0.27140424 0.2765082 0.22517118 0.20014696 0.19505467 0.38815185 0.37557706
0.2366046 0.24926245 0.20984752 0.56673634 0.30771258 0.11850539 0.347049 0.2827246
0.12479885 0.3031405 0.11056124 0.36888415 0.30109134 0.16280407 0.07479419 0.37559572
0.43538094 0.43537262 0.21337368 0.3608622 0.29529914 0.31514543 0.28176957 0.12208549
0.34960613 0.20306033 0.4583513 0.33048084 0.3897105 0.34246802 0.33400172 0.0923277
0.2703703 0.35038573 0.29177982 0.3938138 0.24812663 0.26494956 0.4778963 0.34279463
0.1429622 0.044380262 0.29940408 0.26908574 0.49554536 -0.21435559 0.2045473 0.092491835
0.29219538 0.42476603 0.160702 0.17630257 0.20278068 -0.0024058062 -0.010637311 0.4526964
0.41256446 -0.055543974 0.3128778 0.30544993 0.1224591 0.47445855 0.5967187 0.12621875
0.20247483 0.38810694 0.22401458 0.4567355 0.39453462 0.26620668 0.21001899 0.21127374
0.14685911 0.115204096 0.030120652 0.16261676 0.12177809 -0.10658635 -0.082400694 0.15204486
-0.013023379 0.002486299 0.06903085 -0.07520397 0.012141818 0.15949026 0.116954096 -0.030783828
-0.041271795 -0.09455214 -0.090089574 -0.16059509 0.013661146 -0.08103443 -0.017773848 -0.11101366
-0.01744888 -0.07342409 -0.0830682 0.042713962 -0.108839855 2.3349507e-05 -0.16248824 0.20745657
-0.0760538 0.11358366 0.065478325 0.04511385 -0.053840064 -0.16251963 0.07755399 0.04917426
0.16496345 0.09491356 0.11275225 0.1633935 0.13002299 0.13853678 -0.020595454 -0.13920884
0.15512083 -0.071107134 0.038763274 0.049926102 0.12991458 0.10822421 -0.030018924 0.15716267
0.0022894861 0.1382787 -0.009642878 -0.040246088 0.07086851 0.084560774 -0.02365436 -0.11207147
0.089751415 0.10621109 -0.009229717 -0.12512888 -0.22386977 -0.075016 0.12933084 0.10517328
0.122216046 -0.043428533 -0.04782312 -0.04760454 -0.029806122 0.053862844 0.041601676 0.1613954
-0.007483232 0.153912 -0.19021916 0.12230607 0.04039873 0.027911825 0.03890996 0.113339625
0.11856355 0.07459612 -0.026137585 -0.099745356 0.04748102 -0.010114984 0.13496855 -0.012467523
0.103399746 -0.07835894 -0.0011741777 -0.10823661 -0.14100426 0.073129304 -0.110198356 -0.07891008
0.03497497 -0.07240977 0.030477697 0.03450011 0.038440075 0.09291064 -0.15621085 0.05900213
0.13177982 0.1696638 -0.073509194 0.024016602 -0.03778596 -0.15829974 -0.022891754 0.05025347
0.02056216 -0.09224837 0.13357994 -0.064522326 0.0050556287 0.0021588847 -0.055333342 -0.09500836

decoder.weight f4 [128, 128]
00000000: 9230 9abe d041 5bbe 4ad4 5c3d dbf0 3a3e
00000010: 2b5e 7cbe 1750 8bbd 07fd 1c3e 58ef 3abe
00000020: 3deb 2bbd 31ec f6bc 8965 ccbd 1162 313e
00000030: 9ffa 06be 4b16 523e 430e 35be 4e3d 71be
00000040: 01cd c83d 1a36 1dbe 90bc 023e 371e d53e
00000050: 29a2 7c3e bac4 043d 4f72 8fbe 3870 723c
00000060: 4c37 653e 509c 383e 55db 34be 0904 333e
00000070: 0993 133e 7b67 57be 2974 a6be 879b c73c
00000080: 624e 863e a2a1 963e b07b 463e 6211 40bd
00000090: 2240 6b3d 18a5 4e3e 21af 173f 2b3f 34be
000000a0: abc4 72be 38e9 9fbe 9840 aa3e a93f 073f
000000b0: 4a87 4fbe 4d83 823e 1164 083e ca19 3e3d
000000c0: 3c26 813e fe6d 5ebe adad 8d3e 9037 833e
000000d0: a5aa 4e3d 5f50 873e e5c1 49be 9c49 433e
000000e0: c463 6a3e deac aabe 5360 56be e363 02bd
000000f0: 725f 983e a0ce 1937 3db6 7a3e 03ea 213e
00000100: a18a 72be b333 a7be 5fd3 b1bd 3975 12be
00000110: 8843 31be 5e37 3bbe 5a89 a43d fcdb 36be
00000120: d471 a73e 1fed 70be 7d3b aa3d 20de 80be
00000130: 5ea8 3d3e cc62 413e bddf 373e 29bb 4a3e
00000140: 05b5 d83e 2cf7 853e 1a63 8dbe f278 883e
00000150: 448c 0a3e d174 983e e3c8 7dbe 8fa7 89bd
00000160: cdef 973e 59d6 8abe 4e84 e03a 3e65 2f3d
00000170: 816b 39be eea9 15be 9e7a bcbe 2692 59be
00000180: a10a 42be 0a29 aabe dbc9 70be 7d72 003e
00000190: 41d0 e4bb 0cf0 15be d67d 40bd 0bc6 a73c
000001a0: 70e3 9e3e 125a cebd 27b1 853e 0acc f0bd
000001b0: 9686 643e c8c2 223e 198c 573d f66a a93e
000001c0: 3085 b43e 6044 053f 9f9d a2bd 160f 82bd
000001d0: a1fc 553e c873 6a3d de34 b53d 503f 6bbe
000001e0: 4159 653e 4781 503e 38a1 81be 23c0 fe3c
000001f0: 13f4 493e 4eb3 87be 69f0 3ebe 1ab1 123e
00000200: 8ab4 773e 0222 933e 516c bbbe 98d1 69be
00000210: 62f1 9d3e e0c4 4c3d e099 eabd 0e04 853c
00000220: 574f 34bd e00a b83e e4a1 b83d 2faf b9be
00000230: 0aa7 803e 41bb a2be e4a8 b83e 7ef4 1b3e
00000240: b56b fdbe a410 913e 5e7b 7cbd 7013 ddbd
00000250: 8850 6ebe 01b9 843e c757 923e 4248 70be
00000260: d948 85be fb3f c6bd ac15 583e 7f76 71be
00000270: 048c e13d 668f a53e 9f5c 823e 16a1 cbbd
00000280: 56f4 91bd 2fd3 51be b049 54be e764 aabe
00000290: beb6 80be 6850 59be 88c6 01bd bbc2 3e3e
000002a0: 1d21 5f3e 5c90 903d e262 193e 4edc c2bd
000002b0: a2d7 9d3e 6dac 9fbe 41d0 12be 1a2f 27be
000002c0: 836f 66be 132a 823e c68a 89be 8ac2 abbe
000002d0: efae 833e 047c 9cbe 8870 633e ee41 4bbe
000002e0: 3a01 87be a641 663e bb8f cd3e c778 f03e
000002f0: d441 2fbe 47f7 bf3d 94d5 0e3e ed88 e5bd
00000300: 22c1 6e3e 3c52 903e 8342 9a3e d092 543f
00000310: 89a0 b53e 98b0 3a3e 316c 44be 80c2 273e
00000320: 92b7 0bbf b571 cfbc f200 0dbe 3207 46be
00000330: 7cd1 80be 2674 d9be 7ce6 86be e9c3 8fbe
00000340: cf19 f9bd 63e6 20be 5201 1dbe 5414 76be
00000350: a5ed 2ebe 81cd c7be be4c 873e c287 1f3e
00000360: d8c9 64be 6384 b83e 1ff0 003e 990f e6bd
00000370: ee66 243e 4423 da3e fcc3 293f fd0a 85bd
00000380: b598 853e 9a64 f73d 091f 8d3e 4577 83be
00000390: 4446 f73c 608c 51be 49e4 b73e 43f5 8fbe
000003a0: e86a 79be b70a 753e c4ab 9abe c6c3 233e
000003b0: 9132 86be 84fc 8cbe 66f1 173e 0b8c 99be
000003c0: 3e6a 1abf 4a34 93be fba3 1b3e 5574 883e
000003d0: 670d b9be 07d2 bcbe 9629 3fbe 7672 623e
000003e0: fa3b a5be 3816 0dbe 740b 9f3e a726 e93d
000003f0: 3ada 84be 71f0 633e ff0f 7abd ceca 18be
-0.3011518 -0.21411824 0.053913392 0.18255942 -0.24645297 -0.06802385 0.15330897 -0.18255365
-0.041972388 -0.030141922 -0.09980304 0.17322566 -0.13181542 0.20516317 -0.17681222 -0.23558542
0.098047264 -0.1535267 0.12767243 0.41624615 0.24671234 0.032414176 -0.28016898 0.014797263
0.22384375 0.18028378 -0.17661794 0.17482008 0.14411558 -0.21035568 -0.32510498 0.024366153
0.26231676 0.2942019 0.1938312 -0.046891578 0.05743421 0.20180166 0.592516 -0.17602222
-0.23707835 -0.3123262 0.33252406 0.5283151 -0.20266452 0.254908 0.13319422 0.046411313
0.25224483 -0.21721646 0.27671567 0.25628328 0.050455708 0.26428506 -0.19702871 0.19071048
0.2288962 -0.33335012 -0.20935182 -0.03183354 0.2976032 9.167619e-06 0.24483581 0.15811925
-0.23685695 -0.3265663 -0.08682894 -0.1430253 -0.17310917 -0.1828284 0.0803401 -0.17857355
0.3270403 -0.23527955 0.08312128 -0.25169468 0.18521258 0.18885344 0.17956443 0.19797958
0.42325607 0.2616514 -0.2761467 0.26654774 0.1353007 0.29776624 -0.24783663 -0.067214124
0.2967514 -0.2711666 0.0017129274 0.04282116 -0.18107416 -0.14615604 -0.368123 -0.21247157
-0.18949367 -0.33234435 -0.23514502 0.12543674 -0.0069828336 -0.14642352 -0.046995007 0.020480176
0.31032896 -0.10075773 0.2611172 -0.11757667 0.22316965 0.15894616 0.052623842 0.33089417
0.35257864 0.52057457 -0.0794022 -0.06350534 0.20897152 0.057239324 0.08847974 -0.2297337
0.22397329 0.20361815 -0.25318313 0.031097477 0.19722013 -0.26503986 -0.18646397 0.14325371
0.24189964 0.28736883 -0.36606076 -0.2283386 0.30848223 0.049992442 -0.114551306 0.016237285
-0.044020977 0.35945797 0.09015253 -0.36266467 0.2512744 -0.31783488 0.36066353 0.15229985
-0.49496236 0.28333008 -0.06164109 -0.10794723 -0.23272908 0.25922397 0.28582594 -0.23465064
-0.2603214 -0.09680172 0.21102017 -0.23580359 0.11013034 0.32335967 0.2546129 -0.09942834
-0.071266815 -0.20490716 -0.20731235 -0.33280107 -0.2513942 -0.21222079 -0.031683475 0.18628971
0.21789975 0.07058784 0.14979127 -0.09514676 0.30828577 -0.31186238 -0.14337255 -0.16326562
-0.22503476 0.25422725 -0.26863688 -0.3354686 0.257194 -0.30563366 0.22210896 -0.19849369
-0.26368123 0.2248598 0.4014872 0.46967146 -0.17114955 0.09373336 0.13948661 -0.11207757
0.23315862 0.2818774 0.3012887 0.8303652 0.3547404 0.18231428 -0.19181897 0.1638279
-0.5457698 -0.025322774 -0.13769892 -0.19338682 -0.25159824 -0.42471427 -0.2634772 -0.28079155
-0.12163126 -0.15712886 -0.15332535 -0.24031192 -0.17082842 -0.39023975 0.26425737 0.15579131
-0.22342622 0.36038503 0.12591599 -0.11233444 0.1605489 0.4260503 0.66314673 -0.064962365
0.2609307 0.12079735 0.2756274 -0.25676933 0.030184872 -0.20463705 0.35916355 -0.28116807
-0.24357188 0.23929869 -0.30209172 0.1599265 -0.26210454 -0.27536404 0.1483818 -0.29989657
-0.6031836 -0.2875083 0.15199272 0.26651254 -0.36143038 -0.36878988 -0.18668208 0.22113976
-0.3227232 -0.13778007 0.31063426 0.113843255 -0.25947744 0.2225969 -0.06105041 -0.14921114

decoder.bias f4 [128]
00000000: 1d1a 933e be25 2cbe 7103 16be f6cf 73be
00000010: 0edc 3ebe 97b3 53be 7feb 4bbe 1050 3fbe
00000020: a4ef 8fbe 593a 80be 41ae 61be 4c3e 9abe
00000030: 6f3f 54be 8ccd 56be 48c0 06be c089 6cbe
00000040: b173 c1bd d6f3 2abe 71fe 6cbe 6af1 32be
00000050: 16d7 68be 317d 57be 29cd 88be 54f0 0cbe
00000060: 2475 3dbe 8461 6fbe f427 29be ab69 99be
00000070: 536c a1be d1e1 18be 4641 93be c143 02be
00000080: 204e 81be cd3d 0ebe e60e 7fbe 4bdc d2bd
00000090: 1b2b 7fbe 50ea 7fbe c07c 90be ff0b 18be
000000a0: e769 84be 9d57 48be 8685 f6bd 31c9 f9bd
000000b0: 9a9f 6cbe 4df5 36be afe8 fabd 99f0 13be
000000c0: 44b1 16be 387f e3bd 1948 713b 752c 29be
000000d0: 0c08 a3bb 9582 94bd c10d 17bc 9f99 8e3c
000000e0: c290 d3bd 09c8 0cbe c69b cdbc 134f 123d
000000f0: 0dbc e9bb fa33 c1bd 90bf cdbb 9273 eabc
00000100: 010f b93c 11a3 4b3d c736 003c 5e96 7dbc
00000110: 0ac3 bd3c 14f0 f5bc c261 a23d cf96 f03d
00000120: f95f 913d 9993 0e3e 25cb 803c c98a 1f3d
00000130: 49db 123b 2063 c4bd 353d f13d 91a9 01be
00000140: 8c75 153c ae25 953c 1178 013e 35cf c8bc
00000150: f1a2 893d bc35 99bc ee58 38bd 4114 9abd
00000160: ebf4 8dbc f813 80be 138a ccbd 577d 3bbd
00000170: 9959 14be f770 d6bd 54b9 c2bd eb11 08be
00000180: aa67 2abc 2caf 90be 2ebf 43be f008 87be
00000190: a4f6 16be 9960 89be 83c0 4abe 3701 80be
000001a0: ff46 23be feb8 32be 6997 81be c1b1 16be
000001b0: d822 36be 4e76 21be 8f5c 7dbe 7a1f 8cbe
000001c0: b917 44be 716d e3bd e823 27be 7550 f8bd
000001d0: 2e80 95be 9c0d 7cbe bba2 0fbe 5560 81be
000001e0: 2fb2 dcbd 047d 38be ce07 36be 9629 68be
000001f0: 83f3 38be c7ba d6bd 4310 e2bd 2874 3bbe
0.2873086 -0.16811273 -0.1464975 -0.238098 -0.18638632 -0.20673977 -0.19914053 -0.18682885
-0.2811252 -0.25044516 -0.22039129 -0.30125654 -0.20727323 -0.20976847 -0.13159287 -0.23099422
-0.094458945 -0.16694579 -0.23143937 -0.17474905 -0.22738299 -0.2104385 -0.26719025 -0.13763553
-0.18501717 -0.23377043 -0.16519147 -0.2996343 -0.31527957 -0.14929892 -0.28760737 -0.12721159
-0.25254917 -0.13890763 -0.24908027 -0.10295924 -0.24918787 -0.24991727 -0.28220177 -0.14848326
-0.25862047 -0.19564672 -0.12037186 -0.12196577 -0.23107758 -0.17867012 -0.12251412 -0.1444725
-0.14716059 -0.111082494 0.0036816655 -0.16520865 -0.0049753245 -0.07251469 -0.009219588 0.017407237
-0.10330345 -0.13748182 -0.025098693 0.035719942 -0.007133013 -0.09433742 -0.0062789395 -0.028619561
0.022590162 0.04971606 0.00782556 -0.015477745 0.023164291 -0.030021705 0.07928802 0.117475145
0.070983835 0.13923492 0.015721867 0.038950715 0.0022408536 -0.09589219 0.117792524 -0.1266234
0.009122264 0.018206444 0.12643458 -0.024512867 0.06720532 -0.01870238 -0.045006685 -0.075233944
-0.0173287 -0.25015235 -0.09987273 -0.04577383 -0.14487304 -0.10470765 -0.09508005 -0.13288085
-0.010400692 -0.28258646 -0.19115898 -0.26374006 -0.14742523 -0.2683151 -0.198 -0.25000927
-0.15945052 -0.17453381 -0.2531083 -0.14716245 -0.1778673 -0.15767786 -0.2474234 -0.27367765
-0.19149674 -0.11104859 -0.16322291 -0.12124721 -0.29199356 -0.24614567 -0.1402692 -0.25268808
-0.10776173 -0.1801644 -0.17776415 -0.22672114 -0.18061642 -0.10484844 -0.11038258 -0.18306029
