models/notegru.model (torch, 940605 bytes, 7 tensors)

embedding.weight f4 [128, 4]
000000 70 79 1c be 56 bb 94 3e fb 47 3f 39 11 ea f9 be
       -0.152807 0.29049176 0.00018241994 -0.4881139
000010 49 da 14 3e 13 c4 09 be 05 01 77 3f eb ee 92 bf
       0.14536394 -0.13453703 0.9648593 -1.1479162
000020 13 0f c9 be 4c 87 bb 3e 8c 12 80 3f f7 63 ff 3e
       -0.39269313 0.3662666 1.000566 0.49880955
000030 bb c5 43 bf a9 cc 94 bf 24 0e bf be 95 33 d4 be
       -0.7647359 -1.1624957 -0.37315476 -0.41445604
000040 ea 48 7e 3e e8 0d d1 3e 9e 25 32 be 3d e9 fb 3e
       0.24832502 0.40830922 -0.17397162 0.49201384
000050 19 02 c6 3f 3d 1f c5 3e cc 63 a0 3f 69 2c bc bf
       1.546939 0.38500395 1.2530456 -1.4701053
000060 36 a7 f0 3f 70 2a c6 3f 35 ce fb bf bb 5b a1 bc
       1.8801029 1.5481701 -1.9672304 -0.01969706
000070 e0 70 6b 3d d4 85 a0 be 97 99 43 bf fd 19 26 3f
       0.057480693 -0.31352103 -0.76406235 0.64883405
000080 ac 01 92 3f 55 0d 6e 3f e1 9e 49 3f 37 5a dc bf
       1.140676 0.92989093 0.78758055 -1.7215031
000090 3d 39 aa bf 47 51 60 3f e5 8c 2e 3e 2e 43 38 3f
       -1.3298718 0.8762402 0.17045934 0.7197751
0000a0 dc 68 93 3f f8 c1 8c bf 1b ae be 3e fb eb 12 3f
       1.1516376 -1.0996695 0.37242207 0.5739133
0000b0 2c 2e c0 bf 3a 95 ee be eb a7 cc 3f 07 c3 76 be
       -1.501409 -0.46598226 1.5988744 -0.24097835
0000c0 ba 52 47 3f 7a 26 56 bd a8 c8 a6 bf 78 d2 6f 3e
       0.77860606 -0.052282788 -1.3029985 0.23420131
0000d0 6d 6e 3e 3d 22 ff b5 bf 8b b2 77 3f e4 aa 8f bd
       0.04649203 -1.4218485 0.9675681 -0.07015017
0000e0 30 c4 21 c0 2c 05 bb bf aa 9e 9a 3d ed df 1b 3e
       -2.5275993 -1.4610953 0.07549794 0.1522214
0000f0 7a 65 f3 3e 8f 85 b0 3e f9 f8 02 c0 da 35 9e be
       0.47538358 0.34476897 -2.046446 -0.3090046
000100 71 32 0b 3f 45 1b 45 3f 39 90 1e bf a5 be a0 bb
       0.5437384 0.76994735 -0.61938816 -0.004905539
000110 0c 1e 9a 3f 65 d1 87 bf 44 f6 53 bf 4a a0 9d bd
       1.204042 -1.0610777 -0.82797647 -0.07696588
000120 e9 36 a0 3f d5 56 40 bf ba bb 1f bf c9 00 0a c0
       1.2516757 -0.75132495 -0.62395823 -2.156298
000130 d3 68 59 bf 94 1b cc bf 79 ab 00 40 3f d5 67 bc
       -0.84925574 -1.5945916 2.0104659 -0.014149963
000140 11 47 d2 bd 46 98 fd 3e 65 46 17 40 2a 49 d7 3f
       -0.10267461 0.49530238 2.3636715 1.6819203
000150 7b 1b 5d 3e 26 51 ae bf ed 32 dc 3f f2 5f 58 3e
       0.21592514 -1.3618515 1.7203041 0.2113035
000160 ad 1a f6 be 14 b9 d4 bf f9 56 28 c0 23 2e 2e 3f
       -0.48067227 -1.6618981 -2.6303084 0.6803915
000170 bf 89 5e 3e a6 1d 5c 40 0b d1 f1 3f 00 b4 3a ba
       0.21732233 3.4393096 1.889192 -0.0007122159
000180 ea 60 d8 3f 52 35 5b 40 d9 d8 b7 3c de 95 85 3f
       1.6904576 3.4251294 0.022442268 1.0436361
000190 af b1 cc 3e 44 24 27 c0 69 be 25 40 62 6a c0 3f
       0.39979312 -2.6115885 2.5897467 1.5032465
0001a0 4b 57 22 ba 5b d9 16 40 8a c0 02 c0 8e 10 b5 3f
       -0.0006192817 2.3570163 -2.0430017 1.4145677
0001b0 fc 75 57 3e 60 cf 7d bf d6 6b 78 c0 2c d9 92 3e
       0.21041101 -0.99144554 -3.8815818 0.28681314
0001c0 b6 d6 39 3e 68 05 43 c0 88 32 1f bf 7a bb 35 3e
       0.18148312 -3.047205 -0.6218648 0.17747298
0001d0 5c e9 28 bf fd 2b fa bf fa 32 f4 3e 35 16 6f 40
       -0.6598108 -1.9544674 0.47695142 3.7357304
0001e0 68 cf 74 40 a1 b2 35 bc 81 55 8e be 3e 85 39 bf
       3.825159 -0.011089952 -0.2779961 -0.72468936
0001f0 91 b0 20 3e 55 d9 d4 3f 29 21 88 3e 92 c0 cd 3f
       0.15692355 1.6628824 0.265878 1.6074393
000200 79 40 c6 3e 9d a0 3b c0 17 cc 9f be f4 b1 26 40
       0.38721064 -2.931678 -0.31210396 2.6046114
000210 c6 a5 4c 3f fe eb 8b bf cc 14 27 c0 73 58 24 40
       0.7994045 -1.0931394 -2.6106443 2.5678985
000220 92 0d 81 bf 85 cc 93 3f c1 49 22 bf 71 a9 66 40
       -1.0082266 1.154679 -0.6339379 3.604092
000230 43 f5 d9 3f 0a 01 1b 40 ec 3f cf 3f b9 27 c9 3e
       1.7027973 2.4219384 1.6191382 0.39288118
000240 6a da f1 bf 6f 80 96 3f 8a 28 e5 bf 5c ab 9f 3f
       -1.889478 1.1757945 -1.7902997 1.247417
000250 c8 1e db 3f 13 36 6d bf 72 c3 96 bf 29 c4 be bf
       1.7118769 -0.92660636 -1.1778395 -1.4903613
000260 ab 14 b0 3e a6 8f 75 3e dc 66 d6 bf d9 99 03 3f
       0.34390768 0.23980579 -1.675014 0.5140663
000270 ee 2a 68 3e b3 17 b3 bf d5 06 02 c0 58 d8 b6 bf
       0.22672626 -1.3991607 -2.031667 -1.4284773
000280 e8 a9 d0 bf a8 55 5c 3f 5c e7 6f 3d 2d 16 c5 3f
       -1.6301851 0.860682 0.05857025 1.5397393
000290 1c 0c d9 bf 86 bf 49 be c0 bb 0e c0 75 07 7a bf
       -1.695682 -0.19701967 -2.2302094 -0.9766763
0002a0 23 cf 0b 40 43 e1 95 3f c1 35 8b 3f f7 db a4 3f
       2.1845176 1.170937 1.0875779 1.2879628
0002b0 6a 71 da 3f 0e 52 d8 bf 53 a5 3b c0 d6 0a 4a be
       1.7065861 -1.6900041 -2.9319656 -0.19730696
0002c0 f5 69 1a 40 4a 52 9f 3f a3 8b 21 bf 2b 18 54 bf
       2.412717 1.2446988 -0.63103694 -0.8284938
0002d0 7e b2 9d 3f 5b ef d8 be d8 99 1e 40 e0 33 d1 3d
       1.2320096 -0.42370114 2.4781399 0.102149725
0002e0 ed 8b 8b bf db 26 0b c0 06 b5 fa 3e 59 c7 e4 bf
       -1.0902077 -2.1742465 0.48966235 -1.7873336
0002f0 e0 13 9e bf bd b9 11 bf 9c 24 cf bf 59 40 0b 40
       -1.2349815 -0.5692404 -1.6183047 2.1758025
000300 04 1d 16 c0 1a 37 12 c0 55 d5 b0 bf d0 19 65 be
       -2.345521 -2.2846131 -1.3815104 -0.22373128
000310 99 5f f2 bf 35 85 ca 3f b8 82 38 40 e2 08 72 3f
       -1.8935424 1.5821902 2.8829784 0.94544804
000320 83 cf 91 bf 6e 41 01 40 51 6f c1 bf ad e3 ae be
       -1.1391453 2.0196185 -1.5112096 -0.34158078
000330 c0 4a eb 3f 47 e8 27 3e 19 d6 17 40 4f 59 f2 bf
       1.8382187 0.163972 2.3724425 -1.8933505
000340 16 df d0 3f d5 d8 ae be 25 27 bb bf da e2 db 3f
       1.631808 -0.34149805 -1.4621321 1.7178605
000350 0d c4 07 40 c1 4c b3 bf 78 87 65 3f d1 9c fe bf
       2.121341 -1.4007798 0.89659834 -1.9891607
000360 78 7a 3b c0 10 23 5d 3f 79 6f 59 3f 50 2a 0d 3f
       -2.92935 0.86381626 0.8493572 0.5514269
000370 ad 19 27 c0 8d 7a 4d bf af 19 10 bf 62 e2 fc 3f
       -2.6109421 -0.8026512 -0.5628919 1.9756587
000380 80 12 08 3f 2b 66 16 40 c4 f4 9f 3d bd 56 12 bf
       0.5315323 2.3499858 0.07810357 -0.571636
000390 41 d7 a4 3f 81 61 06 3f 8d be d8 bf bd 9f 13 c0
       1.287819 0.5249253 -1.6933151 -2.3066247
0003a0 a1 b8 4c 40 d2 83 ad 3e 1a 05 b9 3f 8a 3d 1b bf
       3.1987689 0.33889633 1.4454682 -0.60640776
0003b0 79 05 16 3f 95 a0 7b bf f4 7e 96 3f e4 e2 eb 3f
       0.586021 -0.98291904 1.1757493 1.8428617
0003c0 c1 8f 34 3f 33 81 e7 3f e1 05 c6 bf a2 15 6b be
       0.7053185 1.8086303 -1.5470544 -0.22957471
0003d0 3b 4d ce 3f d0 d4 fc be 57 76 7d be df 4b 8d be
       1.6117319 -0.49381113 -0.24752174 -0.27596948
0003e0 e5 fc 30 bf 23 91 d9 bf 0c 9f 6c bf b9 d6 d3 3f
       -0.69135886 -1.6997417 -0.92430186 1.6549903
0003f0 f9 31 79 3e 83 43 68 bf e1 ee 38 bf 40 f0 db 3d
       0.2433547 -0.90728015 -0.722395 0.107391834

gru.weight_ih_l0 f4 [768, 4]
000000 35 82 e6 bf 26 66 16 c0 2d bf 6c bf 02 8c e3 be
       -1.8008486 -2.3499846 -0.9247921 -0.44442755
000010 e4 06 02 3e dc 86 c7 be 7c 6c fb 3e a6 2f 39 bd
       0.12697941 -0.38970077 0.49106205 -0.045211457
000020 59 10 c3 3f 9e c7 b7 3f 95 1b bc 3e aa e7 97 bf
       1.5239364 1.4357793 0.36739793 -1.1867573
000030 1f 44 2b 3f 71 f4 1b c0 80 47 51 bf 46 ea ab bd
       0.6690082 -2.4367945 -0.81749725 -0.083942935
000040 ef 13 56 3f d2 da c9 be 28 99 e0 3e 92 28 34 bf
       0.83624166 -0.3942476 0.4386685 -0.70374405
000050 a8 5e e4 be a7 79 32 3f ad f4 0a 3f 34 94 60 bf
       -0.44603467 0.69716877 0.54279596 -0.8772614
000060 8d 43 f3 3e bd 84 62 bf ce 6b 7c bf 29 b8 58 3f
       0.47512475 -0.8848379 -0.98601997 0.84656006
000070 1c c6 dd bd fb cd 57 3e e3 7b a0 bd c3 1b 46 3f
       -0.10828802 0.21074669 -0.078361295 0.7738611
000080 bf 52 18 3f 4a 16 87 3e 80 6b 3e 3f 5b ae 25 3f
       0.5950126 0.26384193 0.7438278 0.6471917
000090 11 4e 86 3f bb c1 a2 3f 8e 52 84 bf ee c7 93 3d
       1.0492574 1.2715372 -1.0337694 0.07215868
0000a0 53 56 c8 3e 87 5c a1 bd 56 bb 79 be 9f 35 9b 3e
       0.3912836 -0.07878976 -0.24387869 0.30314347
0000b0 25 6f e1 bd cd 4b 2b bf b7 4f 7f 3f 52 5d 60 3f
       -0.11007527 -0.6691254 0.9973101 0.87642395
0000c0 c4 23 18 3e 65 98 19 bf 70 2a cb bc 99 a1 05 3f
       0.14857394 -0.5999816 -0.02480051 0.52199703
0000d0 3a f4 32 be af e7 82 be bf 47 8e 3e f5 9a 2b 3f
       -0.17475978 -0.25567386 0.27789113 0.6703332
0000e0 56 ae 0c 3f 81 99 c6 3b cf 2d 7c be 45 f8 f3 bd
       0.54953516 0.0060607796 -0.2462685 -0.11912588
0000f0 48 b8 a9 bf 99 1c ca bf 7e 7d bd bf b3 b0 8e bf
       -1.3259363 -1.5789977 -1.4803922 -1.1147674
000100 50 40 8f 3f f4 4e 8b 3f 30 9e 0b 3f e8 61 5b bf
       1.1191502 1.088347 0.5453825 -0.8569627
000110 88 88 0f be 5e e8 48 3f 4f e7 78 3e a9 b1 ad 3d
       -0.14016926 0.78479564 0.24306987 0.084811516
000120 6b 9d 46 3f db b9 ef be 2d 65 8b bf 3b 90 e2 be
       0.7758395 -0.46821484 -1.0890251 -0.44250664
000130 78 f2 74 be 21 67 3d 3f 78 bc c6 3e 79 57 7d bf
       -0.2392062 0.7398549 0.38815665 -0.989616
000140 88 31 a3 bf ec 22 f3 3e ad e7 6b bf 46 99 ae 3c
       -1.2749491 0.4748758 -0.92150384 0.02131332
000150 9f a8 21 3d de ee 73 bf 83 aa 07 bf ef e1 eb 3e
       0.03946745 -0.9528636 -0.52994555 0.4607081
000160 25 ac 48 3e 8e 89 d5 be c4 74 8c bd df b1 b3 3c
       0.19596918 -0.41706508 -0.06858209 0.021935401
000170 78 b1 95 be 71 2d 67 3f 71 f9 b3 3d 11 7d c5 3e
       -0.2923696 0.90303713 0.087878115 0.3857198
000180 ab 16 f7 3e 51 82 aa bf 03 d5 70 bf 1f f0 a1 bf
       0.48259482 -1.332102 -0.9407503 -1.2651404
000190 e9 34 d3 bd d2 52 34 3f 07 9f fc 3e 41 e9 a2 be
       -0.10312826 0.70438874 0.49340078 -0.31818584
0001a0 13 54 00 bf 96 76 81 3d cf 19 05 be 4b 17 22 bf
       -0.5012829 0.063214466 -0.12998126 -0.6331679
0001b0 20 c8 9f 3e a7 31 c6 3d c5 e8 16 3e 47 eb ab 3d
       0.3120737 0.09677439 0.14737232 0.08394485
0001c0 dd 8b b5 3e 3a 7a 07 bf 88 cc c3 be ce 87 60 bc
       0.3545827 -0.5292088 -0.38241982 -0.013704253
0001d0 46 de f4 3d c1 db b2 3f 22 79 3b 3c 92 02 b1 bf
       0.11956458 1.3973314 0.0114424545 -1.3828909
0001e0 a6 c5 a5 bf e4 bf e2 3e c8 33 9f bf 00 81 41 bf
       -1.2950943 0.44287026 -1.2437677 -0.75587463
0001f0 1e 8d ab 3e ef b6 e0 3f c5 2b 88 3d 7a 17 ab be
       0.335061 1.7555827 0.066489734 -0.3341635
000200 f0 0b 52 3f 0f 38 eb 3e e8 74 3d bf 5e 71 b7 3f
       0.82049465 0.45941207 -0.7400651 1.4331472
000210 57 92 23 c0 ff 4e e6 be 63 4b 29 bf e1 9e 0b be
       -2.5558069 -0.44982144 -0.66130656 -0.13634826
000220 2d 8f 1d 3f 4d c4 f2 3e ea ce 11 40 b8 12 0c 3d
       0.61546594 0.4741539 2.278254 0.03419754
000230 d1 b2 75 bf 60 19 a6 3f f8 dd 11 40 68 45 a0 3f
       -0.9597598 1.2976494 2.279173 1.2521181
000240 11 3a 19 bf 59 46 e9 3d ca 6c 0c c0 ac a5 4c 3e
       -0.5985423 0.11390371 -2.19414 0.19985074
000250 f4 6a 3e 3f 50 1e 0f 3f 77 22 13 c0 ba 59 5c 3f
       0.7438195 0.5590563 -2.2989786 0.8607441
000260 35 b1 66 bf c4 e3 a1 3f 4d e2 41 3e ee ea 0e bf
       -0.90114146 1.2647634 0.18933983 -0.55827224
000270 67 9a 6d be de 55 69 be 11 e8 81 bd f3 04 8c 3d
       -0.23203431 -0.22786662 -0.06343091 0.068368815
000280 50 3e f3 3e 51 b6 7f bf a0 d7 a6 be 7a 6c a4 3e
       0.47508478 -0.9988757 -0.32586384 0.3211401
000290 d7 5f 29 bf 42 1c d2 3f 13 c9 71 bf 19 3d 96 bf
       -0.66161865 1.6414874 -0.9444744 -1.1737396
0002a0 e5 b1 53 bf fe 58 35 3f f9 52 25 3f 55 3a bb 3d
       -0.8269332 0.70838916 0.6457973 0.09141985
0002b0 6e 89 ea be 85 6a 49 3f 40 66 8a 3e 89 79 62 bf
       -0.45807976 0.7867816 0.27031136 -0.884667
0002c0 be 5d ba 3d 3e be cd bd 96 8a 35 3e 47 49 8f bd
       0.09099911 -0.100460514 0.17728648 -0.069963984
0002d0 f9 3c 05 40 9a 2d c6 3e 27 dd f8 3f e3 b4 d3 3e
       2.0818465 0.38706666 1.944249 0.41348943
0002e0 62 93 e3 3e 5d 4b 2a bf 46 9b 08 c0 08 48 f6 3f
       0.44448382 -0.66521245 -2.1344771 1.9240732
0002f0 06 b7 2f 3e ae e4 15 3d 1c 1b a6 bd d9 c5 de bd
       0.17159662 0.03659504 -0.081106395 -0.1087758
000300 25 3d 9d be b4 66 c9 3e 11 e0 b3 3f 7c c9 9b bf
       -0.30710712 0.3933617 1.4052755 -1.2170863
000310 3e 3a 10 c0 b7 55 41 3f f2 a7 51 3f 3e aa d3 3f
       -2.2535548 0.75521415 0.8189689 1.6536329
000320 19 97 ce 3e b4 d2 ba 3f 57 fa cc 3e 5b 19 24 3f
       0.40349653 1.4595551 0.40034744 0.6410119
000330 b6 1c 3d 3f 09 24 e9 3e c9 e0 e2 bf eb 8e 96 bf
       0.73871934 0.45535305 -1.7724849 -1.1762365
000340 2a f3 c4 3e a5 bb 48 3d f1 6e 32 c0 6d 30 51 3e
       0.3846677 0.049007077 -2.7880213 0.20428629
000350 0b 4c e5 3e 96 b1 09 3e 90 14 9b bf e7 6c 59 be
       0.4478458 0.1344665 -1.211565 -0.21232949
000360 61 c0 47 40 c5 7f ae 3e 39 49 57 3f 3a 03 1f bf
       3.1211169 0.34081855 0.84096104 -0.621143
000370 9f bb 61 3f c3 46 4e be 8a f7 17 3f 23 40 55 bf
       0.8817691 -0.20144181 0.5936209 -0.8330099
000380 23 dc 2e 3e 7c a5 fc bd e7 2b 21 bf 25 5b 0c 3f
       0.17076163 -0.12336251 -0.62957615 0.54826576
000390 7e 65 72 3f 45 55 bc bd de 41 16 c0 da c8 32 3e
       0.94686115 -0.09195951 -2.3477702 0.17459431
0003a0 b6 ef b1 be e2 85 dd be ed 1c 34 3e 7b f5 48 3e
       -0.34753197 -0.43266207 0.1758916 0.19624893
0003b0 05 38 bf bd 93 41 2e bc 06 c1 9c bf 33 62 e5 3d
       -0.09336857 -0.010635751 -1.2246406 0.11200371
0003c0 72 86 54 bf e2 5f 78 be e4 45 ba 3f e8 78 fc 3e
       -0.8301765 -0.24255326 1.4552579 0.49310994
0003d0 cc 08 89 bf eb e3 21 c0 c6 68 4f bf 45 94 58 bf
       -1.070581 -2.529536 -0.81019247 -0.8460124
0003e0 9f a0 43 c0 89 85 d2 bf a0 b1 18 40 ac 4f 09 40
       -3.0566785 -1.6447002 2.3858414 2.1454878
0003f0 da c7 6c 3f 96 55 1f bf 69 bc b0 3e 5f 60 c8 bd
       0.9249245 -0.6223997 0.34518746 -0.09784006

gru.weight_hh_l0 f4 [768, 256]
000000 61 1d 3f be 33 b3 d7 3e 7e f8 e6 3c 9a 68 20 bf
       -0.18663551 0.42128906 0.028194662 -0.6265961
000010 63 a7 15 be dc 81 89 be fd 72 83 3e 71 b4 d4 bd
       -0.14614634 -0.26856887 0.25673667 -0.10385979
000020 35 cb d1 3e 52 72 19 be da 9c f0 3f 23 b8 e0 bd
       0.40975347 -0.14985016 1.8797867 -0.10972621
000030 dc 9e 31 3e 87 d5 09 bf 50 6d 9c 3e b7 38 4b be
       0.17345756 -0.5384144 0.3055215 -0.19845854
000040 80 9c 7a 3e a1 77 ce 3e 3b 84 d2 be 43 43 92 3e
       0.24473763 0.40325645 -0.4111651 0.28566942
000050 2e a2 5c 3d 57 98 f7 3e 1d 30 9b 3e e6 f9 ee be
       0.053865604 0.48358414 0.30310145 -0.46675032
000060 44 40 2a 3a cb 2d ff be f2 f6 3a 3e 5c 47 e9 3e
       0.00064945617 -0.49839625 0.18258265 0.45562255
000070 01 9f 0f be 49 9d 1f be f7 1c 7e be 28 c7 3c be
       -0.14025499 -0.15587343 -0.24815737 -0.18435347
000080 58 68 00 bc 0d e0 35 3e c3 38 c5 be 02 29 2f bf
       -0.0078373775 0.1776125 -0.38519868 -0.6842195
000090 60 ab 8b be 0a 53 56 3d 05 0c 65 3e d9 50 1f 3f
       -0.27279186 0.052325286 0.22367866 0.6223274
0000a0 a2 e4 1a 3d ae 08 6a be 6c 9d 0d 3e ec b3 d3 3e
       0.037815697 -0.22854874 0.13829583 0.41348207
0000b0 08 51 ea 3e 7c 81 87 be 53 d5 1f 3e 6c 1e ab 3d
       0.45764947 -0.26465976 0.1560872 0.08355412
0000c0 b0 82 64 3d 01 92 e1 be 8d b9 ce 3e 5f 7b 63 be
       0.055788696 -0.44056705 0.4037594 -0.22215031
0000d0 a7 7e 64 be 22 28 21 3f ef 87 70 3e ce 6a e8 bd
       -0.22313939 0.6295186 0.23489355 -0.113484964
0000e0 df 2f bf be b8 e7 c5 3e 66 95 e9 be 5b 0c c7 bb
       -0.3734121 0.3865335 -0.45621794 -0.006074471
0000f0 b4 a4 26 bf 99 0c 1a be 72 73 48 3e 95 5f 9d bd
       -0.6509507 -0.15043868 0.19575289 -0.076842465
000100 f1 7c 93 be c2 cf 09 be ff 3e 8c be 16 b3 f9 3e
       -0.2880626 -0.1345816 -0.27391812 0.48769444
000110 ca e9 90 3d 50 23 81 3e 15 b8 97 3e c1 08 82 be
       0.07075842 0.25222254 0.2963263 -0.25397304
000120 9e b1 24 3e 96 c2 a5 3d dc 01 8a be 70 40 1d bf
       0.1608338 0.08093755 -0.26954544 -0.6142645
000130 13 80 94 3e 2a 3f 0d bd 99 6c ce 3e f5 db 08 3f
       0.29003963 -0.034484066 0.40317228 0.5346063
000140 5e b7 9d be 51 a3 f2 be 48 83 4f be 18 8e 9b be
       -0.3080396 -0.47390226 -0.20264924 -0.30381846
000150 ac 89 55 be b6 dc 54 3f 67 47 da 3e d8 38 d3 bd
       -0.20853299 0.8314928 0.426326 -0.103135765
000160 3a df 3f be 48 fa d4 be d5 a2 a4 bd e6 7b 09 be
       -0.18737498 -0.415972 -0.0803887 -0.1342617
000170 57 b1 9b be 55 76 ff 3e 74 60 5a be 05 b9 82 3e
       -0.30408737 0.49894968 -0.21325856 0.25531784
000180 d0 87 3e bf d7 92 07 3f 02 5c c5 bd 29 b5 1f 3b
       -0.74425983 0.52958435 -0.0963669 0.0024369454
000190 46 58 ca 3e a4 ad 43 3e 66 87 97 be b4 23 3e 3d
       0.39520472 0.19109207 -0.29595488 0.046420768
0001a0 18 50 0b 3f 91 9b 6c be 57 7b 3a 3f 90 47 22 3f
       0.5441909 -0.23106219 0.7284445 0.63390446
0001b0 63 f4 59 bf 71 4d c3 bd 25 02 83 3e ba 39 20 3d
       -0.8513853 -0.09536255 0.25587574 0.039117552
0001c0 67 e2 4e 3e 1f ec 05 3e b6 2c 50 be 66 2f 3e 3e
       0.20203553 0.13078354 -0.20329556 0.18572769
0001d0 1a 39 16 3e 2a 3d 17 be 0f 73 12 3e 43 9c 15 3f
       0.1467022 -0.14769426 0.14301704 0.5844156
0001e0 40 06 c7 be c2 70 1a bf c0 e9 cb 3e ab 6a 00 bf
       -0.38871956 -0.60328305 0.39826775 -0.5016276
0001f0 2d b6 9a 3e a6 9e cc 3e 23 73 a9 be 3c d9 1b 3e
       0.30217114 0.3996479 -0.33095655 0.15219587
000200 e3 33 74 bd 15 cd 28 be 28 d7 a5 be 5d d4 a3 3e
       -0.059619796 -0.16484483 -0.32390714 0.31997958
000210 58 af da 3d da a3 ca bd 0a 88 12 bf 9c 39 c9 3e
       0.106779754 -0.098945335 -0.5723883 0.39301765
000220 58 64 3c 3f 8c 2f 98 3d 96 49 30 be ad 5e 94 be
       0.7359061 0.07430944 -0.17215571 -0.28978482
000230 8b b6 19 be 84 89 b9 bc 45 98 10 be b2 e0 8c be
       -0.15011041 -0.02264858 -0.14120586 -0.2751518
000240 e8 d7 87 be f6 b4 16 bd da b3 4c 3e a6 b4 84 3e
       -0.2653191 -0.03679367 0.19990483 0.25919074
000250 c8 75 23 bd 1a b7 04 3f ea d9 93 bd 27 18 83 3d
       -0.039907247 0.5184189 -0.07219298 0.06401091
000260 0d af c6 3d f6 b4 52 be 3d 3f 16 be 9d 4c 84 be
       0.09701357 -0.20576844 -0.14672561 -0.258397
000270 66 91 78 3e ff ec 1a be 42 0e 8b bf 56 15 c0 3e
       0.24274215 -0.1512947 -1.0863726 0.37516278
000280 d3 ad 5b 3c 53 09 23 bc fb f7 9e be ab f6 01 3d
       0.013408142 -0.009950954 -0.3104857 0.03172938
000290 3c 26 20 3e 4a b7 8b be ad 08 2d be 35 70 49 3f
       0.15639585 -0.27288276 -0.16897841 0.7868684
0002a0 eb e8 2e 3d de e6 c7 3e bc 06 17 bf d9 58 db 3e
       0.042702597 0.39043325 -0.5899465 0.42841223
0002b0 e9 0c 83 be 20 0b 72 be a7 44 7d 3e aa 5d 62 3d
       -0.25595787 -0.23637056 0.2473322 0.055265106
0002c0 c1 c5 d7 bd 46 96 0a be a9 fe 21 3f 8b 6d 38 3e
       -0.105357654 -0.13533887 0.63279206 0.18010537
0002d0 df d7 ab bd 24 e4 a5 3d e0 08 69 be 5b b8 51 3e
       -0.083907835 0.08100155 -0.22757292 0.20480482
0002e0 da fb ab be 5e de a2 be 58 1e 86 be 12 83 c2 3e
       -0.33590585 -0.31810278 -0.26195025 0.37990624
0002f0 f3 35 1b be e2 2b 55 bf 17 e3 05 bf a0 ac 8f 3d
       -0.15157299 -0.83270085 -0.52299637 0.070153475
000300 f2 82 fd bd 66 ef 65 be 3a 90 24 bf 1f 48 13 3f
       -0.123784915 -0.22454605 -0.6428257 0.57531923
000310 74 d5 e4 3e 19 bf cd be 3d 51 d4 bd 82 4c 87 3e
       0.44694102 -0.40184858 -0.103670575 0.26425558
000320 a8 c3 03 3e 1e f2 84 bc 3e 5e 05 3d 5e 02 d5 be
       0.12867606 -0.016228732 0.03256058 -0.4160337
000330 cb 75 2f bd 38 60 a2 be fc 49 33 be 11 97 cd 3e
       -0.042836946 -0.31714034 -0.17508692 0.40154317
000340 e8 a7 33 3e 47 39 a7 3d 09 18 e8 3e 27 d8 1d 3f
       0.1754452 0.08165222 0.45330837 0.6165795
000350 74 76 94 3d 9e 3a bc be ab e1 b1 be 76 3d 93 3e
       0.07249156 -0.3676347 -0.34742483 0.28757828
000360 40 ee 26 3f 7a 30 3c 3f 9a c9 bc 3f 4e a5 10 be
       0.6520729 0.7351147 1.4749024 -0.14125559
000370 2d d0 8b be 4f c9 3b bf 70 18 a7 be ea fa 19 3f
       -0.27307263 -0.7335405 -0.32635832 0.6014849
000380 8b 79 69 bd 8e 33 01 3e 57 67 a4 be bb 60 b0 3e
       -0.057000678 0.12617323 -0.32110092 0.344488
000390 43 2d 88 3e a1 f5 22 3e aa c3 4e 3f b9 03 60 bd
       0.26597032 0.15914012 0.8076731 -0.05469105
0003a0 80 f7 31 be 2c 91 a5 3e 52 41 8b 3f 63 01 3a 3e
       -0.1737957 0.3233732 1.0879309 0.18164591
0003b0 69 ad 22 be e6 b8 16 3e b8 a6 f4 bd 21 22 2b 3d
       -0.15886463 0.1471897 -0.119458616 0.041780595
0003c0 89 7d a6 be 51 44 21 3c 98 2b cc be ce 50 d5 be
       -0.3251765 0.009842948 -0.3987701 -0.41663212
0003d0 a3 7d 2d bd b9 7b 2b be 5e 33 fe 3e 8b 72 9a be
       -0.042356145 -0.16746415 0.49648565 -0.30165514
0003e0 2c e6 b6 3e 67 07 8a be 6b d7 a0 3e 9a c7 15 3f
       0.35722482 -0.26958773 0.3141435 0.5850769
0003f0 f1 ed 2a bf 9f e0 94 be 70 61 a7 be f1 1a 39 bf
       -0.6676932 -0.29077622 -0.32691526 -0.72306734

gru.bias_ih_l0 f4 [768]
000000 55 ea e8 be 87 33 0a bf 25 91 52 bf 44 84 13 bf
       -0.4549128 -0.53984874 -0.8225272 -0.57623696
000010 69 62 20 3e 7e da e8 be 3e ba d4 be 31 bd 2c be
       0.1566254 -0.45479196 -0.41548342 -0.16869046
000020 b4 41 51 be 3b 17 d4 be e0 fc ef be 4b 6b a8 be
       -0.2043522 -0.41423973 -0.46872616 -0.32894358
000030 51 d9 a3 be ca 64 8c 3e 12 75 ca bd 85 15 87 bd
       -0.32001737 0.27420646 -0.09885611 -0.065959014
000040 19 f3 13 bf fc fa d0 be c2 7d 88 be f9 41 1c bf
       -0.5779281 -0.40816486 -0.26658446 -0.61038166
000050 54 02 e8 be 16 1e fe be 30 c1 2e bd 3c 4e b0 be
       -0.45314276 -0.4963233 -0.042664707 -0.34434688
000060 90 27 7c bc 95 ac 30 be 4a 27 b5 be b0 79 9e 3c
       -0.015390292 -0.17253335 -0.35381538 0.019345134
000070 f3 4b c1 3d d6 03 a2 bd d7 00 17 be 9f 38 71 be
       0.09438314 -0.07910888 -0.14746414 -0.23556755
000080 6f a1 1f bd 43 44 8b be 27 e6 49 be be 50 9d bf
       -0.038972314 -0.27200517 -0.19716702 -1.2290266
000090 49 d9 b1 be d2 b7 db be 3c f8 10 bf 94 f9 8b be
       -0.34736088 -0.4291368 -0.56628776 -0.2733885
0000a0 ff be 82 bd a2 5f 1c 3f b7 d5 21 bf 13 49 37 bf
       -0.06384086 0.61083424 -0.6321673 -0.7159588
0000b0 d1 67 a3 3d 55 9b bb be 83 82 02 bf 7e a5 98 be
       0.07978786 -0.36641946 -0.50980395 -0.2981376
0000c0 f5 01 e6 be c4 5c 73 3d 9b d7 12 be c5 81 07 be
       -0.44923368 0.05941464 -0.1434006 -0.13233097
0000d0 be 74 ce be bd e8 3e be e4 21 61 bd c6 bf 8c 3d
       -0.40323442 -0.1864347 -0.05496396 0.068725154
0000e0 ad 6e 23 bf 35 68 38 be be df 50 be d9 4e 81 be
       -0.6384075 -0.18008502 -0.20397851 -0.25255468
0000f0 f8 9d aa be 80 ed 03 be 9a 07 9d be 84 0a 51 bf
       -0.33323646 -0.12883568 -0.30669862 -0.8165667
000100 a5 f5 d1 be 4a 51 22 be 3a 50 b6 3d 8f 70 8a be
       -0.41007724 -0.15851322 0.08902021 -0.27039
000110 19 e9 e3 be 35 61 7d be 03 a4 e4 3e 2e d3 23 be
       -0.44513777 -0.24744113 0.4465638 -0.15998527
000120 27 8b fc 3e fe 97 62 bb 81 a5 69 be c1 a7 b9 be
       0.49324915 -0.0034575458 -0.22817041 -0.362608
000130 71 29 ed bd 0f 9a e1 3e 12 a1 36 be 56 8b 36 3f
       -0.1158017 0.4406285 -0.17834881 0.7130636
000140 c9 50 86 bd 20 00 2e be 04 59 05 bf e4 70 08 bf
       -0.06558377 -0.16992235 -0.5208895 -0.5329726
000150 eb f0 f5 bd 67 8e bb be dc 19 e9 bd 01 46 b9 be
       -0.12008842 -0.36632082 -0.113818854 -0.3618622
000160 c4 f7 a0 be 14 06 17 bd 71 23 9f be ee 4b 91 3e
       -0.3143903 -0.03687103 -0.31081727 0.28378242
000170 c0 5f 75 3d 5f d8 7a bd 8e b2 e6 be c2 e7 a1 be
       0.059905767 -0.061241504 -0.450581 -0.3162213
000180 ff 8d 20 bf 22 41 f7 be 66 89 0b 3e ff 28 13 bf
       -0.6271667 -0.4829188 0.13626632 -0.5748443
000190 ff ae 21 bf fe 7d a8 3e 11 2f d7 be 52 b7 b7 be
       -0.6315765 0.32908624 -0.42028096 -0.3588205
0001a0 ff 9e 0d be 9b ce 1c 3d 80 4a 25 bf 37 ba 97 bb
       -0.13830183 0.03828297 -0.645668 -0.004630353
0001b0 95 10 ab be 04 50 f3 be 10 e9 a9 3e 79 2d 50 bf
       -0.3341109 -0.47521985 0.33185625 -0.81319386
0001c0 4e 4b 8a bf c4 08 b0 3e cf 29 bc 3d 58 f4 95 3d
       -1.0804231 0.34381688 0.09187662 0.073219955
0001d0 79 47 a0 bd 25 36 0b 3e 3c 26 aa be 48 20 3d be
       -0.07826132 0.13594873 -0.33232296 -0.18469346
0001e0 d5 56 5a be 16 f6 12 bf f8 9f a9 be 2a f6 b5 be
       -0.21322186 -0.5740675 -0.3312986 -0.3553937
0001f0 d6 0c 13 be 9f f9 8f be c9 34 84 be bd 86 66 be
       -0.14360365 -0.28120133 -0.25821522 -0.22512336
000200 70 77 5c be dc 7c fc be a7 83 f7 be bf 6a c6 bd
       -0.21529937 -0.4931401 -0.4834263 -0.09688329
000210 78 67 21 bf 15 0f 31 bf b7 86 e5 3a 2a f2 eb bd
       -0.63048506 -0.6916364 0.0017511462 -0.115207985
000220 d3 21 2e bf cf 14 5b bf c8 31 ea 3e a9 94 88 3d
       -0.6802036 -0.85578626 0.45741105 0.0666898
000230 fe 50 47 bd 42 9a 54 be 83 e0 a9 3c 84 bd d9 be
       -0.048661225 -0.2076197 0.020736938 -0.425274
000240 e8 b6 c2 be ac bf 0a 3d 1b 0f 8f be c4 0d c3 b9
       -0.3803017 0.0338742 -0.27941212 -0.00037203555
000250 73 6e 2a be 6c 2f 8a 3f 18 fb 86 be 4c b2 bb bd
       -0.16643696 1.0795722 -0.26363444 -0.09164867
000260 66 a1 fa 3e 91 7f 5f be b6 27 f2 be d0 2f d9 3d
       0.48951262 -0.21826006 -0.47295922 0.10604823
000270 81 dd 42 3f 08 c4 0c bd 91 63 78 be 02 ed f7 be
       0.7611924 -0.034366637 -0.24256732 -0.4842301
000280 d5 5d 98 be 24 c9 e2 3e 76 46 f2 bd 26 20 dd be
       -0.29759088 0.44294083 -0.118298456 -0.4318859
000290 7e a0 e8 be e4 b7 0b bf 96 a2 ad 3d 0e 39 30 be
       -0.45434946 -0.5457747 0.084782764 -0.17209265
0002a0 5b 32 c2 be 06 ab 46 3e fd 46 cc be e9 4a 61 be
       -0.37929043 0.19401178 -0.3989791 -0.22001232
0002b0 53 72 13 be 22 7e 9d be f6 8d 31 3d 90 e4 ab be
       -0.1439908 -0.30760294 0.043348275 -0.33572817
0002c0 70 c5 20 bf 07 c3 21 be 35 91 80 be 6d d3 55 be
       -0.62801266 -0.15797053 -0.25110784 -0.20881434
0002d0 49 df 79 be ca f9 39 be 9e 4a 9a be 80 82 fa be
       -0.24401583 -0.18161693 -0.30135053 -0.4892769
0002e0 e5 8b 51 3e 02 c5 bc 3e e3 52 41 bf 11 3a ad be
       0.20463522 0.36869055 -0.755171 -0.33833364
0002f0 8f ad 3d 3f 68 6a 73 3e 51 55 9e bd 96 cb f2 be
       0.74092954 0.2377106 -0.077311166 -0.4742095
000300 a5 e2 84 be 65 a3 0f 3e 25 63 c8 be 5d db a5 3e
       -0.25954166 0.14027174 -0.3913814 0.32393923
000310 94 30 17 bf 17 94 11 bf c6 7a ae be 45 14 00 3f
       -0.590585 -0.5686659 -0.34078044 0.5003093
000320 91 ac 35 bf f7 c5 8d be f5 51 e5 be 08 4f b7 be
       -0.7096644 -0.27690098 -0.4478909 -0.35802484
000330 56 67 d4 bd fe 0d 4d bd b1 75 ed bd 06 a9 14 3c
       -0.10371272 -0.050062172 -0.115947135 0.009073501
000340 22 3c cb be 5d f9 50 3e 5c 13 b1 bd 84 b9 d6 bd
       -0.39694315 0.20407625 -0.08646271 -0.10484603
000350 59 55 ce 3d ad e0 db bd 5f 8b 63 3d 95 48 e7 be
       0.100748725 -0.10736213 0.055552837 -0.45172563
000360 6e 53 0e bf fa 85 dd be 5d 62 d0 3e 07 ee 92 3e
       -0.55596054 -0.43266279 0.40700045 0.28697225
000370 79 be db 3d fd 89 62 be de 57 a1 be 56 c6 ed 3e
       0.10729689 -0.22122951 -0.3151235 0.4644038
000380 7a ac f3 3e c6 15 1e be 6c 2e ac be e9 73 a7 3c
       0.47592527 -0.15437993 -0.33629167 0.020441012
000390 4f 9a 24 be 31 29 89 bb 51 97 b0 3e 37 44 f6 be
       -0.16074489 -0.0041858186 0.34490445 -0.4809892
0003a0 ef 69 08 bf 48 fb 8b bd 1b 5f 85 be 79 b6 19 bd
       -0.5328664 -0.068350375 -0.26049122 -0.037527535
0003b0 27 31 e7 be aa 75 a7 be 92 ef 0b bf c8 68 e9 3c
       -0.45154688 -0.32706958 -0.5466243 0.028492346
0003c0 31 02 b8 bd a2 2f e0 3c 48 54 75 be ba ba 50 bf
       -0.08984793 0.027366463 -0.23957932 -0.8153492
0003d0 41 3a fd be 4b 5a 92 be 91 aa 66 be 65 26 71 bd
       -0.49458507 -0.28584513 -0.22526003 -0.058874507
0003e0 93 f3 e9 be 19 c5 06 bf 37 94 f8 bd c6 0d 03 bf
       -0.45693645 -0.526445 -0.12137645 -0.5119289
0003f0 78 58 98 be 37 20 80 be 56 13 ee bd 45 ae 06 bf
       -0.29754996 -0.25024578 -0.11624782 -0.52609664

gru.bias_hh_l0 f4 [768]
000000 fd 46 e7 be 1a a4 06 bf 94 b2 45 bf e7 90 29 bf
       -0.45171347 -0.5259415 -0.77225614 -0.6623673
000010 4f a8 23 3e c8 1b 09 bf 8d 4d ba be 47 9b 6c be
       0.15982173 -0.53558016 -0.36387292 -0.23106109
000020 26 c0 09 be 45 c4 de be 24 75 06 bf 0d d3 76 be
       -0.13452205 -0.43509117 -0.5252249 -0.24103947
000030 ad 75 b6 be 6c 6c 61 3e 33 4a 93 bd c8 15 aa bc
       -0.35636654 0.22014016 -0.07191887 -0.02076234
000040 23 19 fd be c0 b7 a2 be cd 09 9e be c1 ad 36 bf
       -0.4943324 -0.31780815 -0.30866852 -0.7135888
000050 4c e0 ea be b2 25 f2 be d6 58 47 bd 41 04 a6 be
       -0.4587425 -0.47294384 -0.048668705 -0.3242512
000060 d7 59 b6 3c c6 0f 2f be 1f de b1 be 3d 87 0c bd
       0.022259636 -0.17095861 -0.34739777 -0.03430866
000070 e1 ec 8f 3d f6 5f 62 bd be 9a cb bd 61 e5 ae be
       0.07027603 -0.055267297 -0.09941624 -0.34159377
000080 c0 bc 9e bd 3f 37 aa be 00 8b 25 be f3 ba 93 bf
       -0.07750845 -0.33245274 -0.16166306 -1.1541427
000090 a1 07 c8 be 58 8f c5 be 1b e4 25 bf 7a 38 3e be
       -0.3906832 -0.38585925 -0.64801186 -0.18576232
0000a0 c8 d9 84 bd 11 e3 2d 3f ae c9 23 bf 57 81 22 bf
       -0.06486851 0.679246 -0.63979614 -0.63478607
0000b0 56 63 03 3e 0d 86 c7 be c6 e6 f2 be c2 3b 9c be
       0.12830862 -0.3896946 -0.4744169 -0.30514342
0000c0 62 99 f9 be dc ec 9c 3c 5e 38 94 bd 0a f2 bc bd
       -0.48749834 0.019155912 -0.07237314 -0.09225853
0000d0 15 f4 d0 be 23 23 66 be 39 b6 93 bd a6 de 6d 3d
       -0.4081122 -0.22474341 -0.072124906 0.058073662
0000e0 03 35 1e bf 0d 50 76 be ed 7d 03 be da 5b 8f be
       -0.6179964 -0.24053974 -0.12841006 -0.27999765
0000f0 f3 94 a0 be 49 1e ad bd 64 f3 85 be 6d fe 51 bf
       -0.3136364 -0.08453042 -0.26162255 -0.8202885
000100 37 c4 e4 be 12 45 8e bd e5 9b a1 3b b9 2a 5f be
       -0.4468095 -0.06946768 0.004931914 -0.21793641
000110 2a b1 b7 be fa 1b 9e be ae 46 ea 3e 1b fb f8 bd
       -0.35877353 -0.3088072 0.4575705 -0.121572696
000120 43 46 07 3f 0f 7f 23 3b 83 57 6f be bb ad f5 be
       0.52841586 0.002494756 -0.23373227 -0.47984108
000130 1f 50 41 bc 17 70 ab 3e dd 3f 4e be 9b a0 32 3f
       -0.0117988875 0.33483955 -0.2014155 0.69776314
000140 04 08 09 be ff d7 54 be 20 7b 05 bf 1a 23 03 bf
       -0.13381964 -0.20785521 -0.52141 -0.51225436
000150 9d 18 21 be 56 27 d2 be d7 93 49 be 97 1e b0 be
       -0.15732045 -0.41045636 -0.19685303 -0.34398338
000160 ee 8e b8 be 71 06 1b bd 80 03 d5 be ea 1b 9e 3e
       -0.36046547 -0.03784794 -0.41604233 0.30880672
000170 2d 54 48 3d e1 a9 d1 bd 26 80 fa be ca 53 a6 be
       0.0489084 -0.1023748 -0.48925894 -0.324858
000180 ac e4 2d bf aa da ce be 37 7d c4 3d ed 25 0c bf
       -0.6792705 -0.40401202 0.09594195 -0.5474537
000190 f1 5e 26 bf 45 ea b0 3e 32 de d8 be a5 41 d9 be
       -0.6498862 0.34553733 -0.42357022 -0.42432895
0001a0 32 ed d2 bd dc 81 31 3b b9 37 3b bf 37 f7 7f bc
       -0.10299148 0.002708546 -0.731319 -0.015622905
0001b0 31 38 d2 be f2 02 e6 be 56 25 9b 3e 19 5a 48 bf
       -0.41058496 -0.44924122 0.30301923 -0.7826248
0001c0 67 46 81 bf 5c c5 df 3e 7d 54 10 3e 3f d1 8f 3d
       -1.009961 0.4370526 0.1409473 0.070223324
0001d0 4b 99 34 bd 56 cc 4f 3e bc f3 ca be 2e 5e 51 be
       -0.044091504 0.20292792 -0.3963908 -0.20446083
0001e0 17 ee 80 be e6 c8 11 bf 04 e8 95 be 58 e5 95 be
       -0.25181648 -0.5694717 -0.29278576 -0.29276538
0001f0 eb 29 24 be a3 21 a5 be 4f a1 93 be f9 19 78 be
       -0.16031615 -0.32252225 -0.28834006 -0.24228658
000200 01 3b 90 be a2 c9 01 bf 17 5a cf be ef 83 cc bd
       -0.28170016 -0.5069829 -0.4049842 -0.09986102
000210 d7 2b 26 bf 91 eb 29 bf bf 95 02 3d c8 5c 16 be
       -0.64910644 -0.6637507 0.03188109 -0.1468383
000220 31 3c 2e bf a5 8e 5f bf ed 02 06 3f 0b 0a 30 3d
       -0.68060595 -0.87327033 0.52348214 0.042978328
000230 65 b5 e0 bd d7 dd 06 be 90 b7 ab bc 27 fa f4 be
       -0.10972098 -0.13170563 -0.020961553 -0.478471
000240 46 69 c4 be b6 b7 5a 3d df 2e 81 be 30 bd e8 3c
       -0.38361567 0.053397857 -0.25231072 0.028410524
000250 41 c9 9f bd 82 17 7c 3f c0 71 97 be ea fd 42 be
       -0.07802058 0.9847337 -0.29578972 -0.19042173
000260 e6 fa ef 3e 5a c5 99 be 0f 01 c4 be aa 4e 12 3e
       0.46871108 -0.3003338 -0.38282058 0.1428782
000270 58 73 4a 3f 27 f4 a3 b9 f4 d4 a3 be c6 4f e2 be
       0.7908225 -0.0003127169 -0.31998408 -0.44201487
000280 b1 e6 8e be f2 80 f3 3e 92 0d dd bd 39 60 c3 be
       -0.2791038 0.47559315 -0.10793604 -0.3815935
000290 97 e7 e0 be 7a b3 0e bf 62 b1 b8 3d 25 c7 c9 bd
       -0.4392669 -0.5574261 0.09018208 -0.09852437
0002a0 12 c9 9f be 4a d6 0b 3e b0 2f dd be 79 00 7f be
       -0.31208092 0.13655964 -0.43200445 -0.24902524
0002b0 e5 78 bc bd 07 e4 96 be 90 6b 6e 3d ae 4e b1 be
       -0.09202746 -0.29470846 0.05820805 -0.3463034
0002c0 b5 3a 30 bf 6c 92 03 be 1e b2 05 be 9c d3 21 be
       -0.6883958 -0.12848824 -0.13056228 -0.15803379
0002d0 48 39 6e be f0 3a 3e be d2 55 94 be 95 6c 01 bf
       -0.23264039 -0.1857717 -0.28971726 -0.5055631
0002e0 d7 df 17 3e 0a c5 98 3e cc d7 40 bf 49 62 99 be
       0.14831482 0.2983783 -0.7532928 -0.29957798
0002f0 90 43 2d 3f fa 28 88 3e 85 de 6d bc 8f f6 e9 be
       0.6768122 0.26593763 -0.014518385 -0.45695922
000300 08 04 9a be 2b 4a 06 3e 3a d7 f0 be 22 f8 b9 3e
       -0.300812 0.1311423 -0.47039205 0.36322123
000310 ef dc 2e bf 07 03 fc be 78 bc 9d be 9c 79 fe 3e
       -0.6830587 -0.4922106 -0.30807853 0.49702156
000320 68 ca 25 bf 00 fa a4 be 89 21 ea be fd 9c 9f be
       -0.6476197 -0.32221985 -0.4572871 -0.3117446
000330 98 5a 3d bd 62 95 5f 3c cc b1 6b be f1 4a 44 3c
       -0.046228975 0.0136464555 -0.23017043 0.011980758
000340 cf 3b a0 be 10 d2 14 3e 2e 42 15 be 9e e1 41 be
       -0.3129563 0.14533257 -0.14576027 -0.18933722
000350 e5 63 aa 3c 70 4c c9 bc 15 a0 53 bb cf b4 e7 be
       0.020799587 -0.024572581 -0.0032291461 -0.45255134
000360 e8 e5 0e bf a5 88 de be f9 b8 d1 3e 16 80 b6 3e
       -0.5581956 -0.43463627 0.40961435 0.35644597
000370 1b ab a7 3d 71 cc 32 be 21 ed b0 be 9b 14 e7 3e
       0.08186933 -0.174608 -0.34555915 0.45132908
000380 bd ac 02 3f 03 19 dc bd 14 e3 6c be 7a 61 02 3e
       0.5104483 -0.10746958 -0.23133498 0.12732497
000390 7a e9 8a bd 1b 45 ab 3c cf 67 ab 3e d8 6d d6 be
       -0.06782813 0.020906975 0.33477637 -0.4188068
0003a0 bb 07 11 bf b1 8a 49 bc 48 96 a3 be 77 09 80 bd
       -0.5665242 -0.012301133 -0.31950593 -0.06251805
0003b0 b7 12 c2 be b0 43 b9 be 73 cd 03 bf b0 d5 b3 bc
       -0.37904903 -0.36184454 -0.51485366 -0.02195248
0003c0 b7 d2 ab bd 50 f8 63 3d 8f e2 81 be d3 4c 39 bf
       -0.083898 0.05565673 -0.25368163 -0.7238285
0003d0 21 47 ee be fd 0a 43 be 1a c5 9a be 2d 3b 1c bd
       -0.46538642 -0.1904716 -0.30228502 -0.038142372
0003e0 9d 7d 0e bf a8 56 0b bf 3a 83 d4 bd ae 24 f3 be
       -0.5566042 -0.544291 -0.10376592 -0.47488922
0003f0 ab 33 a9 be ab 29 4d be 1e e0 a6 bd 54 2c 1a bf
       -0.33047232 -0.20035426 -0.08148216 -0.6022389

decoder.weight f4 [128, 256]
000000 7c 57 97 be 86 08 bc bd 95 b5 9f 3e 37 ce 25 3d
       -0.29558933 -0.09181313 0.31193224 0.040479865
000010 02 97 bb 3d f3 64 f1 3c 78 a7 61 3d c9 8d 11 3e
       0.09159662 0.029467082 0.05509135 0.14214243
000020 c3 d7 cc bd d6 89 6a bc 00 c1 c0 bd 85 2e aa bd
       -0.10002091 -0.014315089 -0.09411812 -0.08309654
000030 c0 5e 04 3e e0 93 92 be 3c 33 f0 bd f2 65 89 3c
       0.1292677 -0.28628445 -0.11728522 0.016772244
000040 f9 af 15 bd da c1 67 be d6 03 81 3d e6 fb 0f 3f
       -0.036544774 -0.22632542 0.0629956 0.5624374
000050 c3 16 30 be 5f 92 7f 3d d1 e9 0f 3c ca 40 d7 3d
       -0.17196183 0.06239545 0.0087837735 0.105104044
000060 51 c0 93 3d 52 36 77 3d 62 33 43 bc fc e4 b9 bd
       0.07214416 0.06035454 -0.011914106 -0.090768784
000070 6d 16 5a 3d 3e ee 82 3d da 13 51 3d 5c 6a 53 3e
       0.053244043 0.06393097 0.051044323 0.20646042
000080 e1 c6 31 3d f2 f9 f3 bd de 42 2d bc e1 d0 fe 3d
       0.043402556 -0.11912908 -0.010575024 0.12442184
000090 a1 d2 a3 bb 97 bc 09 3e 90 96 dc bd c5 d1 42 bd
       -0.004999474 0.13450848 -0.10770905 -0.047563333
0000a0 d2 04 c5 bc cf a5 7c be 39 c1 09 be 5e 78 bf 3e
       -0.02405015 -0.24672626 -0.13452615 0.3739652
0000b0 a2 cf 64 bd 69 02 06 bd e1 b8 07 3e cc 9b f7 3d
       -0.055862077 -0.032717142 0.1325412 0.12090263
0000c0 ca 83 75 3d 30 59 b3 bc 12 64 a6 bd 84 c8 35 3d
       0.059940137 -0.021893114 -0.08124556 0.04438068
0000d0 36 82 cf 3c 45 f2 aa bd 54 bf ff bc 39 20 66 3c
       0.025330644 -0.083469905 -0.031219162 0.014045768
0000e0 e8 1e d9 3d cb 2c 80 3d 41 84 64 3f 13 60 f3 3d
       0.10601598 0.062585436 0.89264303 0.11883559
0000f0 92 37 21 3d dc ab fa bb 42 3f 08 3f 29 d4 16 be
       0.039359637 -0.0076498818 0.53221524 -0.1472937
000100 a0 a7 99 3d bb 40 c8 bd 23 a4 0b bd 10 aa da 3d
       0.07502675 -0.09777971 -0.03409208 0.10676968
000110 44 b7 93 3d 5f 5f de 3d 3b 7e af bd 28 6c 89 bd
       0.072126895 0.10858034 -0.085689984 -0.06710082
000120 c0 54 15 3d 1b 71 17 bd 4a 86 af bc 54 cb 8f 3e
       0.036457777 -0.0369731 -0.021426339 0.28084815
000130 a4 1c 03 be ac b7 27 3f 66 28 93 3e 00 cc 8d 3e
       -0.12803894 0.65514636 0.2874176 0.27694702
000140 1f e1 9d 3d 35 36 02 3e f4 72 6f bd 0d c9 9c 3e
       0.07708954 0.12715991 -0.058459237 0.3062214
000150 8d f2 fc 3c 60 97 a2 bd 8b 95 ac bd 03 63 99 bd
       0.030877376 -0.07939029 -0.084269606 -0.07489588
000160 6b 07 e2 bc 14 52 83 bd 5a 34 9c 3c e9 8a a4 bc
       -0.027591428 -0.064121395 0.019067932 -0.020085769
000170 c4 a2 12 bb bb 9f 17 3d d4 09 2e 3e e1 f8 00 be
       -0.0022374848 0.037017565 0.16995937 -0.1259494
000180 34 e2 9d 3e bc 60 5d bd 73 63 89 3d 66 c3 fa 3d
       0.30836642 -0.05404733 0.067084216 0.122443005
000190 5e 50 8a 3d f0 b1 2f bd 9e 99 40 bd 50 81 35 be
       0.0675361 -0.042894304 -0.0470215 -0.1772511
0001a0 08 e4 ca bb 82 34 7d be 7d e5 3a be 36 63 ff bd
       -0.006191734 -0.24727061 -0.18251605 -0.12470095
0001b0 01 ea 23 3e 47 ed de bc b3 a8 97 3e 36 84 98 bd
       0.16007234 -0.027212752 0.29620895 -0.07447092
0001c0 cf 74 a1 bd 42 e5 a3 bc ee a1 5e bd 89 d4 3a 3e
       -0.078836076 -0.02000678 -0.054353647 0.18245138
0001d0 bb aa fe bc 23 c6 9b 3d e2 24 e3 bd ae 83 f7 bd
       -0.03108727 0.07606151 -0.11091019 -0.12085663
0001e0 43 b0 5a 3e 19 48 8a be 3e f5 30 bd b9 87 b8 3d
       0.21356301 -0.2700813 -0.04320263 0.09010262
0001f0 c8 df 86 bd 7e 01 5d bd 7b 23 49 3c 06 f9 6c 3d
       -0.06585652 -0.0539565 0.012276526 0.057854675
000200 1c 40 d8 3c 58 4e b7 3b 7c ab 74 3d 81 da 41 bc
       0.026397757 0.005594056 0.059733853 -0.011831881
000210 d8 36 9a 3d 57 b0 0d bd 31 49 dd ba 96 2f 99 3d
       0.07529992 -0.034592 -0.0016882775 0.074797794
000220 f0 33 a3 3d c0 f8 e7 bd cc a7 93 3d 88 cc 8d 3e
       0.07968891 -0.11326742 0.07209739 0.27695107
000230 2e 14 4b bc 15 39 df 3d 30 50 be bd 12 3a d4 bd
       -0.012394948 0.108995594 -0.09292638 -0.103626385
000240 26 48 e8 bd 14 15 49 3c 45 d4 fd 3d 0d e3 76 ba
       -0.11341886 0.012273092 0.12394003 -0.00094179885
000250 03 1e 65 bd 85 bd 8d 3d 35 2e 2f bf cc d6 01 bc
       -0.055936825 0.069209136 -0.6842988 -0.007924747
000260 aa 72 93 bd ad 55 59 be f7 14 31 bd 18 ad a7 3b
       -0.07199605 -0.21224089 -0.043232884 0.00511707
000270 f8 04 6d 3d fe c3 5c bd d5 ab a5 3c 4c f3 60 3d
       0.057866067 -0.05389785 0.020223537 0.054919526
000280 9f f2 dd bd 3f 4d 8e be ba 14 1d be e8 da 0e 3e
       -0.10837292 -0.2779331 -0.15339938 0.13950694
000290 fd 19 6b 3e ca b0 20 3e 09 43 9c bd 46 6e fe 3c
       0.22959132 0.1569244 -0.076299734 0.031058442
0002a0 57 de aa bd 90 08 cb 3c 8c bc 28 3e ba d1 fe 3d
       -0.08343189 0.024784356 0.16478175 0.12442346
0002b0 de 21 e1 bb ee 8c 0e 3e ff aa d1 3c b5 7a 85 be
       -0.0068704924 0.13920948 0.025594233 -0.2607018
0002c0 be 08 3a 3e 83 e0 0c bd 73 d6 15 bc 68 20 28 bc
       0.18167397 -0.0343938 -0.009145367 -0.0102616325
0002d0 4a 15 24 bd 66 7c b5 3d 6e 6a dd bb 19 5b 53 be
       -0.040059365 0.08861618 -0.006757072 -0.2064022
0002e0 cd e4 52 3c 69 79 58 bd 80 e9 99 3e 17 ae b3 3d
       0.012871933 -0.05285016 0.3006096 0.087734394
0002f0 a3 80 a9 be 38 03 6e 3d ee 6f 08 3e da fc 9e 3e
       -0.33105955 0.05810854 0.13323948 0.31052285
000300 59 8a 24 bd af ff 89 bd 83 d1 07 3d 16 e3 8c 3d
       -0.040171 -0.06738221 0.03315879 0.06879251
000310 a0 31 b0 3a 29 e9 d9 3d ad cc 17 bd 83 41 2d 3a
       0.0013442524 0.10640175 -0.03706043 0.0006609188
000320 01 3e 24 be d4 f8 5e be e1 81 8e be b0 0a 30 3d
       -0.16039278 -0.21774608 -0.27833465 0.042978942
000330 fd 77 e7 3c ac fc 2e bb f5 86 07 bd 50 b0 d8 3c
       0.028255457 -0.0026700897 -0.03308769 0.02645126
000340 de b2 46 3d a8 ea 25 bd 52 9f 0b bc 71 cc 60 bc
       0.048510425 -0.04050699 -0.008521872 -0.013720618
000350 96 95 c7 3d 68 0c 2c bc ad a1 ee 3a 11 a2 bc 3d
       0.09745328 -0.010501005 0.0018206142 0.09210599
000360 e9 22 d2 3d 23 1b 8c 3d b5 9a d3 bc bf 61 e4 3a
       0.10260565 0.068411134 -0.025830606 0.001742415
000370 20 02 27 bd 01 4f 0f 3d 58 bf 0f 3f f9 d8 a6 3b
       -0.04077351 0.034987453 0.5615134 0.005091783
000380 4e 8a a4 bc 88 6d 90 3d 73 4d f2 3c 9f 83 fc 3c
       -0.02008548 0.070521414 0.029577946 0.03082448
000390 f4 c4 ea 3d ed ac e3 bc 2a d9 cb bd e8 a0 01 3e
       0.11463347 -0.027792418 -0.0995353 0.12659037
0003a0 cd 2d f6 3d 93 cf 6c be 88 5b 29 be bd ca 02 bc
       0.120204546 -0.23126058 -0.16538823 -0.007982907
0003b0 56 05 20 3d cd 62 68 bc 4c b6 20 3e 4d 84 fb 3b
       0.03906759 -0.014183712 0.1569454 0.0076756836
0003c0 cd e5 99 3e 08 79 00 bd 90 a5 90 3e 97 20 a7 3e
       0.30058137 -0.031365424 0.28251314 0.32642052
0003d0 24 b9 34 bd 04 f2 8e be 80 ed 0f 3d 09 62 3a 3d
       -0.044121876 -0.27919018 0.035138607 0.04550365
0003e0 6b 79 12 bd c5 7a 21 be 67 61 a8 3d 55 31 8a be
       -0.035760324 -0.15769489 0.08221703 -0.26990762
0003f0 61 27 cc 3d 2a 65 14 3f 6b 4e 03 3b 01 5b ef 3d
       0.099684484 0.57966864 0.0020035754 0.116872795

decoder.bias f4 [128]
000000 9f 06 01 40 7d fe 72 bf 98 3a 7a bf d5 99 5c bf
       2.0160291 -0.9491957 -0.97745657 -0.8617223
000010 ec 32 5d bf 23 39 5e bf ab 30 5b bf b2 56 6c bf
       -0.86405826 -0.86805934 -0.85621136 -0.92319787
000020 e1 b6 61 bf 5b d2 66 bf ed 3a 5d bf b8 27 61 bf
       -0.88169676 -0.90164727 -0.8641804 -0.8795123
000030 cf 24 5e bf 72 95 76 bf 56 79 77 bf 6d 17 5f bf
       -0.86774915 -0.96321785 -0.9666952 -0.8714512
000040 9b d6 5b bf 7d 3a 59 bf d9 77 71 bf 5a 61 70 bf
       -0.85874337 -0.8485487 -0.943235 -0.93898547
000050 4f dd 59 bf cc 09 2c bf 2a eb 97 be 5f 6c e2 be
       -0.85103315 -0.6720245 -0.29671603 -0.44223306
000060 3c 23 15 bf 8f ca e3 be b1 c1 0f be 16 58 63 be
       -0.5825689 -0.44490477 -0.14038731 -0.22201571
000070 91 26 3e be a7 a6 f1 be 60 20 62 be 12 e2 ba be
       -0.185694 -0.47197458 -0.22082663 -0.36500603
000080 8b 84 0d bf e4 2c 95 be f4 85 ec bd 64 9c ad be
       -0.5528037 -0.2913581 -0.11548987 -0.3390838
000090 c9 58 bc be 75 8a 97 be 63 3f 1c bf c6 3c 7f be
       -0.36786488 -0.29597822 -0.6103422 -0.24925527
0000a0 f5 51 a0 be a1 84 01 bf f1 d5 22 be 8a 14 e3 bd
       -0.31312528 -0.50593 -0.15901925 -0.11087902
0000b0 18 b2 86 be 50 45 cd bd 88 2d 83 be d3 ac 9f be
       -0.2630775 -0.10022986 -0.25620675 -0.31186542
0000c0 b9 c9 d8 be a0 fb 58 bd dd 18 2c bc 2d 8f 1c be
       -0.42341402 -0.052974343 -0.010503975 -0.15288992
0000d0 d3 c5 b6 bc b6 6e 0e bd 8e 08 66 3d 20 24 46 be
       -0.022311127 -0.03477355 0.056160502 -0.19349718
0000e0 13 bf 40 bd fe 02 e8 bd b4 07 2b be 36 73 03 be
       -0.047057223 -0.11328696 -0.16702157 -0.12836918
0000f0 8c 78 1d bd 63 59 ef be f1 be 97 be 6f 7e 01 bf
       -0.03844504 -0.46747884 -0.29637864 -0.5058355
000100 58 1c 1e be 05 b6 47 be 80 dc d0 be 71 94 e7 be
       -0.154405 -0.19503029 -0.40793228 -0.4523044
000110 3f b7 c4 bd ef 43 eb be a9 86 06 be 1e aa 9d be
       -0.09605264 -0.45950267 -0.13137306 -0.30793852
000120 5b 1b 69 be 96 be 3a be 79 ca ff be 58 ff 3c bc
       -0.22764342 -0.18236765 -0.49959162 -0.011535488
000130 8c c5 ea be 31 b7 44 be 0b e0 28 be 46 dc 34 be
       -0.4585384 -0.19210507 -0.16491716 -0.17662153
000140 ca 92 70 bd 9c 02 a3 bb c3 5a 5a bd a0 b3 6c be
       -0.05873374 -0.0049746763 -0.053309213 -0.23115396
000150 f6 a5 3f be a9 4a 2d be 80 5e a0 be b1 af d6 bd
       -0.18715653 -0.16923012 -0.31322098 -0.10482729
000160 18 cb 9d be 00 c7 a2 be f6 7b cd be e7 29 95 be
       -0.3081901 -0.3179245 -0.40133637 -0.2913353
000170 b0 d3 82 bc c0 9f cc bd 4a 95 34 3b 8d 37 82 bd
       -0.015970081 -0.099914074 0.0027554804 -0.06358252
000180 47 4f e2 3d 40 af 1d be ab 04 cd be 0e 8f 3a be
       0.11050277 -0.15398884 -0.40042624 -0.18218634
000190 ee 55 d4 be e3 dc e6 be ef 56 77 be e1 de 3a 3c
       -0.4147181 -0.45090398 -0.24154256 0.011405678
0001a0 30 d0 79 be cf c3 b2 be c5 ec d9 be 6b 05 60 be
       -0.24395823 -0.34915015 -0.42563453 -0.21877067
0001b0 fd fe c9 be b5 23 62 bf 6c 1b 75 bf 73 20 6d bf
       -0.39452353 -0.88335735 -0.9574497 -0.9262764
0001c0 31 b7 60 bf 15 82 72 bf 44 b9 65 bf fe 16 70 bf
       -0.8777953 -0.9472974 -0.8973582 -0.93785083
0001d0 fe 7f 6a bf 79 b9 77 bf a8 cd 66 bf 3a c3 5d bf
       -0.9160155 -0.96767384 -0.90157557 -0.8662602
0001e0 2a cc 6d bf f3 d7 62 bf 22 78 5b bf d4 51 72 bf
       -0.92889655 -0.8861076 -0.85730183 -0.9465611
0001f0 08 51 75 bf 11 aa 72 bf a1 b4 6e bf 15 8e 5c bf
       -0.9582677 -0.9479075 -0.9324437 -0.861543
