models/notegru.model (torch, 680893 bytes, 11 tensors)

embedding.weight f4 [128, 8]
00000000: 9967 80bf f702 913f c9de 2ebe f746 2a3f
00000010: a272 343f 8331 783d e2d7 f8bf 62f9 1a3f
00000020: 8ebd 65be e8c0 3d3e 586d 1abf 7349 5dbf
00000030: 6966 7f3f b978 93be 7cc2 c0bf 938b 553f
00000040: be24 90bf 7990 9b3e 9106 ad3e 9b28 29be
00000050: e5e9 8e3f 4f43 2e3f 1757 74bf 562b a43e
00000060: 04ff b33f f8ac 67bf b01e 763f a090 453f
00000070: a2d7 ffbf e02a 8e3f e9fc 6ebe f9df fabd
00000080: 8adf 77bf 3d7b 3ac0 5f23 ba3f 9148 15be
00000090: 0f54 c43f 1719 70bf 4502 b93e 30bb 4bbf
000000a0: 1ae6 e43f 8d93 723f 8807 a93e 7ff5 92bf
000000b0: 120a 3a3f 0719 ec3e 8aa1 8abf 37eb 993f
000000c0: adca dfbd f6d9 9f3e b083 9bbf 6efb 693f
000000d0: 19b4 88be 49b9 a5be 7f7e aebf 6d27 da3e
000000e0: 7211 a33f 9e20 9dbe 8e72 ae3f 4fd8 0e3f
000000f0: b6d3 a4be 2655 d03c 7c18 6d3f f0f3 8e3f
00000100: 78d1 0c3f 8866 3f3e a415 38bf cd3a 8c3e
00000110: 89d9 ea3f 62dc 1f40 8b07 a23f 0b55 5d3e
00000120: 9bda 64bf fef9 b2bf 14ba 65bf 6ff9 013f
00000130: bcf0 013f e5eb 83bf da9c 17bf 233e bcbd
00000140: 9524 f6be 57a1 dfbd e8f4 e63e f2eb 63bf
00000150: 2419 893f eecd 31bf 4a85 433f d8a7 5a3f
00000160: f6ba 913f 8a0c 3dbe 0014 e33e 89bc 72bc
00000170: ad54 ebbf 3ea0 c23d a55f dfbe 2bdf afbd
00000180: f27c 773f 373a 5a3f fa53 063f 1938 ed3f
00000190: e713 9bbf d986 0fbf 2b43 043f 0894 61bf
000001a0: 09de 95bf 69cd acbf 8487 47bf a923 5f3f
000001b0: 3933 c2bf 5793 cebe 0578 9ebc db68 ab3f
000001c0: c9e2 a83f 142e 32be a224 2f3f 9d38 743e
000001d0: 0ee0 3fbe 6982 bb3f 1c83 5fbf 37f6 f93e
000001e0: 724d b23e 4136 0c3f 8ad5 823e 1203 ee3e
000001f0: 1ac2 c6bc 09d6 a3be 5aba bcbd b2e9 d13d
00000200: f88d 233f 5520 7cbf 73c2 21bd 8498 f13e
00000210: 6827 f73d 80bd 9a3f 7692 cabf cd1a 4dbe
00000220: ab32 353f 0a70 f63e 285e a1be f310 16bd
00000230: 88d8 03bf 6209 db3f 798f 8ebf 5562 22bf
00000240: 13e7 8c3f 381c 9c3e f223 4dbe 08c2 03bf
00000250: f35a 4dbe 4561 6b40 a30e 98be 055f c4bf
00000260: 6eab dbbf d2b8 bebe f770 dc3f 1521 64be
00000270: 6593 d83d 063c 4ebf 016d 833d 7016 54bf
00000280: 43b2 983e e6d3 6dbe 75c4 7fbd c051 213e
00000290: 91f2 2c3d a9f7 d03f 3392 0bc0 b53f 893f
000002a0: eef2 0b3f cfce 05bf 8eff fcbe 5b3e 743e
000002b0: 88d1 e0be 808d 353f 5899 01bf 5416 9ebf
000002c0: 9031 b53f 6a05 ef3f d1b3 8e3d 95d6 a6bf
000002d0: 9863 33bf d310 dd3f 37da a5bf 3c1e 4abe
000002e0: dae4 2c3f 1c4e 433e c1e9 b83e f135 27c0
000002f0: 506a 6abf 49eb e53e ca9a b83f 13a3 373f
00000300: b812 aa3e 29b4 783f ab1c 8f3e 41e5 a03f
00000310: c08f 993e 352d 323f e41e ec3e a27d 113f
00000320: 80bb 01c0 ab28 04bf 1ac0 393e 8002 ebbe
00000330: af34 7dbe 1df0 f33f cd68 0ebf 0316 69bf
00000340: cb04 643f c134 3ebf abbc 18c0 33a0 403f
00000350: 1e31 203f 6171 04bf 1de6 aebf 7d78 f6be
00000360: 272b e9be e4a7 a83d 2861 423e c849 a13e
00000370: 30b4 133f 31c2 cf3c 9754 dcbd 03e9 213e
00000380: eadd 48be 9ee4 263f 0d42 d0bf af3d b43f
00000390: 36d9 01c0 da4c 03bf 9a68 51be ffb9 aabf
000003a0: 3dfd 1ac0 65e3 d1be 8acd 36be e2ca eb3e
000003b0: 9108 cfbc bb9c 693e f521 d7bf dbd9 373f
000003c0: a445 e13f 58a6 0ebf 7a93 23bf 24ce 453f
000003d0: a06d 95bf b26c 9d3e 88c9 953f 2e4a 463f
000003e0: 398c e5bd a97c cdbe 50d3 2f3f 2539 273e
000003f0: bd66 0d3f f0d8 a03f ba2c 733f d8b5 a3bd
-1.0031615 1.132903 -0.17077173 0.66514534 0.70487416 0.060594093 -1.9440882 0.6053678
-0.2243559 0.18530619 -0.60323095 -0.864402 0.9976564 -0.28803042 -1.5059352 0.834161
-1.1261213 0.3038366 0.33794072 -0.16519396 1.1165129 0.68071455 -0.9544539 0.32064313
1.40622 -0.90498304 0.96140575 0.77173805 -1.9987681 1.1106834 -0.23338665 -0.12249751
-0.9682547 -2.9137719 1.4542044 -0.14578463 1.5338153 -0.93788284 0.36134544 -0.795825
1.7882721 0.94756395 0.33013558 -1.148117 0.72671616 0.46112844 -1.0830548 1.2024907
-0.10927329 0.31220978 -1.2149563 0.91399276 -0.26699904 -0.32367924 -1.3632354 0.42608204
1.2739699 -0.30688947 1.3628709 0.5579881 -0.32192773 0.025431227 0.92615485 1.1168194
0.55007124 0.18691456 -0.7190802 0.2738861 1.8347636 2.497826 1.2658552 0.21614473
-0.89396065 -1.3982542 -0.8973706 0.5077123 0.50757957 -1.0306364 -0.5922371 -0.09191539
-0.48074785 -0.10919445 0.45108724 -0.890319 1.0710797 -0.6945485 0.7637526 0.8541236
1.1385181 -0.18461815 0.44351196 -0.014815458 -1.8385216 0.0950322 -0.43627658 -0.08587488
0.96675026 0.8524508 0.5247189 1.8532745 -1.2115449 -0.56065136 0.5166499 -0.881165
-1.1708385 -1.3500186 -0.77941155 0.8716379 -1.5171882 -0.40346786 -0.01934434 1.3391374
1.3194209 -0.1740039 0.6841527 0.23849721 -0.18737814 1.4649173 -0.8730943 0.4882066
0.3482471 0.54770285 0.25553542 0.46486717 -0.024262477 -0.31999233 -0.09215231 0.10249652
0.638885 -0.98486835 -0.03949208 0.47186673 0.12068063 1.2089081 -1.5825946 -0.20029755
0.7078044 0.48132354 -0.31517148 -0.036637258 -0.51502275 1.7112238 -1.1137534 -0.6343129
1.1008018 0.3049028 -0.20033243 -0.51467943 -0.20054226 3.6778119 -0.29698667 -1.5341498
-1.7161691 -0.37250382 1.7221974 -0.22278245 0.10574988 -0.8056034 0.06417275 -0.82846737
0.29823503 -0.23225364 -0.062443215 0.15753841 0.042223517 1.632558 -2.1807983 1.0722567
0.54667556 -0.5226869 -0.49413723 0.23851912 -0.4390986 0.70919037 -0.5062461 -1.2350564
1.415575 1.8673527 0.06967891 -1.3034235 -0.70073843 1.7270759 -1.2957219 -0.19738096
0.675367 0.19072765 0.3611584 -2.6126673 -0.9156847 0.4490607 1.4422238 0.71733207
0.33217406 0.971499 0.2795156 1.2569963 0.29992485 0.6960023 0.46117318 0.56832325
-2.027069 -0.51624554 0.18139687 -0.45900345 -0.24727128 1.9057652 -0.55628663 -0.9104921
0.89069813 -0.74299246 -2.3865154 0.75244445 0.62574947 -0.517355 -1.3663975 -0.481388
-0.45540735 0.082351476 0.18982375 0.31501603 0.5769682 0.025361152 -0.10758322 0.15811543
-0.19615903 0.6519259 -1.6270157 1.4081324 -2.0288825 -0.5128914 -0.20450059 -1.3338012
-2.4217064 -0.409938 -0.17851844 0.46053225 -0.02527264 0.22813694 -1.6807238 0.71816796
1.7599378 -0.5572257 -0.63896906 0.7726767 -1.167408 0.3074699 1.1702127 0.7745694
-0.11208386 -0.4013417 0.6868181 0.16330393 0.5523489 1.2566204 0.9499012 -0.07993668

gru.weight_ih_l0 f4 [384, 8]
00000000: 518c b13e 740a c1be c114 1b3e ead8 7b3d
00000010: afde f3bd 5db8 c1bc e5a3 673e 0122 d6bd
00000020: 887b a8bd 89c3 b53d b245 1b3e 2522 ac3c
00000030: 39b0 2fbe cb57 4d3e 4d92 d8bc 11de 993d
00000040: a777 d93d 957c 90be ade9 2c3e 354d 2cbe
00000050: a03b 82bd 0468 2f3e 8bfd 4dbd edac a7bc
00000060: ebaa 6cbe dd92 e7be e092 fe3d 3f2e 02bf
00000070: d45d a13e 3f7d 85be 7451 9bbe 7ad0 9a3e
00000080: d6e0 5abd 72a3 bd3d 2c32 80be 4921 07bf
00000090: 6158 a13d ced0 8dbe 2b46 b93c 7f42 8dbe
000000a0: 4208 853e ebe0 50be a10b a53e 1f23 4bbe
000000b0: 8de3 c03d ed88 ae3d 9cde 1c3e 869b 66be
000000c0: 65ba 8cbe 51cc e53d 16d5 883e e6ae 873d
000000d0: 8d2f e63e b06f ddbd 14ba fa3e f5b9 35be
000000e0: 659e 4c3e 5fbd eebd d3dc cb3d b95f a1be
000000f0: 718d 4a3e 3cac 763e 96dc 2a3e 7175 e8bd
00000100: 2138 d4bd e6c8 1ebd 6c9a 95bd 71f3 833e
00000110: 239a 053c 85c7 2abf ffdb ed3d 8014 843e
00000120: 4ca4 6c3d 86a5 1bbe 8a62 a9bb 9811 0a3c
00000130: d813 d63d 120c dabd f1e0 ae3e ebd9 743d
00000140: b6de 24bd da76 b4be 7e6e 27be a69d 1dbf
00000150: ca10 c4be adb4 e7be cd94 3ebd 4082 8dbc
00000160: a9d1 2a3d 781b 3abe 18da 123e 5415 31be
00000170: 3dde 16be 1928 403d 13c7 8d3e 8235 41bc
00000180: ea25 ff3c 6413 03bd b291 153f 0971 8c3c
00000190: aaf5 c5bd 4c70 58be 8f28 48be 54bd 9cbd
000001a0: 83e1 ba3d 67b4 433e f357 ce3c 63ce 693e
000001b0: 0016 1cbe 9c30 8dbd 15dc 3b3d 7e9f 773d
000001c0: 543e 043d 710c 1bbe 2b33 a43e f164 a73e
000001d0: e35f 4bbe baae b7bd 2717 8e3e 21b6 4cbd
000001e0: 3c88 32be 4f52 6e3d 43c5 533d babb 673d
000001f0: f45a 313d 6365 283e 4525 7dbc 3497 6fbc
00000200: 03bf 933c 719a 97be cc44 7f3c 177b e8bc
00000210: 321a 103c b248 3fbd d678 583d bfde 163e
00000220: 434d 6d3e a10e 7fbc d1bd 3cbe 9eaa c1bd
00000230: 368e 9b3d e77d 423e ea98 243d 8d8c b6bd
00000240: ff84 56be 667a fd3d 74cb d1bd c5aa 38bd
00000250: 270e 253d 1aba fbbd ca7c 9fbd e261 43bd
00000260: fb80 413d 215e 10be 8de4 f7bd 7642 babd
00000270: 4918 eebd a2c4 3d3e 6681 0a3b 17cf 5a3d
00000280: 3c9c e2bd c4e2 adbd 5f64 1c3e a029 cfbd
00000290: 853e 27be 6f0e 8dbd 2528 f33d 0345 88bc
000002a0: fd01 b7bc 44cb 0d3e 749a b3bb 74b3 8a3e
000002b0: f484 d43d 2163 b83d 74fb 3cbd b87c 8f3d
000002c0: ec46 01bd 228c 0ebe 215b a03e e391 8cbd
000002d0: 8ec6 4abe 646c a0bd 8c40 023e 7c8d 973e
000002e0: 4a2e 313c 70c6 643c bd18 3fbe a528 c8bc
000002f0: 623b 0e3d 5fb2 403d 074a a939 8ebb fb3c
00000300: 8514 eb3d 1232 8f3d 067b 9cbe a971 713d
00000310: 7486 6cbe b615 323e 7283 7d3e 9b05 85be
00000320: 01e0 62bd 1435 da3b 86e6 09be dd23 31be
00000330: 09fc 2e3e ed3e 2f3e 91d9 453e 1d16 333d
00000340: 1442 8fbe af2d ab3e b5fd fcbd 128a 963e
00000350: 70e2 ea3d b0dc 33be a807 39be 6559 be3d
00000360: 44ae 29bd 0ca0 983d d145 4d3d 3cac 49bd
00000370: 527e 8e3d 835a d63d 5290 ddbc dd04 983c
00000380: e304 b53d 1424 e63d a8ea 5fbe 6495 cabe
00000390: 2072 c8bd 0d09 8cbe 8b11 173e 7dba 9fbe
000003a0: e432 67ba 988b 6ebd a29e 21bd df91 b53d
000003b0: 70a3 843c 315c aabc 4f69 70bd 7eb6 c83c
000003c0: dce3 903e 9f61 1f3e 356f 17be 5d5c b03e
000003d0: dfb7 e0bd cd99 3abe 7432 cf3d 5bbf de3c
000003e0: 35d2 813c d5cf 64bc 0f0c cd3d 9447 343e
000003f0: cf33 a4bd efe1 d5bd 3d8b 833e e9d1 ed3d
0.34677365 -0.37703288 0.15144636 0.061486162 -0.11907708 -0.023647482 0.22621115 -0.104557045
-0.08226687 0.08875186 0.15163305 0.021012375 -0.17157067 0.20053022 -0.02643695 0.07513059
0.10618525 -0.2822005 0.16886015 -0.16826327 -0.06359029 0.17129523 -0.050290626 -0.0204682
-0.23112075 -0.45229235 0.12430358 -0.50851816 0.31516898 -0.26072118 -0.3033558 0.3023718
-0.053437077 0.0925969 -0.25038278 -0.52785164 0.07878185 -0.27698368 0.022616467 -0.27589795
0.25982863 -0.203983 0.32235435 -0.19837616 0.09418402 0.0852221 0.15319294 -0.22520265
-0.27485958 0.11220611 0.26725072 0.06625156 0.44958153 -0.10812318 0.4897009 -0.17746718
0.19982298 -0.116572134 0.09954228 -0.31518343 0.19780518 0.2408914 0.1668571 -0.11350525
-0.10362268 -0.03876581 -0.07304844 0.2577167 0.008154425 -0.6671069 0.116142265 0.2579689
0.057773873 -0.15199861 -0.0051692175 0.008427046 0.10453004 -0.106468335 0.34155992 0.059778135
-0.040251456 -0.35246927 -0.16350743 -0.6156868 -0.3829406 -0.45255032 -0.046528626 -0.017274022
0.041703854 -0.18174541 0.14341009 -0.17293292 -0.14733215 0.04691324 0.27690944 -0.011792542
0.031146009 -0.032000914 0.5842544 0.017143743 -0.09665997 -0.21136588 -0.19546722 -0.07653299
0.09125044 0.19111787 0.025188422 0.22832637 -0.15242767 -0.06894037 0.045864183 0.060454838
0.032286003 -0.15141465 0.32070288 0.326942 -0.19860797 -0.08968873 0.2775204 -0.04997838
-0.17434782 0.058183964 0.051701795 0.056575514 0.04329963 0.16444926 -0.01545078 -0.014623452
0.018035417 -0.29610017 0.015580367 -0.028379006 0.008795308 -0.046700187 0.052849613 0.14733408
0.23174004 -0.015567453 -0.18431784 -0.09456371 0.07595484 0.1899334 0.040184893 -0.08913527
-0.20949171 0.12376861 -0.10243884 -0.045084734 0.0402967 -0.122913554 -0.077874735 -0.04770077
0.047242146 -0.14098407 -0.121041395 -0.09094708 -0.11625726 0.1853204 0.0021134256 0.053420153
-0.110649556 -0.08490518 0.15272664 -0.10115361 -0.16332443 -0.068875186 0.11872891 -0.01663447
-0.022339815 0.13847071 -0.0054810587 0.27090037 0.10376921 0.09003282 -0.046138242 0.0700621
-0.031561777 -0.13920644 0.31319526 -0.06863763 -0.19802305 -0.07833174 0.12719935 0.29600132
0.010814259 0.013963327 -0.1866178 -0.024433443 0.0347246 0.047045108 0.00032289347 0.030729081
0.11478523 0.06991972 -0.3056261 0.058946285 -0.23098165 0.17391095 0.24757174 -0.2598084
-0.055389408 0.0066591594 -0.13466844 -0.17298837 0.17088331 0.17113848 0.19321276 0.04372226
-0.279801 0.3343329 -0.12353078 0.29402214 0.11468971 -0.17564654 -0.18069327 0.092943944
-0.04142596 0.074524015 0.05011541 -0.04923652 0.069576874 0.104664825 -0.027046356 0.018557006
0.08838823 0.1123735 -0.21866858 -0.395671 -0.097873926 -0.27350655 0.14752786 -0.31196967
-0.0008819534 -0.058238596 -0.039457925 0.08865713 0.016191214 -0.020795913 -0.05869418 0.024501082
0.28298843 0.15564583 -0.14788516 0.34445468 -0.10972571 -0.18222733 0.10117045 0.027190855
0.015847305 -0.013965567 0.100120656 0.1760543 -0.08017694 -0.10443484 0.25692168 0.11612303

gru.weight_hh_l0 f4 [384, 128]
00000000: db36 76be 9460 4d3d 4c4c af3e 4369 253e
00000010: 4b9c 3dbe 6a98 d43d b060 e4bd 467f b63c
00000020: c6b1 4dbd 8b66 083e fcc2 f2bd be72 d13e
00000030: e963 bc3d 5348 b1be 60d3 e93b 4e2d 1abe
00000040: 8ef8 863d ac83 083e 6d6c 21be 4cad b9be
00000050: 8bb4 74be a770 c63d bce9 b43d 1155 b63d
00000060: 2603 3bbd 8261 153e 296e 32be 1680 043f
00000070: fc00 803e b00b c83c bf5f 0abe b004 10bd
00000080: 8a90 173d 9f5e 1a3d 901e 48be 880a ef3c
00000090: 6de0 283e 62a1 5abd ce88 9fbd 3d3d 853e
000000a0: fce2 343e 02d7 a33d 531e 44be 3c69 81be
000000b0: 4441 9abd 138b 423d d625 dfbc db42 20be
000000c0: 88bd 373e 3e5a 24bc 8de0 263e cfc9 62be
000000d0: 1b99 8b3d 1998 1fbd 080c 963d 9747 a23d
000000e0: 7436 503e 9768 30be f45a 9d3d 123a c9be
000000f0: 88ef 5bbe aa07 9dbd cb53 d4bd 9fb1 55bc
00000100: 2148 7fbc 8bfd b7be d1b0 a53c 2b8d 9dbc
00000110: c6ec 3fbd e0fb 7bbd 6ebd 0fbe f462 073e
00000120: 2305 093d 4fae 32be 1a0a b3bc ee12 8b3e
00000130: 85f7 913c a5df 353e d5ae 2fbe fda0 1cbd
00000140: 9b61 08be 1f08 d53d c23e 14bd 858f e4bd
00000150: 1b61 323d 4d37 e73c 20d5 093d a327 023e
00000160: 1ced 34be 1cf6 cfbd 29a1 12bd a410 483e
00000170: 09a8 cd3c 1b65 3dbe 8a8e d6bc ad67 a3be
00000180: 8f4b 4c3e 475b be3d 91f7 0cbe 0b8b 88bd
00000190: 37ba 1cbe a77c 4e3b 3e6a bf3d 99ea 85be
000001a0: cd4a 3cbe 6168 c33e d0c4 c8bc c3c3 e33b
000001b0: 2690 34be 738f d33c 2a13 6e3d 9eec e7bd
000001c0: d1f5 f33d 2e23 0c3e 96d8 b8bd 6be5 753d
000001d0: 02fc 33be 7fd9 cc3c bbc7 86be ff30 46bd
000001e0: 9521 0a3e 5c81 1dbc 2295 e1bd d537 aabe
000001f0: 7f78 103e dc9f 073d 7b74 5cbe 7891 003e
00000200: 7f13 19be b4fc 993d 47db 483e 32e2 933d
00000210: 27d2 103e b1e8 a93d f4ba 6bbc 7bff c13d
00000220: 9ce9 f43a f9ec 41bd 84a1 3ebe 7205 f1bd
00000230: d5d5 39be 9b71 88bd acca 1e3a 1e8e 963e
00000240: 194a 4b3e 6450 fcbd 5b08 a63e 91eb 38bb
00000250: 58bc a93c af13 27be 30f9 3c3d 8cf8 e03e
00000260: 4db9 b3be a3a9 aabc 1fdf 7ebc 28f8 0d3e
00000270: b1b6 a6bc 175a 2fbe 3fbc ac3d e7b4 623c
00000280: ac3f 5abd 61bf b7bd cea0 003f ae14 13be
00000290: 2aec 54be 0288 cabd 3702 c8bd 222a 96bd
000002a0: 39d9 84bd ab92 9dbd 315d 7ebb af5a b2bd
000002b0: 4f4e 513e ce6a 11be 07da 253b f2f0 1dbd
000002c0: 6a03 c93a 5e94 63bd 8639 e7bc a15f af3d
000002d0: 2074 9fbe d4b5 18be 21a2 11be ffc5 4b3d
000002e0: 5764 d93d 9ef6 92bd 2938 373d 25ea d6bd
000002f0: fbca afbc ffd2 a6be 7a22 64be 5071 ec3c
00000300: 55d3 9b3a c6f7 03bd 2fdb fabb 453c 503e
00000310: 1de0 25be ce7f 25be 4c7b 2bbe b582 603e
00000320: bd49 a13c 6c26 923d cf0b 113d 3b04 1b3e
00000330: 1b08 693d 2188 583d d303 8cbd ef3a 583c
00000340: 81d6 04bd 1d5e dc3d 7bcf d83d b4fc 793d
00000350: 10b7 c33d e86c 323e eb3e 64be 35fc 0f3c
00000360: ce19 f2bd 1618 cebd 7bd2 42bd 5162 363e
00000370: f9e6 f4bb edf0 bbbc 6f20 e2bd c6b9 a9be
00000380: 33d7 453e febd 243e d38c c5bd 1b10 0cbc
00000390: 9242 21bd fa10 0a3e 6953 07bc 93bd 89bd
000003a0: 4fe7 32bd b131 493e c1bc a0bd 38cb 263e
000003b0: b120 7e3d c2b0 1a3d 81fe 6e3c bf99 dabd
000003c0: 38cb 113d 223d 3b3d f1f2 2f3d 74ee e63d
000003d0: d5cb 353e 9d0c 40bb 7c3a 66bd 6489 00be
000003e0: a3c7 d5bd 8dda fabc 0784 963e 1337 053e
000003f0: 0a00 cabf ffe7 193e 309f f83b 9c8d 8bbc
-0.24044363 0.050140932 0.34237897 0.16153435 -0.18516652 0.10380633 -0.11151254 0.022277486
-0.050218366 0.13320367 -0.118535966 0.40907854 0.09198744 -0.34625491 0.0071357936 -0.15056345
0.06590377 0.13331479 -0.15764017 -0.36265028 -0.23896997 0.096894555 0.08833644 0.08902944
-0.0456573 0.14587978 -0.17424835 0.51757944 0.2500075 0.024419636 -0.13513087 -0.03516072
0.037003078 0.037687894 -0.19542909 0.029179826 0.16491862 -0.053376563 -0.07789765 0.26023284
0.17664713 0.07999994 -0.19152193 -0.252756 -0.0753198 0.047495913 -0.027239721 -0.15650503
0.17943394 -0.010031281 0.16296597 -0.22147296 0.06816312 -0.03896341 0.073265135 0.07923811
0.20333272 -0.17227398 0.076833636 -0.39302117 -0.21478093 -0.076674774 -0.10367545 -0.013042836
-0.015581162 -0.35935625 0.020225914 -0.019232353 -0.046856664 -0.061519504 -0.14037105 0.13221341
0.033452164 -0.17449306 -0.021855403 0.2716288 0.017818222 0.17761095 -0.17156537 -0.038239468
-0.13318484 0.104019396 -0.036192663 -0.11160187 0.04354964 0.028224612 0.033650517 0.12710433
-0.17668575 -0.101543635 -0.035798226 0.19537598 0.02510454 -0.184956 -0.026191015 -0.31915036
0.19950698 0.092947535 -0.13766314 -0.06667145 -0.1530541 0.0031507404 0.09346436 -0.26155546
-0.18387909 0.38165572 -0.02450791 0.006950827 -0.17633113 0.025825238 0.058123745 -0.11324428
0.1191212 0.13685295 -0.090256855 0.060033243 -0.17576602 0.025006054 -0.26324257 -0.04838657
0.13489373 -0.009613361 -0.11014773 -0.3324572 0.14108466 0.03311144 -0.21528809 0.12555492
-0.14948843 0.075189024 0.19614898 0.07220878 0.14142667 0.082963355 -0.014387835 0.09472557
0.0018685344 -0.047345135 -0.18616301 -0.11768617 -0.18147977 -0.066622935 0.0006057422 0.29405302
0.19852485 -0.12320021 0.3242825 -0.002821658 0.020719692 -0.16316102 0.04613608 0.43939626
-0.3510231 -0.020832842 -0.015556126 0.13864195 -0.020350786 -0.1712421 0.084343426 0.013837076
-0.05328338 -0.089720495 0.5024537 -0.14363357 -0.20793214 -0.09889223 -0.097660474 -0.07332255
-0.064867444 -0.0769399 -0.003881287 -0.08708703 0.20440029 -0.14200899 0.0025306956 -0.03855986
0.00153361 -0.055561416 -0.028225671 0.08563162 -0.31143284 -0.14913112 -0.14222004 0.04974937
0.106148414 -0.07175945 0.044731293 -0.10493878 -0.021459093 -0.32582852 -0.22278777 0.028862625
0.0011888543 -0.032218717 -0.0076555233 0.20335491 -0.16198774 -0.16162035 -0.16746253 0.21924861
0.019688481 0.07136235 0.035411652 0.15138333 0.056892496 0.052864198 -0.06836667 0.013197645
-0.03243113 0.10760138 0.10586449 0.061032012 0.09556401 0.17424357 -0.22289626 0.008788158
-0.11821328 -0.10063188 -0.04756401 0.17810942 -0.007473823 -0.02294203 -0.110413425 -0.33149546
0.19320373 0.16088101 -0.09646001 -0.008548762 -0.039370127 0.13483039 -0.008259633 -0.067256115
-0.043677624 0.19647862 -0.07848502 0.1628846 0.062042896 0.037766226 0.014587046 -0.10673856
0.035594195 0.045712598 0.042956296 0.1127595 0.17753537 -0.0029304393 -0.05620812 -0.1255241
-0.10438468 -0.030621791 0.29397604 0.1300929 -1.5781262 0.15029906 0.007587336 -0.017035298

gru.bias_ih_l0 f4 [384]
00000000: 5e74 9d3d 1f3d 16be a410 7bbd 3431 f93c
00000010: d039 78bd 9125 4cbe 2023 97bd 9f9f 7f3c
00000020: 34c9 a3bd bdd2 6dbd 017c 663b ef23 0bbd
00000030: 56a9 0cbe 39d1 843d 1e4a e5bd 1847 0e3e
00000040: 1858 da3c 2350 f4bd d7ab 353d c29b 0f3e
00000050: 8cd8 183a cc60 a43c 193a 4c3d 331f 23be
00000060: 8181 c0bd 10d8 24be a650 31bd 85d4 82be
00000070: 194b 253d ced9 cdbd f2b8 0ebe 40cc 9ebd
00000080: da96 0abe b246 f2bd 0609 7bbc baba 01bd
00000090: 8521 98bd 207d 013d 07ab df3d 29e0 59bd
000000a0: ec2c 13be e9b3 fcbd 13ae fd3a b8e2 31be
000000b0: c5e8 6a3e d73b d7bc 077e fabc 5f27 1bbe
000000c0: 0636 67be e04a 06be 48ec 08be 5022 14bd
000000d0: 3619 11bc 1fd3 debd bf7c 53be 9fc6 96bc
000000e0: a69d 86bd e67a d6bd d11d d0bd 25d9 20be
000000f0: 8ab2 613e 7984 94bd 8c98 eebd d9f1 91bd
00000100: 1c3c 943a 8bf9 adbd 2db4 f6bd 9574 af3d
00000110: af9d ac3d a13b 10bd e3de f1bd 3b8a 103c
00000120: c475 d1bd 6b6b 4a3d 3162 e73d 4bde 3fbd
00000130: 1c6d 14be a9cc a6bd 0f7d 27be e97d f53c
00000140: 1d21 21be 0956 903d 8033 a7bc 21c1 383e
00000150: 7a72 22be f152 dbbd 0b7c 5fbe 39bf 163d
00000160: 90e9 01bd d321 d1bc 0d5a d43d 0b11 773d
00000170: d183 3ebe 5797 81bd d156 80be 128b 653d
00000180: 906a eb3b 6568 18be 6724 0fbd d36e 42bd
00000190: c906 adbd d50e 64bd 0efc 843d 2dc6 f7bd
000001a0: ffbd babc 9216 42bd 10a4 9ebe 9974 403c
000001b0: 42e6 e2bc 17b1 8ebc 9e46 77bd 3697 a1bd
000001c0: 45a5 993d 078c 70be 45ee 743d 1e96 1bbd
000001d0: 16f9 a13a 8a94 e9bd 5240 0ebd 1b16 5bbe
000001e0: de45 2abe 66e5 f6bb cb98 353d fb6e ae3c
000001f0: 8623 4c3e 01ed 0cbd 627c 7e3d d739 8fbd
00000200: b7dc 8abc b2cc e6be 1f4b 5b3d 73a1 a0be
00000210: dc11 59be 6672 7abf 1958 10bf e683 1fbf
00000220: 89d7 c4be 3364 c1be 37d1 05bf 33a1 58bf
00000230: a792 29bf 20aa 92be d682 3fbf c8f4 33bd
00000240: 3939 9a3e 210e f5be 5160 c9be f188 69bd
00000250: bd23 a3be a037 733e 629d b3be f59b 8abe
00000260: b000 33be adc4 c7be 72a0 4cbf 1297 73be
00000270: 9e4f e8be 37b8 14be 6ab1 0dbf 1431 8abe
00000280: 839a ccbe 7e95 0bbf 5cf6 bebe cd32 debe
00000290: d8b8 81be 78a2 bfbe 2cba 01bf ebf7 d9bd
000002a0: 111d 42bf 30ac fcbe 1de3 4ebe 1eaa 85be
000002b0: 777d ef3d c544 85be ffe0 17bf a26b cbbe
000002c0: 81b2 05bf a892 7ebe f4e4 723d f533 dfbe
000002d0: 8ca1 80be 035a c7be 1904 cfbd e3c2 06bf
000002e0: b554 fdbe 06db 7abc 09d3 7ebe c2a7 d7be
000002f0: 1aaf 84be 5393 1bbe 9034 9dbe cc21 cebe
00000300: 68a9 f1be f44c 43bd 226e dbbe f272 61be
00000310: 687e d1be 88f2 2abf 39ba 49bf 8efc 52be
00000320: 2a3c f7be 82b4 e5be 754e a4be 93da d2be
00000330: b83b 96be c12d ccbe 8570 64bf fb5e 64bf
00000340: fef6 3ebf 0a74 3cbe d975 19bf b956 26be
00000350: 7e93 a1be ad79 4dbf a504 25bf 3ef4 9fbd
00000360: a22f 9ebe daaf 0bbf 28fa efbe a301 31bd
00000370: 761e 0ebf 9220 24bf 81fc 6ebf 5840 b7bb
00000380: f33e 0dbf 2f07 9ebe 6f2f a1be 47ac 3dbe
00000390: 5134 aabd c738 d0bd 9467 e8be d1a8 0bbf
000003a0: b7b7 33be 1888 7bbe c770 37bf 9841 2fbf
000003b0: 095b 933d 7209 04bf 4d69 acbe 2ee0 a6be
000003c0: b0a0 7fbe f514 53be 2468 c8be 169d 58bf
000003d0: 0838 39bf 235f c0be ba1e 2bbd 378f c4be
000003e0: d536 37bf f19a 8cbe 4d06 9cbe b65a 98be
000003f0: b58c a93e 6401 ebbe 8acd 00be 5f20 03bf
0.07688211 -0.14671753 -0.061295167 0.03041897 -0.06060201 -0.19936205 -0.073797464 0.0156020215
-0.07997361 -0.058062304 0.0035169127 -0.033969816 -0.13736472 0.064852186 -0.11195777 0.13894308
0.026653334 -0.11929347 0.044353332 0.1402426 0.0005830608 0.020065688 0.049860094 -0.1592987
-0.09399701 -0.16098046 -0.043289803 -0.25552765 0.04035482 -0.100513086 -0.13937739 -0.07753801
-0.13534108 -0.1182989 -0.015321976 -0.031672217 -0.07428268 0.03161347 0.10921293 -0.05319229
-0.14372605 -0.12339003 0.0019354246 -0.17371643 0.22940357 -0.026273651 -0.030577673 -0.15151738
-0.22579202 -0.131145 -0.13371384 -0.036165535 -0.008856108 -0.10880112 -0.20653056 -0.018405257
-0.06573038 -0.1047266 -0.10161937 -0.15707834 0.22040763 -0.0725183 -0.1165019 -0.07126207
0.0011309418 -0.08494862 -0.120460846 0.08567158 0.08428513 -0.035213117 -0.118100904 0.008822019
-0.1022754 0.049418848 0.112980254 -0.046842854 -0.14494747 -0.081445046 -0.163563 0.029967265
-0.15735288 0.0704766 -0.0204103 0.18042423 -0.15863982 -0.10709179 -0.21824662 0.036803458
-0.031716883 -0.025528824 0.10368738 0.060318988 -0.18604971 -0.06327694 -0.25066236 0.05604083
0.007184334 -0.14883573 -0.034946825 -0.04746897 -0.0844856 -0.055678207 0.06493388 -0.12098346
-0.022795675 -0.047384806 -0.30984545 0.011746549 -0.027697686 -0.017418427 -0.06037008 -0.07890169
0.07502226 -0.23490916 0.059797544 -0.03798496 0.0012357559 -0.11405285 -0.03472931 -0.21395151
-0.16628215 -0.0075346706 0.044335168 0.021293154 0.19935426 -0.034405712 0.06213034 -0.06993454
-0.016950948 -0.45078045 0.053538438 -0.31373176 -0.21198219 -0.9783081 -0.56384426 -0.62310636
-0.3844569 -0.37771758 -0.5227236 -0.8462097 -0.662394 -0.2864542 -0.74809015 -0.043934613
0.30121782 -0.47862342 -0.39331296 -0.057015363 -0.31863204 0.23751688 -0.3508101 -0.2707211
-0.17480731 -0.3901724 -0.7993232 -0.23788098 -0.45373243 -0.14523397 -0.5534884 -0.2699057
-0.39961633 -0.5452498 -0.37297332 -0.43398133 -0.25336337 -0.3742864 -0.506747 -0.1064299
-0.758256 -0.4935012 -0.20203824 -0.26106352 0.116938524 -0.2602903 -0.5932769 -0.39730555
-0.522255 -0.24860632 0.059300378 -0.43594328 -0.2512325 -0.3893586 -0.101082034 -0.52641124
-0.4947869 -0.015311008 -0.24885191 -0.42120177 -0.25914842 -0.15192918 -0.30704165 -0.4026016
-0.4719956 -0.04768081 -0.42857462 -0.22016504 -0.40916753 -0.66776323 -0.7879978 -0.20604154
-0.4828809 -0.4486428 -0.32091108 -0.41182384 -0.29342437 -0.39878657 -0.8923419 -0.8920743
-0.7459563 -0.1840364 -0.59945446 -0.1624402 -0.3155784 -0.8026379 -0.6446021 -0.078102574
-0.30895716 -0.54565203 -0.46870542 -0.04321445 -0.5551523 -0.641122 -0.9335404 -0.005592387
-0.5517418 -0.30864856 -0.314815 -0.1852275 -0.0831076 -0.101670794 -0.45391524 -0.5455447
-0.1755055 -0.24563634 -0.7165646 -0.68459463 0.07195098 -0.5157691 -0.33674088 -0.3259291
-0.24963641 -0.20613463 -0.39141953 -0.84614694 -0.7235112 -0.37572584 -0.04177735 -0.38390514
-0.7156804 -0.2746196 -0.30473557 -0.29756707 0.33115163 -0.45899498 -0.12578407 -0.5122127

gru.bias_hh_l0 f4 [384]
00000000: 2d1c a53a d7f9 0abe ae93 e33c 83b4 3abd
00000010: 34f3 04be ef72 88bd adc5 60bd 2e21 cdbd
00000020: b3cb 94bb 7423 e0bd 1278 033e 8d94 7e3c
00000030: 6aca 85bd cc5e af3b ffd0 5dbe 00a1 943d
00000040: 41fb d03d d790 f4bd 63b7 ed3b 884e 0e3e
00000050: d7fc 11bc aac6 023d e390 633d 7e54 24be
00000060: 6586 86bc 5ce9 9ebd 6ab3 1bbe fa36 14be
00000070: af47 883d 12e1 bebd 2aae 0ebe 99d2 1ebe
00000080: 8683 cfbd e923 fcbd 0bba aabd db16 aa3c
00000090: 7eb3 a5bd a096 a03d c3aa f73d c0fb 0ebd
000000a0: c1e6 48be e210 f0bd 2dd2 153d eef3 91bd
000000b0: 5c6d 823e 6ede 20bd f678 cebc aea3 2dbe
000000c0: c095 6bbe 1922 a5bd 49aa f3bc 5f53 5bbd
000000d0: dcf9 633d e266 5bbe a900 9dbd 9137 f0bd
000000e0: 9f27 abbd eaa6 68be 895d adbd a047 c8bd
000000f0: 5511 223e 13fa aabd a8b8 11be cc7a 21be
00000100: c675 76bd 2eae 02be 4f5e f5bd f455 9dbc
00000110: 2f90 853d 6731 d0bd cc68 18be 46ab 9bbd
00000120: 9a3d e6bc a065 eabb 4452 333e 316e 33be
00000130: d450 13be 2f26 1cbe a1f3 37be bae7 493b
00000140: 868f 4dbe fa71 9ebd d842 5f3d 9911 fc3d
00000150: 230e abbd 4040 62be 395e 52be 327e 433e
00000160: f07c 8bbc de49 a5bc 7182 ef3c 7b8d eb3d
00000170: 4c77 3cbe 300c 433d 91ab e8bd 9550 a6bd
00000180: de72 52ba ecd3 a4bd ab88 76bd 1df9 e1bc
00000190: ba60 84bd f520 43be f432 553b ccbd 3fbd
000001a0: ddb8 ee3c b1ae 3ebc e7d3 28be 1d66 e83c
000001b0: 4d2d 813d dbda 903d b0c6 aabd c7bc a9bc
000001c0: 374e 9bbc e1bf 4fbe 9c82 3b3d 48a2 f83c
000001d0: 1641 30bd 1f2c c2bd 03bb 90bc 1254 14be
000001e0: 3d88 cdbc 9eef f53c 7e6b 573d 24e4 3cbd
000001f0: a53a ec3d 7641 003c cf46 2d3d acf7 5abe
00000200: 8cee abbd a871 dfbe bff1 85bd 0810 6bbe
00000210: 7224 67be 50bc 64bf 6cbb 07bf 2b4a 16bf
00000220: d93a 7cbe 6082 84be 78bd c6be 3f3f 50bf
00000230: ab7a 4abf 1585 9dbe 65ce 2dbf c6c8 4cbd
00000240: fee6 313e 4e80 f1be 6689 b6be 9aee 3b3d
00000250: 4d61 99be ca63 4a3e 61ce b8be aa96 1dbe
00000260: 8bbe 2dbe 121a a7be 485e 43bf 2395 a9bd
00000270: 0e60 cbbe 268b 38be 10a9 0fbf 157b 50be
00000280: 0d2b d2be 927b f2be 98a4 edbe 24f4 b9be
00000290: 70af 9fbe c007 aebe 18b7 aebe 4e91 0dbe
000002a0: 6dfd 60bf 9a76 bcbe a218 62be fe0c f0bd
000002b0: a86c 493d 0c7e 73be 05f0 1abf 7025 07bf
000002c0: 9913 04bf fe9f 8fbe 59a2 ca3d 75a9 eebe
000002d0: 02eb 67be af69 bbbe 0276 80bc 77e4 b9be
000002e0: 6582 21bf 0f48 92bc 03bb aebe 6463 d5be
000002f0: f92b 88be d859 f4bd 32aa 9dbe 734c d2be
00000300: a0eb d4be 3986 45bd 8a88 07bf 6541 74be
00000310: a2ed b9be 8b47 28bf bf86 27bf 2141 8dbe
00000320: 56c9 0cbf f0c7 c5be addf 53be 1d45 b3be
00000330: 4ffd d2be e6e1 c2be ea1c 65bf c203 6bbf
00000340: 9b40 43bf 7547 81be 0015 e3be 8887 d5bd
00000350: a8e9 bebe 90bb 46bf 2bdc 2cbf fbb1 5fbe
00000360: 4e86 2fbe f905 f5be d152 d6be 52e2 90bd
00000370: a92f 0abf d08b 4abf 2141 75bf aa96 203c
00000380: 27c8 d3be 6fad 98be 7098 66be 3c2c c8bd
00000390: e542 a5bd 5646 c4bd c5b1 e7be 9f50 12bf
000003a0: ebf2 12be c454 a2be d26b 27bf 4718 32bf
000003b0: dbe1 a83d be20 c1be 6c96 aebe f218 9cbe
000003c0: 1d1d 56be 737b 20be 1b12 dfbe 3d78 38bf
000003d0: 4a52 4abf 4034 cebe f688 ddbd bb16 f0be
000003e0: 6732 3cbf 2fde 8cbe 0119 8fbe 2a7c 2ebe
000003f0: 5304 c43e 3df3 fdbe 046b 2abe deba 15bf
0.0012596898 -0.13571869 0.02778038 -0.045582306 -0.129834 -0.06662547 -0.05487602 -0.10016094
-0.0045408844 -0.10944262 0.12838772 0.015538347 -0.06532748 0.005351877 -0.21661757 0.07257271
0.10204173 -0.119416885 0.0072545274 0.13897145 -0.008910379 0.031927742 0.055558097 -0.16047856
-0.016421506 -0.077593535 -0.1520516 -0.14474097 0.066542976 -0.093202725 -0.13933626 -0.15510024
-0.10132508 -0.12311537 -0.08336266 0.020762851 -0.08090876 0.078412294 0.12093117 -0.034908056
-0.19619276 -0.1172197 0.036577392 -0.07126604 0.2547406 -0.039274625 -0.025204163 -0.1695697
-0.23006344 -0.08063144 -0.029744284 -0.053546306 0.055658206 -0.21425965 -0.076661415 -0.117293485
-0.083571665 -0.22719923 -0.08465106 -0.097792864 0.15826924 -0.08348479 -0.14230597 -0.157695
-0.06017091 -0.12761757 -0.119808786 -0.019206025 0.065216415 -0.10165673 -0.14883727 -0.07601027
-0.028105546 -0.007153228 0.1751185 -0.17522503 -0.14386302 -0.15248941 -0.17964031 0.0030808286
-0.20074281 -0.07736583 0.054507107 0.12308044 -0.08352306 -0.22094822 -0.20543756 0.19091108
-0.017027348 -0.020176824 0.029237004 0.11501595 -0.18404883 0.047619045 -0.11360849 -0.081208386
-0.0008027981 -0.080482334 -0.06018893 -0.027584607 -0.06463762 -0.19055541 0.003253159 -0.046811864
0.029140884 -0.011638329 -0.16487084 0.028369004 0.063074686 0.07072993 -0.08338678 -0.020719899
-0.018958194 -0.2028804 0.045778856 0.03035082 -0.04303082 -0.09481072 -0.0176673 -0.14485195
-0.025089378 0.030021485 0.052592747 -0.04611601 0.11534623 0.007828107 0.042303856 -0.21383542
-0.083951086 -0.436414 -0.0654025 -0.22955334 -0.22572497 -0.8934984 -0.5302036 -0.5870692
-0.24631824 -0.25880718 -0.38816428 -0.81346506 -0.79093426 -0.30765596 -0.6789306 -0.04999616
0.17373273 -0.471682 -0.35651702 0.045881845 -0.29957047 0.19764629 -0.36094955 -0.15389505
-0.16967218 -0.32637078 -0.76315737 -0.08280399 -0.3972172 -0.18021831 -0.56117344 -0.20359452
-0.4104847 -0.47359902 -0.46414638 -0.36319077 -0.31188536 -0.33990288 -0.34124064 -0.1382496
-0.878867 -0.36809236 -0.22079709 -0.11721228 0.04917589 -0.23778552 -0.6052249 -0.527915
-0.51592404 -0.28051752 0.098942466 -0.4661366 -0.22648242 -0.36604068 -0.01568127 -0.36307117
-0.6308959 -0.017856626 -0.34127054 -0.41677392 -0.26596048 -0.11931199 -0.3079391 -0.4107395
-0.41586018 -0.048223708 -0.5294272 -0.23853071 -0.36314112 -0.65734166 -0.6543998 -0.27588752
-0.54994714 -0.38629103 -0.20690794 -0.35013667 -0.41208884 -0.38062972 -0.89497244 -0.9180261
-0.76270455 -0.2524983 -0.4435196 -0.10426241 -0.3728764 -0.7762995 -0.6752345 -0.21845238
-0.17141077 -0.4785612 -0.4186006 -0.07074417 -0.53978974 -0.79119587 -0.95802504 0.009801546
-0.41363642 -0.2981982 -0.22519088 -0.09774062 -0.080694 -0.09583728 -0.45252815 -0.5715427
-0.14350478 -0.31705296 -0.65398896 -0.69568294 0.082462035 -0.37720293 -0.34099138 -0.30487782
-0.20909543 -0.15672092 -0.435685 -0.7205847 -0.79031813 -0.4027424 -0.10817139 -0.46892342
-0.7351441 -0.27513263 -0.27948764 -0.17039552 0.3828455 -0.4959964 -0.16642386 -0.5848826

gru.weight_ih_l1 f4 [384, 128]
00000000: 5749 7abd 81c6 00be 1f25 16be 1589 913c
00000010: 2b8d 57be ce9c ee3d 1c1c 99be 72e9 e33d
00000020: 233c 323e c15e b8be ec56 63be 568c 313e
00000030: 26ff 6b3e 70f9 c1bc c577 33be aac5 b33c
00000040: ed79 083e 5300 633d 363e a73e 03b2 0bbd
00000050: dcfd 763c b6d1 dbbd 8728 aabc 851b c1bc
00000060: 90f0 673e a46c 1d3c dcff aa3e 16e3 833d
00000070: 2371 903e b770 21bd 6c46 82be 3511 2d3d
00000080: 378f ae3d 1874 ac3e d471 47be 41b5 3bbe
00000090: a158 48be 6608 963e fe3f 8abe ad97 163e
000000a0: cf4a f73e 9123 a2bd ac5b eabd 0dbf c63d
000000b0: 257f d0bd cabe 983d e90b 63be 90df a83e
000000c0: 1260 943e 2306 6e3e a579 673e e4b1 bfbe
000000d0: 9cf4 f83c bfbc c7bc 0ff9 0b3e 7e81 5cbe
000000e0: d287 b03e 0d6b 93bd 5bb2 893e fa2e 64be
000000f0: 539e 78bd fae6 9a3d e3d3 41be 07f1 f03d
00000100: e8c6 81be f21e 6fbe 3300 5a3e 5cbc 293d
00000110: 9373 c5be 690c 47be e294 27be fae4 e0bd
00000120: d1b4 973b fc14 56be 46e9 603d c1ce 943e
00000130: b5e0 d8be 1a60 953e 7a11 68be 647a 0c3f
00000140: ef09 343e f81d 733e bb80 45be 2b9d 5b3c
00000150: 5e1c 263e be73 cdbe b41b 273e e0a3 8e3e
00000160: 017f 2cbe 21bc c43b b7b7 01be 732f 92bd
00000170: 0568 e6bd fc6d adbe 7dd6 193e 12b5 0f3e
00000180: 1948 c03e 949b 693c fc7b 49be 6c15 ae3e
00000190: 7a51 09be cd7d c6be 8b18 cc3e 18b3 8c3d
000001a0: 9450 e33c e64b 5d3e ad2c 3bbe 8d4d a4bd
000001b0: 69d3 c0bd 81a9 cf3d 8f27 94be dec0 ab3d
000001c0: 241d cf3d 2a9b 493e 72ae 23bd e0e7 743e
000001d0: 8f7d 8dbe 8f16 183e 7f71 893e 01ee 82be
000001e0: 93f6 0dbd debd fcbd e255 33be a7b6 dcbd
000001f0: abf7 0cbe 3b2c 8dbd c1d7 8bbe 52af 443d
00000200: 7a29 d6bd 7fe0 30be 1dac 1bbe 893f 63bd
00000210: f5c5 9a3e 31d8 e03d cf4f 8cbe 7433 263e
00000220: 8c63 493e a34b f63d 7fe3 953d dee5 863e
00000230: c4d0 f23d b084 f6be 194d 9fbe eab3 053c
00000240: 266a 093e 7eea 95be 3ce4 89be 94fe 12be
00000250: e5ff 9f3c 91c2 d13c af5e 653d 9812 15be
00000260: 0c94 02be 967f a33e 9bae b73c c88c 59be
00000270: 33a6 68be 88cb 6cbc 37aa 8dbe f050 eb3c
00000280: c693 b9be 1606 06be 6f20 0abe 870a 243d
00000290: 3daa 883c b3a4 8c3c 52aa a1bd 76b7 55be
000002a0: f704 303d 842d bcbd 3fe3 7f3e b265 463e
000002b0: d3cc 7d3e 61c7 6ebe c825 903e b9d8 20be
000002c0: 83c9 d9be 50a8 0ebe 5ca5 cf3d 6994 39be
000002d0: e458 19be 068a 6e3e aa37 3c3e a71a 15bd
000002e0: ece1 093f 3d23 dabd e2b1 3b3d 704a 19be
000002f0: d097 44bc 73b4 e5bd 90c9 27bd babe c7bc
00000300: 8930 863c eb7f bcbd 2562 bcbd b692 833e
00000310: d33c 41bc 8e0d 6c3e 4320 00bd 5f33 4ebe
00000320: 54c1 d33d d9e4 a83e e352 05be 014b 2fbe
00000330: 1bdf 77bd 252c 8bbe ca97 de3e 5757 68be
00000340: 63f5 a4be 8fc4 1abe 52b0 1ebe f332 753d
00000350: a1cf ea3d f19e 703e d3f8 03be 92e9 f2bd
00000360: ce9a 29bd a6a0 2abe 5417 2f3e 4ee5 0fbd
00000370: 8620 9a3e 703e bbbe 5e49 4bbe a599 0d3e
00000380: 54e1 89bd 474a cdbd 0596 9abe dda1 243e
00000390: c6cf b2be a4bf 5cbe d998 183e dea0 88be
000003a0: cd15 58be 66ad 483d dcf8 c5bd fa64 fc3d
000003b0: 5814 b5bd 064b 313e 02f3 d43d 0e2e 5d3e
000003c0: 3e24 14be 711e 0bbe 7f62 853d f3cd fa3e
000003d0: 8360 233e 0baa 86bd c9a3 e5bd 87db 263d
000003e0: 8be9 4ebe dcd9 b0bc a92f 31be 1253 34be
000003f0: 36d6 1fbd 1833 273e 6487 3a3c 9d7f 93be
-0.0611051 -0.12575723 -0.14662598 0.017765561 -0.21049945 0.11651002 -0.29904258 0.111285105
0.17405753 -0.36009791 -0.22201127 0.1733869 0.2304655 -0.023678511 -0.17526157 0.02194484
0.13327761 0.05542023 0.3266465 -0.034105312 0.015075173 -0.107333586 -0.020771278 -0.023572693
0.22650361 0.0096084215 0.3339833 0.064397976 0.28211316 -0.039414134 -0.25444353 0.042252738
0.0852341 0.33682323 -0.19477016 -0.18330862 -0.19565059 0.29303282 -0.27001947 0.14706297
0.48299262 -0.0791694 -0.11443266 0.09704409 -0.10180501 0.07458265 -0.22172512 0.32983065
0.28979546 0.23244528 0.22604997 -0.37440407 0.030390076 -0.024381993 0.13669227 -0.21533772
0.34478623 -0.07198153 0.26893887 -0.22283545 -0.060697865 0.075635865 -0.18928485 0.11764722
-0.25347066 -0.23351648 0.21289138 0.0414394 -0.3856474 -0.19438328 -0.16365388 -0.10981174
0.0046297093 -0.20906442 0.054909967 0.2906399 -0.42358938 0.29174882 -0.22662917 0.54874253
0.17581914 0.23741901 -0.19287388 0.013404171 0.16221759 -0.40127367 0.16319162 0.27859402
-0.16845323 0.006003872 -0.12667738 -0.071379565 -0.11250309 -0.33872974 0.15023227 0.14033917
0.37555006 0.014258284 -0.19676203 0.3400072 -0.13409987 -0.38767853 0.39862475 0.06870097
0.027748384 0.21610984 -0.18278761 -0.08022604 -0.09415323 0.10139752 -0.2893643 0.08386396
0.1011298 0.19688097 -0.039961286 0.23916578 -0.27634856 0.14852355 0.26844403 -0.25572208
-0.03465898 -0.12340902 -0.1751323 -0.10777026 -0.13766353 -0.06893202 -0.27313045 0.04801876
-0.1045713 -0.17273138 -0.15202375 -0.055480514 0.30229154 0.10978735 -0.2740464 0.16230565
0.1966688 0.12026145 0.07318782 0.2634725 0.11856225 -0.48148108 -0.31113508 0.008160571
0.13419399 -0.29280466 -0.26931942 -0.14354926 0.0195312 0.025605472 0.0559985 -0.14557874
-0.12751788 0.31933278 0.022422126 -0.2124511 -0.2271965 -0.0144528225 -0.27668926 0.028725117
-0.36245555 -0.13088259 -0.13488935 0.040049102 0.016682738 0.017168378 -0.07893814 -0.20870766
0.042973485 -0.09188369 0.24989031 0.19374731 0.24785165 -0.23318245 0.28153825 -0.15707673
-0.42536554 -0.13931394 0.10138962 -0.1812302 -0.14975315 0.2329484 0.18380609 -0.03640237
0.53860354 -0.106512524 0.04582394 -0.14969802 -0.011999086 -0.112160586 -0.04096371 -0.024382938
0.016380565 -0.09204086 -0.09198407 0.2569787 -0.011794287 0.23052046 -0.031280767 -0.20136784
0.10339609 0.32987097 -0.130199 -0.17118455 -0.060515504 -0.27182117 0.4347518 -0.22689568
-0.32218465 -0.15114044 -0.15496948 0.059863042 0.11465383 0.23498131 -0.12887888 -0.11860956
-0.0414074 -0.16662845 0.17098743 -0.03513079 0.30102938 -0.36571074 -0.19852206 0.13828142
-0.06732431 -0.10023933 -0.3019258 0.16077371 -0.34924144 -0.2155748 0.14902057 -0.26685232
-0.21102066 0.04899349 -0.09666607 0.12323947 -0.08841771 0.17313775 0.103979126 0.215996
-0.1446695 -0.13585831 0.06512927 0.48985252 0.15954785 -0.06575402 -0.1121288 0.0407367
-0.20206277 -0.021588258 -0.17303337 -0.17609814 -0.039022647 0.16328084 0.011384819 -0.288083

gru.weight_hh_l1 f4 [384, 128]
00000000: 9609 9fbe 406d 04be 0717 5e3c f58c 1abe
00000010: 5b6e 343d 31ac c8bd 1620 823b cff1 5bbd
00000020: ff5a 7abd bd30 673e 23c9 14bd 3bb4 87bc
00000030: b3cf 6f3c ced1 5fbd c2cc cebd 7018 143e
00000040: 51a1 e7bc dd2c d73c 9227 113e 5f52 8fbc
00000050: 72e4 e0bd fb36 db3c b640 443e f849 6cbe
00000060: 4fb3 d8bd 5ae4 0e3d 1d83 4d3c 2a28 a4bd
00000070: 068b 5d3d 602c 4bbd f282 07be 6055 8bbb
00000080: bdd9 423e 575c d43d f990 eb3d 8987 453e
00000090: 8ddc 47bc 8270 e93d 2715 86bc 49ab 24bc
000000a0: c6aa 96be fcd2 303c b6d9 22be 86b4 b0bc
000000b0: 90eb c9bd c6b4 473e 5875 81be 26e1 503c
000000c0: dc83 49be 95e3 0a3f 0e9a 493e bfe3 bfbd
000000d0: d9e0 c7bd 1d5c d7bd 28e3 30bd f723 463e
000000e0: a1b2 bc3d c2f4 433c 7356 063e 7a83 e3bd
000000f0: cfea 42be a83b 3a3e 395f 353e 4a13 f83a
00000100: 65ea 93bc 2ca7 2ebe ae9e 193e 1b28 25be
00000110: 3df5 85be 945c 393d ab05 55be 3b7f 12be
00000120: 2964 c9bd bbda 733c 6e1d e83d 520c 97be
00000130: cb8a 5a3d 916f 1abd eef7 5cbd d1bd 4cbd
00000140: 2781 bd3d 1166 9d3d 3ce0 ce3d f29c b6bd
00000150: 4108 f6bd 52bb d7bd bc27 623d 1b3e 553b
00000160: 2b16 25bc 75f0 b6bd d578 38be f6a1 043e
00000170: 710d 5abe ae1a 513d 7044 c6bd 75f7 093e
00000180: c565 0cbd 4e82 0e3e f507 ceba e6f4 29be
00000190: 4c77 1abe f9af 2d3e 3aea c3bd ec53 a63e
000001a0: bd72 1cbd e8ef 723d 29a6 3c3c 4c93 12bc
000001b0: 1ca5 193c 0404 53be 3ca6 7cbb ba3b c33b
000001c0: b789 84bd 01b1 813d 3011 b33c dfd6 383d
000001d0: 5e3f 5d3d b219 043e d5a8 4ebe d3f4 0bbe
000001e0: e46f 70bd a9a5 27bd 02e6 cebc 5958 43be
000001f0: 0f94 27be a59d fd3c 6678 7ebd 1746 1c3e
00000200: 23cb 37bd 0ad7 0f3e 6f1f 83be ed1f 85bd
00000210: de78 bebc dcb1 9bbe c2e0 be3e 03f0 1d3e
00000220: c259 8abe 7967 133e f279 df3d edce 653e
00000230: ed86 04be 05b0 493d 0848 3e3d f646 fa3d
00000240: bd41 0f3e 4ec6 58bb fbd7 44bd b4d8 15bd
00000250: d741 e3bd b0a4 ea3d cd18 453e f450 55bd
00000260: ef73 50bc 96b4 6fbc 82b1 6cbd 9119 8ebd
00000270: 4411 25be 29d0 e4bc fed2 d3bb d051 e53d
00000280: cbb2 c23c be01 5c3e 589d 97bc 5503 95bd
00000290: 831e 3b3d 7097 a43d c5ef c3bb 1866 b23d
000002a0: aee2 d9bc dfc0 18be 5477 fe3c 6963 293e
000002b0: efcf 82bd 888d a3bd 6823 e83d 12af 073d
000002c0: 5121 e6bd 05f7 e5be e67b 8bbe 52b0 243e
000002d0: f45d eabb 4934 933d e39e 4abe a7da 9a3e
000002e0: 6f85 9a3b 5edc 113d 1d9c 7bbe 82d1 1dbb
000002f0: 8853 6ebd 345d 57bf 2cb0 24be 67ce 8cbd
00000300: 26ab d03c 5dde 47bd a880 27be dbe9 3fbe
00000310: c699 c2bc 7f55 973c da9a 353e 467a cfbc
00000320: 879c e3bd 3cac e43d f691 d23d c0e1 733d
00000330: 672b 87bd df92 8cbe b394 2abe a556 cbbd
00000340: e76d 2abe 3f5e 9bbd 3acc 62be a205 a3be
00000350: bd4e 8f3d 230c 24bc 9631 0c3e 6a44 bfbd
00000360: 6926 293c 228d 93bd 6e39 903d aa5a 11bd
00000370: e438 01bd c8e2 3ebc cb57 193e c0b8 1e3e
00000380: 4091 b13d 83ee 913d d519 303c cb90 78bd
00000390: 8d74 aebd 2ccf 0ebe 151f 3c3d e8eb 98bd
000003a0: 7804 573d 1520 cabc 3093 4e3d 5191 ba3d
000003b0: ef7d 8abd a3f2 e4bd c84c 0dbd 891b f8bd
000003c0: 98d1 01be 38cd 0fbe f442 8dbe 3254 a73d
000003d0: 5ab5 bbbd 05c6 45be 5c5f d3bd 3f5d ed3d
000003e0: 1e4a 393e 043c 18bd 642e d73d 236a 733e
000003f0: 2513 313e 7f5b 8f3d 781d e73d 8bc6 8c3e
-0.31062 -0.129323 0.013555295 -0.15092833 0.044050556 -0.09798468 0.00397111 -0.053697404
-0.061121937 0.22577186 -0.03632463 -0.016565433 0.014636922 -0.054643445 -0.10097648 0.14462447
-0.028275164 0.02626651 0.14175251 -0.017495332 -0.109810725 0.026759615 0.1916531 -0.23075092
-0.105810754 0.03488574 0.012543467 -0.08015473 0.05408766 -0.049602866 -0.13233545 -0.004252121
0.19028373 0.10369175 0.11502261 0.19289984 -0.0121985795 0.11398412 -0.016367508 -0.010050603
-0.29427165 0.01079249 -0.15903363 -0.021570455 -0.09859383 0.19502553 -0.2528484 0.012748992
-0.19679207 0.5425351 0.19687673 -0.09369611 -0.09759683 -0.10515616 -0.043185383 0.19349657
0.09213758 0.01196021 0.13118915 -0.111090615 -0.19034885 0.1818682 0.17712106 0.0018926647
-0.018056104 -0.17055959 0.15001938 -0.1612858 -0.26163664 0.045254305 -0.20802943 -0.14306347
-0.09833557 0.014883692 0.11333738 -0.29501587 0.05335502 -0.037704054 -0.05394738 -0.04998571
0.092531495 0.07685483 0.10101363 -0.08916654 -0.12013293 -0.105337754 0.055213675 0.0032538238
-0.010076086 -0.08932582 -0.18014844 0.12952408 -0.2129419 0.051050834 -0.09681022 0.13473304
-0.034276742 0.13916895 -0.0015718924 -0.16597328 -0.1508457 0.1696166 -0.095661595 0.32485902
-0.03819536 0.059310824 0.011514225 -0.008946251 0.009377744 -0.20607 -0.0038551232 0.0059580477
-0.064715795 0.06332589 0.021858782 0.045126792 0.05401551 0.12900427 -0.20181592 -0.13667612
-0.058700457 -0.04092947 -0.02525616 -0.1907667 -0.16365074 0.03095896 -0.06212654 0.15261112
-0.04487146 0.14046875 -0.2560992 -0.0650023 -0.023250993 -0.30409133 0.37280852 0.15423588
-0.27021605 0.1439494 0.10911931 0.22442217 -0.12942095 0.04924013 0.046455413 0.12220566
0.13989921 -0.0033077183 -0.048057538 -0.036583617 -0.11096542 0.11457193 0.19247742 -0.052079156
-0.012722953 -0.014630457 -0.057786472 -0.0693847 -0.16119868 -0.02793129 -0.006464361 0.11197245
0.023766896 0.2148504 -0.018507645 -0.07276026 0.045683395 0.08036697 -0.0059795105 0.08710879
-0.026597347 -0.14917324 0.03106276 0.16541828 -0.063873164 -0.07985979 0.11334878 0.033125944
-0.11236823 -0.44915023 -0.27242965 0.16082886 -0.0071523134 0.07187707 -0.19787173 0.30244943
0.0047156136 0.03561055 -0.24571271 -0.0024081175 -0.05818513 -0.8412659 -0.16082829 -0.068753056
0.025472235 -0.048796047 -0.16357672 -0.18741553 -0.023754966 0.018473385 0.17734852 -0.02532686
-0.111138396 0.111656636 0.10281746 0.059541464 -0.06600075 -0.27455804 -0.16658287 -0.099286355
-0.16643487 -0.075863354 -0.22148219 -0.31840235 0.0699744 -0.010012659 0.1369079 -0.09339221
0.010324099 -0.07204653 0.07042204 -0.035486855 -0.031548396 -0.011650749 0.14974897 0.15500164
0.08670282 0.071255706 0.010748346 -0.06068496 -0.08518324 -0.13946217 0.04592808 -0.074668705
0.052494496 -0.024673501 0.050433338 0.09109748 -0.06762301 -0.11179092 -0.034497052 -0.12114627
-0.1267761 -0.14043128 -0.27590144 0.08170356 -0.091654494 -0.1931382 -0.10320923 0.11590051
0.1809468 -0.03716661 0.10506895 0.23770957 0.1729246 0.06999873 0.112849176 0.27495226

gru.bias_ih_l1 f4 [384]
00000000: 6ae7 603c 5476 b83d 985b fe3d 5caf 883d
00000010: 7aea 103d a775 08be 85b9 843d 162c a2bd
00000020: d115 6e3d 248d a83c a386 cb3d ab1b 0abd
00000030: 4ca2 cd3c 33d8 033e 3472 4ebd 2d1a b73d
00000040: 9159 aebc 3840 883d 81a0 f6bd c79d c43d
00000050: 4809 843c 4382 d73d f998 1f3e f7f1 12bc
00000060: 135b 913d 81d2 063e daf4 1e3d 18e7 303e
00000070: ae09 a4bd 9274 8bbd 2254 45bd 266b 363e
00000080: 6d69 d33d 0735 1dbe 4399 f63d f8ec 06be
00000090: 433a c9bd 9731 8d3d 146f 45bd 081a 713b
000000a0: fe1a 133e 04ba f2bc 5e42 873d 3d89 753d
000000b0: f390 10bd d42c 043e feb5 b83d b056 a6bd
000000c0: 4b47 ec3d 57a2 3f3d 7a0b 203d de34 6e3d
000000d0: 2cff e53d 510d e93d 6563 063e f0b7 fe3d
000000e0: 70cf 613b af89 21be 1588 73bd 7835 0a3e
000000f0: 809a 1b3d 159a 933d 4c06 71bd c33b 2cbd
00000100: f05b f43d cb6a c23d 2bb1 06be d7a9 55bd
00000110: 0f0f 853d 5a38 6d3b 87fd 103d 6a02 013e
00000120: 0a22 103d 64df 29bd 5efb 593d 9c77 733d
00000130: 6e1b 013e 962f 8ebd 60b8 773d 0ff0 d0bc
00000140: db18 82bd b166 db3d fa92 903c 2e54 be3c
00000150: 3ad6 583d 2715 b0bd 4e19 c6bc 1f37 ab3a
00000160: 4291 1e3e 20d4 183b 794b c83c 4551 553e
00000170: 7439 f83a 3efc 8c3d 4af3 173e 22e2 ab3d
00000180: 2462 0bbd 09bb 2cbb b9bf a53d a086 b63d
00000190: ad4c 95bd 8537 cdbb 827d c7bd ee1d 3bbc
000001a0: 93a0 1dba 23b8 5e3d 7726 653c b02f 32bc
000001b0: d25c f63d 7d29 a73d 0f7b 593d 3bda 4f3d
000001c0: 02f6 313d 60b3 24bd 6bd5 adbd ae44 2d3e
000001d0: bee7 bb3d bbb4 62bd d320 8dbc a7a4 03bc
000001e0: 1f4e d03b f79d 0a3e e4c1 b23d 6385 ab3d
000001f0: b316 263d 3123 8f3c 0ce9 303c cd06 fc3d
00000200: 9676 dbbe ab73 b2be 3fb5 86be 6c90 2cbe
00000210: b225 0dbf b763 afbe f565 b9be ec7d aabe
00000220: ff16 d4be 0f7b 52be 88b4 9abe 625b d3be
00000230: 891d cbbe fabf 47be edcf d9be 9a88 3ebe
00000240: a27f cebe 3ddd 9bbe e2f3 90be 34cf cebe
00000250: 4a49 afbe 3fa3 a2bd 470b 93be a608 4fbe
00000260: 5dda 8ebe f0ce bcbe fee7 f2be 2e2e 83be
00000270: 8be5 c5be 9a7c febe 7d6c 0cbf 39ac 21be
00000280: cba2 823c 27c6 8ebe 1af5 f5be f5f0 52be
00000290: 2313 f2be eb3e 81be bb48 bcbe 1bd1 f0be
000002a0: 16c4 aebe d7b2 9cbe 6893 d1be 7b69 a5be
000002b0: 7938 13bf 45e8 afbe f080 91be 5fe4 d8bc
000002c0: 9f07 cebe 63de 453e 7fe2 5abd d56f bfbe
000002d0: 06ee 41be 1dd7 cbbe 6421 acbe 09c1 7bbe
000002e0: a7a3 9ebe b911 0bbf e37a 95be c670 61be
000002f0: 5232 98be 9ed2 0fbd 6bd4 b4be c034 d6be
00000300: e6b5 d7be 3fd5 9dbe 38ee c2bd 9825 94be
00000310: 526d abbe 3940 98be 9f72 b5be 633d bbbe
00000320: 9f62 abbe e6cc 10bf d184 4ebe 80a8 efbd
00000330: 07e0 02bf b5ae b9be 9225 1bbf d264 0cbf
00000340: 0d5c 24bf 01a4 b5be 2054 bebe 558c cfbe
00000350: 5172 acbe 9b98 1ebf 4b01 99be 5800 06bf
00000360: a5d4 60be 838a 9ebe a362 7ebe 6d9b 96be
00000370: 6ba6 3abe b2d9 3cbe 6017 78be d23b 41be
00000380: 8594 ecbd ac75 9bbe a209 82be 0f24 04bf
00000390: c009 3ebe d08b 33be b869 28bf 5018 3bbe
000003a0: fdb1 42be ba10 22be 89ca d5bd bffc c4be
000003b0: 4ecb 97be b592 edbe 443f 90be 985a 78be
000003c0: 5930 bfbe 1164 adbe 2109 d1be 7351 c4be
000003d0: d598 83be 0c56 b2be 0efb eabe cdab 1fbd
000003e0: b1aa babe 0e98 05be 3ae9 d2be 5a43 cabd
000003f0: 126d acbe 68b0 5abe 66a1 7bbe 4695 7ebe
0.013727048 0.09006944 0.12419814 0.06674072 0.035379864 -0.13326131 0.064806975 -0.07918565
0.058126274 0.020575114 0.09937789 -0.033717792 0.025101803 0.12875442 -0.05040188 0.089405395
-0.021282943 0.06652874 -0.120423324 0.09600406 0.016117707 0.10522892 0.15585698 -0.008968822
0.07097449 0.13166238 0.038807727 0.17275655 -0.08009659 -0.068093434 -0.04817594 0.17814311
0.10322843 -0.1535226 0.12040951 -0.13176334 -0.09825566 0.06894224 -0.048201635 0.0036789197
0.14365765 -0.029629715 0.066044554 0.059945334 -0.035294484 0.12907726 0.09019087 -0.08122003
0.115370356 0.04678568 0.039073445 0.058155887 0.11230311 0.11379493 0.13123854 0.12437427
0.0034455918 -0.15775178 -0.05945595 0.13496959 0.03798914 0.07207123 -0.058843896 -0.04204918
0.11931598 0.094930254 -0.13153522 -0.052163925 0.06497013 0.0036196918 0.035398033 0.12598577
0.035188712 -0.041472808 0.053218238 0.05944024 0.1260812 -0.0694267 0.060478568 -0.025505094
-0.06352397 0.10712946 0.017648209 0.0232335 0.052938677 -0.085977845 -0.024181988 0.0013062692
0.15485099 0.0023319796 0.02445005 0.20831783 0.0018938021 0.06884049 0.14838901 0.08392741
-0.03402914 -0.0026356599 0.08093209 0.089123964 -0.07290015 -0.006262722 -0.097407356 -0.01142071
-0.0006013002 0.054374825 0.0139862215 -0.010875627 0.12029423 0.0816221 0.053095873 0.05074523
0.043447502 -0.040210128 -0.08487972 0.1692073 0.09175061 -0.05534814 -0.017227566 -0.008034862
0.006356969 0.13536821 0.08728388 0.08375051 0.04054899 0.017472835 0.01079775 0.12305985
-0.4286391 -0.34853873 -0.26310155 -0.16851968 -0.55135643 -0.34255764 -0.362106 -0.33299196
-0.41423795 -0.20554756 -0.3021586 -0.41280657 -0.3967097 -0.19506827 -0.42541447 -0.18606797
-0.4033175 -0.3044223 -0.28311068 -0.40392458 -0.34235603 -0.07941293 -0.2871954 -0.20218143
-0.27900973 -0.3687663 -0.4744262 -0.2562117 -0.3865169 -0.49704438 -0.5485304 -0.15788354
0.015946766 -0.27885553 -0.4803856 -0.2059973 -0.47280225 -0.25243315 -0.3677424 -0.47034535
-0.34133977 -0.30605194 -0.40932775 -0.32307038 -0.57508045 -0.34356895 -0.28418684 -0.026476083
-0.4024019 0.19323115 -0.05343866 -0.3739001 -0.18938455 -0.39812556 -0.33619225 -0.24585356
-0.30984232 -0.5432392 -0.29195318 -0.22015676 -0.2972589 -0.03511297 -0.35318312 -0.4183712
-0.42130965 -0.30826756 -0.09518093 -0.28934932 -0.33481842 -0.29736498 -0.3543901 -0.36570272
-0.3347368 -0.5656265 -0.20167853 -0.11702061 -0.5112309 -0.36266103 -0.606042 -0.5484134
-0.6420296 -0.35476688 -0.37173557 -0.40536752 -0.33680966 -0.6195161 -0.298838 -0.52344275
-0.21956117 -0.3096505 -0.24842314 -0.29415455 -0.18227546 -0.18442419 -0.24227667 -0.18870476
-0.11551765 -0.30363214 -0.25397974 -0.5161752 -0.18558407 -0.17533803 -0.65786314 -0.18270993
-0.1901321 -0.15826693 -0.10439021 -0.3847408 -0.29647297 -0.4640099 -0.28173268 -0.24253309
-0.37341574 -0.33865407 -0.40827277 -0.3834339 -0.2570254 -0.34831274 -0.45894665 -0.0389822
-0.36458352 -0.13046286 -0.41193563 -0.098761275 -0.33676964 -0.21356356 -0.24573287 -0.24861631
