models/seq2seq.model (torch, 765571 bytes, 12 tensors)

encoder.embedding.weight f4 [128, 32]
0	0x3f41f9c8	0.7577176
1	0xc0242160	-2.564537
2	0xba21fc1a	-0.00061792287
3	0xbec4ce84	-0.3843881
4	0x3f26a944	0.6510203
5	0xbefc6f43	-0.49303636
6	0xbf84975b	-1.035869
7	0x3f9b8a42	1.2151568
8	0xbfa478ac	-1.2849326
9	0x3fe0d92c	1.7566276
10	0x3f02a1e9	0.51028305
11	0x3fb6d73a	1.4284432
12	0xbda49d5b	-0.08037826
13	0x3bc3c00f	0.005973823
14	0xbf2672d1	-0.65018946
15	0x3ee7d5ea	0.4528039
16	0x3f8c7ccf	1.0975589
17	0xbf8f9d7d	-1.1219937
18	0x3d7fd246	0.06245639
19	0x3f13dbdc	0.57757354
20	0x3e9c26ed	0.30498448
21	0x3fc545a2	1.5411875
22	0xbdd99a92	-0.10625185
23	0x3f8a5d4b	1.0809721
24	0xbf96efae	-1.1791894
25	0x3dfdd307	0.12393766
26	0x3fce8327	1.6133775
27	0xc01f0a7b	-2.4850147
28	0xc0322736	-2.7836432
29	0x3ea3800e	0.31933635
30	0x3f4c66a0	0.79844093
31	0xbed70f30	-0.42003775
32	0x3fca0045	1.5781332
33	0xbf2b4e50	-0.6691637
34	0xbf7845f4	-0.9698174
35	0xbf8fe141	-1.1240617
36	0xbc95a6f5	-0.018268088
37	0x3fd3087a	1.6486962
38	0x3eb4e8dd	0.3533391
39	0xbf8d39f7	-1.1033314
40	0x3fc620db	1.5478777
41	0xbef0626a	-0.46950084
42	0xc0302856	-2.752462
43	0xbf0bdb98	-0.5463195
44	0x3fb24f2e	1.3930414
45	0x3f05ddb2	0.52291405
46	0x3e9e58d3	0.30927143
47	0x3f9c21e1	1.2197839
48	0xbeca5967	-0.39521334
49	0x3f432bcf	0.7623872
50	0x3c9b9ede	0.018996652
51	0xbf3b8b28	-0.7325921
52	0xbf4db256	-0.80350244
53	0xbf089801	-0.5335694
54	0xbf355125	-0.7082694
55	0xbf044c3f	-0.5167884
56	0x3e77b39d	0.24189611
57	0xbfc92222	-1.5713542
58	0x3eb11560	0.3458662
59	0x3db53e41	0.088497646
60	0xbf37e1f7	-0.7182917
61	0x3f5f53c7	0.8723721
62	0x3f8f3920	1.1189308
63	0xbe7b4b00	-0.24540329
64	0xbf1fb999	-0.62392575
65	0xbdd64beb	-0.10463699
66	0x3ee91aab	0.4552816
67	0x3fdff969	1.7497989
68	0x3f8557b6	1.0417392
69	0x3f99db4e	1.2020051
70	0xbf9b0a80	-1.2112579
71	0x3ef927f6	0.486633
72	0x3fae1ad6	1.360194
73	0x3f949a98	1.1609678
74	0x3e1295c2	0.1431494
75	0x3f38781f	0.7205829
76	0xbf258795	-0.64660007
77	0xbf8bb177	-1.0913533
78	0x3e326d0b	0.17424409
79	0x3f8c2be0	1.095089
80	0x3e9ef250	0.31044245
81	0x3fcc8304	1.5977483
82	0xbf00dcd2	-0.50336945
83	0xbf0500e1	-0.51954466
84	0x3ff5ce8a	1.9203656
85	0x3e09e81f	0.13467453
86	0x3f19b7d0	0.600461
87	0x3e9ad39f	0.3023958
88	0xbf36a03c	-0.7133825
89	0x3ea64ed3	0.32482013
90	0x3d279456	0.04091295
91	0xbd59e08f	-0.05319267
92	0x3feb4a98	1.8382139
93	0xbfe4ae6c	-1.7865729
94	0xbf0b7453	-0.5447437
95	0x3f24d029	0.6438013
96	0x3e229a2b	0.15879123
97	0x3e685171	0.22687317
98	0xbf2cff61	-0.6757718
99	0x3fb441cb	1.4082578
100	0xbfbdfa35	-1.4841982
101	0xbe76bc23	-0.24095206
102	0x3c70475b	0.01466545
103	0x3fa4cef1	1.2875654
104	0x3fcaa1fa	1.5830681
105	0xbf8ec422	-1.1153605
106	0x3f464c26	0.77459943
107	0xbd3d0dc2	-0.0461557
108	0xbd530092	-0.051514216
109	0xbded7947	-0.115953974
110	0xbf24f5f2	-0.6443778
111	0x3ea51683	0.32243738
112	0x3f35a3bc	0.70952964
113	0x3f8db988	1.1072245
114	0x3e29c318	0.16578329
115	0xbed31363	-0.41225728
116	0x3fad50bd	1.3540264
117	0x3ec83d57	0.391093
118	0xbfb7f740	-1.437233
119	0xbf91a0a0	-1.1377144
120	0xbf816428	-1.010869
121	0x3f200f03	0.62522906
122	0xbedeb216	-0.43495244
123	0xbe9fc8ec	-0.3120798
124	0xbf91d4da	-1.1393082
125	0xbdac5ec7	-0.08416515
126	0x3f1e5f96	0.618646
127	0xbd0bfca7	-0.034176495
128	0x3ec87eb9	0.39159182
129	0xbf112161	-0.5669156
130	0x3fd1156b	1.6334661
131	0x3ecf465f	0.40483376
132	0xbfbb758e	-1.464525
133	0xbf41a523	-0.75642604
134	0x3fc72c9a	1.5560486
135	0x3f14c496	0.58112466
136	0x3eb126c3	0.34599885
137	0x3fb149ce	1.3850648
138	0xc00d641d	-2.2092354
139	0xbed0173d	-0.4064273
140	0xbfadb618	-1.3571196
141	0xbf1e085c	-0.61731505
142	0x3f38e662	0.72226536
143	0xbf66231d	-0.8989733
144	0xbf69ed35	-0.91377574
145	0xbebbafc2	-0.3665753
146	0xbf146fda	-0.5798317
147	0x3f0c1e29	0.5473352
148	0x3e769538	0.2408036
149	0x3e0d210f	0.13782142
150	0xbfbf9a90	-1.4969044
151	0x3db388d0	0.08766329
152	0xbe8709b7	-0.263746
153	0xbd8aa4d6	-0.06769721
154	0x3f5a22c7	0.85209316
155	0x3ed4aa28	0.4153607
156	0x3f6d6811	0.9273692
157	0x3ddcf4e8	0.107889
158	0x3fbd1afe	1.4773862
159	0xbe38426f	-0.17994092
160	0xbf2a5671	-0.6653815
161	0x3e8ee010	0.2790532
162	0xbd01caad	-0.031687427
163	0xbffef55b	-1.9918627
164	0x3f7e1e80	0.9926529
165	0xbfd52be9	-1.6654025
166	0x3fa4710b	1.2846998
167	0xbf437a82	-0.7635881
168	0xbf25e2da	-0.64799273
169	0x40073d98	2.1131344
170	0x3f953bf1	1.1658918
171	0xbf37f108	-0.7185216
172	0x3ef8f032	0.48620754
173	0xbcede442	-0.029039506
174	0xbf54a597	-0.8306517
175	0x3f189636	0.59604204
176	0xbf1138f2	-0.56727517
177	0xbf92baa6	-1.146321
178	0xbefea7e5	-0.49737468
179	0x3f874c57	1.0570172
180	0xbf2fb0df	-0.6862926
181	0xbf61bdce	-0.88180244
182	0xbf92d63b	-1.1471628
183	0x3e9b8017	0.30371162
184	0x3dcd2652	0.10017075
185	0x3f9f4f35	1.2446047
186	0xbd337776	-0.0438151
187	0x3ebe6dc8	0.3719313
188	0x3f215665	0.6302245
189	0xbf10b350	-0.5652361
190	0xbe652d02	-0.2238045
191	0xbf1ca891	-0.6119471
192	0x3f4f05d8	0.8086829
193	0x3f8f5323	1.1197246
194	0xbd83662a	-0.064159706
195	0x3f4903a5	0.78521186
196	0xbe6e1a1f	-0.23252152
197	0xbfb3864e	-1.4025362
198	0xbe269864	-0.1626907
199	0xbdde549a	-0.1085598
200	0xbfc037bd	-1.501701
201	0x3fe56fc6	1.7924736
202	0x3f0e70cd	0.5564087
203	0xc0026fb3	-2.0380676
204	0xbd113622	-0.035452016
205	0x3f818773	1.0119461
206	0xbea72a2c	-0.32649362
207	0xbd293c23	-0.041317116
208	0xbe787988	-0.2426511
209	0x3f4a456c	0.7901218
210	0x3ea85859	0.32879904
211	0x3f0af850	0.54285145
212	0xbf35eb9e	-0.7106265
213	0x3ec5c7c4	0.38628972
214	0x3ebc9698	0.36833644
215	0x3e668ecb	0.22515409
216	0x3f677fdc	0.9042947
217	0x3f92882d	1.1447808
218	0x3f5e20b3	0.86768645
219	0x3ed7c2c6	0.42140788
220	0xbf463e06	-0.7743839
221	0x3f424e2d	0.75900537
222	0x3f693e5d	0.91110784
223	0x3f16c4b2	0.58893883
224	0x3f21e052	0.6323291
225	0xbfa0748d	-1.2535568
226	0x3f1aeec3	0.6052057
227	0x3eb09bb3	0.3449379
228	0xbf1bb2c3	-0.60819644
229	0x3f687659	0.90805584
230	0x400e57b7	2.2241037
231	0xbf8551c8	-1.0415583
232	0x3f3460a8	0.70459986
233	0xbfde5238	-1.7368841
234	0xbed77ca6	-0.42087287
235	0xbfaffbef	-1.3748759
236	0x3b066aff	0.0020510552
237	0xbf53385a	-0.8250786
238	0x3c860e63	0.016364282
239	0xbf85e81c	-1.0461459
240	0xbe883a4a	-0.2660697
241	0xbfb7b882	-1.4353182
242	0x3ef17a90	0.4716382
243	0x3ecaab3c	0.39583766
244	0xbf4b3098	-0.79371023
245	0x3fd5275d	1.6652638
246	0xbe8e25b4	-0.2776314
247	0x3f6786c2	0.9044
248	0x3f672924	0.9029715
249	0xbfd131f6	-1.6343372
250	0xbfcfdc70	-1.6239147
251	0xbf369308	-0.713181
252	0x3e84593e	0.25849336
253	0x402dd401	2.7160647
254	0xbe90736b	-0.28213057
255	0xbd481481	-0.04884768

encoder.lstm.weight_ih_l0 f4 [512, 32]
0	0xbcf81961	-0.03028554
1	0x3d8ed9f9	0.06975169
2	0xbe2d867d	-0.16945834
3	0xbcf124f3	-0.029436564
4	0xba92e2aa	-0.0011206467
5	0x3dcb9a48	0.09941536
6	0xbd64207c	-0.055695042
7	0x3d357f5d	0.044310916
8	0x3eb9c0b8	0.36279845
9	0xbe414c88	-0.1887685
10	0xbe1df2a9	-0.15424599
11	0xbd1b5ef2	-0.037932344
12	0x3c73b87f	0.01487553
13	0x3b03aedd	0.002009324
14	0x3dae4004	0.08508304
15	0xbd7fc934	-0.06244774
16	0xbe3ee8db	-0.18643515
17	0x3dbe6844	0.09297231
18	0xbc99ec49	-0.018789427
19	0x3dc6fec4	0.097165614
20	0x3d6356bd	0.055502642
21	0xbe381678	-0.17977321
22	0xbd8d269e	-0.06892131
23	0x3e1e684d	0.15469475
24	0xbca2b2df	-0.019860683
25	0xbe481d4c	-0.19542426
26	0xbe9532ee	-0.2914042
27	0x3e5321a6	0.20618305
28	0x3e70a22a	0.2349936
29	0xbda4b2d2	-0.0804192
30	0xbd49e0c4	-0.04928662
31	0xbcb7ebc9	-0.022451298
32	0xbe0e0489	-0.13868918
33	0x3e363734	0.17794496
34	0xbe5a5b7d	-0.21323963
35	0x3e2ffd96	0.17186579
36	0xba71beda	-0.00092218595
37	0x3b5269a6	0.0032106428
38	0x3e58480d	0.21121235
39	0xbd15d68a	-0.036581554
40	0xbdfb6265	-0.12274627
41	0x3cf67fee	0.030090299
42	0xbd134882	-0.03595782
43	0xbe488baa	-0.19584528
44	0xbdf49617	-0.1194269
45	0xbb8d37a6	-0.0043096123
46	0x3d8c2ec1	0.06844855
47	0xbba1670a	-0.0049256133
48	0x3d387533	0.045033645
49	0x3d94051c	0.07227537
50	0xbca36960	-0.019947708
51	0x3d067887	0.032829788
52	0xbc166866	-0.009180164
53	0xbe84a361	-0.25905898
54	0xbe2d1ece	-0.16906282
55	0xbc94a1cf	-0.018143563
56	0x3d7b67f2	0.061378427
57	0xbd6422a2	-0.05569709
58	0x3d84bcd5	0.06481329
59	0x3def51cc	0.116855234
60	0x3da8265c	0.082104415
61	0xbd338e2e	-0.043836765
62	0xbe2fbc3f	-0.17161654
63	0x3df81cde	0.12114881
64	0x3c5bffad	0.013427657
65	0xbe18e700	-0.1493187
66	0xbd5d8ace	-0.054087453
67	0xbd086e91	-0.03330857
68	0x3e361e0c	0.177849
69	0xbda19e20	-0.07891488
70	0x3d1ed29a	0.038775064
71	0x3dc3eeb3	0.09567013
72	0xbe2d8684	-0.16945845
73	0x3e14681b	0.14492838
74	0x3e4e6528	0.20155776
75	0x3e247666	0.1606079
76	0xbddc6f70	-0.107634425
77	0xbda50add	-0.08058713
78	0xbe131384	-0.14362913
79	0xbc9ccf58	-0.019141838
80	0x3e2091f4	0.15680677
81	0xbe09aa39	-0.13443841
82	0xbd63f17b	-0.055650216
83	0x3dd41d06	0.10357098
84	0x3e6557ba	0.22396746
85	0x3e1f211c	0.15539974
86	0xbd1ce968	-0.03830853
87	0xbd19a223	-0.03750814
88	0xbd84782a	-0.06468232
89	0xbac90a27	-0.0015338109
90	0x3e49d8f8	0.19711673
91	0xbd1b9fca	-0.037994184
92	0xbe157dbd	-0.14598747
93	0xbd4ba6d9	-0.049719665
94	0x3d714c07	0.058910396
95	0xbcc8c041	-0.024505736
96	0x3dbd11a0	0.09231877
97	0xbcc75295	-0.02433137
98	0xbda174c1	-0.07883597
99	0x3e01b8ac	0.12668103
100	0x3c0051ed	0.007832033
101	0x3d2a45fd	0.041570652
102	0xbd856e88	-0.06515223
103	0x3d868462	0.06568219
104	0xbd763fb9	-0.060119364
105	0x3cfd3986	0.030911218
106	0xbcdcbc7f	-0.02694535
107	0xbc17ac47	-0.009257383
108	0x3bc5771c	0.006026162
109	0x3e416791	0.18887164
110	0xbca4c486	-0.02011324
111	0x3d9aafd1	0.075530656
112	0xbcdf80d8	-0.027283117
113	0xbcf814d1	-0.030283364
114	0x3db2ff2a	0.08740075
115	0xbbb0e27b	-0.0053980923
116	0x3d65c828	0.056099087
117	0x3e23046a	0.15919653
118	0xbc25c879	-0.010118597
119	0xbc0f4405	-0.008744244
120	0xbe0afbb8	-0.13572586
121	0x3de02579	0.10944647
122	0x3e17b495	0.1481498
123	0xbd9cc72e	-0.07655178
124	0xbd3d35e6	-0.04619398
125	0x3da1a046	0.07891898
126	0xbe016a01	-0.12638094
127	0xbcfc55bb	-0.030802598
128	0x3e5b0ac2	0.21390823
129	0x3da2954a	0.07938631
130	0x3e909068	0.28235173
131	0xbd91a124	-0.07110813
132	0x3d7d34fc	0.061818108
133	0x3e49201f	0.1964116
134	0x3c87d02b	0.016578754
135	0xbdb0c387	-0.08631044
136	0x3d6fcdde	0.05854594
137	0x3e4959a3	0.196631
138	0x3d0b02a6	0.033938073
139	0x3d8c851e	0.068613276
140	0x3c27a76a	0.010232786
141	0xbea0fa7c	-0.31441104
142	0xbdbb6ccc	-0.09151611
143	0x3d9cd6ce	0.07658158
144	0x3d919cd9	0.071099944
145	0x3c4070e2	0.011745663
146	0xbeaddcd6	-0.33957547
147	0xbca62499	-0.020281123
148	0x3deb7aec	0.11498055
149	0x3e2bb785	0.16769226
150	0xbef86ae6	-0.48519057
151	0x3e2283a3	0.15870528
152	0x3d063da0	0.032773614
153	0x3ea1eabf	0.3162441
154	0x3dab7cda	0.08373423
155	0xbcc21a7b	-0.023694267
156	0x3da663b4	0.081244856
157	0x3dfa4cb7	0.122216634
158	0xbd41a99c	-0.047280893
159	0x3cf15e8d	0.02946403
160	0xbe166805	-0.14688118
161	0x3e2703eb	0.16310088
162	0x3e0acba4	0.13554245
163	0xbc0b791b	-0.0085127605
164	0xbc004f4c	-0.007831406
165	0x3e64f45f	0.22358845
166	0x3dabb162	0.083834425
167	0xbd33d00d	-0.043899585
168	0xbe1bb618	-0.15206182
169	0x3d104de5	0.035230536
170	0xbd10801e	-0.035278432
171	0xbcd08bb7	-0.025457246
172	0x3dbab963	0.09117391
173	0xbdabadb0	-0.08382738
174	0xbb6e2cab	-0.0036342542
175	0xbd1b95c4	-0.037984625
176	0x3a04b052	0.0005061674
177	0x3d9d972b	0.076948486
178	0xbd0ccee8	-0.03437701
179	0xbc8189be	-0.01581275
180	0xbe571c76	-0.2100695
181	0xbe14cc3e	-0.14531037
182	0x3e2c479d	0.16824193
183	0xbe290c5d	-0.16508622
184	0x3d934982	0.07191755
185	0xbddb1664	-0.1069763
186	0xbd17a906	-0.037026428
187	0x3de72083	0.11285498
188	0x3e24c1f8	0.16089618
189	0xbca865db	-0.020556381
190	0x3de088ae	0.109635696
191	0x3d494ba4	0.049144402
192	0x3df370de	0.11886762
193	0xbd83f51a	-0.06443234
194	0x3da811be	0.08206509
195	0x3d8e7154	0.069552094
196	0x3d09a307	0.03360274
197	0x3e858fd7	0.26086304
198	0x3e1923a4	0.14955002
199	0xbc349677	-0.011022202
200	0x3d875e8f	0.066098325
201	0xbd2399de	-0.03994166
202	0xbdf2bd29	-0.11852486
203	0xbe16661e	-0.14687392
204	0x3e6515ad	0.2237155
205	0xbf14ee4e	-0.58176124
206	0xbe051d09	-0.12999357
207	0xbe4ad69d	-0.19808431
208	0x3c9894ee	0.018625703
209	0x3d2af61b	0.04173861
210	0xbe088766	-0.133329
211	0xbe305ad9	-0.17222156
212	0x3e166bc7	0.14689551
213	0x3e15f255	0.14643224
214	0xbd622c8c	-0.055218264
215	0xbd415407	-0.047199275
216	0xbd3a2eb2	-0.04545469
217	0x3e0c0037	0.13671957
218	0xbc920787	-0.017825855
219	0xbd9228f9	-0.07136721
220	0x3ec1158f	0.3771176
221	0x3e40f5c7	0.18843757
222	0x3ce0a693	0.027423179
223	0x3dd86a06	0.10567097
224	0xbe384e3b	-0.17998593
225	0x3dd87f73	0.10571184
226	0xbe5d594b	-0.21616094
227	0x3db49e27	0.08819228
228	0x3d6cc0ed	0.057801176
229	0x3c2e7b41	0.010649503
230	0x3cba6b45	0.022756228
231	0xbcbe006d	-0.023193562
232	0x3d39051e	0.045170896
233	0x3d4cf235	0.050035674
234	0x3e37f3c2	0.1796408
235	0x3d715e17	0.05892762
236	0xbe2b9d5c	-0.16759247
237	0x3c51bb3f	0.012800991
238	0x3d557bb6	0.052119933
239	0x3d9b7184	0.07590011
240	0x3d502a7b	0.050821763
241	0xbe8ff983	-0.2812005
242	0xbbe7df67	-0.007076192
243	0x3e125b55	0.14292653
244	0xbe14d9b2	-0.14536169
245	0x3e584a2e	0.21122047
246	0x3d61ae41	0.055097822
247	0x3e11c827	0.14236508
248	0xbe246dd9	-0.16057529
249	0xbe1d5520	-0.15364504
250	0x3dc6d83c	0.09709212
251	0x3dbaaf32	0.09115447
252	0xbe01c5c1	-0.12673093
253	0x3d97f304	0.074193984
254	0xbc0b1b82	-0.008490445
255	0xbe549ae1	-0.20762207

encoder.lstm.weight_hh_l0 f4 [512, 128]
0	0x3d62db66	0.055385016
1	0x3ded174b	0.115767084
2	0xbe6fe8bd	-0.23428626
3	0xbcc93a75	-0.024564007
4	0x3c69f4c6	0.01427955
5	0x3d0c353b	0.034230452
6	0xbdaaa9fa	-0.08333202
7	0x3dcc1101	0.09964181
8	0xbcb6d644	-0.022318967
9	0x3cf4ad78	0.029867873
10	0x3dafc130	0.085817695
11	0x3bc28c4c	0.005937135
12	0xbd3d8e60	-0.046278358
13	0xbe4483c6	-0.19190893
14	0xbe0693dd	-0.13142343
15	0xbd5d550d	-0.05403619
16	0x3dd81cd4	0.105523735
17	0xbdce6037	-0.10076945
18	0x3c6ec025	0.014572178
19	0x3d8eaa49	0.06966073
20	0x3b7bba5e	0.0038410644
21	0xbdde32d0	-0.108495355
22	0xbe53f8e6	-0.20700416
23	0x3eb745b6	0.35795373
24	0x3d069245	0.032854337
25	0x3e29753c	0.16548628
26	0xbd0193a1	-0.03163493
27	0xbc318d48	-0.010836907
28	0xbdc8257f	-0.09772777
29	0xbdedaa9b	-0.11604806
30	0x3ddf3c8e	0.10900222
31	0xbda1d98c	-0.07902822
32	0x3d25d5fa	0.040487267
33	0x3e088fa9	0.13336052
34	0x3d758d04	0.059948936
35	0xbccb7f32	-0.024840925
36	0xbdee05a1	-0.116221674
37	0xbd19e89b	-0.037575345
38	0xbd1e320d	-0.03862195
39	0x3d78cb35	0.06074067
40	0xbe425dff	-0.18981169
41	0x3df1660d	0.11787043
42	0x3de9466e	0.113903865
43	0xbdf2ee1c	-0.11861822
44	0x3d813f01	0.06310845
45	0xbd9c59aa	-0.076342896
46	0x3d046349	0.03232125
47	0xbd913c0f	-0.070915334
48	0xbdc24167	-0.09485131
49	0xbe594b50	-0.21220136
50	0x3e147855	0.14499028
51	0x3c9ff57e	0.01952624
52	0xbe31a87a	-0.17349425
53	0xbd16a85f	-0.036781665
54	0x3d806b53	0.062704705
55	0x3e91dc50	0.28488398
56	0x3d6267de	0.055274837
57	0xbd8e2cdf	-0.06942152
58	0xbe4f7073	-0.2025774
59	0xbc099a05	-0.0083985375
60	0x3c1be136	0.009514144
61	0xbe30a309	-0.17249693
62	0xbda04911	-0.07826436
63	0xbcc72146	-0.024307858
64	0x3de4ed45	0.11178068
65	0xbe469608	-0.1939317
66	0xbda657cd	-0.081222154
67	0xbd9507f7	-0.0727691
68	0x3e8d078d	0.27544823
69	0xbd810f7c	-0.063017815
70	0xbdbdd2bf	-0.09268712
71	0x3cd9fab5	0.026608804
72	0xbdb4cf95	-0.08828656
73	0xbdfd65d3	-0.12372937
74	0x3d5d6fa9	0.054061566
75	0x3dd80187	0.10547166
76	0xbe9fa719	-0.31182173
77	0xbde99eff	-0.11407279
78	0x3da4e98e	0.080523595
79	0x3dbe9e5e	0.0930755
80	0x3da3287c	0.07966706
81	0xbda0a6b4	-0.07844296
82	0xbc9ca4b8	-0.019121513
83	0xbdaa89b5	-0.08327047
84	0xbd628c02	-0.055309303
85	0x3df91db8	0.121638715
86	0xbd01e1ba	-0.03170941
87	0x3b0d1112	0.0021525067
88	0xbd170120	-0.036866307
89	0xbda6ed53	-0.08150735
90	0x3dac474a	0.08412035
91	0xbdda169c	-0.10648844
92	0xbd7ee8d2	-0.062233754
93	0x3e1bf6eb	0.1523091
94	0xbd789be9	-0.060695563
95	0xbc4326fc	-0.01191115
96	0x3b48b646	0.0030626222
97	0x3e2d8412	0.16944912
98	0x3b223b1d	0.0024754473
99	0x3d200377	0.039065804
100	0x3db2a76a	0.08723338
101	0x3d313909	0.043267284
102	0xbe59166e	-0.21199962
103	0x3d4b049a	0.049564935
104	0x3d97f587	0.074198775
105	0xbe00f3ae	-0.12592956
106	0xbe7b6145	-0.24548824
107	0x3e7275c5	0.23677738
108	0x3c12a65a	0.008950794
109	0xbc86727c	-0.016412012
110	0xbd879555	-0.0662028
111	0xbcb08d8d	-0.021551872
112	0x3de797c9	0.113082476
113	0xbda68812	-0.08131422
114	0x3e0e4be0	0.13896132
115	0x3ddab230	0.10678518
116	0x3d83768e	0.06419097
117	0x3cd1178e	0.025523927
118	0xbe81e071	-0.25366548
119	0x3e341f18	0.17589986
120	0x3ca2295a	0.019795109
121	0x3dc2429b	0.0948536
122	0x3d0fd087	0.035110977
123	0x3d0e143d	0.03468727
124	0xbdc0c977	-0.09413426
125	0xbd728bcc	-0.059215352
126	0xbe5714f3	-0.21004085
127	0xbda0d7dc	-0.07853672
128	0x3d8cef62	0.06881596
129	0xbd9497bd	-0.07255504
130	0x3e9730d1	0.2952943
131	0x3d9353bc	0.071937054
132	0x3d75e3ac	0.060031578
133	0x3dc6619b	0.096865855
134	0x3e10dde8	0.1414715
135	0x3e44a04b	0.19201772
136	0xbd766a21	-0.060159806
137	0xbd48ea45	-0.04905154
138	0x3c78ebf7	0.015192977
139	0x3def0153	0.116701744
140	0x3d66f958	0.056390136
141	0x3def8c95	0.11696736
142	0x3d1e16c6	0.038595937
143	0xbc35c263	-0.011093709
144	0x3e1a784d	0.15084954
145	0xbdece28d	-0.11566649
146	0xbdbdff87	-0.092772536
147	0x3d42ce35	0.047559936
148	0x3e05e811	0.13076808
149	0xbca99076	-0.020698767
150	0x3e0a88b2	0.13528708
151	0xbc95ce01	-0.018286707
152	0xbda0ec4f	-0.07857572
153	0xbdddf153	-0.108370446
154	0xbd7b0d29	-0.061291847
155	0x3c800f88	0.015632406
156	0xbcdcd9c7	-0.026959313
157	0xbdb27a91	-0.08714784
158	0xbe453dc8	-0.19261849
159	0xbccab1d9	-0.024743007
160	0x3c0f0cb7	0.008731059
161	0x3d7c1c4b	0.06155042
162	0x3cdd8234	0.027039625
163	0x3e001451	0.1250775
164	0xbd77231c	-0.060336217
165	0x3d5e86c2	0.054327734
166	0xbd855266	-0.06509857
167	0x3e10dd43	0.14146905
168	0x3d7628da	0.060097553
169	0x3e035e4f	0.12828945
170	0x3d49217e	0.049104206
171	0x3e3cf629	0.18453278
172	0xbafad191	-0.0019135942
173	0xbd332756	-0.043738686
174	0x3d02b651	0.03191215
175	0xbe18922a	-0.14899507
176	0x3e289c27	0.16465817
177	0x3d33b3d3	0.043872666
178	0x3c7565dc	0.014977898
179	0xbe57c206	-0.21070108
180	0xbd722a15	-0.059122164
181	0x3e79d03e	0.24395844
182	0xbe1d6776	-0.15371498
183	0xbbd591cf	-0.006517626
184	0x3bc86032	0.006114983
185	0xbdadf1d2	-0.08493389
186	0x3e7a693e	0.24454209
187	0x3d206722	0.039160855
188	0x3d1093b9	0.03529713
189	0xbd9d1c20	-0.0767138
190	0x3d1d0a64	0.038339987
191	0xbc45ebd2	-0.01208015
192	0x3bb45be0	0.0055041164
193	0x3e958c91	0.29208806
194	0xbbe6a23b	-0.0070383823
195	0xbd42f6d8	-0.04759869
196	0x3e1ff6fe	0.15621564
197	0x3d75321f	0.059862252
198	0x3dd93458	0.10605687
199	0xbe4c91ec	-0.1997754
200	0xbca3a791	-0.019977363
201	0xbd3959b8	-0.045251578
202	0x3e0baa2d	0.13639136
203	0x3d525837	0.05135366
204	0x3e1aaef8	0.15105808
205	0x3e3d691d	0.18497129
206	0x3ead514a	0.3385108
207	0x3dc2c667	0.095104985
208	0x3dd0086b	0.101578556
209	0x3b8ad748	0.0042370893
210	0x3c3748ed	0.01118682
211	0x3cbc85a1	0.023012938
212	0xbc6b54a1	-0.014363439
213	0xbe3531a1	-0.17694713
214	0x3d1655ee	0.036703043
215	0xbe5a54b6	-0.21321377
216	0x3d68a3e3	0.05679692
217	0xbd2b6b2d	-0.041850258
218	0x3e00c81a	0.12576333
219	0xbc0f641d	-0.008751896
220	0xbd77ac9b	-0.060467344
221	0xbdefbc34	-0.11705819
222	0xbe23f54b	-0.1601154
223	0x3e2952a2	0.16535428
224	0xbdb708ed	-0.08937249
225	0x3d2bf4ce	0.04198151
226	0x3d961465	0.07328109
227	0x3e1029f7	0.14078508
228	0x3dbe5ee1	0.092954405
229	0x3d89cd2a	0.06728585
230	0xbca614d9	-0.020273613
231	0x3dd7efdd	0.10543797
232	0x3dbf9a71	0.09355629
233	0x3d065ff9	0.03280637
234	0x3e16eeae	0.14739487
235	0xbe1b16aa	-0.15145364
236	0x3df9b470	0.12192619
237	0x3de0f3fa	0.10984035
238	0x3e079eee	0.1324422
239	0xbe3d2167	-0.18469773
240	0x3cfaafb6	0.030601364
241	0x3d40139c	0.0468937
242	0xbe5c4372	-0.21510103
243	0x3d955f7a	0.07293601
244	0x3cc54402	0.02408028
245	0xbe3d1764	-0.18465954
246	0x3e0ee246	0.13953504
247	0x3e435324	0.19074684
248	0x3dd4a496	0.10382955
249	0x3de2aa0c	0.1106759
250	0xbe59cdeb	-0.21269958
251	0x3db3359b	0.08750459
252	0xbe728808	-0.23684704
253	0x3d13bd27	0.03606906
254	0x3d79ce43	0.060987722
255	0x3dc686ce	0.09693681

encoder.lstm.bias_ih_l0 f4 [512]
0	0x3a469deb	0.0007576632
1	0xbe4fc362	-0.20289376
2	0xbdf44042	-0.11926319
3	0x3b76b05f	0.0037641746
4	0xbc94e02c	-0.0181733
5	0xbdca1626	-0.09867506
6	0xbcdf8db7	-0.027289255
7	0xbe8491da	-0.25892526
8	0xbbef1d46	-0.007297191
9	0xbe6c53d2	-0.2307885
10	0xbe94b353	-0.29043064
11	0xbdb7cdcc	-0.089747995
12	0xbd9d770b	-0.07688721
13	0x3e730118	0.23730886
14	0xbe96cabb	-0.29451546
15	0xbd202d35	-0.039105613
16	0xbd76d215	-0.060258944
17	0xbd466b66	-0.048442267
18	0xbd18aed1	-0.037276093
19	0x3e424f73	0.1897562
20	0xbe01def7	-0.1268271
21	0xbc1e41f5	-0.00965928
22	0xbe29fdf8	-0.16600788
23	0xbe0872d3	-0.13325052
24	0x3b2f9b23	0.002679535
25	0xbd8deb54	-0.06929651
26	0xbd8c910c	-0.06863603
27	0xbe4a65ae	-0.1976535
28	0xbddcc973	-0.10780611
29	0xbc109eca	-0.008826921
30	0xbe86a44e	-0.2629723
31	0xbe9c9b07	-0.30587026
32	0xbe9cdf2c	-0.30639017
33	0x3b8daacd	0.0043233396
34	0xbe0c2db6	-0.13689312
35	0x3eb2d6bd	0.34929457
36	0xbe4412da	-0.19147816
37	0xbe12290c	-0.1427347
38	0xbe1aed99	-0.15129699
39	0x3da4e29e	0.08051036
40	0x3d9005eb	0.07032379
41	0xbde826b9	-0.11335511
42	0xbe317993	-0.17331533
43	0x3d8adf1f	0.06780838
44	0xbe276580	-0.16347313
45	0xbd6a813d	-0.057252157
46	0xbe50018e	-0.20313093
47	0x3cb4f265	0.022088239
48	0xbc3d0d08	-0.011538751
49	0xbe3ee119	-0.18640555
50	0xbd1386a9	-0.036017094
51	0x3dcfb3ae	0.10141693
52	0xbd3afe92	-0.045652933
53	0x3eca0dd2	0.3946367
54	0xbea3a344	-0.319605
55	0x3c5a4c38	0.013323836
56	0x3d0331a9	0.03202978
57	0xbd0921e5	-0.03347959
58	0xbdc9cdf7	-0.09853738
59	0x3c977016	0.018486064
60	0xbe53200f	-0.20617698
61	0xbd71d296	-0.05903872
62	0xbdfce35c	-0.12348053
63	0x3d12aca6	0.03580918
64	0x3d607909	0.054802928
65	0x3db7a6f7	0.08967393
66	0xbdc25c3f	-0.09490251
67	0xbe2eba2c	-0.17063206
68	0xbd21ca25	-0.03949942
69	0xbdb5e8b9	-0.08882279
70	0x3cbdf9b5	0.023190359
71	0xbd016d3a	-0.031598307
72	0x3b767232	0.0037604687
73	0x3de422fa	0.11139484
74	0xbe680ec8	-0.22661889
75	0x3d8ce989	0.06880481
76	0x3e40fd04	0.18846518
77	0x3da7467f	0.08167743
78	0xbdbfe7a0	-0.09370351
79	0xbddf584b	-0.109055124
80	0xbcb591fd	-0.02216434
81	0xbc9f84dd	-0.019472534
82	0xbce51d83	-0.027968174
83	0x3d9f0e36	0.077663824
84	0xbe0f6296	-0.14002451
85	0xbe4b0a19	-0.1982807
86	0x3da9b530	0.08286512
87	0x3d9b2d95	0.075770535
88	0xbe14f33f	-0.14545916
89	0x3ca8c02e	0.02059945
90	0xbde23a50	-0.110462785
91	0x3e73476c	0.23757714
92	0xbd82fa30	-0.06395376
93	0xbe955153	-0.29163608
94	0xbd3c635c	-0.045993194
95	0xbe1d2518	-0.15346181
96	0xbd8622a1	-0.06549574
97	0xbdd9a62f	-0.106274
98	0xbe2d782b	-0.16940372
99	0xbd4895ff	-0.048971172
100	0xbe862708	-0.26201653
101	0x3b1d6477	0.002401618
102	0x3d495e57	0.049162235
103	0xbe326086	-0.17419633
104	0xbdbaafb8	-0.09115547
105	0xbe0edb6e	-0.13950893
106	0xbd7096de	-0.05873763
107	0x3e1e4b22	0.15458348
108	0xba95d923	-0.001143251
109	0x3de91d1b	0.113825046
110	0xbd33e5f0	-0.043920457
111	0xbe0d31db	-0.1378855
112	0x3da924ef	0.08258998
113	0xbc7b85a9	-0.015351691
114	0xbd9723e0	-0.073798895
115	0xbda9d787	-0.08293062
116	0xbdf17c3d	-0.11791275
117	0xbdb30f86	-0.08743195
118	0x3a3658b6	0.0006955968
119	0xbe0eaff9	-0.13934316
120	0xbe7e3221	-0.2482381
121	0xbde495c3	-0.11161377
122	0x3cfa023b	0.030518642
123	0xbe8489a2	-0.25886256
124	0xbe002be8	-0.12516749
125	0x3d91d0db	0.07119914
126	0x3d1781b0	0.036988914
127	0xbd2e43fe	-0.04254531
128	0xbd29945d	-0.041401256
129	0x3de9f5be	0.11423825
130	0x3d0bab1f	0.03409874
131	0x3e0e66d9	0.13906421
132	0xbe36ddc6	-0.17858037
133	0xbbdb0e92	-0.0066850865
134	0x3d52274f	0.05130702
135	0x3d6fb3a1	0.058520917
136	0xbdeff7a6	-0.11717157
137	0xbce51cdf	-0.027967868
138	0xbc0a1408	-0.008427627
139	0xbe3ea2df	-0.18616818
140	0xbe0a00b1	-0.13476826
141	0x3db7a6e0	0.08967376
142	0x3e960692	0.29301888
143	0x3defb2f8	0.117040575
144	0xbb700fe0	-0.0036630556
145	0x3e6d37ed	0.23165865
146	0x3d783ad1	0.060602967
147	0x3ca5c2c8	0.02023448
148	0x3d9b2459	0.07575292
149	0xbe0545cb	-0.13014905
150	0x3d8203d3	0.06348386
151	0x3b8c0ca0	0.004273966
152	0xbe41dbfd	-0.18931575
153	0xbe288d61	-0.16460182
154	0xbd150993	-0.036386084
155	0x3e377288	0.17914784
156	0x3e136cf5	0.14397033
157	0x3e09feb2	0.13476065
158	0x3dc19c63	0.094536565
159	0x3eaa8681	0.33305743
160	0x3dc59bf1	0.09648884
161	0xbd32145e	-0.043476455
162	0x3d42f342	0.04759527
163	0x3e7c12fb	0.24616615
164	0x3cb3036a	0.021852214
165	0xbd63146f	-0.05543941
166	0x3d7108bb	0.058846217
167	0x3d0ed441	0.03487039
168	0xbdc42a8f	-0.0957843
169	0xbda802a9	-0.082036324
170	0xbe12d35d	-0.14338441
171	0x3be283a0	0.0069126636
172	0xbd807140	-0.06271601
173	0x3e22b532	0.15889433
174	0x3e135092	0.14386204
175	0xbd394794	-0.045234278
176	0xbd8e3f0c	-0.06945619
177	0xbcb29803	-0.021801
178	0x3a27beef	0.0006398996
179	0xbe1f8ae7	-0.15580331
180	0x3db6b3ee	0.089210376
181	0x3ecf6bf5	0.40512052
182	0x3e192c10	0.14958215
183	0xbe238b37	-0.15971075
184	0xbdb3470c	-0.087537855
185	0x3d4aee7b	0.04954384
186	0xbd9bf7de	-0.07615636
187	0xbe02c111	-0.12768961
188	0x3dc78735	0.097425856
189	0xbe596d9e	-0.21233222
190	0x3e50e0f7	0.20398317
191	0xbd57198f	-0.05251461
192	0xbd87b491	-0.06626237
193	0xbe00b78c	-0.12570018
194	0x3d089d8a	0.033353366
195	0x3df7d775	0.12101642
196	0xbe12892b	-0.14310138
197	0xbe232610	-0.15932488
198	0xbdde1a92	-0.10844912
199	0x3a93eb39	0.0011285312
200	0x3e2eb463	0.17061
201	0xbdb5f1f2	-0.08884038
202	0xbda88fb7	-0.082305364
203	0x3ca03624	0.019557066
204	0x3d0f6d2f	0.035016235
205	0x3d306509	0.043065105
206	0xbe1c87a3	-0.15286116
207	0x3e160b17	0.14652668
208	0x3e459c8a	0.19297996
209	0x3dad9049	0.08474786
210	0xbd48a7d4	-0.04898818
211	0xbd0a2c71	-0.03373379
212	0xbd97fa69	-0.07420809
213	0x3e18bfaf	0.14916871
214	0x3e08506e	0.13311931
215	0xbd75c4a0	-0.06000197
216	0xbd51b9ab	-0.051202457
217	0x3ebd1371	0.36928895
218	0x3d042b3d	0.032267798
219	0xbb8a56ae	-0.004221759
220	0xbc8f3f85	-0.017486343
221	0xbaeaba19	-0.0017908245
222	0x3e326d72	0.17424563
223	0xbd4c8581	-0.049932007
224	0xbd0433f3	-0.032276105
225	0x3d282af1	0.041056577
226	0x3d965e15	0.073421635
227	0xbe182046	-0.14856061
228	0x3d2cfe5f	0.042234775
229	0x3d526ccf	0.0513733
230	0x3dfbf063	0.123017095
231	0x3c453ed7	0.012038908
232	0xbd14f25c	-0.036363944
233	0x3e435288	0.19074452
234	0x3e9f56c1	0.31120875
235	0x3d4cd210	0.05000502
236	0x3da69f2e	0.0813583
237	0x3e2c3b40	0.16819477
238	0x3e6b8c18	0.2300266
239	0x3cdc82cc	0.026917838
240	0x3d6beddf	0.0575999
241	0x3e22cc6e	0.15898296
242	0xbb5afedc	-0.0033416068
243	0x3ebc053d	0.36722746
244	0x3d344ee8	0.044020563
245	0xbe10e48d	-0.14149685
246	0x3df189aa	0.117938355
247	0x3d4a2b3f	0.04935765
248	0x3def3f80	0.116820335
249	0x3e1a9f2b	0.1509978
250	0x3df3f8c4	0.11912683
251	0x3e8bc9a1	0.27302268
252	0xbdcac9a6	-0.09901743
253	0xbd8e64bf	-0.069528095
254	0xbe06d3aa	-0.13166681
255	0xbd3482de	-0.044070117

encoder.lstm.bias_hh_l0 f4 [512]
0	0x3cf2554b	0.029581686
1	0xbe6f4d95	-0.23369439
2	0xbd2a1870	-0.04152721
3	0xbcb34ffb	-0.021888724
4	0xbd879f24	-0.066221505
5	0xbe230f5a	-0.15923825
6	0xbd9aaf87	-0.075530104
7	0xbe68c652	-0.22731903
8	0xbdd54de4	-0.10415247
9	0xbe0cd4d7	-0.13753067
10	0xbeb76427	-0.35818598
11	0xbdf515dd	-0.11967061
12	0xbd93dd76	-0.07219975
13	0x3e23da57	0.16001259
14	0xbeae00d9	-0.33985022
15	0xbddbb9d7	-0.107288055
16	0xbe08b81d	-0.13351484
17	0xbe02e188	-0.12781346
18	0xbdb4c7e4	-0.088271886
19	0x3e22e3e7	0.1590725
20	0xbc192faf	-0.009349748
21	0xbe1fab4c	-0.15592688
22	0xbd993e01	-0.074825294
23	0xbd7a81ad	-0.061158825
24	0xbda2d0ee	-0.079500064
25	0xbd55bf87	-0.052184608
26	0xbcfcf76c	-0.030879699
27	0xbe9d06e6	-0.30669326
28	0xbe4dbcc8	-0.20091546
29	0xbd015097	-0.031570997
30	0xbe9e3cac	-0.30905664
31	0xbe82637a	-0.2546652
32	0xbe353a11	-0.17697932
33	0x3c693432	0.014233636
34	0xbe21ea15	-0.15811951
35	0x3ea93014	0.33044493
36	0xbe5d0f2f	-0.21587823
37	0xbe1aee6d	-0.15130015
38	0xbddb5645	-0.10709814
39	0x3e3ffa33	0.18747787
40	0x3d396d6e	0.045270376
41	0xbdfb98ce	-0.122850046
42	0xbdfdb0c0	-0.12387228
43	0x3d257a38	0.04039976
44	0xbcd5fbb0	-0.02612099
45	0xbd0f8c41	-0.035045866
46	0xbde72f97	-0.11288374
47	0xbc37c883	-0.011217239
48	0xbe097ebe	-0.13427255
49	0xbd55dd78	-0.052213162
50	0x3d9e237d	0.077216126
51	0x3d9923a4	0.07477501
52	0x3c9eb6e8	0.019374326
53	0x3ea3be48	0.3198111
54	0xbe2352d0	-0.15949559
55	0xbdba1595	-0.09086148
56	0x3dea737e	0.1144781
57	0xbe3b94b5	-0.18318446
58	0xbe421196	-0.18952021
59	0x3d9b2276	0.07574932
60	0xbe834c71	-0.25644258
61	0xbd039d59	-0.03213248
62	0xbdd1c341	-0.1024232
63	0x3d824b87	0.06362062
64	0xbd9e91d6	-0.0774266
65	0x3d171efb	0.03689478
66	0xbdfdbc78	-0.12389463
67	0xbe3d68a2	-0.18496946
68	0xbd426edd	-0.04746901
69	0xbdfacea4	-0.12246445
70	0x3c8bf36a	0.017083842
71	0xbdb0eb39	-0.08638615
72	0xbe1042da	-0.14088002
73	0x3e5bf71e	0.21480986
74	0xbe56b843	-0.20968728
75	0xbd7a5ad6	-0.061121784
76	0x3e2bbb8d	0.16770764
77	0xbd267f9c	-0.04064904
78	0xbd9e3739	-0.07725377
79	0xbdea1e94	-0.114316136
80	0xbdd0b8b8	-0.10191482
81	0x3dc42665	0.09577636
82	0xbe08aea3	-0.13347869
83	0xbca1734d	-0.0197083
84	0xbdcbe558	-0.09955853
85	0xbe8864a1	-0.26639274
86	0x3dd7f83c	0.10545394
87	0xbd1d8371	-0.03845543
88	0xbe94631c	-0.28981864
89	0x3cac64ae	0.021044102
90	0xbe177c11	-0.14793421
91	0x3e6ec7ca	0.23318401
92	0xbc83abc9	-0.016073124
93	0xbe9f5513	-0.31119594
94	0xbd4d116f	-0.050065454
95	0xbdf55f6b	-0.1198109
96	0xbdb401b3	-0.087893866
97	0xbe1a3945	-0.15060909
98	0xbe81ba94	-0.2533766
99	0xbe181acb	-0.1485397
100	0xbe002d7e	-0.12517354
101	0x3d798ffc	0.06092833
102	0x3bbdc443	0.0057912185
103	0xbd4e2c06	-0.050334953
104	0xbe6a7a33	-0.22898178
105	0xbe4c44b0	-0.19948077
106	0x3cce5396	0.025186341
107	0x3d67d886	0.056602977
108	0xbe20c76e	-0.15701076
109	0xbd098561	-0.033574466
110	0x3cb05b03	0.021527773
111	0xbe2e1ff4	-0.17004377
112	0x3e6e0460	0.23243856
113	0xbd2164dc	-0.039402828
114	0xbe288914	-0.16458541
115	0xbe321e7f	-0.17394446
116	0xbd17a2ff	-0.03702068
117	0xbd9b1043	-0.07571461
118	0xbb0d9f43	-0.002160982
119	0xbe448f26	-0.19195232
120	0xbe547da7	-0.20751058
121	0xbdf26580	-0.11835766
122	0x3d6574b6	0.056019507
123	0xbddb7ba5	-0.10716943
124	0xbd4bca3f	-0.049753424
125	0x3e21c8b6	0.15799221
126	0x3dd6bfb8	0.10485786
127	0xbe2042e4	-0.15650517
128	0x3d52f7c4	0.05150582
129	0x3e0e71e5	0.13910635
130	0x3d02cc3f	0.031933066
131	0x3d7992ea	0.060931124
132	0xbdb2e817	-0.08735674
133	0xbe26d290	-0.1629126
134	0x3d90058e	0.070323095
135	0xbcc83a2c	-0.024441801
136	0xbd51415a	-0.051087715
137	0xbcd9db0a	-0.026593704
138	0x3dc8421c	0.09778234
139	0xbd640a35	-0.055673797
140	0xbe545772	-0.20736483
141	0x3e24c917	0.16092335
142	0x3e4f4b6f	0.2024362
143	0x3da8f1e0	0.08249259
144	0xbd2aa91b	-0.041665178
145	0x3dfa21a6	0.12213449
146	0x3e567b28	0.20945418
147	0x3cfb8e8a	0.030707616
148	0x3db1c3b9	0.08679909
149	0xbda9b290	-0.08286011
150	0x3e0f9371	0.14021088
151	0x3d9835c8	0.07432133
152	0xbe29bf6f	-0.16576932
153	0xbe62a1dd	-0.22132058
154	0x3d197754	0.037467316
155	0x3e238e28	0.15972197
156	0x3d945d7f	0.072443955
157	0x3cea4daf	0.028601496
158	0x3da5ac53	0.08089509
159	0x3e907e36	0.2822129
160	0x3da3c202	0.079959884
161	0x3d89ff82	0.067381874
162	0x3db2a460	0.08722758
163	0x3e4cfa03	0.20017247
164	0x3e0ed7af	0.13949464
165	0x3cd85567	0.02640791
166	0x3dd82c11	0.1055528
167	0x3d880486	0.06641488
168	0xbdb5e574	-0.08881655
169	0xbd16ca65	-0.036814112
170	0xbe065848	-0.13119614
171	0xbda25c56	-0.07927768
172	0x3b6ea175	0.0036412154
173	0x3e1da576	0.1539515
174	0x3e26860a	0.1626207
175	0x3d414e66	0.047193907
176	0xbba896f6	-0.005144949
177	0x3d8beb9d	0.06832049
178	0xbcd9533e	-0.02652895
179	0xbe030250	-0.12793851
180	0x3dd0a81c	0.10188314
181	0x3eaabbe9	0.3334649
182	0x3ca7ea8d	0.020497585
183	0xbe310c30	-0.17289805
184	0xbd20cfce	-0.039260678
185	0xbbd59087	-0.006517473
186	0xbdd95192	-0.106112614
187	0xbd589668	-0.052877814
188	0x3e2bbb79	0.16770734
189	0xbe31a188	-0.17346776
190	0x3e6670d8	0.22503984
191	0xbd8c7f94	-0.06860271
192	0xbd7ed54b	-0.06221513
193	0xbdf46687	-0.11933618
194	0xbc99ee5e	-0.01879042
195	0x3dbd2260	0.09235072
196	0xbdd9a1ae	-0.10626541
197	0xbd6697e7	-0.05629721
198	0xbdadd59a	-0.08488007
199	0xbd2b8f73	-0.04188485
200	0x3e06dcf6	0.13170227
201	0xbd8fb406	-0.070167586
202	0x3daf233e	0.08551644
203	0xbd4450cc	-0.047928616
204	0x3e29ee39	0.16594781
205	0x3d95c550	0.07313025
206	0xbbbf8745	-0.005844983
207	0x3dacfc48	0.08446556
208	0x3dc725f2	0.09724034
209	0x3dfcb9eb	0.123401485
210	0x3c74eb62	0.014948698
211	0xbd512f32	-0.0510704
212	0xbd6b3a78	-0.057428807
213	0x3da2a550	0.07941687
214	0x3de72283	0.112858795
215	0xbe3896d4	-0.18026286
216	0xbd3bfffb	-0.04589842
217	0x3eb649bc	0.3560313
218	0xbd9088ea	-0.07057364
219	0x3da3b379	0.07993216
220	0xbbf0caab	-0.0073483787
221	0xbc80be06	-0.01571561
222	0x3e096030	0.13415599
223	0xbd4b9bfd	-0.04970931
224	0xbbe11f02	-0.0068701515
225	0x3db14145	0.08655027
226	0x3d3b8d78	0.045789212
227	0xbde3507a	-0.11099334
228	0xbd009cac	-0.031399414
229	0x3d244a38	0.040109843
230	0x3ded1d40	0.115778446
231	0xbd9acb6d	-0.07558332
232	0xbd7ccfbd	-0.061721552
233	0x3dd9149a	0.105996326
234	0x3e3ccae9	0.18436779
235	0xbc811260	-0.015755832
236	0x3db116d0	0.08646929
237	0x3db3e08b	0.087830625
238	0x3df1d0a1	0.11807371
239	0x3c0c319e	0.008556752
240	0x3d46fe89	0.048582587
241	0x3e0d030e	0.13770697
242	0x3dbfc16f	0.093630664
243	0x3ea6cb2c	0.32576883
244	0xbcb53e4e	-0.022124436
245	0xbe667aa9	-0.22507729
246	0x3ddf9033	0.10916176
247	0x3cce8bb1	0.025213094
248	0x3df95abd	0.1217551
249	0x3ddc731f	0.10764145
250	0x3d79d205	0.060991306
251	0x3e93a11f	0.28833863
252	0xbd961077	-0.07327359
253	0xbe2104aa	-0.15724435
254	0xbde09856	-0.10966556
255	0x3c8ef632	0.01745138

decoder.embedding.weight f4 [128, 32]
0	0x3bc65bf7	0.0060534435
1	0xbfe77773	-1.8083328
2	0xbe511e26	-0.20421657
3	0xbed97968	-0.42475438
4	0x3eda2641	0.4260731
5	0xbfcae673	-1.5851578
6	0xbe7997c6	-0.24374303
7	0x3f502152	0.8130084
8	0xbe827556	-0.25480145
9	0x3f18996b	0.596091
10	0x3f33a8b0	0.7017927
11	0xc04f6697	-3.2406366
12	0xbf30ba22	-0.69034016
13	0xbf2d4fd7	-0.6769995
14	0xbde5eb2f	-0.11226498
15	0x3fbc1fab	1.4697164
16	0xbecc21d0	-0.39869547
17	0x3f37b73e	0.7176398
18	0x3ed951ab	0.4244512
19	0xbf11034a	-0.56645644
20	0xbf85d5cc	-1.0455871
21	0x400069b6	2.006452
22	0xbdb085fc	-0.086193055
23	0x3f018dd6	0.5060705
24	0x3f9105dd	1.1329914
25	0xbf8189b4	-1.0120149
26	0x3eb20056	0.3476588
27	0xbf670809	-0.90246636
28	0x3fe6c81c	1.8029819
29	0xbf7a83a8	-0.9785714
30	0x40147c72	2.3200955
31	0xbf93d555	-1.1549479
32	0x3e71393d	0.23556991
33	0xbe322cc0	-0.17399883
34	0xbed48bf5	-0.4151303
35	0xbf1530d9	-0.5827766
36	0x3f311b4f	0.69182295
37	0xbf544038	-0.8291049
38	0x3ee918bc	0.45526683
39	0xbd495e50	-0.04916221
40	0x3f5d3d4d	0.8642166
41	0xbf9cb808	-1.2243662
42	0xbfa08124	-1.253941
43	0x3f097b02	0.5370332
44	0xbe798c38	-0.24369895
45	0x40054beb	2.0827587
46	0x3f600238	0.87503386
47	0x3f59abd1	0.85027796
48	0x3e87ccc5	0.26523414
49	0xbe13a657	-0.14418922
50	0x3fac9889	1.348405
51	0xbcf44601	-0.029818537
52	0xbf2a723c	-0.6658056
53	0x3debc37e	0.115118966
54	0x3eb53618	0.35392833
55	0xbeaacc4e	-0.33358997
56	0xbeb2b4c9	-0.34903553
57	0x3f66447a	0.89948237
58	0x3f8c4bfc	1.0960689
59	0xbf771b54	-0.96526074
60	0x3e9a0fef	0.3009028
61	0x3f4ca982	0.7994615
62	0xbf3003b9	-0.6875568
63	0xbe9ca4cc	-0.3059448
64	0xbe1faf96	-0.15594324
65	0x3ee1f6d5	0.4413363
66	0xbf994802	-1.19751
67	0x3f4c8b91	0.7990046
68	0x3f8afc8a	1.0858319
69	0xbf796899	-0.9742523
70	0x400baf83	2.1825874
71	0xbf970045	-1.1796957
72	0x3eda562b	0.42643866
73	0x3f573d27	0.84077686
74	0xbfb6b79f	-1.4274787
75	0xbef0a7cb	-0.47003016
76	0x3eceee78	0.40416312
77	0x3f122309	0.5708471
78	0xbb294314	-0.0025827335
79	0xbf8dcdd2	-1.1078436
80	0x3f82c714	1.0217004
81	0x3fb79b4c	1.4344268
82	0x3f13a796	0.5767759
83	0x40192fa3	2.3935325
84	0xbf8183d6	-1.0118358
85	0xbf362029	-0.7114282
86	0x3dc69137	0.09695666
87	0x3fa225ec	1.2667823
88	0x3e3a7f20	0.18212557
89	0x3f7a3c54	0.97748303
90	0x3e5e6da3	0.2172151
91	0xbf2a8e72	-0.66623604
92	0xbf433364	-0.7625029
93	0x3fba2bfd	1.4544674
94	0x3f41882c	0.75598407
95	0x3db99e46	0.090633914
96	0x3f9c2035	1.2197329
97	0x3f77c04d	0.967778
98	0x3f658cdd	0.89668065
99	0xbf5f1e38	-0.87155485
100	0xbe385827	-0.18002377
101	0x401b60a8	2.4277744
102	0x3fbfcf01	1.4985048
103	0x3f2ef91f	0.6834888
104	0x3ebdd631	0.37077478
105	0x3eec5583	0.4615899
106	0xbf0f640d	-0.5601204
107	0xbf93f102	-1.1557925
108	0x3f2fafcd	0.68627626
109	0xbfd565b7	-1.6671666
110	0xbf9737c9	-1.1813899
111	0xbebc4038	-0.36767745
112	0xbf9ab973	-1.2087845
113	0x3ee44aeb	0.44588408
114	0x3f409ed7	0.7524237
115	0x3f2c733c	0.67363334
116	0x3ee6f6e9	0.45110252
117	0xbf0b74ff	-0.54475397
118	0xbfd67324	-1.6753888
119	0x3f2ca7d6	0.674436
120	0xbdc2ffcb	-0.09521445
121	0xbf5e4072	-0.86817086
122	0x3ee39722	0.44451243
123	0xbf41ff15	-0.7577985
124	0xbeef2916	-0.46711034
125	0xbf433a7f	-0.7626113
126	0xbea265af	-0.31718203
127	0xbfb45075	-1.4087054
128	0xbd8e79a8	-0.06956798
129	0xbfd0518a	-1.6274884
130	0x3e2c2a9b	0.16813128
131	0x3faef2e3	1.3667873
132	0x3f2cc0d4	0.6748173
133	0x3f967a15	1.1756006
134	0x3fb9da10	1.4519672
135	0xbf468a81	-0.7755509
136	0x3f380cec	0.7189472
137	0x3e526e20	0.20549822
138	0xbedf458b	-0.43607745
139	0xbd365035	-0.044510085
140	0xbede42f4	-0.43410456
141	0x3f904527	1.1271104
142	0xbd355013	-0.044265818
143	0xbfa71721	-1.3053933
144	0x3e3d48ae	0.18484756
145	0xbfa5eba4	-1.2962537
146	0x3fdd24d4	1.7276864
147	0xbf6b3ad3	-0.91886634
148	0xbf8665f0	-1.0499859
149	0x3fdda579	1.7316123
150	0x3f444ef9	0.76683
151	0xc0075081	-2.1142886
152	0xbf19e881	-0.601204
153	0xbf8ec9d3	-1.1155342
154	0xbd607a3e	-0.05480408
155	0xbe12fbe1	-0.14353897
156	0xbf9f3c20	-1.2440224
157	0x3f49d451	0.78839594
158	0x3f9954dd	1.1979023
159	0xbf10364d	-0.56332856
160	0x3f376faf	0.7165479
161	0x4010e7fe	2.2641597
162	0x3ccdb776	0.025111895
163	0xbd6e533b	-0.058184844
164	0xbeaaadee	-0.33335823
165	0xbf5c1e70	-0.85983944
166	0xbf62c911	-0.88588053
167	0xbf3feb2e	-0.7496823
168	0x3e1f44ef	0.1555364
169	0xbe96bf19	-0.2944267
170	0xbf3da851	-0.74084955
171	0x3fa0a1e2	1.2549403
172	0x3fed70a5	1.8550001
173	0x3f821fcb	1.0165952
174	0xbfe33082	-1.7749178
175	0xbed827e9	-0.4221795
176	0x3e299d7c	0.16563982
177	0xbf277520	-0.65413094
178	0x3faa4e97	1.3305234
179	0x3e62082c	0.2207343
180	0x3f42efa0	0.7614689
181	0xbe63992b	-0.22226398
182	0x3f272283	0.65287036
183	0x3f24c765	0.6436675
184	0xbe16cd73	-0.1472681
185	0x40260c24	2.594491
186	0x3f886193	1.0654777
187	0x3dc5d6e9	0.096601315
188	0x3ed35ccd	0.4128174
189	0xbfbc63dd	-1.4717976
190	0x3f123bd9	0.5712257
191	0xbf80132f	-1.0005854
192	0xbeadf3b8	-0.33975005
193	0x3eabc3f7	0.33547947
194	0x4005f222	2.0929036
195	0x3ca7aaf3	0.020467257
196	0x3fb14c46	1.3851402
197	0xbe7a3f69	-0.24438252
198	0x3f2adbd4	0.6674168
199	0x3fa94c52	1.3226416
200	0xbebe3852	-0.37152344
201	0x3fe3a2fa	1.7784111
202	0x3f9dda9a	1.2332337
203	0x3ee397ec	0.44451845
204	0x3f4765a3	0.7788946
205	0x3f48bb3f	0.78410715
206	0xbf28e4ed	-0.65974313
207	0x3fcf98a6	1.621846
208	0xbf7aefd9	-0.9802223
209	0xbfb7adb7	-1.4349889
210	0xbe3bbecd	-0.18334503
211	0x3f0c3efd	0.5478361
212	0xbef6a5b8	-0.48173308
213	0xbf57a930	-0.84242535
214	0x3ddac7dd	0.10682652
215	0x3f8a6869	1.0813113
216	0x3fdad34e	1.7095735
217	0xbf964723	-1.1740459
218	0x3f7bdf28	0.98387384
219	0x3e41f237	0.18940054
220	0xbec1a535	-0.37821355
221	0x3fd7f1a4	1.6870618
222	0xbfc75cae	-1.5575159
223	0x3fa3c80e	1.2795427
224	0x3fd32a4b	1.6497282
225	0x3c4c005b	0.012451257
226	0xbec5cf78	-0.3863485
227	0xbe450817	-0.19241367
228	0xbeda30c6	-0.42615336
229	0xbd7811a8	-0.060563713
230	0x3f6899b5	0.9085954
231	0xbd4490e4	-0.04798974
232	0xbfccdca9	-1.600484
233	0x3dda4248	0.106571734
234	0xbeeac9ba	-0.4585703
235	0x3fa651fd	1.2993771
236	0xbfb62527	-1.4230088
237	0x3f1dcd24	0.61641145
238	0xbfcb5ac3	-1.5887073
239	0x3f6d0800	0.9259033
240	0x3e1e179c	0.15438694
241	0xbf41ac70	-0.75653744
242	0xbf5d85dc	-0.8653238
243	0x3e61f0e7	0.22064553
244	0x3f4c77b1	0.79870135
245	0x3e7d417e	0.24732015
246	0x4013745b	2.3039768
247	0x3f7f9855	0.99841815
248	0xbe252143	-0.1612597
249	0xbec426ef	-0.38310954
250	0x3efe4370	0.49660826
251	0xbf85f04c	-1.0463958
252	0x3e63492b	0.2219588
253	0xbf0633ca	-0.52422774
254	0x3edb548e	0.42837948
255	0xbec19246	-0.3780691

decoder.lstm.weight_ih_l0 f4 [512, 32]
0	0x3e429393	0.19001608
1	0x3d772a27	0.060342934
2	0x3ebb5cb1	0.36594155
3	0xbe962030	-0.29321432
4	0x3d95ee8f	0.07320892
5	0x3dc2825c	0.0949752
6	0x3d642ef4	0.05570884
7	0x3ea47734	0.32122195
8	0xbdd7609d	-0.105164744
9	0xbe60da74	-0.21958333
10	0xbd70c8a7	-0.058785107
11	0xbe16cbf2	-0.14726236
12	0x3e10ecd1	0.14152838
13	0x3da258f5	0.079271235
14	0x3b91ad1d	0.0044456855
15	0xbe60dca8	-0.21959174
16	0xbe5d024f	-0.21582912
17	0x3e62dcb1	0.221545
18	0xbe725b39	-0.23667611
19	0xbaf052ff	-0.0018335282
20	0x3dc75f8e	0.097350225
21	0x3c0ce26d	0.008598906
22	0x3e46d3b8	0.19416702
23	0xbc074781	-0.008256794
24	0x3d18281a	0.03714762
25	0x3e350e76	0.17681298
26	0x3e80202a	0.2502454
27	0xbd8f6144	-0.07000974
28	0x3d885384	0.06656554
29	0x3d988f4a	0.07449205
30	0x3dbd6e60	0.09249568
31	0xbe0d2c88	-0.13786519
32	0x3c075111	0.008259074
33	0xbe031a75	-0.12803061
34	0xbe02d256	-0.1277555
35	0xbc5cbb8a	-0.013472447
36	0xbdad7829	-0.08470184
37	0xbde2d176	-0.11075108
38	0x3d888130	0.066652656
39	0x3db771cf	0.08957254
40	0x3d2e4598	0.04254684
41	0x3e1d7813	0.15377836
42	0x3cc2d16c	0.0237815
43	0xbd6800da	-0.056641437
44	0xbdd86e9e	-0.105679736
45	0xbe18343c	-0.14863676
46	0xbe625db4	-0.22106057
47	0x3da09b47	0.07842117
48	0x3c55b339	0.013043218
49	0x3e01de9d	0.12682576
50	0x3e34c55d	0.17653413
51	0xbdac5cb5	-0.0841612
52	0xbdd8f2d6	-0.10593192
53	0xbd8b4286	-0.06799798
54	0xbd44ea36	-0.048074923
55	0x3dc2a98b	0.09504994
56	0x3d5367e4	0.05161275
57	0xbd26935b	-0.040667873
58	0xbd091f23	-0.03347696
59	0xbdacb1a9	-0.084323235
60	0x3e0e4434	0.13893205
61	0x3d44af5e	0.048018806
62	0xbc1802e0	-0.009278029
63	0xbbfe1d51	-0.0077549596
64	0xbb1b7ee2	-0.002372675
65	0xbdbcef4b	-0.09225329
66	0x3e1b02a2	0.15137723
67	0x3df2306a	0.118256405
68	0x3da09b46	0.07842116
69	0xbd29f8c4	-0.041497007
70	0xbdf3586e	-0.11882101
71	0xbcb49f89	-0.022048729
72	0x3c6da63a	0.0145049635
73	0x3e019c36	0.12657246
74	0x3cf4b591	0.029871734
75	0x3c9b8c5b	0.018987825
76	0xbdfa0539	-0.122080274
77	0xbdbb7ffe	-0.09155272
78	0x3df278ad	0.11839423
79	0x3d79c609	0.060979877
80	0x3db450f8	0.08804506
81	0x3e8fbe75	0.28074995
82	0x3e17fa12	0.14841488
83	0xbbb2f9a5	-0.005461889
84	0xbd603340	-0.054736376
85	0x3e563ee3	0.20922427
86	0x3ca02b2c	0.019551836
87	0x3d911e95	0.07085911
88	0x3deb6d18	0.11495417
89	0x3dc3d7a8	0.095626175
90	0xbd79e623	-0.06101049
91	0x3d10ebfc	0.035381302
92	0x3ddb0f37	0.106962614
93	0xbe2b7502	-0.16743854
94	0x3deec73b	0.11659094
95	0xbe0c7fba	-0.13720599
96	0xbdde5da1	-0.10857702
97	0xbc64cd73	-0.013964999
98	0x3e46bd94	0.19408256
99	0xbc8f32da	-0.017480303
100	0xbc400055	-0.011718829
101	0x3d0ea9ae	0.034829788
102	0x3d4a7b59	0.04943404
103	0xbe6083da	-0.21925297
104	0xbdc25859	-0.09489507
105	0x3ea73be4	0.3266288
106	0x3ca83463	0.020532792
107	0x3d8afc9f	0.06786465
108	0x3c953e30	0.01821813
109	0xbdfbfedb	-0.12304469
110	0x3db6a84c	0.08918819
111	0x3d3728ab	0.04471652
112	0x3c21001d	0.009826687
113	0xbc69651e	-0.0142453
114	0x3e049382	0.12946895
115	0x3db317b9	0.08744759
116	0xbc850cf9	-0.016241537
117	0x3e08c965	0.13358076
118	0x3c46892d	0.012117666
119	0x3dcde8b5	0.10054151
120	0x3db2f666	0.08738403
121	0x3e1d1c5f	0.15342854
122	0x3df5e32f	0.120062225
123	0x3dfe5956	0.12419383
124	0x3ddc9dfb	0.1077232
125	0x3df18252	0.11792435
126	0xbd9043f6	-0.070442125
127	0xbe006279	-0.12537564
128	0x3dd968f8	0.10615724
129	0x3e3f9905	0.18710716
130	0x3eba088b	0.36334643
131	0x3d75b961	0.059991244
132	0xbe48f97f	-0.19626425
133	0xbd754c5b	-0.05988727
134	0x3e02cd3b	0.12773602
135	0xbe1f6f18	-0.15569723
136	0x3e142605	0.14467628
137	0xbd9cf909	-0.07664687
138	0xbda70830	-0.081558585
139	0x3de6b770	0.11265457
140	0x3d83fa9f	0.064442866
141	0xbe055f0e	-0.13024542
142	0x3ef1d4b1	0.47232583
143	0xbe3dd172	-0.18536928
144	0x3e0c7ae5	0.13718756
145	0x3b6e19e0	0.003633134
146	0xbdd94c25	-0.106102265
147	0xbd1b5203	-0.03792001
148	0x3e1da592	0.15395191
149	0xbdc699d4	-0.09697309
150	0xbe4fd9dd	-0.20297952
151	0x3d0bb7e0	0.034110904
152	0xbdbae6bc	-0.0912604
153	0x3d90c95e	0.07069658
154	0x3d20c5b9	0.039251063
155	0x3d4c9821	0.04994977
156	0xbe21d0d2	-0.15802315
157	0x3df87733	0.121321104
158	0xbe0476ef	-0.12935995
159	0xbd048592	-0.032353945
160	0xbdf8a69b	-0.121411525
161	0x3e2263c8	0.15858376
162	0xbc971db2	-0.018446777
163	0x3e3bc4e0	0.1833682
164	0x3e6d6e6e	0.23186657
165	0xbd9c718d	-0.076388456
166	0x3c81d7e0	0.015850008
167	0xbb4c2c84	-0.0031154463
168	0x3e5d7944	0.2162829
169	0x3d36731f	0.04454338
170	0x3e504a1a	0.20340768
171	0x3d0005ea	0.03125564
172	0xbc6471f9	-0.013943189
173	0xbc9f3b62	-0.019437496
174	0xbc670974	-0.014101375
175	0x3ca6d708	0.020366207
176	0xbcaba193	-0.020951068
177	0x3cfbf0b6	0.030754428
178	0x3e0db977	0.1384028
179	0x3df70e3e	0.12063263
180	0xbce4c24e	-0.027924683
181	0xbe6520d1	-0.223758
182	0x3b36025f	0.002777241
183	0xbc689dfb	-0.014197822
184	0x3bdc23d0	0.0067181364
185	0x3dc08352	0.09400047
186	0x3bd12222	0.006382243
187	0x3cdec9bc	0.027195804
188	0x3b370b97	0.0027930492
189	0xbc70e30e	-0.014702572
190	0xbdfea791	-0.124343045
191	0x3e113fb9	0.14184465
192	0x3dc60b7d	0.0967016
193	0x3dcf68ad	0.10127387
194	0xbe4e7751	-0.20162703
195	0x3e448457	0.19191109
196	0xbe8874d3	-0.2665163
197	0x3c23b1fa	0.009991163
198	0x3e059c87	0.13047992
199	0xbd4843fa	-0.048892953
200	0xbdb97aad	-0.09056602
201	0xbce29d5f	-0.027662931
202	0xbd1be291	-0.038057867
203	0x3b39ee15	0.0028370668
204	0x3e15e7d8	0.14639223
205	0xbd7747fe	-0.06037139
206	0xbdb2a204	-0.08722308
207	0xbe05ac63	-0.13054042
208	0xbd39de41	-0.045377973
209	0x3df61955	0.120165505
210	0x3eb33241	0.34999278
211	0xbdfeb857	-0.12437504
212	0xbe6126a9	-0.21987404
213	0xbde62e59	-0.11239309
214	0x3e756788	0.23965275
215	0x3de7adde	0.113124594
216	0x3d20ccfc	0.03925799
217	0x3e169aca	0.14707485
218	0xbe5454e6	-0.20735511
219	0x3c08afd7	0.008342705
220	0x3d93a14a	0.07208498
221	0x3dc223b8	0.09479469
222	0x3c9ba062	0.018997375
223	0x3e5acbdc	0.21366829
224	0xbc02f9c9	-0.007994124
225	0xbe0b80c9	-0.13623346
226	0xbe30dc5c	-0.1727156
227	0x3da6fb94	0.081534535
228	0xbc447d2c	-0.011992734
229	0xbda68cc0	-0.08132315
230	0x3c2c4eca	0.010516832
231	0xbdb4a99c	-0.08821413
232	0x3c847c2e	0.016172495
233	0x3dfaa0d7	0.12237709
234	0xbdbe8603	-0.093029045
235	0xbd1e7ce9	-0.038693342
236	0x3d956721	0.07295061
237	0xbcf43d90	-0.029814512
238	0x3ba8306c	0.0051327255
239	0x3c932322	0.017961089
240	0x3ca7840c	0.020448707
241	0x3e07c551	0.13258864
242	0x3dcc91a6	0.09988718
243	0xbe162cd5	-0.1466554
244	0xbdda47df	-0.106582396
245	0xbd76f07b	-0.060287934
246	0x3db05d0d	0.08611498
247	0x3d0722dd	0.032992233
248	0xbd3738f1	-0.044732038
249	0x3b87e86b	0.0041475794
250	0x3da40529	0.08008797
251	0xbdeab022	-0.11459376
252	0xbcce7f60	-0.025207222
253	0x3d4fe246	0.0507529
254	0x3d8e361b	0.069439135
255	0xbca1496f	-0.019688336
